training_results/dqn_MrX_1754411332.pth (torch, 963877 bytes, 28 tensors)

feature_network.0.weight f4 [128, 229]
0	0xbd634e72	-0.055494733
1	0x3db10b70	0.0864476
2	0x3d7aa886	0.061195873
3	0x3d5f4954	0.05451329
4	0x3e61b16f	0.22040342
5	0x3d4b416c	0.049622938
6	0xbe0b15c6	-0.13582525
7	0x3e167c47	0.14695846
8	0xbbdc3226	-0.0067198453
9	0xbd9f993e	-0.077929005
10	0x3db54a05	0.08852009
11	0x3dfca6d6	0.12336509
12	0x3d339109	0.04383949
13	0xbe276ddf	-0.16350506
14	0x3e7a1958	0.2442373
15	0xbd252f15	-0.040328104
16	0x3e7b4b0b	0.24540345
17	0xbe6653c2	-0.22492889
18	0x3d10b67b	0.035330277
19	0x3e446399	0.19178618
20	0xbeaddb49	-0.33956364
21	0x3e738bc8	0.23783791
22	0xbd2c265f	-0.04202878
23	0x3e1dcfa3	0.15411238
24	0x3d029902	0.0318842
25	0xbe48fabc	-0.19626898
26	0xbdeed308	-0.11661345
27	0x3d2e3e9b	0.042540174
28	0xbe02860f	-0.12746452
29	0xbdd6ad43	-0.10482266
30	0xbdea164a	-0.114300326
31	0xbdd2bef2	-0.10290326
32	0x3dcac13f	0.0990014
33	0xbd073e3c	-0.033018336
34	0x3d8e0ab8	0.06935638
35	0x3d61625a	0.055025436
36	0x3df255cd	0.118327715
37	0x3de61edd	0.112363555
38	0xbdae41c6	-0.08508639
39	0x3c2004ec	0.0097667985
40	0x3e083e59	0.13305034
41	0xbc487645	-0.012235229
42	0xbd8237ac	-0.06358275
43	0xbda3934f	-0.07987081
44	0xbd54a069	-0.05191079
45	0xbd1f00bb	-0.038819056
46	0x3b83d2a5	0.0040229135
47	0xbbbc8a21	-0.005753771
48	0x3d550fcd	0.052017022
49	0xbc132089	-0.008979925
50	0x3e7ddee8	0.24792063
51	0xbd66a592	-0.056310244
52	0x3dcf4b6a	0.10121806
53	0xbe1e4a05	-0.15457924
54	0xbc8e2ffd	-0.017356867
55	0xbb91d415	-0.004450331
56	0xbdaf7ca2	-0.08568694
57	0xbc16aea2	-0.009196909
58	0x3cccf134	0.025017358
59	0xbc73e2fa	-0.014885658
60	0xbe0ddb83	-0.13853268
61	0x3e744017	0.23852573
62	0x3e750b4e	0.23930094
63	0x3e0c4486	0.13698015
64	0x3ddd9cd6	0.1082093
65	0x3e387983	0.18015103
66	0x3e11c4ec	0.14235276
67	0xbd9dc890	-0.0770427
68	0x3c21fdea	0.009887198
69	0xbe19607d	-0.14978214
70	0x3bfc59e0	0.0077011436
71	0x3d30d483	0.043171417
72	0x3db001e3	0.0859411
73	0x3e1f70e3	0.15570407
74	0x3e61e867	0.2206131
75	0x3e382b80	0.17985344
76	0x3d369a6d	0.044580866
77	0x3e10121b	0.14069407
78	0xbda9dd5d	-0.08294175
79	0x3d224d8e	0.039624743
80	0xbabf63ea	-0.001460192
81	0x3d1a8ea1	0.037733678
82	0xbdadbd1e	-0.08483337
83	0xbe051687	-0.12996875
84	0x3e436e7b	0.19085114
85	0x3da0795e	0.07835649
86	0xbe9c2f71	-0.30504945
87	0xbe969a23	-0.29414472
88	0xbe05acd2	-0.13054207
89	0xbe4f9b2d	-0.20274039
90	0x3dcf1536	0.101114675
91	0xbd584468	-0.052799612
92	0x3d977166	0.07394676
93	0x3daabdb6	0.08336966
94	0x3e9fe60f	0.31230208
95	0x3bdf64d2	0.0068174386
96	0x3d06d1e5	0.032915015
97	0x3dd15744	0.10221723
98	0x3d31d99c	0.04342042
99	0xbda71157	-0.08157604
100	0xbe77e79b	-0.24209444
101	0xbe0a6535	-0.1351517
102	0xbd323ffa	-0.043518044
103	0xbd0a540d	-0.033771563
104	0xbec95264	-0.39320672
105	0x3e6d16e3	0.23153262
106	0x3e000c5a	0.12504712
107	0xbdce88d9	-0.10084695
108	0x3dbd1da2	0.09234168
109	0xbd5286e8	-0.051398188
110	0xbe47f8e1	-0.19528534
111	0x3e2cf058	0.16888559
112	0x3d81cce7	0.0633791
113	0xbe6bf4dd	-0.23042627
114	0x3e1f95ab	0.15584438
115	0xbe1156ec	-0.14193314
116	0xbe126233	-0.14295273
117	0x3cee43a9	0.029084997
118	0xbcf2c3cb	-0.029634377
119	0x3da41712	0.08012213
120	0xbe12c2b9	-0.14332093
121	0xbc2b45b5	-0.010453631
122	0xbd9e059a	-0.07715912
123	0x3e8670bc	0.26257885
124	0x3d064488	0.0327802
125	0xbe014c9d	-0.12626882
126	0x3da5be4c	0.08092937
127	0x3e013b18	0.12620199
128	0x3cafb907	0.021450533
129	0xbd8409fd	-0.064472176
130	0xbded645f	-0.1159141
131	0x3eb8210d	0.35962716
132	0x3a88ed79	0.0010446749
133	0xbe636467	-0.22206269
134	0x3ca76b21	0.020436825
135	0xbd742add	-0.05961119
136	0x3dd454f5	0.10367767
137	0x3de19f1e	0.11016677
138	0x3dc6304a	0.09677179
139	0xbe003aa7	-0.12522374
140	0xbde3a8e7	-0.111162
141	0xbd38f2bc	-0.045153365
142	0xbd30f15b	-0.043198925
143	0x3d3a1cb6	0.045437537
144	0x3db810cf	0.08987581
145	0x3edec341	0.43508342
146	0xbe3ed1de	-0.18634745
147	0xbe48dddd	-0.19615884
148	0x3de0a5ca	0.10969122
149	0x3e115890	0.1419394
150	0xbce50fd0	-0.027961642
151	0x3d7f1082	0.062271602
152	0xbe23a413	-0.15980558
153	0x3dfc08e7	0.123063855
154	0xbe85db79	-0.26144007
155	0xbd18c584	-0.03729774
156	0xbd2cb110	-0.042161047
157	0xbe4943b1	-0.19654728
158	0xbe5d88ee	-0.21634266
159	0xbdd6136c	-0.10452923
160	0xbcde58bc	-0.027141921
161	0x3c9737df	0.018459259
162	0x3d275d1d	0.040860284
163	0xbb14dcf0	-0.0022714697
164	0xbde9af18	-0.114103496
165	0x3d8602c1	0.06543494
166	0x3c35b45c	0.011090364
167	0xbbc8f342	-0.006132514
168	0xbddae6e3	-0.106885694
169	0xbe00ea2d	-0.12589331
170	0xbd3e1b81	-0.04641295
171	0xbd63c54e	-0.055608086
172	0xbe5438ea	-0.20724836
173	0x3ddc010e	0.10742389
174	0xbe19553a	-0.14973918
175	0x3e217c04	0.15769964
176	0x3eb92c75	0.3616673
177	0x3dda3d5c	0.106562346
178	0xbd1a78de	-0.037712924
179	0x3e4c02e2	0.19922975
180	0x3e72bf1c	0.23705715
181	0xbda97b41	-0.08275462
182	0xbe706e90	-0.23479676
183	0xbc6e47cc	-0.014543485
184	0x3e39aed0	0.18133092
185	0xbd62e918	-0.055398077
186	0x3d94c243	0.07263615
187	0x3ea15527	0.3151028
188	0xbe7072e2	-0.23481324
189	0xbe1dcb75	-0.15409644
190	0x3b1da7a0	0.002405621
191	0x3e04fe5d	0.12987657
192	0xbe279ea9	-0.16369118
193	0x3df3082b	0.11866792
194	0x3d489b56	0.048976265
195	0x3db147a8	0.086562455
196	0xbdcab0cc	-0.098970026
197	0x3deb804a	0.114990786
198	0x3d2afea3	0.041746747
199	0xbe143096	-0.14471659
200	0x3dd0e0fb	0.101991616
201	0x3eb13ad7	0.34615204
202	0x3eadba2f	0.3393111
203	0x3e4f610d	0.20251866
204	0x3eaf0d22	0.34189707
205	0x3ea30171	0.31837037
206	0x3d0783c3	0.033084642
207	0xbc3d9a2b	-0.011572401
208	0xbc9d2fd9	-0.019187855
209	0x3c6fdb55	0.014639695
210	0xbdae5080	-0.08511448
211	0x3c9fcdcc	0.019507311
212	0xbdb62475	-0.088936724
213	0x3dac7e9e	0.08422588
214	0xbd15842f	-0.036503013
215	0xbd456c5f	-0.048199054
216	0xbcb979aa	-0.022641022
217	0xbdfaf2cd	-0.12253342
218	0x3d8f68b9	0.07002396
219	0x3d933dce	0.07189523
220	0xbd1654fe	-0.03670215
221	0x3d55eb35	0.052226264
222	0xbe03db13	-0.12876539
223	0x3d9625f7	0.0733146
224	0xbddc92f0	-0.107702136
225	0xbdf73ef1	-0.12072552
226	0xbe75b27a	-0.23993865
227	0xbe064378	-0.13111675
228	0x3dd0fd86	0.10204606
229	0x3ae7e632	0.0017692505
230	0xbc62f9f8	-0.0138535425
231	0xbe123dc1	-0.1428137
232	0xbc7c96fc	-0.015416857
233	0xb9b98360	-0.00035383832
234	0x3df051e0	0.117343664
235	0xbd4755a8	-0.048665673
236	0x3d2c6b5d	0.042094577
237	0x3cfa915e	0.030586895
238	0xbd660da6	-0.05616536
239	0xbcf542cc	-0.029939078
240	0x3db20772	0.08692826
241	0x3cd5181c	0.026012473
242	0xbe4c00d8	-0.19922197
243	0x3e820bae	0.25399536
244	0x3ccbab72	0.024862025
245	0xbddf3f5a	-0.10900755
246	0x3bbcf47b	0.005766449
247	0xbc9814c6	-0.018564593
248	0x3d35b340	0.0443604
249	0x3d92232d	0.071356155
250	0xbd9f2a45	-0.07771734
251	0xbdc97f85	-0.098387755
252	0x3e37fb10	0.17966866
253	0x3d1bd395	0.038043577
254	0x3dfe31a7	0.12411814
255	0xbc88fc6f	-0.016721932

feature_network.0.bias f4 [128]
0	0xbcfb9d1d	-0.030714566
1	0xbd8a9f1a	-0.067686275
2	0xbcbef47a	-0.023309935
3	0xbd5c32ec	-0.0537595
4	0xbd17e9bf	-0.037088152
5	0xbcb4aadd	-0.02205413
6	0xbcc442c6	-0.023957621
7	0xbd20e819	-0.039283846
8	0xbd720e34	-0.059095576
9	0xbca2c90b	-0.019871255
10	0xbd0f5612	-0.034994192
11	0xbce9ffc8	-0.028564349
12	0xbca6a7da	-0.02034371
13	0xbd3c141a	-0.045917608
14	0xbd101582	-0.03517676
15	0xbd90f33d	-0.07077644
16	0xbcf4bfcf	-0.029876618
17	0xbdc1f886	-0.0947123
18	0xbcaabde2	-0.020842496
19	0xbd096b25	-0.033549447
20	0xbd7cdf5a	-0.061736442
21	0xbd17fbb2	-0.03710527
22	0xbc7ee09a	-0.015556479
23	0xbc9a9e60	-0.018874347
24	0xbd643584	-0.0557151
25	0xbd546f6e	-0.05186408
26	0xbcb9c382	-0.022676233
27	0xbd09a3d6	-0.03360351
28	0xbd4a9b8f	-0.04946476
29	0xbcd76547	-0.02629341
30	0xbd2e24b3	-0.042515468
31	0xbc7fd39c	-0.015614416
32	0xbd48fd69	-0.049069796
33	0xbd0f4917	-0.034981813
34	0xbd12fc6d	-0.035885263
35	0xbd0e27a1	-0.03470576
36	0xbca601a7	-0.02026446
37	0xbd58eb05	-0.052958507
38	0x3d0fdf0a	0.035124816
39	0xbcd21733	-0.025645828
40	0xbcbd55b9	-0.023112165
41	0xbc54a5f4	-0.012979019
42	0x3c87c90f	0.016575364
43	0xbcd3236b	-0.025773725
44	0xbd2751af	-0.040849384
45	0xbd899a1c	-0.06718847
46	0xbd1f8300	-0.03894329
47	0x00000000	0.0
48	0xbd5edf92	-0.054412432
49	0x3baa96c2	0.00520596
50	0xbc4c9223	-0.012486014
51	0xbd23638d	-0.03988986
52	0xbca89c46	-0.02058233
53	0xbd4dcfcf	-0.05024701
54	0xbcb56e9b	-0.022147467
55	0xbc9fe1dd	-0.01951688
56	0xbce9833c	-0.02850496
57	0x00000000	0.0
58	0xbd1e00c9	-0.038574968
59	0xbad3a7a2	-0.0016147981
60	0xbd4c7b84	-0.04992248
61	0xbcba7f70	-0.022765845
62	0xbcd2d4c5	-0.025736222
63	0xbd107af7	-0.03527352
64	0xbc317cfc	-0.010833021
65	0xbd27dbdf	-0.04098117
66	0xbc2b52a3	-0.010456714
67	0xbd33645c	-0.043796882
68	0xbd0428bc	-0.03226541
69	0xbd24b727	-0.04021373
70	0xbc6e3d06	-0.014540916
71	0xbd056737	-0.032569136
72	0xbd236a22	-0.039896138
73	0xbcfada19	-0.030621575
74	0xbd4fd54f	-0.050740536
75	0xbda0ad0c	-0.07845506
76	0xbcb0dbcb	-0.02158918
77	0xbc8767fb	-0.016529074
78	0xbcd3c3e1	-0.025850238
79	0xbd01c457	-0.031681385
80	0xbd4e33c5	-0.05034234
81	0xbd3c0e34	-0.045911983
82	0xbd2348e5	-0.03986444
83	0xbd952577	-0.072825365
84	0xbca1ff14	-0.019774951
85	0xbd2e4ba6	-0.042552613
86	0xbd176ee9	-0.036971007
87	0xbc87268a	-0.016497869
88	0xbd07ce8a	-0.033155955
89	0xbd0e1f2a	-0.03469769
90	0xbcbc4bcc	-0.022985362
91	0xbd6aa15a	-0.057282783
92	0xbd823173	-0.06357088
93	0xbcaebe82	-0.021331076
94	0xbca0c620	-0.019625723
95	0x3c17831b	0.009247567
96	0xbd504bd8	-0.05085358
97	0xbd8f4ede	-0.069974646
98	0xbcabf0f9	-0.020988928
99	0x3c2c2e3e	0.010509072
100	0xbc004867	-0.007829762
101	0xbd25fb7e	-0.040523045
102	0x3d1c5e0a	0.03817562
103	0xbd57ecef	-0.05271619
104	0xbc888041	-0.016662719
105	0xbca5964f	-0.020213274
106	0xbc7b4327	-0.015335835
107	0xbbe3c56c	-0.0069510248
108	0xbb36d2f3	-0.0027896732
109	0xbd5b4f23	-0.053542268
110	0x3c924b8c	0.01785829
111	0x00000000	0.0
112	0xbcf0bfc7	-0.029388322
113	0xbcbaee08	-0.02281858
114	0xbccaa069	-0.024734693
115	0xbc00147a	-0.007817382
116	0xbc550a46	-0.013002938
117	0xbda26bde	-0.0793073
118	0xbc55c41a	-0.013047243
119	0xbd3d2a56	-0.046182953
120	0xbd3c4a43	-0.04596926
121	0xbcb8bd06	-0.02255107
122	0xbd093113	-0.033494066
123	0xbca554be	-0.02018201
124	0xbd1e7c55	-0.03869279
125	0xbb3bd303	-0.0028659708
126	0xbd7b73d5	-0.061389763
127	0xbd44abdf	-0.04801547

feature_network.3.weight f4 [128, 128]
0	0xbbcb90f7	-0.0062123495
1	0x3dbde01c	0.09271261
2	0xbe34fa9e	-0.17673728
3	0x3d67be69	0.056578074
4	0x3e4a94dd	0.1978335
5	0xbd3650e8	-0.044510752
6	0x3e025135	0.1272629
7	0x3d940e4d	0.0722929
8	0xbda4c20c	-0.08044824
9	0x3d57c0c9	0.05267409
10	0xbdd2de95	-0.102963604
11	0xbca9f17a	-0.020745028
12	0x3c1f3670	0.009717569
13	0x3dd0214d	0.101626016
14	0x3d90d6f6	0.070722505
15	0xbe067e65	-0.13134153
16	0x3daa778a	0.083235815
17	0x3e033343	0.12812524
18	0xbe094bbf	-0.13407801
19	0x3d5e5656	0.054281555
20	0x3d896aed	0.067098476
21	0x3de0fca1	0.10985685
22	0x3e0d799b	0.1381592
23	0xbc942ed1	-0.01808873
24	0x3d345e04	0.044034973
25	0x3d82f173	0.06393709
26	0xbe1183ce	-0.14210436
27	0x3e57bde6	0.21068534
28	0xbdc6cd46	-0.097071216
29	0xbe09b960	-0.13449621
30	0x3d226690	0.039648592
31	0xbdf0057f	-0.11719798
32	0xbe27d253	-0.16388826
33	0xbc89a3c0	-0.016801715
34	0x3dd11b0c	0.10210237
35	0xbe17c9ec	-0.14823121
36	0xbc5125b7	-0.01276534
37	0xbdb0239b	-0.08600541
38	0xbe3f8874	-0.18704396
39	0xbe70bbf8	-0.23509204
40	0xbdf3b337	-0.11899417
41	0xbdb5dc81	-0.088799484
42	0xbd6b413b	-0.057435255
43	0x3da01869	0.07817156
44	0xbde8f8d9	-0.11375589
45	0xbe0ac8ed	-0.1355321
46	0xbc32a467	-0.010903454
47	0x3c6eb990	0.014570609
48	0xbb91a1d9	-0.0044443426
49	0xbe864e18	-0.26231456
50	0xbda8b53d	-0.082376935
51	0x3d1b4627	0.0379087
52	0x3e496ffe	0.19671628
53	0x3c9e2eaa	0.01930936
54	0xbd4b356b	-0.04961149
55	0x3e444279	0.19165982
56	0xbdca7af4	-0.09886733
57	0xbdb64e2d	-0.089016296
58	0xbdf5d578	-0.120036066
59	0x3dfed6e7	0.12443333
60	0x3dbef16a	0.0932339
61	0x3c668f1e	0.014072208
62	0xbdee5d50	-0.11638892
63	0x3da49d89	0.0803786
64	0xbddf2a6c	-0.10896763
65	0xbd8f4ed1	-0.06997455
66	0xbe594492	-0.21217564
67	0xbe0ab0fe	-0.1354408
68	0xbd2b5fdb	-0.04183946
69	0x3ccd29e9	0.025044398
70	0x3ba690e5	0.0050831907
71	0xbe09b358	-0.1344732
72	0x3d193f77	0.03741404
73	0xbde17cac	-0.110101074
74	0xbe15e254	-0.14637119
75	0x3d08f059	0.03343234
76	0x3de4711d	0.11154387
77	0xbe5f97d9	-0.21835269
78	0x3dfa4d5c	0.122217864
79	0x3e7ce629	0.24697174
80	0x3d9631f1	0.07333744
81	0xbdc79be0	-0.09746528
82	0xbe4f50c2	-0.2024565
83	0xbc533a48	-0.012892313
84	0xbd6c9d4a	-0.05776719
85	0x3e0b036e	0.13575527
86	0xbd960053	-0.073242806
87	0xbda7d927	-0.081957154
88	0xbc4768b4	-0.012170959
89	0x3dd75df4	0.10515967
90	0x3df741da	0.12073107
91	0xbe1d485e	-0.15359637
92	0x3d8fae07	0.07015615
93	0xbe015327	-0.12629376
94	0xbdffce31	-0.124905
95	0x3db4fbaa	0.088370636
96	0x3e712728	0.23550093
97	0xbd9df5c7	-0.07712894
98	0xbdae38d9	-0.085069366
99	0x3d30fa41	0.04320741
100	0xbda86bb0	-0.08223665
101	0xbda8ce3d	-0.08242462
102	0x3d93ecb5	0.07222883
103	0x3ddf50c8	0.1090408
104	0x3de779de	0.11302541
105	0x3d8976f9	0.06712145
106	0x3e064aef	0.13114522
107	0xbe2497d8	-0.16073549
108	0x3ec090ff	0.37610623
109	0xbcfa9e18	-0.030592963
110	0xbc037ea4	-0.008025799
111	0x3dbfda5e	0.09367822
112	0x3d5cf399	0.05394325
113	0x3c7609d8	0.015016995
114	0xbdd2eff5	-0.102996744
115	0xbd6a6f41	-0.057235006
116	0x3c61ea47	0.013788766
117	0x3dd716e5	0.10502414
118	0xbc58bdae	-0.013228817
119	0xbd2ece29	-0.04267708
120	0x3e0f426b	0.1399018
121	0xbe057a8f	-0.13035034
122	0xbe42ddc3	-0.19029908
123	0xbbb517d6	-0.005526523
124	0x3d8e2740	0.0694108
125	0xbdc6340f	-0.09677898
126	0xbd2a1c1c	-0.041530713
127	0x3d25c12a	0.04046742
128	0x3d824d94	0.06362453
129	0xb9b3de1f	-0.00034307034
130	0x3d694da3	0.056958806
131	0x3d5f86a8	0.054571778
132	0xbe255b92	-0.16148213
133	0x3ddbcd37	0.10732501
134	0x3ca2cc30	0.019872755
135	0xbce60d43	-0.028082496
136	0xbe0fb1a2	-0.14032605
137	0x3de1bf5e	0.110228285
138	0xbcb1e5b1	-0.02171597
139	0x3d8997cd	0.06718407
140	0x3da64573	0.08118715
141	0xbdd03aff	-0.101675026
142	0x3c0c774c	0.0085733645
143	0xbdd21c5e	-0.10259317
144	0x3defed1c	0.11715147
145	0x3db9bd18	0.0906927
146	0xbdca4f22	-0.09878375
147	0x3be9c305	0.007133844
148	0x3e5a68a9	0.21328987
149	0xbe308515	-0.17238267
150	0xbe1a0c12	-0.15043667
151	0xbe764476	-0.24049553
152	0xbea611c6	-0.32435435
153	0xbcbc56ae	-0.02299055
154	0xbc6ad42f	-0.014332815
155	0xbdc8feb2	-0.09814204
156	0x3dab2596	0.08356778
157	0xbdaf7ac5	-0.08568338
158	0xbdc5279d	-0.09626696
159	0xbd2c8e28	-0.04212776
160	0xbd3eaace	-0.04654961
161	0xbe0af58b	-0.1357023
162	0xbd8e4faf	-0.06948792
163	0x3e3e580f	0.18588279
164	0xbcc20183	-0.023682361
165	0xbc9ebd5a	-0.0193774
166	0x3b626d1c	0.0034549898
167	0x3d727aab	0.059199017
168	0xbdc503fe	-0.09619902
169	0xbde20241	-0.11035586
170	0xbddd4e31	-0.108059295
171	0xbd3cc4a2	-0.04608596
172	0xbce35690	-0.027751237
173	0xbd7aefb6	-0.061263762
174	0xbcea8474	-0.028627612
175	0x3de54eea	0.11196692
176	0xbe726a1f	-0.23673294
177	0xbe1b3011	-0.15155055
178	0xbe1e0d9c	-0.15434879
179	0x3c0a6b76	0.008448472
180	0x3d926b56	0.07149379
181	0x3de468b1	0.11152781
182	0xbdc7f42a	-0.097633675
183	0x3d615d17	0.055020418
184	0xbd926bc8	-0.07149464
185	0xbd52f290	-0.051500857
186	0x3d20baa0	0.03924048
187	0xbe560e7b	-0.20903961
188	0x3e47eb33	0.19523315
189	0xbd11cb1f	-0.035594102
190	0x3d88c331	0.06677855
191	0xbe08dafe	-0.13364789
192	0xbe031e7d	-0.12804599
193	0xbb184914	-0.0023236917
194	0xbcf4a980	-0.02986598
195	0xbe12128b	-0.14264886
196	0x3de39a66	0.111134335
197	0xbca0b25a	-0.019616295
198	0x3e0f2366	0.13978347
199	0x3ce50e72	0.02796099
200	0x3de98bf9	0.11403651
201	0x3cceeb5d	0.025258714
202	0x3e1404ad	0.14454909
203	0xbe297152	-0.16547135
204	0x3c13178b	0.008977781
205	0xbd090aa6	-0.03345742
206	0xbc945cd2	-0.018110666
207	0x3dc4e513	0.09614005
208	0x3c08bc4a	0.008345673
209	0xbda5b2f4	-0.08090773
210	0x3aa85b38	0.0012844568
211	0x3d23c5f0	0.03998369
212	0xbc8c54f1	-0.017130347
213	0xbdb9ea1f	-0.09077858
214	0xbe22756b	-0.15865104
215	0x3d20e320	0.039279103
216	0xbce2f1f6	-0.027703267
217	0xbd6a5c2e	-0.057216816
218	0x3d48001c	0.04882823
219	0x3dde3605	0.10850147
220	0x3d04d4a5	0.032429356
221	0xbe0746a3	-0.1321054
222	0xbb777331	-0.0037757868
223	0xbe0021c6	-0.12512884
224	0xbd36de21	-0.044645432
225	0x3e539100	0.20660782
226	0xbe92dc53	-0.2868372
227	0xbe52cc42	-0.2058573
228	0x3ddf0354	0.10889307
229	0xbe295fae	-0.16540405
230	0xbe402ad4	-0.18766338
231	0x3d8106c7	0.06300121
232	0xbce37610	-0.027766258
233	0x3b369af9	0.0027863367
234	0x3e0d8297	0.13819347
235	0x3d52fb13	0.051508974
236	0x3d0f120b	0.034929316
237	0x3d3789d2	0.04480917
238	0xbeb6ee96	-0.35728902
239	0xbdc53f1a	-0.09631176
240	0xbe21c985	-0.1579953
241	0x3e227af5	0.15867217
242	0xbd83c2dd	-0.064336516
243	0xbdfb8a95	-0.12282292
244	0x3dc71f29	0.0972274
245	0xbd127cd7	-0.035763588
246	0xbd6ce4d2	-0.057835408
247	0x3d9deb3c	0.07710883
248	0xbcac8632	-0.021060083
249	0x3dc6ac6e	0.09700857
250	0x3e2075d8	0.15669954
251	0xbd8531e3	-0.06503656
252	0x3e0ef428	0.13960326
253	0xbd8e1e1c	-0.06939337
254	0x3dfbfd40	0.12304163
255	0xbd603c15	-0.0547448

feature_network.3.bias f4 [128]
0	0xbda735d8	-0.08164567
1	0xbbb874f2	-0.0056291753
2	0xbc8c1209	-0.017098444
3	0xbd8271a4	-0.063693315
4	0xbd505f16	-0.05087193
5	0x3d157069	0.036484156
6	0x3d0d9f1e	0.034575574
7	0xbd794a59	-0.06086192
8	0x3cca0cb0	0.024664253
9	0xbdab30cc	-0.08358917
10	0xbcfe4f7f	-0.031043766
11	0xbd27e777	-0.040992226
12	0xbd907980	-0.07054424
13	0xbd8c3322	-0.0684569
14	0x3d4b3cb8	0.049618453
15	0xbd658153	-0.056031536
16	0xbd9ae8a0	-0.07563901
17	0xbdbe04d7	-0.09278267
18	0x3d87f66b	0.066387974
19	0x3ce945dc	0.028475694
20	0x3d02674b	0.03183679
21	0xbda479fc	-0.08031079
22	0xbdb18987	-0.086688094
23	0xbb4c05ea	-0.0031131455
24	0xbd3f4d0a	-0.04670433
25	0xbc711397	-0.014714143
26	0x3ca6e2f6	0.020371895
27	0x3c76edc4	0.015071336
28	0xbd212bbb	-0.039348345
29	0xbd8f9792	-0.070113316
30	0xbdde7ee1	-0.10864044
31	0xbdb5b4a6	-0.088723466
32	0x3d29a99e	0.041421525
33	0xbd9babf5	-0.076011576
34	0x3ccb6845	0.024829993
35	0xbd4fb9e5	-0.050714392
36	0xbcb323ab	-0.021867594
37	0x3ce2f5f2	0.027705166
38	0xbd1c1d84	-0.038114086
39	0x3d485295	0.04890688
40	0x3dbc8b14	0.092062145
41	0x3c9b4aca	0.01895656
42	0xbdc61596	-0.09672086
43	0x3d4dfc7b	0.050289612
44	0xbd1d1a89	-0.038355384
45	0xbdafddc3	-0.085872196
46	0xbd8149f8	-0.063129365
47	0x3c348d91	0.01102008
48	0x3d0dadfd	0.034589756
49	0x3ce97e67	0.028502656
50	0xbdd12920	-0.10212922
51	0x3dcc2ed1	0.09969867
52	0xbd5257b1	-0.05135316
53	0xbddb166e	-0.106976375
54	0xbdd20ab5	-0.102559485
55	0x3d755645	0.059896726
56	0xbd409818	-0.047020048
57	0xbd86beea	-0.06579383
58	0x3d86d3ad	0.06583343
59	0xbd32673b	-0.04355548
60	0xbd8d4295	-0.06897465
61	0xbc38f2eb	-0.011288385
62	0xbda8ec11	-0.08248151
63	0xbd1c8184	-0.038209453
64	0x3d546481	0.05185366
65	0xbdb2e1d0	-0.087344766
66	0x3b879822	0.0041380087
67	0x3d4a9404	0.049457565
68	0x3d6af00a	0.057357825
69	0x3c5c375f	0.013440936
70	0x3be90089	0.0071106595
71	0xbc857ec1	-0.016295793
72	0xbd50c784	-0.050971523
73	0xbd22dfea	-0.039764322
74	0xbbe7bf62	-0.007072375
75	0xbdd82d0d	-0.10555468
76	0x3cb7fdc9	0.022459881
77	0xbdd67645	-0.10471777
78	0xbd008b46	-0.03138282
79	0x3d63cc14	0.055614546
80	0xbdb1cee6	-0.08682041
81	0x3c6f50cb	0.014606665
82	0xbca11952	-0.019665394
83	0x3d312540	0.043248415
84	0x3cf6d84e	0.030132439
85	0x3c109a9c	0.008825924
86	0x3d7345e2	0.059392817
87	0x3d95d348	0.07315689
88	0x3c588dca	0.013217399
89	0xbcfa2c06	-0.03053857
90	0xbd8712c5	-0.06595377
91	0x3d127746	0.03575828
92	0xbd8f9b4a	-0.07012041
93	0xbd351ded	-0.044217993
94	0xbc83fa83	-0.016110664
95	0x3d1f23a5	0.038852353
96	0xbdf48837	-0.119400434
97	0xbcdfb8c1	-0.027309777
98	0xbc0cd84e	-0.008596493
99	0xbda9339f	-0.08261799
100	0x3d03d5dc	0.032186374
101	0x3c18b0a3	0.009319457
102	0xbd8d2584	-0.06891921
103	0x3d608397	0.054812994
104	0xbd3b514d	-0.04573183
105	0xbcb0ef11	-0.02159837
106	0xbd6bbcb7	-0.05755302
107	0xbd989aa4	-0.0745137
108	0x3c94e6ae	0.018176403
109	0x3d71db1d	0.059046853
110	0x3b4d6408	0.003134014
111	0x3b7c69fa	0.0038515315
112	0xbd727a14	-0.059198454
113	0xbcdf7df3	-0.027281737
114	0xbdb312f1	-0.08743847
115	0xbd44649d	-0.047947515
116	0x3c358805	0.011079793
117	0xbcfe056c	-0.031008445
118	0x3db33820	0.08750939
119	0x3ce3e7e7	0.02782054
120	0x3dfd0a04	0.12355426
121	0xbd9b343c	-0.07578322
122	0xbda70d64	-0.08156851
123	0xbdfc12e5	-0.12308291
124	0xbd9ea2f7	-0.07745927
125	0x3c0525dd	0.008126703
126	0x3dfcb05c	0.123383254
127	0x3cd98fee	0.026557889

feature_network.6.weight f4 [64, 128]
0	0xbde70028	-0.11279327
1	0xbde355ab	-0.11100324
2	0x3c5b8321	0.013397963
3	0xbdc25f19	-0.09490795
4	0x3e4d7fb4	0.20068246
5	0x3d5da28a	0.054110087
6	0x3d0e7380	0.034778118
7	0x3e50cd88	0.20390904
8	0xbdb08eac	-0.086209625
9	0xbd858089	-0.06518657
10	0xbc41b369	-0.01182256
11	0xbd83f1f4	-0.06442633
12	0xbd75b569	-0.05998746
13	0xbc5ec1c9	-0.013596007
14	0x3d5c12a8	0.05372873
15	0x3dc71ab7	0.09721892
16	0xbd8f2682	-0.06989767
17	0x3c59f2dd	0.013302532
18	0x3d0c5442	0.034260042
19	0x3db2720a	0.087131575
20	0x3d8609d9	0.06544847
21	0xbdab81d3	-0.083743714
22	0x3d48401a	0.048889257
23	0x3c226506	0.009911781
24	0xbd4f7e3c	-0.050657496
25	0xbb5abb36	-0.0033375747
26	0x3d73a93d	0.05948757
27	0xbd4216ee	-0.04738515
28	0xbd3c882d	-0.046028305
29	0x3cc182db	0.023621967
30	0x3d9c9b2e	0.07646786
31	0x3df2b930	0.11851728
32	0x3ca38ccd	0.0199646
33	0xbe08928a	-0.1333715
34	0x3de333dd	0.110938765
35	0xbbc7f44e	-0.0061021214
36	0xbe2bfc9d	-0.16795583
37	0xbd72e94b	-0.059304517
38	0x3cab8eb1	0.020942064
39	0xbe843280	-0.25819778
40	0xbec7c825	-0.39019886
41	0x3d64408e	0.055725627
42	0xbdbec5bd	-0.09315059
43	0x3d902f51	0.07040275
44	0x3dc85ea5	0.09783677
45	0xbe58a80a	-0.21157852
46	0x3e36db36	0.1785706
47	0x3cf3e0ba	0.029770244
48	0x3e3efe4a	0.18651691
49	0xbc0053b6	-0.007832458
50	0xbd45e3f3	-0.048313092
51	0x3daa8fff	0.08328246
52	0xbe3d2ef6	-0.18474945
53	0x3d6d7fd8	0.05798325
54	0xbd660a7a	-0.056162335
55	0xbe45f9fe	-0.19333646
56	0xbe3b748b	-0.18306176
57	0xbd98d5c7	-0.0746265
58	0xbdc6000c	-0.09667978
59	0x3e798ad3	0.24369363
60	0xbd880588	-0.0664168
61	0xbe159218	-0.14606512
62	0x3e2977ab	0.16549556
63	0x3e1f2a9b	0.15543596
64	0xbd176ea5	-0.036970753
65	0xbb5cc0ec	-0.0033684326
66	0x3dac4db0	0.08413255
67	0x3df17be7	0.117912106
68	0xbbe0b039	-0.006856945
69	0x3e0c435a	0.13697568
70	0xbe207d20	-0.15672731
71	0xbe68621a	-0.22693673
72	0x3ddf6fd3	0.10910001
73	0x3cdd4387	0.027009739
74	0xbdbf568e	-0.09342681
75	0xbdb33e89	-0.08752162
76	0x3c433f0f	0.01191689
77	0x3cf41cc9	0.029798882
78	0x3cb4ccc7	0.022070302
79	0x3cddac1c	0.027059607
80	0xbdb82ac4	-0.08992532
81	0x3cbebc92	0.023283277
82	0x3d0e8ef4	0.0348043
83	0x3db0d1f1	0.08633793
84	0xbdb9adde	-0.09066366
85	0xbe5bd4bb	-0.21467869
86	0xbe315c69	-0.17320408
87	0xbe05056a	-0.12990347
88	0xbde2d183	-0.110751174
89	0xbd51c21f	-0.05121052
90	0x3d07b814	0.033134535
91	0x3c4427c1	0.011972369
92	0x3e2239ef	0.15842412
93	0x391ba2b8	0.0001484257
94	0xbe8d767f	-0.27629468
95	0xbe2177ba	-0.15768328
96	0xbbc71783	-0.006075801
97	0x3c346de6	0.01101253
98	0xbe88c371	-0.2671161
99	0x3dfbc7cd	0.12293968
100	0xbc56d198	-0.0131114945
101	0xbcc218a0	-0.023693383
102	0xbe0ae3c4	-0.13563448
103	0xbda7d2ea	-0.081945255
104	0x3e07ab3f	0.13248919
105	0x3d4063cc	0.046970174
106	0x3e2511e8	0.16120112
107	0xbdca29a0	-0.098712206
108	0x3dce78e5	0.100816526
109	0x3d87a626	0.06623487
110	0x3d9a63bf	0.07538556
111	0x3dbbe880	0.09175205
112	0xbdf6d0a7	-0.12051516
113	0xbe15dd73	-0.14635257
114	0x3e0fed4a	0.14055362
115	0x3d95c4fe	0.07312964
116	0xbe16a814	-0.14712554
117	0xbdb0bad7	-0.08629387
118	0x3db218db	0.08696147
119	0xbe54a1d7	-0.20764862
120	0x3cde6c07	0.02715112
121	0xbdfb60e4	-0.1227434
122	0xbdb8ef37	-0.090300016
123	0xbe22b6b3	-0.15890007
124	0xbe3235d7	-0.17403351
125	0x3d85fbf2	0.065421954
126	0x3983d780	0.00025146827
127	0xbc776f77	-0.015102259
128	0x3dd234ef	0.102640025
129	0xbdafff50	-0.08593619
130	0xbe713a94	-0.23557502
131	0x3c390260	0.01129207
132	0x3da3dcdb	0.08001109
133	0xbcea84a2	-0.028627697
134	0x3cd931a1	0.026512923
135	0xbd50051b	-0.05078612
136	0x3d2c0355	0.041995365
137	0xbe1cc8c0	-0.15310955
138	0xbd221370	-0.03956932
139	0x3dd0e608	0.10200125
140	0xbe0893c0	-0.13337612
141	0x3e277145	0.16351803
142	0xbe19f70f	-0.15035652
143	0xbdef6385	-0.11688904
144	0x3e7f8e9d	0.24956746
145	0xbd6b11c7	-0.05739
146	0xbd5c2458	-0.053745598
147	0x3d72152d	0.059102226
148	0x3cd09f97	0.025466723
149	0x3d80a714	0.062818676
150	0xbe5af6f4	-0.21383268
151	0x3c32370c	0.010877382
152	0xbd7332ea	-0.059374727
153	0x3e22e07b	0.15905945
154	0xbe12b032	-0.14325026
155	0xbe409df2	-0.18810251
156	0xbe186548	-0.14882386
157	0xbe6431ab	-0.22284572
158	0x3dedf0ff	0.11618232
159	0xbd82eca2	-0.063927904
160	0xbd6a4129	-0.057191048
161	0xbd3e6efb	-0.046492558
162	0x3db1d173	0.086825274
163	0xbdca8bec	-0.09889969
164	0xbdd7b8a7	-0.105332665
165	0xbe083278	-0.13300502
166	0x3d4e8106	0.050416015
167	0x3dc029bd	0.09382961
168	0xbd45f9c2	-0.04833389
169	0xbd21a2e5	-0.03946199
170	0x3e6b74ed	0.22993822
171	0xbd17393c	-0.036919817
172	0xbd51c73a	-0.051215388
173	0xbe51e403	-0.20497136
174	0x3d4cc6be	0.049994223
175	0xbd8297b3	-0.063765906
176	0xbe357861	-0.17721702
177	0xbe673c7a	-0.22581664
178	0x3c7ea8a4	0.015543137
179	0x3d9d8b6d	0.07692609
180	0xbce7036b	-0.028199872
181	0x3d6f8f00	0.058485985
182	0x3d4fec5c	0.05076252
183	0x3d89c739	0.06727452
184	0xbcd32da5	-0.025778601
185	0x3deedd73	0.11663332
186	0xbe0600f4	-0.13086301
187	0x3d75e254	0.060030296
188	0xbd78d480	-0.06074953
189	0xbd9e6f7b	-0.07736107
190	0x3d888686	0.06666283
191	0xbe0e9574	-0.139242
192	0x3d8f4469	0.0699547
193	0xbdc2e66b	-0.09516605
194	0x3c94661b	0.018115094
195	0x3d5ce128	0.053925663
196	0xbe77eb9c	-0.24210972
197	0xbe080118	-0.13281667
198	0xbe62c559	-0.22145595
199	0x3ce428a5	0.027851412
200	0xbe154043	-0.14575295
201	0xbdd53503	-0.10410502
202	0x3cc7afd1	0.024375828
203	0xbdc12ec0	-0.09432745
204	0xbddbbfc6	-0.10729937
205	0xbe22813f	-0.15869616
206	0xbdd6c6e7	-0.10487156
207	0xbdf20184	-0.11816695
208	0x3db1af8d	0.08676062
209	0xbc644170	-0.013931617
210	0x3c35d9f3	0.011099326
211	0xbd3c6ecc	-0.0460041
212	0x3d51b346	0.05119636
213	0x3cee2939	0.02907239
214	0x3ddc2ab4	0.107503325
215	0x3e247052	0.16058472
216	0x3dacde86	0.084408805
217	0xbe84227c	-0.2580756
218	0xbdc4adc4	-0.09603456
219	0xbe10e31b	-0.14149134
220	0x3e0916d1	0.1338761
221	0x3d9bfde3	0.076167844
222	0xbe2e9995	-0.17050774
223	0x3e0c0039	0.1367196
224	0x3d8e0abe	0.06935643
225	0xbb3f4253	-0.002918382
226	0xbe160cf6	-0.14653382
227	0xbd18b510	-0.03728205
228	0xbe90d381	-0.28286365
229	0x3c964a4e	0.018345978
230	0x3d3963cc	0.04526119
231	0x3e3b6ecd	0.18303986
232	0xbdcf58ce	-0.1012436
233	0xbe0709d3	-0.13187341
234	0xbd787c13	-0.0606652
235	0x3dd63ecd	0.10461197
236	0xbc4c2969	-0.012461045
237	0xbe4b6bb9	-0.19865312
238	0xbdb519ee	-0.08842836
239	0x3dc9b760	0.09849429
240	0x3de491f7	0.11160653
241	0x3ddf1a3b	0.10893675
242	0x3e36b827	0.17843686
243	0xbd28de19	-0.041227434
244	0x3ddf9bb6	0.109183714
245	0xbc5745ec	-0.013139229
246	0xbe13913c	-0.14410871
247	0xbe3e397c	-0.18576616
248	0x3c92a95c	0.017903022
249	0x3dfbe239	0.12299008
250	0xbe5047a7	-0.20339833
251	0xbdc82a9a	-0.097737506
252	0xbe5a241b	-0.21302836
253	0xbd88d468	-0.06681138
254	0xbe3d9df4	-0.18517286
255	0x3d76a258	0.060213417

feature_network.6.bias f4 [64]
0	0x3c57790b	0.0131514175
1	0xbcc80508	-0.024416462
2	0x3cb5b31f	0.022180138
3	0xbd2a2c18	-0.041545957
4	0xbe010997	-0.12601314
5	0x3b2581bf	0.0025254337
6	0x3df5fd40	0.12011194
7	0x3a1fbfbc	0.00060939393
8	0x3c5a4bd4	0.013323743
9	0xbd653d9f	-0.05596697
10	0xbdac8ab4	-0.08424893
11	0xbd4b5abb	-0.049647074
12	0xbca717a7	-0.02039702
13	0xbd7a3df1	-0.06109423
14	0xbce07d91	-0.027403625
15	0xbd97b70b	-0.074079596
16	0xbcad568b	-0.021159431
17	0xbd303507	-0.04301932
18	0x3adf9dad	0.0017060541
19	0x3c715455	0.014729579
20	0xbd85ac73	-0.06527033
21	0xbd2d18fd	-0.04226016
22	0x3cd73f4d	0.026275301
23	0xbe12a86f	-0.14322065
24	0x3da40430	0.08008611
25	0xbd25e357	-0.04050001
26	0x3ded66b9	0.115918584
27	0xbd2c70cb	-0.042099755
28	0x3de19f91	0.11016763
29	0xbd4e1a2c	-0.05031793
30	0x3df7da40	0.12102175
31	0xbdadc540	-0.08484888
32	0x3b15e888	0.0022874195
33	0xbd6b88a8	-0.057503372
34	0xbd8383be	-0.06421612
35	0xbd443945	-0.04790618
36	0xbcdbe469	-0.026842313
37	0x399dde3e	0.00030110957
38	0xbd4e83f4	-0.05041881
39	0x3b6c1251	0.003602166
40	0xbd2228a5	-0.039589543
41	0xbd441734	-0.04787369
42	0xbbdb3842	-0.006690056
43	0xbd18c717	-0.037299242
44	0xbd04877c	-0.03235577
45	0x3c1bfd5e	0.009520857
46	0x3deac13b	0.11462637
47	0xbd43b504	-0.04778005
48	0xbcc7a13d	-0.024368877
49	0xbc5635a1	-0.01307431
50	0xbd878ad1	-0.06618274
51	0xbd2fcdf2	-0.042921014
52	0xbd1f6d3a	-0.038922526
53	0x3db9f471	0.090798266
54	0x3dc4f7af	0.096175544
55	0xbd24785d	-0.04015385
56	0x3dca5b31	0.09880675
57	0x3c6f19c4	0.014593545
58	0xbd28842a	-0.041141666
59	0xbd2b9c69	-0.04189721
60	0xbca22284	-0.019791849
61	0xbd6610b9	-0.05616829
62	0x3cb298b8	0.021801338
63	0xbcd15e69	-0.025557714

q_network.weight f4 [1, 64]
0	0x3c400a32	0.011721181
1	0xbcc30cbe	-0.023809787
2	0x3d613f18	0.05499181
3	0xbd6be0db	-0.057587486
4	0xbd618929	-0.055062447
5	0x3dde042f	0.10840642
6	0x3db39c52	0.0877005
7	0xbd6cabc8	-0.05778101
8	0x3b5a8760	0.003334485
9	0xbe2a4278	-0.16626918
10	0xbe6496dd	-0.22323175
11	0x3bfbbaaf	0.0076821665
12	0x3e5ffed5	0.21874554
13	0x3bdcd70f	0.006739504
14	0x3d36c455	0.04462083
15	0x3e1cf16e	0.15326473
16	0x3d4602ab	0.048342388
17	0xbd8ea164	-0.069643766
18	0x3dba7ff8	0.09106439
19	0x3d0e3c83	0.034725677
20	0xbe216b4b	-0.15763585
21	0xba8f2492	-0.0010920933
22	0x3e1f6b33	0.15568237
23	0xbd4e78e0	-0.050408244
24	0xbe67130a	-0.22565857
25	0x3ccce17b	0.025009861
26	0x3e303dba	0.17211047
27	0x3d92a878	0.07161039
28	0x3e4710f8	0.19440067
29	0x3e3a8660	0.18215322
30	0x3e275928	0.16342604
31	0xbdd93500	-0.10605812
32	0x3e5754ea	0.21028486
33	0xbe330a8b	-0.1748449
34	0xbd01958d	-0.031636763
35	0x3be3eca9	0.0069557023
36	0xbe304648	-0.1721431
37	0xbd8f0e67	-0.06985169
38	0x3bfa6deb	0.007642498
39	0xbe507e1c	-0.20360607
40	0xbc752cc9	-0.014964291
41	0x3df9a7a0	0.12190175
42	0xbe3e529f	-0.18586205
43	0xbdc9d88e	-0.09855758
44	0xb8ee55f7	-0.000113647366
45	0x3db165f5	0.08662025
46	0x3e219692	0.15780094
47	0x3bbd809d	0.005783154
48	0x3da4eddb	0.0805318
49	0xbdd9e2a6	-0.10638933
50	0x3d929c04	0.07158664
51	0xbde9df7a	-0.11419578
52	0xbe5f1722	-0.21786168
53	0x3e26f2e8	0.16303599
54	0x3e45f4a5	0.19331606
55	0xbbab6eaf	-0.0052317004
56	0x3d8ab599	0.06772918
57	0x3c46e710	0.0121400505
58	0x3ca23624	0.019801207
59	0xbd2e5028	-0.04255691
60	0x3e162128	0.14661086
61	0xbdfc3aa2	-0.12315871
62	0x3c6da5b8	0.014504842
63	0x3cf792cf	0.030221371

feature_network.0.weight f4 [128, 229]
0	0xbd808ee6	-0.06277256
1	0x3db10b70	0.0864476
2	0xbd49a9e3	-0.049234282
3	0x3d45342f	0.04814547
4	0x3e7cbd49	0.24681582
5	0x3d0dd3cd	0.034625817
6	0xbe065b0c	-0.13120669
7	0x3e2b48ab	0.1672694
8	0x3d7fbe3e	0.06243729
9	0xbdcda198	-0.10040587
10	0x3d743ffa	0.059631325
11	0x3db53b1b	0.08849164
12	0xbc782cfd	-0.015147445
13	0xbe0c81a8	-0.13721335
14	0x3e7a0b75	0.24418433
15	0xbd3be902	-0.04587651
16	0x3e3f7947	0.18698607
17	0xbe290828	-0.16507018
18	0x3cf6c482	0.030123
19	0x3e15e27f	0.14637183
20	0xbe348824	-0.17630059
21	0x3e134825	0.1438299
22	0xba664c39	-0.0008785162
23	0x3dea99c4	0.1145511
24	0xbc00e4c5	-0.007867043
25	0xbe6596d7	-0.22420822
26	0xbd7fb3b0	-0.062427223
27	0x3d36e6e3	0.044653784
28	0xbe0f3b12	-0.13987377
29	0xbd32bf3b	-0.043639403
30	0xbe158386	-0.14600953
31	0xbda0d18f	-0.0785247
32	0x3d9f3b97	0.07775038
33	0xbdbde948	-0.092730105
34	0x3d462f5b	0.048385005
35	0x3da73600	0.081645966
36	0x3de301f0	0.11084354
37	0x3daca521	0.08429933
38	0xbd7d6af0	-0.06186956
39	0xbd3b71ae	-0.04576271
40	0x3e3a53c6	0.1819602
41	0xbcafb160	-0.021446884
42	0xbbe56a1a	-0.0070011737
43	0xbdfd3b78	-0.123648584
44	0xbd97ce57	-0.07412403
45	0xbda7321e	-0.08163856
46	0x3d1c6b20	0.0381881
47	0xbc2e0727	-0.010621822
48	0x3d764d97	0.06013259
49	0x3d2e99dd	0.042627204
50	0x3e6844de	0.22682521
51	0xbcd90133	-0.02648983
52	0x3c51736e	0.012783868
53	0xbe1e1849	-0.15438952
54	0xbd01e0a7	-0.031708386
55	0x3c93f0dc	0.018059187
56	0xbd063340	-0.03276372
57	0xbd002ee7	-0.03129473
58	0x3d6ccbef	0.057811674
59	0xbce50195	-0.027954856
60	0xbe4b23bb	-0.19837849
61	0x3e4dc6db	0.20095389
62	0x3e699b98	0.2281326
63	0x3e157878	0.14596736
64	0x3dc6e80a	0.09712227
65	0x3e4576ad	0.19283552
66	0x3e0283f0	0.12745643
67	0xbdbba2b6	-0.09161894
68	0xbcc757b4	-0.024333812
69	0xbe0ee144	-0.1395312
70	0xbd2fa49e	-0.0428816
71	0x3d2d3894	0.042290285
72	0x3d5896b6	0.052878104
73	0x3e265197	0.16242062
74	0x3e83352c	0.25626504
75	0x3dfab899	0.122422405
76	0x3d2dd80f	0.042442378
77	0x3d8b2882	0.067948356
78	0xbda41dad	-0.08013473
79	0x3dae8a89	0.08522517
80	0xbced6c42	-0.028982285
81	0x3cc83ab6	0.024442058
82	0xbd1be964	-0.038064376
83	0xbe21ee7a	-0.15813628
84	0x3e32192c	0.17392415
85	0x3dbbfeb6	0.09179442
86	0xbe9917e7	-0.2990105
87	0xbe82eef7	-0.2557294
88	0xbe04ef36	-0.12981877
89	0xbe3fa595	-0.18715508
90	0x3d9bb197	0.07602232
91	0xbd245150	-0.04011661
92	0x3db46210	0.088077664
93	0x3c522e83	0.012828472
94	0x3e8e18c0	0.27753258
95	0x3d04b0fd	0.03239535
96	0xbbaee041	-0.0053367917
97	0x3d3060ca	0.043061055
98	0x3db316ce	0.08744584
99	0xbdd50984	-0.104022056
100	0xbe7d4ae5	-0.24735601
101	0xbd9f8410	-0.07788861
102	0xbca263f1	-0.019823046
103	0xbd887ae1	-0.06664062
104	0xbe9b3d82	-0.30320364
105	0x3e12f9dd	0.14353128
106	0x3dea2e31	0.114345916
107	0xbe20642b	-0.15663211
108	0x3d663689	0.056204353
109	0xbcfe94d3	-0.031076824
110	0xbe23bcff	-0.15990065
111	0x3e03bc90	0.128649
112	0x3cd70152	0.026245747
113	0xbe48089e	-0.19534537
114	0x3e001500	0.12508011
115	0xbdc882d0	-0.097905755
116	0xbe117961	-0.14206459
117	0x3d41b031	0.04728717
118	0xb93c0dd7	-0.00017934233
119	0x3e0045cd	0.12526627
120	0xbe21c033	-0.15795974
121	0x3d029e41	0.031889204
122	0xbdae16bb	-0.08500429
123	0x3e806d14	0.2508322
124	0x3d991c07	0.07476049
125	0xbd56db2c	-0.052455112
126	0x3d5212c5	0.05128743
127	0x3e48e9a7	0.19620381
128	0x3d1b845e	0.037968032
129	0xbc7f3647	-0.015576906
130	0xbdc54bdc	-0.0963361
131	0x3e9e1e3e	0.30882448
132	0x3c083aec	0.008314829
133	0xbe295c7c	-0.16539186
134	0x3ccbb9f6	0.024868947
135	0x3bd9b5de	0.0066439947
136	0x3e0ec4c4	0.13942248
137	0x3dbcc369	0.09216959
138	0x3d65c1b1	0.05609292
139	0xbe1f1d1c	-0.15538448
140	0xbe4f7aa2	-0.20261624
141	0xbd034932	-0.032052226
142	0xbd5a2e9a	-0.0532671
143	0x3da71681	0.08158589
144	0x3da11e1e	0.078670725
145	0x3eabfa8a	0.33589584
146	0xbe3ddebb	-0.18541996
147	0xbdb8de88	-0.090268195
148	0x3e1ecfe7	0.15508996
149	0x3dadb1f7	0.0848121
150	0x3b33f8c5	0.002746151
151	0x3d5776bb	0.052603465
152	0xbe3cdc5c	-0.18443435
153	0x3dda9f6b	0.10674938
154	0xbe693e50	-0.22777677
155	0xbd442323	-0.04788507
156	0x3c9462fb	0.018113604
157	0xbe183190	-0.14862657
158	0xbe35c47c	-0.17750734
159	0xbd903845	-0.070419826
160	0xbd7ea5f7	-0.062169995
161	0x3b3c3223	0.0028716407
162	0x3c6ccb32	0.014452742
163	0xbc60917a	-0.013706559
164	0xbd776cad	-0.060406376
165	0xbb873589	-0.004126255
166	0x3cc7078a	0.024295587
167	0x3d48845b	0.04895435
168	0xbdf076cd	-0.117414095
169	0xbe25b8d3	-0.16183786
170	0xbcfe7683	-0.03106237
171	0xbc7a7b22	-0.015288146
172	0xbe56f9f4	-0.20993787
173	0x3dc3ec3f	0.09566545
174	0xbe046ebe	-0.1293287
175	0x3e0e0461	0.13868858
176	0x3eab6181	0.33472827
177	0x3dca2bf3	0.09871664
178	0xbdc48fab	-0.09597715
179	0x3e231e72	0.15929583
180	0x3e786730	0.24258113
181	0xbcb76117	-0.022385163
182	0xbe50fcba	-0.20408908
183	0xbd2569ac	-0.04038398
184	0x3de9404a	0.11389215
185	0xbcbac7c4	-0.022800334
186	0x3df515bb	0.119670354
187	0x3e84a342	0.25905806
188	0xbe7b4f76	-0.2454203
189	0xbe3e41e3	-0.18579821
190	0x3ddbe29b	0.10736581
191	0x3dca8144	0.09887937
192	0xbe39fb2a	-0.18162218
193	0x3e1fc7ba	0.15603533
194	0xbc26d429	-0.010182419
195	0x3df57b3b	0.11986395
196	0xbda80def	-0.082057826
197	0x3e306d59	0.17229213
198	0x3d5b56d3	0.0535496
199	0xbdfd7835	-0.12376443
200	0x3da15c14	0.07878891
201	0x3e91b61c	0.2845925
202	0x3e904064	0.28174126
203	0x3e243d0d	0.16038914
204	0x3e936d75	0.28794447
205	0x3e7b62a1	0.24549343
206	0x3d00cdf8	0.031446427
207	0xbc5ab6fb	-0.01334929
208	0xbcda99fe	-0.026684757
209	0x3c0ffedf	0.008788793
210	0xbd9d0348	-0.076666415
211	0xbc765cca	-0.015036771
212	0xbdb33be9	-0.08751661
213	0x3d8c9d73	0.068659686
214	0xbd4c2a81	-0.049845222
215	0xbd752b07	-0.059855487
216	0xbd0178f0	-0.031609476
217	0xbe11a463	-0.14222865
218	0x3d4e3a51	0.050348584
219	0x3d88be8b	0.06676968
220	0xbd80dac2	-0.06291725
221	0x3d1a2475	0.037632424
222	0xbe0b3c3d	-0.13597198
223	0x3d26a3f8	0.040683717
224	0xbdf1230f	-0.11774265
225	0xbe092c1a	-0.1339573
226	0xbe679147	-0.22614013
227	0xbe17cd4b	-0.14824407
228	0x3da1e42f	0.07904851
229	0x3af0bb56	0.0018366377
230	0xbc62f9f8	-0.0138535425
231	0xbe123dc1	-0.1428137
232	0xbc7c96fc	-0.015416857
233	0xb9b98360	-0.00035383832
234	0x3df051e0	0.117343664
235	0xbd479799	-0.04872856
236	0x3d2c6b5d	0.042094577
237	0x3cfb89a4	0.03070528
238	0xbd660da6	-0.05616536
239	0xbcf542cc	-0.029939078
240	0x3db20772	0.08692826
241	0x3cd5181c	0.026012473
242	0xbe4c00d8	-0.19922197
243	0x3e81fc90	0.25388002
244	0x3ccaef37	0.02477227
245	0xbddf3f5b	-0.10900756
246	0x3bc1a427	0.005909461
247	0xbc9814c6	-0.018564593
248	0x3d35b340	0.0443604
249	0x3d92232d	0.071356155
250	0xbd9f2a45	-0.07771734
251	0xbdc97f85	-0.098387755
252	0x3e37f02e	0.17962715
253	0x3d1bd395	0.038043577
254	0x3dfe2785	0.124098815
255	0xbc88fc6f	-0.016721932

feature_network.0.bias f4 [128]
0	0xbd294fc0	-0.04133582
1	0xbd8a643c	-0.067573994
2	0xbd4af03a	-0.049545504
3	0xbd12b458	-0.03581652
4	0xbcb35d0b	-0.021894952
5	0xbc769e03	-0.015052321
6	0xbcc442c6	-0.023957621
7	0xbd094d41	-0.03352094
8	0xbd279140	-0.040910006
9	0xbca2c90b	-0.019871255
10	0xbd023329	-0.03178707
11	0xbcfc2302	-0.030778412
12	0xbca6a7da	-0.02034371
13	0xbd334840	-0.043770075
14	0xbd101582	-0.03517676
15	0xbd6ea985	-0.058267135
16	0xbcf4bfcf	-0.029876618
17	0xbdb0c9a3	-0.08632209
18	0xbcaabde2	-0.020842496
19	0xbd096b25	-0.033549447
20	0xbd7cdf5a	-0.061736442
21	0xbd032a16	-0.03202256
22	0xbc7ee09a	-0.015556479
23	0xbca538de	-0.020168718
24	0xbd6cc44f	-0.057804402
25	0xbd1e4dbf	-0.038648363
26	0xbd36f3b9	-0.044666026
27	0xbd09a3d6	-0.03360351
28	0xbd14c1b4	-0.036317542
29	0xbcd76547	-0.02629341
30	0xbd319859	-0.04335818
31	0xbc7fd39c	-0.015614416
32	0xbd34053e	-0.04395031
33	0xbd6de80e	-0.058082633
34	0xbd29ebf9	-0.041484807
35	0xbceab436	-0.028650384
36	0xbc9443b6	-0.018098693
37	0xbd3f7d0f	-0.046750125
38	0x3d28679b	0.04111443
39	0xbd2bbaab	-0.041926067
40	0xbcbd55b9	-0.023112165
41	0xbc54a5f4	-0.012979019
42	0x3d1fa230	0.038973033
43	0xbd273172	-0.04081864
44	0xbd2494aa	-0.04018084
45	0xbd861dac	-0.06548628
46	0xbd1f8300	-0.03894329
47	0x00000000	0.0
48	0xbd3d0867	-0.04615059
49	0xba5de170	-0.0008464074
50	0x3bd9391a	0.0066291215
51	0xbd3df5da	-0.04637704
52	0xbd2a15e2	-0.041524775
53	0xbd6d5abf	-0.05794787
54	0xbcf62516	-0.03004698
55	0xbc9fe1dd	-0.01951688
56	0xbce0cc1a	-0.027441073
57	0x00000000	0.0
58	0xbd16fe76	-0.036863767
59	0x3bb4e8d7	0.0055209207
60	0xbd4c7b84	-0.04992248
61	0xbcba7f70	-0.022765845
62	0xbcd2d4c5	-0.025736222
63	0xbcf7c881	-0.030246975
64	0xbc493f40	-0.012283146
65	0xbcb66833	-0.022266483
66	0xbc48c6dc	-0.012254443
67	0xbd2d3139	-0.04228327
68	0xbcf4eaf5	-0.029897192
69	0xbd09e98f	-0.033670004
70	0xbc59864c	-0.013276648
71	0xbd3326d8	-0.043738216
72	0xbd32d062	-0.04365576
73	0xbcfada19	-0.030621575
74	0xbd4d5931	-0.050133888
75	0xbd939ee8	-0.07208043
76	0xbcb0dbcb	-0.02158918
77	0xbc64d835	-0.013967563
78	0xbcd3c3e1	-0.025850238
79	0xbcdaac5e	-0.02669352
80	0xbd454562	-0.04816187
81	0xbd6c51fd	-0.057695378
82	0xbd3884ab	-0.045048397
83	0xbd81cdc4	-0.06338075
84	0xbca1ff14	-0.019774951
85	0xbd1a8cb1	-0.03773183
86	0xbd31c948	-0.043404847
87	0xbc87268a	-0.016497869
88	0xbd2711cf	-0.040788468
89	0xbce1ad5e	-0.027548488
90	0xbcbc4bcc	-0.022985362
91	0xbda61473	-0.08109369
92	0xbd79cecc	-0.060988232
93	0xbcd24f15	-0.025672475
94	0xbca0c620	-0.019625723
95	0xbb14adcc	-0.0022686599
96	0xbd15938d	-0.03651767
97	0xbd82ae9c	-0.0638096
98	0xba875493	-0.0010324888
99	0x3c461511	0.012089984
100	0xbc004867	-0.007829762
101	0xbcbf67fd	-0.023365015
102	0x3ab6c002	0.0013942721
103	0xbd57ecef	-0.05271619
104	0xbc888041	-0.016662719
105	0xbcb33ccb	-0.021879574
106	0xbc7b4327	-0.015335835
107	0xbc4958eb	-0.012289266
108	0xbbf89d26	-0.007587093
109	0xbd0fd77a	-0.035117604
110	0x3c19cf00	0.009387732
111	0x00000000	0.0
112	0xbcd45eb1	-0.025924059
113	0xbd128afd	-0.03577708
114	0xbcd0fc29	-0.025510864
115	0xbc2c0f05	-0.010501628
116	0xbc23b677	-0.0099922335
117	0xbd931e61	-0.07183529
118	0xbd28c1c0	-0.0412004
119	0xbd5df5f0	-0.054189622
120	0xbcfc4b36	-0.030797582
121	0xbcc0f87b	-0.023555985
122	0xbd312198	-0.043244928
123	0xbcac3c81	-0.021024944
124	0xbce72ab2	-0.0282186
125	0xbc685cea	-0.014182309
126	0xbd426378	-0.047458142
127	0xbd455d33	-0.048184585

feature_network.3.weight f4 [128, 128]
0	0xbc38efaa	-0.011287609
1	0x3dbddf44	0.092711
2	0xbe4764fc	-0.19472116
3	0x3d9d91d5	0.07693831
4	0x3e68011a	0.2265667
5	0xbcc76239	-0.024338828
6	0x3e025135	0.1272629
7	0x3db89677	0.09013074
8	0xbd93bb2a	-0.07213433
9	0x3d57c0c9	0.05267409
10	0xbdb59a52	-0.08867325
11	0xbd4a80be	-0.049439184
12	0x3c1f3670	0.009717569
13	0x3dedcde5	0.11611537
14	0x3d90d6f6	0.070722505
15	0xbe0e27d3	-0.13882379
16	0x3daa778a	0.083235815
17	0x3e02f9bd	0.1279058
18	0xbe094bbf	-0.13407801
19	0x3d5e5656	0.054281555
20	0x3d896aed	0.067098476
21	0x3de12ba4	0.10994652
22	0x3e0d799b	0.1381592
23	0xbbdea985	-0.0067951106
24	0x3d21ccf3	0.039502095
25	0x3d8e28d5	0.06941382
26	0xbe16dc13	-0.14732389
27	0x3e57bde6	0.21068534
28	0xbdc1fa94	-0.09471622
29	0xbe09b960	-0.13449621
30	0x3d126c23	0.03574766
31	0xbdf0057f	-0.11719798
32	0xbe368e8e	-0.17827818
33	0xbccbea94	-0.024892129
34	0x3e122c47	0.14274703
35	0xbe4555b7	-0.19270979
36	0x3b88f9d1	0.004180171
37	0xbdd767ec	-0.105178684
38	0xbe53f6d9	-0.20699634
39	0xbe26cf1a	-0.1628994
40	0xbdf3b337	-0.11899417
41	0xbdb5dc81	-0.088799484
42	0xbd46f403	-0.04857255
43	0x3d885be3	0.06658151
44	0xbe076760	-0.13223028
45	0xbe0ac8ed	-0.1355321
46	0xbc32a467	-0.010903454
47	0x3c6eb990	0.014570609
48	0xbc9e67b8	-0.019336566
49	0xbe56e96f	-0.20987485
50	0xbdc7f435	-0.09763376
51	0x3d48bab7	0.04900619
52	0x3e3ce0f1	0.18445183
53	0x3c9e2eaa	0.01930936
54	0xbda0eaa5	-0.07857255
55	0x3e444279	0.19165982
56	0xbd54da53	-0.051966023
57	0xbdb64e2d	-0.089016296
58	0xbdf2be96	-0.11852758
59	0x3e01bd9f	0.12669991
60	0x3dbef16a	0.0932339
61	0x3c668f1e	0.014072208
62	0xbdee5d50	-0.11638892
63	0x3db1cee7	0.086820416
64	0xbdc36612	-0.09540953
65	0xbd6904c7	-0.05688932
66	0xbe7674c6	-0.24067983
67	0xbe1674f3	-0.1469305
68	0xbccbeb71	-0.02489254
69	0x3ce46886	0.027881872
70	0x3d0c3668	0.034231573
71	0xbe07d726	-0.13265666
72	0x3cc1c2db	0.023652485
73	0xbde17cac	-0.110101074
74	0xbe188ea0	-0.14898157
75	0x3d0787a9	0.03308836
76	0x3de4711d	0.11154387
77	0xbe620a9e	-0.22074363
78	0x3dfa4d5c	0.122217864
79	0x3e371c8f	0.17881988
80	0x3da831c1	0.08212615
81	0xbdc69a39	-0.096973844
82	0xbe45ae1e	-0.19304702
83	0xbc5ce601	-0.013482572
84	0xbd6c9d4a	-0.05776719
85	0x3e0ecd7b	0.13945572
86	0xbda25b55	-0.079275765
87	0xbda7d927	-0.081957154
88	0x3cc0e494	0.023546495
89	0x3de72d6f	0.11287963
90	0x3df741da	0.12073107
91	0xbe1d0fee	-0.15338108
92	0x3dbd1e14	0.092342526
93	0xbdd89668	-0.10575563
94	0xbdffce31	-0.124905
95	0x3da55be7	0.080741696
96	0x3e5d909a	0.21637192
97	0xbd9fa399	-0.07794876
98	0xbdae38d9	-0.085069366
99	0x3cb75ec7	0.02238406
100	0xbda86bb0	-0.08223665
101	0xbdb82a45	-0.08992437
102	0x3d9407ad	0.072280265
103	0x3ddf50c8	0.1090408
104	0x3de779de	0.11302541
105	0x3d628b13	0.055308413
106	0x3e064aef	0.13114522
107	0xbe2497d8	-0.16073549
108	0x3ea43c05	0.3207704
109	0xbccd1f3d	-0.02503931
110	0xbd549a76	-0.051905118
111	0x3dbfda5e	0.09367822
112	0x3d5e264a	0.054235734
113	0x3c8d3d48	0.017241135
114	0xbdaaf02e	-0.08346592
115	0xbd6ea446	-0.058262132
116	0xbcad6f4c	-0.021171235
117	0x3dcf991c	0.10136625
118	0x3d552b27	0.052043106
119	0xbd185cbb	-0.03719781
120	0x3e2e90b6	0.1704739
121	0xbdd826d9	-0.105542846
122	0xbe2eb0f8	-0.17059696
123	0xbbeffa66	-0.007323551
124	0x3d404b7c	0.046946988
125	0xbd9661eb	-0.07342895
126	0xbd6b419c	-0.057435617
127	0x3d27c6d2	0.040961094
128	0x3d888230	0.06665456
129	0xb9d575cf	-0.000407143
130	0x3d155f19	0.036467645
131	0x3d1d7c66	0.038448714
132	0xbe0a05b5	-0.1347874
133	0x3db9b90c	0.09068498
134	0x3ca2cc30	0.019872755
135	0xbcfcff7b	-0.030883541
136	0xbe118d61	-0.14214088
137	0x3de1bf5e	0.110228285
138	0xbcf85ed4	-0.030318655
139	0x3d7e7179	0.062119935
140	0x3da64573	0.08118715
141	0xbd368d51	-0.044568364
142	0x3c0c774c	0.0085733645
143	0xbdbcd5f6	-0.09220497
144	0x3defed1c	0.11715147
145	0x3db50526	0.088388726
146	0xbdca4f22	-0.09878375
147	0x3be9c305	0.007133844
148	0x3e5a68a9	0.21328987
149	0xbdd16063	-0.102234624
150	0xbe1a0c12	-0.15043667
151	0xbe5b4d5c	-0.21416229
152	0xbea57d43	-0.3232213
153	0xbcb0dfd6	-0.021591108
154	0xbb4b1ef2	-0.0030993787
155	0xbdc8feb2	-0.09814204
156	0x3d9bef03	0.07613947
157	0xbdaf7ac5	-0.08568338
158	0xbdca490c	-0.09877214
159	0xbd2c8e28	-0.04212776
160	0xbd594b20	-0.05305016
161	0xbe05f794	-0.13082725
162	0xbd9872bb	-0.07443758
163	0x3e47353c	0.19453901
164	0xbcce3120	-0.025169909
165	0xbb3b418c	-0.0028573005
166	0xbc828be7	-0.015935851
167	0x3d43aad3	0.047770333
168	0xbdc503fe	-0.09619902
169	0xbde20241	-0.11035586
170	0xbdc4b4c6	-0.09604792
171	0xbd4b3638	-0.049612254
172	0xbcfe3944	-0.031033166
173	0xbd7aefb6	-0.061263762
174	0xbcea8474	-0.028627612
175	0x3de54eea	0.11196692
176	0xbe6ffc53	-0.23436098
177	0xbe1dca44	-0.1540919
178	0xbe21ba55	-0.15793736
179	0x3b9e27a4	0.004826503
180	0x3d57e695	0.052710135
181	0x3de468b1	0.11152781
182	0xbdd4b1bb	-0.10385462
183	0x3d615d17	0.055020418
184	0xbd87be8d	-0.066281416
185	0xbd52f290	-0.051500857
186	0x3cff3a9c	0.031155877
187	0xbe34a136	-0.17639622
188	0x3e47eb33	0.19523315
189	0xbd11cb1f	-0.035594102
190	0x3d88c331	0.06677855
191	0xbe1056df	-0.14095639
192	0xbdbc1df7	-0.09185403
193	0x3cc10e7c	0.023566477
194	0xbd6d90da	-0.05799947
195	0xbe1ad5db	-0.15120642
196	0x3d5d909a	0.05409298
197	0xbd078a45	-0.03309085
198	0x3e0518cd	0.12997742
199	0x3cf57082	0.029960874
200	0x3dd95198	0.10611266
201	0x3cceeb5d	0.025258714
202	0x3e14cda6	0.14531574
203	0xbe298749	-0.16555513
204	0x3c13178b	0.008977781
205	0xbcdedb95	-0.027204314
206	0xbc945cd2	-0.018110666
207	0x3da9dcc1	0.082940586
208	0x3be3133d	0.0069297836
209	0xbda51254	-0.080601364
210	0xbc4be5a1	-0.0124448845
211	0x3d20857d	0.039189804
212	0xbc8c54f1	-0.017130347
213	0xbdad9b32	-0.08476867
214	0xbe28529c	-0.16437763
215	0x3d20e320	0.039279103
216	0x3b66ee0f	0.0035237109
217	0xbd2abe6f	-0.041685518
218	0x3d48001c	0.04882823
219	0x3e077308	0.13227475
220	0x3d2902d5	0.041262466
221	0xbddc5a4d	-0.10759411
222	0xbb777331	-0.0037757868
223	0xbdedbe63	-0.11608579
224	0xbd7111b2	-0.058854766
225	0x3e508b09	0.20365538
226	0xbe947460	-0.28995037
227	0xbe3a5efc	-0.18200296
228	0x3ddf0354	0.10889307
229	0xbe1806be	-0.14846322
230	0xbe3fa2f8	-0.18714511
231	0x3d8106c7	0.06300121
232	0xbce37610	-0.027766258
233	0x3d037eea	0.032103457
234	0x3e0d8297	0.13819347
235	0x3d52fb13	0.051508974
236	0x3ccbe270	0.024888247
237	0x3d587241	0.052843336
238	0xbebc54f6	-0.3678357
239	0xbdc53f1a	-0.09631176
240	0xbe238c59	-0.15971507
241	0x3e1b4fa8	0.15167105
242	0xbd7a7124	-0.061143056
243	0xbde83ffc	-0.11340329
244	0x3dc59363	0.096472524
245	0xbd16dfdc	-0.036834583
246	0xbd9798ca	-0.07402189
247	0x3da61303	0.08109095
248	0x3c607409	0.01369954
249	0x3d9c4f95	0.076323666
250	0x3e0c435e	0.13697574
251	0xbd851b6d	-0.06499372
252	0x3df6d11b	0.120516025
253	0xbd859872	-0.06523217
254	0x3de8c0b7	0.113648824
255	0xbd6abeb1	-0.057310764
