training_results/dqn_detectives_1753799912.pth (torch, 680323 bytes, 10 tensors)

feature_network.0.weight f4 [64, 239]
-0.14047655 -0.1085554 -0.10614189 0.010651365 -0.01711373 -0.043035723 -0.004425764 0.091143
0.12282276 -0.11338424 -0.082049996 0.013830364 -0.032978684 -0.0025660992 -0.0008126646 -0.12337485
0.05354972 0.05772671 -0.031663924 0.03149657 -0.13184416 0.05828838 -0.046767354 0.11031464
0.09642388 -0.04231836 -0.011803925 -0.11654164 0.14067757 0.020700708 0.13634786 0.038267165
-0.10849795 -0.12656346 -0.064904965 -0.11369619 -0.10320304 0.088193074 0.08867428 -0.055416286
-0.041704006 -0.01460056 0.110057056 0.087669715 -0.13944834 -0.0021908432 0.037343442 -0.04908686
-0.010999069 0.04696524 0.009960547 0.019964531 0.080196306 0.05108978 0.10180561 -0.13818847
0.09432219 0.00453791 0.050335184 -0.14048985 0.09069495 0.035807967 0.07197052 0.062439486
0.019533277 -0.08961259 -0.03902024 0.095991194 -0.027075335 0.087592006 -0.023892634 -0.007863998
-0.110129036 0.13704228 -0.09932508 0.12278849 -0.0582816 -0.09145246 0.0097011775 -0.12334137
-0.10282102 0.0990635 0.072911784 0.026225105 0.044890597 0.106188044 0.10916965 -0.00048950315
0.092279255 -0.13837151 0.05415997 0.07460162 -0.025126874 0.10178918 0.10953215 0.02164355
0.12709832 -0.046300657 -0.04621534 -0.07874678 -0.0390366 0.10346396 -0.070529565 -0.105519265
0.0010294765 0.12006095 -0.09190872 -0.04461842 0.051094756 -0.009080946 -0.045296386 -0.084144026
0.043102965 -0.081402026 0.027465299 0.012046114 -0.0005963445 0.12627846 -0.12360574 0.10618381
0.12564105 0.1380693 -0.07797599 0.09935546 0.04401733 0.011593908 0.12719816 -0.034235843
0.015156984 0.09979656 -0.013339147 0.09658505 0.07764967 -0.09587784 -0.080839574 0.06777887
0.074404925 -0.030686826 0.11317557 -0.071499385 -0.123479106 0.08104427 0.06521034 0.04639767
-0.010220945 -0.0044291764 -0.11379275 -0.058840692 0.0779625 -0.10635476 -0.11190255 0.002632469
0.10792892 0.124622285 -0.0042666197 0.008155465 0.04648426 0.034332782 0.0713772 0.1161654
0.11717948 0.10800712 -0.04924816 -0.07160418 0.114001185 0.02665782 0.079931766 0.008876637
0.021085799 -0.111641645 -0.12231639 0.10633211 0.10370411 -0.0023243576 0.054793492 -0.04855249
0.0883005 -0.10384862 -0.102308854 -0.038829446 -0.02866219 -0.0402053 -0.13019508 -0.13295223
-0.085292 -0.075295515 -0.1334262 0.1159651 0.004373178 -0.0290173 -0.1349933 -0.030508004
0.034249023 -0.115857065 -0.006905973 -0.034154333 0.06746973 0.13853505 -0.077847235 0.0022086948
0.10264586 0.10395074 0.014790475 -0.086310044 -0.13693455 0.02833721 0.053916782 -0.027371518
0.038092375 0.07275818 -0.08840063 -0.09101021 -0.08463395 0.040412962 0.11547357 -0.09950307
-0.022703536 -0.13674524 -0.044189245 0.0819546 0.0791118 -0.10245933 -0.09468198 0.019015104
0.08282396 0.04722984 0.029398471 0.1313028 0.023149252 0.025397524 -0.10992695 0.09202823
0.13173187 0.008617818 -0.107915014 0.10467601 0.13470069 -0.008483484 -0.006874755 0.04633327
0.116716504 0.041322038 0.106799945 -0.032330662 -0.13211869 -0.04609018 -0.10076187 -0.015977703
-0.08326416 -0.13500987 0.04027188 0.10265301 -0.12580007 0.12867942 -0.12456747 0.065001816
00000000: 16d9 0fbe 4b52 debd eb60 d9bd 1083 2e3c
00000010: 1832 8cbc 3a46 30bd 0006 91bb 2ea9 ba3d
00000020: 808a fb3d ff35 e8bd d409 a8bd c098 623c
00000030: a814 07bd 002c 28bb 0009 55ba f4ab fcbd
00000040: f456 5b3d d872 6c3d 08b2 01bd 8c02 013d
00000050: 2802 07be ccbf 6e3d 208f 3fbd a4ec e13d
00000060: e279 c53d 0456 2dbd 4065 41bc 62ad eebd
00000070: c80d 103e 8894 a93c c69e 0b3e 08be 1c3d
00000080: 2c34 debd da99 01be e5ec 84bd 8cd9 e8bd
00000090: 1e5c d3bd 929e b43d dc9a b53d 30fc 62bd
000000a0: d2d1 2abd 3037 6fbc 9865 e13d 2e8c b33d
000000b0: 8ccb 0ebe 4094 0fbb 70f5 183d 4e0f 49bd
000000c0: 7035 34bc a05e 403d 9031 233c a88c a33c
000000d0: f63d a43d 8443 513d 767f d03d 4781 0dbe
000000e0: fe2b c13d c0b2 943b 442c 4e3d 92dc 0fbe
000000f0: 46be b93d 60ab 123d 4865 933d 8cc0 7f3d
00000100: 4004 a03c ce86 b7bd b0d3 1fbd 0897 c43d
00000110: 18cd ddbc 7063 b33d 7cba c3bc 00d8 00bc
00000120: 558b e1bd d054 0c3e f36a cbbd 8878 fb3d
00000130: b0b8 6ebd 6d4b bbbd b0f1 1e3c 669a fcbd
00000140: d493 d2bd cee1 ca3d c652 953d 08d6 d63c
00000150: 34df 373d 1e79 d93d 5694 df3d 0052 00ba
00000160: e8fc bc3d 43b1 0dbe d8d6 5d3d bcc8 983d
00000170: e0d6 cdbc d876 d03d 6452 e03d d04d b13c
00000180: 1026 023e c2a5 3dbd 4c4c 3dbd fe45 a1bd
00000190: d8e4 1fbd eae4 d33d ce71 90bd 7c1a d8bd
000001a0: 80ef 863a 84e2 f53d a43a bcbd cec1 36bd
000001b0: bc48 513d 40c8 14bc b488 39bd b453 acbd
000001c0: bc8c 303d 1bb6 a6bd e8fe e03c 105d 453c
000001d0: 0054 1cba 244f 013e 0225 fdbd e676 d93d
000001e0: 0ca8 003e 0a62 0d3e e0b1 9fbd e07a cb3d
000001f0: 844b 343d 60f4 3d3c 3c40 023e e23a 0cbd
00000200: 0055 783c 2462 cc3d 708c 5abc 62ce c53d
00000210: ca06 9f3d 9a5b c4bd 388f a5bd a6cf 8a3d
00000220: 9c61 983d f062 fbbc 98c8 e73d 456e 92bd
00000230: 9de2 fcbd 8afa a53d 008d 853d 7c0b 3e3d
00000240: c075 27bc a022 91bb 2c0c e9bd f002 71bd
00000250: ceaa 9f3d 86d0 d9bd 2a2d e5bd 8085 2c3b
00000260: d609 dd3d f839 ff3d 00cf 8bbb 809e 053c
00000270: 4866 3e3d 88a0 0c3d 362e 923d 20e8 ed3d
00000280: ccfb ef3d d632 dd3d 70b8 49bd 36a5 92bd
00000290: 7479 e93d 8061 da3c 44b3 a33d 506f 113c
000002a0: 20bc ac3c 60a4 e4bd 0481 fabd a6c4 d93d
000002b0: d262 d43d 4054 18bb 246f 603d fade 46bd
000002c0: e4d6 b43d 96ae d4bd 4e87 d1bd a00b 1fbd
000002d0: f8cc eabc 50ae 24bd dc51 05be a124 08be
000002e0: 92ad aebd 8934 9abd e1a0 08be 1c7f ed3d
000002f0: e04c 8f3b b0b5 edbc af3b 0abe eceb f9bc
00000300: b448 0c3d 7846 edbd 804b e2bb 6ae5 0bbd
00000310: 922d 8a3d 22dc 0d3e 5f6e 9fbd c0bf 103b
00000320: fe37 d23d 20e4 d43d c053 723c 52c3 b0bd
00000330: 9238 0cbe 7023 e83c d8d7 5c3d 3c3a e0bc
00000340: c006 1c3d 3e02 953d 640b b5bd 9063 babd
00000350: 9054 adbd 1088 253d 687d ec3d 44c8 cbbd
00000360: c4fc b9bc f206 0cbe c8ff 34bd d0d7 a73d
00000370: 5e05 a23d 32d6 d1bd a0e8 c1bd 90c5 9b3c
00000380: 9c9f a93d 1474 413d 10d5 f03c 3e74 063e
00000390: 80a3 bd3c 780e d03c 6121 e1bd 4c79 bc3d
000003a0: b8e4 063e c031 0d3c 8c02 ddbd 6060 d63d
000003b0: faee 093e 50fe 0abc a045 e1bb f4c7 3d3d
000003c0: 1009 ef3d 4c41 293d eeb9 da3d 286d 04bd
000003d0: 1f4a 07be 0ec9 3cbd 3d5c cebd ace3 82bc
000003e0: 6686 aabd 0740 0abe 20f4 243d be3b d23d
000003f0: bcd1 00be 8ac4 033e 3b1d ffbd ac1f 853d

feature_network.0.bias f4 [64]
0.0 0.0 0.0 0.0 0.0 0.0 0.0 0.0
0.0 0.0 0.0 0.0 0.0 0.0 0.0 0.0
0.0 0.0 0.0 0.0 0.0 0.0 0.0 0.0
0.0 0.0 0.0 0.0 0.0 0.0 0.0 0.0
0.0 0.0 0.0 0.0 0.0 0.0 0.0 0.0
0.0 0.0 0.0 0.0 0.0 0.0 0.0 0.0
0.0 0.0 0.0 0.0 0.0 0.0 0.0 0.0
0.0 0.0 0.0 0.0 0.0 0.0 0.0 0.0
00000000: 0000 0000 0000 0000 0000 0000 0000 0000
00000010: 0000 0000 0000 0000 0000 0000 0000 0000
00000020: 0000 0000 0000 0000 0000 0000 0000 0000
00000030: 0000 0000 0000 0000 0000 0000 0000 0000
00000040: 0000 0000 0000 0000 0000 0000 0000 0000
00000050: 0000 0000 0000 0000 0000 0000 0000 0000
00000060: 0000 0000 0000 0000 0000 0000 0000 0000
00000070: 0000 0000 0000 0000 0000 0000 0000 0000
00000080: 0000 0000 0000 0000 0000 0000 0000 0000
00000090: 0000 0000 0000 0000 0000 0000 0000 0000
000000a0: 0000 0000 0000 0000 0000 0000 0000 0000
000000b0: 0000 0000 0000 0000 0000 0000 0000 0000
000000c0: 0000 0000 0000 0000 0000 0000 0000 0000
000000d0: 0000 0000 0000 0000 0000 0000 0000 0000
000000e0: 0000 0000 0000 0000 0000 0000 0000 0000
000000f0: 0000 0000 0000 0000 0000 0000 0000 0000

feature_network.3.weight f4 [32, 64]
0.003294289 0.17446223 0.077393234 0.0047913194 0.15588221 0.14974016 0.17833614 -0.23153469
0.17746636 -0.00025075674 -0.123164326 -0.030369997 -0.21471715 0.04482752 0.19743988 -0.1033082
0.060751587 0.05775112 -0.0029594898 -0.071793824 -0.17768094 -0.016198903 -0.122971624 -0.059967488
0.21874884 -0.17686275 0.098499745 -0.18305269 0.15670499 0.024851501 0.17498812 -0.24423587
-0.11787513 0.029452026 0.23440793 -0.16884798 -0.22867775 -0.21419266 0.026670247 -0.0047248304
0.12729472 -0.1800451 -0.24675024 0.16727406 -0.17325962 -0.15367186 -0.19454664 0.06618485
-0.028198779 -0.16871023 0.24016118 0.12930283 -0.20359322 -0.12165192 -0.1643812 -0.039639354
-0.17589563 0.17397895 0.17774573 -0.12578899 -0.22637495 0.11969811 0.22841972 -0.13449907
0.13526616 -0.05948496 -0.029071987 -0.14754814 0.22914097 -0.09718901 0.052286595 0.20605046
-0.031694204 0.10009721 0.23657125 -0.1662521 -0.21816802 0.10486975 -0.07754332 -0.034680814
0.17108336 -0.22060889 -0.079696834 -0.16517138 -0.23774609 -0.22538018 -0.15401146 -0.0014171898
0.083498776 0.0022552907 0.13953224 0.21365318 0.19534555 -0.15033257 0.079975575 -0.08477476
-0.0075211227 0.19147006 -0.07088396 0.14630789 0.021058857 0.07091951 0.10538077 -0.089359164
0.23143548 0.22637966 -0.03846866 0.04655376 0.102960706 0.23969927 0.14622462 -0.006388992
-0.2463598 -0.10068771 0.12527815 0.03888455 -0.03282681 -0.010996401 0.22219625 -0.13928324
0.24457201 -0.036473006 -0.14130136 -0.17385498 0.20336446 0.23517215 -0.14428765 -0.18953425
0.0038405657 -0.028645337 -0.14530647 0.17424604 0.2220509 -0.12640461 0.053648055 0.012290537
-0.06457311 -0.19606614 0.18665457 0.122484714 0.1274809 -0.057516187 0.19150254 0.14997718
-0.24940479 0.018388271 0.21446407 0.24026468 0.14183888 0.16994238 -0.07787472 0.15896288
0.10492763 0.054088563 -0.06980619 0.003387928 0.102701604 0.19218394 -0.034168392 0.12768567
-0.14224526 0.19052327 -0.019302577 -0.06425202 0.18745548 -0.111489356 -0.039137274 0.08812681
-0.2151331 -0.17970121 0.18123513 -0.08480406 0.17726594 -0.14014953 -0.21650213 -0.16932768
0.09321317 -0.13261881 0.048348665 0.06910747 -0.038822293 -0.14072245 0.06810227 -0.15577102
-0.15954682 -0.1470649 0.06705943 -0.23679656 -0.012129664 -0.13344297 0.12667096 -0.07100153
-0.066470444 -0.003985971 0.21985334 -0.17127427 -0.22904968 -0.24330169 0.14483622 -0.08239919
-0.018846095 0.15913379 -0.24766514 -0.017190069 0.07520923 0.19832101 -0.019662201 0.19772643
0.038686454 -0.015940875 -0.028241396 0.20332536 0.027611554 0.1049754 0.18847466 -0.20986253
-0.05688408 -0.10965711 0.13324311 -0.056266487 -0.106300384 -0.199662 -0.12542772 -0.16091707
-0.11775112 -0.23235056 0.22063756 0.20552033 0.206076 -0.0620645 -0.080617696 0.2238968
-0.12547612 0.18217117 -0.13516986 -0.020352155 -0.14458176 -0.11933282 0.22911519 0.19006833
0.07795003 0.18386 0.0105957985 -0.11864874 -0.23595837 -0.12515435 -0.047361225 -0.06742093
0.10265693 -0.16679227 -0.14051905 -0.12213221 0.01880747 0.23494491 0.004783094 -0.24584308
00000000: 00e5 573b 3aa6 323e 5880 9e3d 8000 9d3b
00000010: 969f 1f3e 7c55 193e c09d 363e 6e17 6dbe
00000020: beb9 353e 0078 83b9 943d fcbd 80ca f8bc
00000030: d0de 5bbe 109d 373d ae2d 4a3e 4093 d3bd
00000040: a8d6 783d 708c 6c3d 00f4 41bb a408 93bd
00000050: fef1 35be 90b3 84bc 8cd8 fbbd 78a0 75bd
00000060: b2ff 5f3e 821b 35be 3cba c93d 2a72 3bbe
00000070: 4677 203e 6095 cb3c 1630 333e f818 7abe
00000080: 8468 f1bd 6045 f13c a208 703e 7ce6 2cbe
00000090: 802a 6abe 5255 5bbe 907b da3c c0d2 9abb
000000a0: 8c59 023e be5d 38be 18ac 7cbe e449 2b3e
000000b0: f86a 31be 285c 1dbe 3c37 47be ec8b 873d
000000c0: 2001 e7bc 60c2 2cbe d0ec 753e f667 043e
000000d0: be7a 50be a424 f9bd 8c53 28be e05c 22bd
000000e0: fc1d 34be 8a27 323e fa02 363e d4ce 00be
000000f0: d6ce 67be 4824 f53d dce6 693e 20ba 09be
00000100: 3683 0a3e 80a6 73bd 6028 eebc dc16 17be
00000110: eea3 6a3e 080b c7bd 782a 563d e4fe 523e
00000120: c8d1 01bd c4ff cc3d bc3f 723e fe3d 2abe
00000130: 7067 5fbe f4c5 d63d 08cf 9ebd 780d 0ebd
00000140: 7a30 2f3e 4ce7 61be 1838 a3bd b022 29be
00000150: b673 73be 10ca 66be 2eb5 1dbe 00c1 b9ba
00000160: 6801 ab3d 80cd 133b 8ae1 0e3e e6c7 5a3e
00000170: aa08 483e c8f0 19be 3cca a33d 649e adbd
00000180: c073 f6bb ba10 443e 9c2b 91bd bcd1 153e
00000190: a083 ac3c 403e 913d e0d1 d73d f001 b7bd
000001a0: 6cfd 6c3e 12d0 673e 5091 1dbd 28af 3e3d
000001b0: 10dd d23d ba73 753e e8bb 153e c05a d1bb
000001c0: be45 7cbe 5c35 cebd ea48 003e 6845 1f3d
000001d0: 6875 06bd 402a 34bc 6a87 633e 44a0 0ebe
000001e0: 1671 7a3e b864 15bd 4eb1 10be 0a07 32be
000001f0: c63e 503e f8d0 703e 24c0 13be 4415 42be
00000200: 00b2 7b3b a0a9 eabc 38cb 14be 8e6d 323e
00000210: 5061 633e 3670 01be 10be 5b3d 405e 493c
00000220: e83e 84bd 90c5 48be 6022 3f3e 44d9 fa3d
00000230: 5a8a 023e 1896 6bbd 3e19 443e 9e93 193e
00000240: f863 7fbe 00a3 963c 789c 5b3e f207 763e
00000250: 363e 113e 6005 2e3e c87c 9fbd 2ac7 223e
00000260: 4ce4 d63d f88b 5d3d 8cf6 8ebd 0008 5e3b
00000270: 3855 d23d decb 443e 28f4 0bbd 08c0 023e
00000280: bea8 11be 8818 433e 7020 9ebc 9096 83bd
00000290: 54f4 3f3e 8854 e4bd 684e 20bd d47b b43d
000002a0: da4b 5cbe 9803 38be b495 393e c0ad adbd
000002b0: 3485 353e 5c83 0fbe bcb2 5dbe 3c64 2dbe
000002c0: 8ce6 be3d 3acd 07be 4009 463d 3888 8d3d
000002d0: 2004 1fbd 8c19 10be 3479 8b3d 7082 1fbe
000002e0: 3e60 23be 2e98 16be 7456 893d cc7a 72be
000002f0: 80bb 46bc 46a5 08be 08b6 013e 4069 91bd
00000300: a821 88bd c09c 82bb 3c21 613e 8662 2fbe
00000310: 008c 6abe 1424 79be f24f 143e e8c0 a8bd
00000320: 2063 9abc f8f3 223e ee9b 7dbe 30d2 8cbc
00000330: 4c07 9a3d aa14 4b3e a012 a1bc cc78 4a3e
00000340: b075 1e3d 7096 82bc 805a e7bc 8634 503e
00000350: a031 e23c 58fd d63d 80ff 403e 34e6 56be
00000360: 48ff 68bd e893 e0bd e270 083e b077 66bd
00000370: 04b4 d9bd 3274 4cbe 2070 00be 72c7 24be
00000380: 8027 f1bd 4eed 6dbe d0ee 613e ec73 523e
00000390: 9605 533e 5837 7ebd e41a a5bd 3445 653e
000003a0: d07c 00be 148b 3a3e f869 0abe 90b9 a6bc
000003b0: 3e0d 14be c464 f4bd 2c9d 6a3e 46a1 423e
000003c0: 44a4 9f3d cc45 3c3e 009a 2d3c 1cfe f2bd
000003d0: 129f 71be 7628 00be d8fd 41bd fc13 8abd
000003e0: cc3d d23d 98cb 2abe 3ae4 0fbe 7420 fabd
000003f0: 2012 9a3c 6695 703e 80bb 9c3b 4abe 7bbe

feature_network.3.bias f4 [32]
0.0 0.0 0.0 0.0 0.0 0.0 0.0 0.0
0.0 0.0 0.0 0.0 0.0 0.0 0.0 0.0
0.0 0.0 0.0 0.0 0.0 0.0 0.0 0.0
0.0 0.0 0.0 0.0 0.0 0.0 0.0 0.0
00000000: 0000 0000 0000 0000 0000 0000 0000 0000
00000010: 0000 0000 0000 0000 0000 0000 0000 0000
00000020: 0000 0000 0000 0000 0000 0000 0000 0000
00000030: 0000 0000 0000 0000 0000 0000 0000 0000
00000040: 0000 0000 0000 0000 0000 0000 0000 0000
00000050: 0000 0000 0000 0000 0000 0000 0000 0000
00000060: 0000 0000 0000 0000 0000 0000 0000 0000
00000070: 0000 0000 0000 0000 0000 0000 0000 0000

q_network.weight f4 [1, 32]
-0.19180869 0.12521553 -0.1129947 -0.22221905 -0.022003263 -0.19585381 -0.036795616 -0.33351177
-0.17390656 -0.27846804 0.3685841 -0.11754972 0.17959946 0.33451074 -0.32348257 -0.012702823
-0.27734458 -0.20131968 -0.23072867 0.005082488 -0.104842424 -0.22560476 0.30678308 -0.30529308
0.27934843 -0.2622377 0.053272128 0.31952685 0.29213846 -0.018979281 0.14178741 -0.10493934
00000000: 7f69 44be 8038 003e c469 e7bd 648d 63be
00000010: 3040 b4bc e78d 48be 00b7 16bd 0ec2 aabe
00000020: 9014 32be 5d93 8ebe 0eb7 bc3e e8bd f0bd
00000030: ece8 373e fe44 ab3e 829f a5be 801f 50bc
00000040: 1c00 8ebe bf26 4ebe 2344 6cbe 008b a63b
00000050: a0b7 d6bd ef04 67be ac12 9d3e 604f 9cbe
00000060: c206 8f3e 0544 86be e033 5a3d 0699 a33e
00000070: 2c93 953e 707a 9bbc b830 113e 70ea d6bd

feature_network.0.weight f4 [64, 239]
-0.14047655 -0.1085554 -0.10614189 0.010651365 -0.01711373 -0.043035723 -0.004425764 0.091143
0.12282276 -0.11338424 -0.082049996 0.013830364 -0.032978684 -0.0025660992 -0.0008126646 -0.12337485
0.05354972 0.05772671 -0.031663924 0.03149657 -0.13184416 0.05828838 -0.046767354 0.11031464
0.09642388 -0.04231836 -0.011803925 -0.11654164 0.14067757 0.020700708 0.13634786 0.038267165
-0.10849795 -0.12656346 -0.064904965 -0.11369619 -0.10320304 0.088193074 0.08867428 -0.055416286
-0.041704006 -0.01460056 0.110057056 0.087669715 -0.13944834 -0.0021908432 0.037343442 -0.04908686
-0.010999069 0.04696524 0.009960547 0.019964531 0.080196306 0.05108978 0.10180561 -0.13818847
0.09432219 0.00453791 0.050335184 -0.14048985 0.09069495 0.035807967 0.07197052 0.062439486
0.019533277 -0.08961259 -0.03902024 0.095991194 -0.027075335 0.087592006 -0.023892634 -0.007863998
-0.110129036 0.13704228 -0.09932508 0.12278849 -0.0582816 -0.09145246 0.0097011775 -0.12334137
-0.10282102 0.0990635 0.072911784 0.026225105 0.044890597 0.106188044 0.10916965 -0.00048950315
0.092279255 -0.13837151 0.05415997 0.07460162 -0.025126874 0.10178918 0.10953215 0.02164355
0.12709832 -0.046300657 -0.04621534 -0.07874678 -0.0390366 0.10346396 -0.070529565 -0.105519265
0.0010294765 0.12006095 -0.09190872 -0.04461842 0.051094756 -0.009080946 -0.045296386 -0.084144026
0.043102965 -0.081402026 0.027465299 0.012046114 -0.0005963445 0.12627846 -0.12360574 0.10618381
0.12564105 0.1380693 -0.07797599 0.09935546 0.04401733 0.011593908 0.12719816 -0.034235843
0.015156984 0.09979656 -0.013339147 0.09658505 0.07764967 -0.09587784 -0.080839574 0.06777887
0.074404925 -0.030686826 0.11317557 -0.071499385 -0.123479106 0.08104427 0.06521034 0.04639767
-0.010220945 -0.0044291764 -0.11379275 -0.058840692 0.0779625 -0.10635476 -0.11190255 0.002632469
0.10792892 0.124622285 -0.0042666197 0.008155465 0.04648426 0.034332782 0.0713772 0.1161654
0.11717948 0.10800712 -0.04924816 -0.07160418 0.114001185 0.02665782 0.079931766 0.008876637
0.021085799 -0.111641645 -0.12231639 0.10633211 0.10370411 -0.0023243576 0.054793492 -0.04855249
0.0883005 -0.10384862 -0.102308854 -0.038829446 -0.02866219 -0.0402053 -0.13019508 -0.13295223
-0.085292 -0.075295515 -0.1334262 0.1159651 0.004373178 -0.0290173 -0.1349933 -0.030508004
0.034249023 -0.115857065 -0.006905973 -0.034154333 0.06746973 0.13853505 -0.077847235 0.0022086948
0.10264586 0.10395074 0.014790475 -0.086310044 -0.13693455 0.02833721 0.053916782 -0.027371518
0.038092375 0.07275818 -0.08840063 -0.09101021 -0.08463395 0.040412962 0.11547357 -0.09950307
-0.022703536 -0.13674524 -0.044189245 0.0819546 0.0791118 -0.10245933 -0.09468198 0.019015104
0.08282396 0.04722984 0.029398471 0.1313028 0.023149252 0.025397524 -0.10992695 0.09202823
0.13173187 0.008617818 -0.107915014 0.10467601 0.13470069 -0.008483484 -0.006874755 0.04633327
0.116716504 0.041322038 0.106799945 -0.032330662 -0.13211869 -0.04609018 -0.10076187 -0.015977703
-0.08326416 -0.13500987 0.04027188 0.10265301 -0.12580007 0.12867942 -0.12456747 0.065001816
00000000: 16d9 0fbe 4b52 debd eb60 d9bd 1083 2e3c
00000010: 1832 8cbc 3a46 30bd 0006 91bb 2ea9 ba3d
00000020: 808a fb3d ff35 e8bd d409 a8bd c098 623c
00000030: a814 07bd 002c 28bb 0009 55ba f4ab fcbd
00000040: f456 5b3d d872 6c3d 08b2 01bd 8c02 013d
00000050: 2802 07be ccbf 6e3d 208f 3fbd a4ec e13d
00000060: e279 c53d 0456 2dbd 4065 41bc 62ad eebd
00000070: c80d 103e 8894 a93c c69e 0b3e 08be 1c3d
00000080: 2c34 debd da99 01be e5ec 84bd 8cd9 e8bd
00000090: 1e5c d3bd 929e b43d dc9a b53d 30fc 62bd
000000a0: d2d1 2abd 3037 6fbc 9865 e13d 2e8c b33d
000000b0: 8ccb 0ebe 4094 0fbb 70f5 183d 4e0f 49bd
000000c0: 7035 34bc a05e 403d 9031 233c a88c a33c
000000d0: f63d a43d 8443 513d 767f d03d 4781 0dbe
000000e0: fe2b c13d c0b2 943b 442c 4e3d 92dc 0fbe
000000f0: 46be b93d 60ab 123d 4865 933d 8cc0 7f3d
00000100: 4004 a03c ce86 b7bd b0d3 1fbd 0897 c43d
00000110: 18cd ddbc 7063 b33d 7cba c3bc 00d8 00bc
00000120: 558b e1bd d054 0c3e f36a cbbd 8878 fb3d
00000130: b0b8 6ebd 6d4b bbbd b0f1 1e3c 669a fcbd
00000140: d493 d2bd cee1 ca3d c652 953d 08d6 d63c
00000150: 34df 373d 1e79 d93d 5694 df3d 0052 00ba
00000160: e8fc bc3d 43b1 0dbe d8d6 5d3d bcc8 983d
00000170: e0d6 cdbc d876 d03d 6452 e03d d04d b13c
00000180: 1026 023e c2a5 3dbd 4c4c 3dbd fe45 a1bd
00000190: d8e4 1fbd eae4 d33d ce71 90bd 7c1a d8bd
000001a0: 80ef 863a 84e2 f53d a43a bcbd cec1 36bd
000001b0: bc48 513d 40c8 14bc b488 39bd b453 acbd
000001c0: bc8c 303d 1bb6 a6bd e8fe e03c 105d 453c
000001d0: 0054 1cba 244f 013e 0225 fdbd e676 d93d
000001e0: 0ca8 003e 0a62 0d3e e0b1 9fbd e07a cb3d
000001f0: 844b 343d 60f4 3d3c 3c40 023e e23a 0cbd
00000200: 0055 783c 2462 cc3d 708c 5abc 62ce c53d
00000210: ca06 9f3d 9a5b c4bd 388f a5bd a6cf 8a3d
00000220: 9c61 983d f062 fbbc 98c8 e73d 456e 92bd
00000230: 9de2 fcbd 8afa a53d 008d 853d 7c0b 3e3d
00000240: c075 27bc a022 91bb 2c0c e9bd f002 71bd
00000250: ceaa 9f3d 86d0 d9bd 2a2d e5bd 8085 2c3b
00000260: d609 dd3d f839 ff3d 00cf 8bbb 809e 053c
00000270: 4866 3e3d 88a0 0c3d 362e 923d 20e8 ed3d
00000280: ccfb ef3d d632 dd3d 70b8 49bd 36a5 92bd
00000290: 7479 e93d 8061 da3c 44b3 a33d 506f 113c
000002a0: 20bc ac3c 60a4 e4bd 0481 fabd a6c4 d93d
000002b0: d262 d43d 4054 18bb 246f 603d fade 46bd
000002c0: e4d6 b43d 96ae d4bd 4e87 d1bd a00b 1fbd
000002d0: f8cc eabc 50ae 24bd dc51 05be a124 08be
000002e0: 92ad aebd 8934 9abd e1a0 08be 1c7f ed3d
000002f0: e04c 8f3b b0b5 edbc af3b 0abe eceb f9bc
00000300: b448 0c3d 7846 edbd 804b e2bb 6ae5 0bbd
00000310: 922d 8a3d 22dc 0d3e 5f6e 9fbd c0bf 103b
00000320: fe37 d23d 20e4 d43d c053 723c 52c3 b0bd
00000330: 9238 0cbe 7023 e83c d8d7 5c3d 3c3a e0bc
00000340: c006 1c3d 3e02 953d 640b b5bd 9063 babd
00000350: 9054 adbd 1088 253d 687d ec3d 44c8 cbbd
00000360: c4fc b9bc f206 0cbe c8ff 34bd d0d7 a73d
00000370: 5e05 a23d 32d6 d1bd a0e8 c1bd 90c5 9b3c
00000380: 9c9f a93d 1474 413d 10d5 f03c 3e74 063e
00000390: 80a3 bd3c 780e d03c 6121 e1bd 4c79 bc3d
000003a0: b8e4 063e c031 0d3c 8c02 ddbd 6060 d63d
000003b0: faee 093e 50fe 0abc a045 e1bb f4c7 3d3d
000003c0: 1009 ef3d 4c41 293d eeb9 da3d 286d 04bd
000003d0: 1f4a 07be 0ec9 3cbd 3d5c cebd ace3 82bc
000003e0: 6686 aabd 0740 0abe 20f4 243d be3b d23d
000003f0: bcd1 00be 8ac4 033e 3b1d ffbd ac1f 853d

feature_network.0.bias f4 [64]
0.0 0.0 0.0 0.0 0.0 0.0 0.0 0.0
0.0 0.0 0.0 0.0 0.0 0.0 0.0 0.0
0.0 0.0 0.0 0.0 0.0 0.0 0.0 0.0
0.0 0.0 0.0 0.0 0.0 0.0 0.0 0.0
0.0 0.0 0.0 0.0 0.0 0.0 0.0 0.0
0.0 0.0 0.0 0.0 0.0 0.0 0.0 0.0
0.0 0.0 0.0 0.0 0.0 0.0 0.0 0.0
0.0 0.0 0.0 0.0 0.0 0.0 0.0 0.0
00000000: 0000 0000 0000 0000 0000 0000 0000 0000
00000010: 0000 0000 0000 0000 0000 0000 0000 0000
00000020: 0000 0000 0000 0000 0000 0000 0000 0000
00000030: 0000 0000 0000 0000 0000 0000 0000 0000
00000040: 0000 0000 0000 0000 0000 0000 0000 0000
00000050: 0000 0000 0000 0000 0000 0000 0000 0000
00000060: 0000 0000 0000 0000 0000 0000 0000 0000
00000070: 0000 0000 0000 0000 0000 0000 0000 0000
00000080: 0000 0000 0000 0000 0000 0000 0000 0000
00000090: 0000 0000 0000 0000 0000 0000 0000 0000
000000a0: 0000 0000 0000 0000 0000 0000 0000 0000
000000b0: 0000 0000 0000 0000 0000 0000 0000 0000
000000c0: 0000 0000 0000 0000 0000 0000 0000 0000
000000d0: 0000 0000 0000 0000 0000 0000 0000 0000
000000e0: 0000 0000 0000 0000 0000 0000 0000 0000
000000f0: 0000 0000 0000 0000 0000 0000 0000 0000

feature_network.3.weight f4 [32, 64]
0.003294289 0.17446223 0.077393234 0.0047913194 0.15588221 0.14974016 0.17833614 -0.23153469
0.17746636 -0.00025075674 -0.123164326 -0.030369997 -0.21471715 0.04482752 0.19743988 -0.1033082
0.060751587 0.05775112 -0.0029594898 -0.071793824 -0.17768094 -0.016198903 -0.122971624 -0.059967488
0.21874884 -0.17686275 0.098499745 -0.18305269 0.15670499 0.024851501 0.17498812 -0.24423587
-0.11787513 0.029452026 0.23440793 -0.16884798 -0.22867775 -0.21419266 0.026670247 -0.0047248304
0.12729472 -0.1800451 -0.24675024 0.16727406 -0.17325962 -0.15367186 -0.19454664 0.06618485
-0.028198779 -0.16871023 0.24016118 0.12930283 -0.20359322 -0.12165192 -0.1643812 -0.039639354
-0.17589563 0.17397895 0.17774573 -0.12578899 -0.22637495 0.11969811 0.22841972 -0.13449907
0.13526616 -0.05948496 -0.029071987 -0.14754814 0.22914097 -0.09718901 0.052286595 0.20605046
-0.031694204 0.10009721 0.23657125 -0.1662521 -0.21816802 0.10486975 -0.07754332 -0.034680814
0.17108336 -0.22060889 -0.079696834 -0.16517138 -0.23774609 -0.22538018 -0.15401146 -0.0014171898
0.083498776 0.0022552907 0.13953224 0.21365318 0.19534555 -0.15033257 0.079975575 -0.08477476
-0.0075211227 0.19147006 -0.07088396 0.14630789 0.021058857 0.07091951 0.10538077 -0.089359164
0.23143548 0.22637966 -0.03846866 0.04655376 0.102960706 0.23969927 0.14622462 -0.006388992
-0.2463598 -0.10068771 0.12527815 0.03888455 -0.03282681 -0.010996401 0.22219625 -0.13928324
0.24457201 -0.036473006 -0.14130136 -0.17385498 0.20336446 0.23517215 -0.14428765 -0.18953425
0.0038405657 -0.028645337 -0.14530647 0.17424604 0.2220509 -0.12640461 0.053648055 0.012290537
-0.06457311 -0.19606614 0.18665457 0.122484714 0.1274809 -0.057516187 0.19150254 0.14997718
-0.24940479 0.018388271 0.21446407 0.24026468 0.14183888 0.16994238 -0.07787472 0.15896288
0.10492763 0.054088563 -0.06980619 0.003387928 0.102701604 0.19218394 -0.034168392 0.12768567
-0.14224526 0.19052327 -0.019302577 -0.06425202 0.18745548 -0.111489356 -0.039137274 0.08812681
-0.2151331 -0.17970121 0.18123513 -0.08480406 0.17726594 -0.14014953 -0.21650213 -0.16932768
0.09321317 -0.13261881 0.048348665 0.06910747 -0.038822293 -0.14072245 0.06810227 -0.15577102
-0.15954682 -0.1470649 0.06705943 -0.23679656 -0.012129664 -0.13344297 0.12667096 -0.07100153
-0.066470444 -0.003985971 0.21985334 -0.17127427 -0.22904968 -0.24330169 0.14483622 -0.08239919
-0.018846095 0.15913379 -0.24766514 -0.017190069 0.07520923 0.19832101 -0.019662201 0.19772643
0.038686454 -0.015940875 -0.028241396 0.20332536 0.027611554 0.1049754 0.18847466 -0.20986253
-0.05688408 -0.10965711 0.13324311 -0.056266487 -0.106300384 -0.199662 -0.12542772 -0.16091707
-0.11775112 -0.23235056 0.22063756 0.20552033 0.206076 -0.0620645 -0.080617696 0.2238968
-0.12547612 0.18217117 -0.13516986 -0.020352155 -0.14458176 -0.11933282 0.22911519 0.19006833
0.07795003 0.18386 0.0105957985 -0.11864874 -0.23595837 -0.12515435 -0.047361225 -0.06742093
0.10265693 -0.16679227 -0.14051905 -0.12213221 0.01880747 0.23494491 0.004783094 -0.24584308
00000000: 00e5 573b 3aa6 323e 5880 9e3d 8000 9d3b
00000010: 969f 1f3e 7c55 193e c09d 363e 6e17 6dbe
00000020: beb9 353e 0078 83b9 943d fcbd 80ca f8bc
00000030: d0de 5bbe 109d 373d ae2d 4a3e 4093 d3bd
00000040: a8d6 783d 708c 6c3d 00f4 41bb a408 93bd
00000050: fef1 35be 90b3 84bc 8cd8 fbbd 78a0 75bd
00000060: b2ff 5f3e 821b 35be 3cba c93d 2a72 3bbe
00000070: 4677 203e 6095 cb3c 1630 333e f818 7abe
00000080: 8468 f1bd 6045 f13c a208 703e 7ce6 2cbe
00000090: 802a 6abe 5255 5bbe 907b da3c c0d2 9abb
000000a0: 8c59 023e be5d 38be 18ac 7cbe e449 2b3e
000000b0: f86a 31be 285c 1dbe 3c37 47be ec8b 873d
000000c0: 2001 e7bc 60c2 2cbe d0ec 753e f667 043e
000000d0: be7a 50be a424 f9bd 8c53 28be e05c 22bd
000000e0: fc1d 34be 8a27 323e fa02 363e d4ce 00be
000000f0: d6ce 67be 4824 f53d dce6 693e 20ba 09be
00000100: 3683 0a3e 80a6 73bd 6028 eebc dc16 17be
00000110: eea3 6a3e 080b c7bd 782a 563d e4fe 523e
00000120: c8d1 01bd c4ff cc3d bc3f 723e fe3d 2abe
00000130: 7067 5fbe f4c5 d63d 08cf 9ebd 780d 0ebd
00000140: 7a30 2f3e 4ce7 61be 1838 a3bd b022 29be
00000150: b673 73be 10ca 66be 2eb5 1dbe 00c1 b9ba
00000160: 6801 ab3d 80cd 133b 8ae1 0e3e e6c7 5a3e
00000170: aa08 483e c8f0 19be 3cca a33d 649e adbd
00000180: c073 f6bb ba10 443e 9c2b 91bd bcd1 153e
00000190: a083 ac3c 403e 913d e0d1 d73d f001 b7bd
000001a0: 6cfd 6c3e 12d0 673e 5091 1dbd 28af 3e3d
000001b0: 10dd d23d ba73 753e e8bb 153e c05a d1bb
000001c0: be45 7cbe 5c35 cebd ea48 003e 6845 1f3d
000001d0: 6875 06bd 402a 34bc 6a87 633e 44a0 0ebe
000001e0: 1671 7a3e b864 15bd 4eb1 10be 0a07 32be
000001f0: c63e 503e f8d0 703e 24c0 13be 4415 42be
00000200: 00b2 7b3b a0a9 eabc 38cb 14be 8e6d 323e
00000210: 5061 633e 3670 01be 10be 5b3d 405e 493c
00000220: e83e 84bd 90c5 48be 6022 3f3e 44d9 fa3d
00000230: 5a8a 023e 1896 6bbd 3e19 443e 9e93 193e
00000240: f863 7fbe 00a3 963c 789c 5b3e f207 763e
00000250: 363e 113e 6005 2e3e c87c 9fbd 2ac7 223e
00000260: 4ce4 d63d f88b 5d3d 8cf6 8ebd 0008 5e3b
00000270: 3855 d23d decb 443e 28f4 0bbd 08c0 023e
00000280: bea8 11be 8818 433e 7020 9ebc 9096 83bd
00000290: 54f4 3f3e 8854 e4bd 684e 20bd d47b b43d
000002a0: da4b 5cbe 9803 38be b495 393e c0ad adbd
000002b0: 3485 353e 5c83 0fbe bcb2 5dbe 3c64 2dbe
000002c0: 8ce6 be3d 3acd 07be 4009 463d 3888 8d3d
000002d0: 2004 1fbd 8c19 10be 3479 8b3d 7082 1fbe
000002e0: 3e60 23be 2e98 16be 7456 893d cc7a 72be
000002f0: 80bb 46bc 46a5 08be 08b6 013e 4069 91bd
00000300: a821 88bd c09c 82bb 3c21 613e 8662 2fbe
00000310: 008c 6abe 1424 79be f24f 143e e8c0 a8bd
00000320: 2063 9abc f8f3 223e ee9b 7dbe 30d2 8cbc
00000330: 4c07 9a3d aa14 4b3e a012 a1bc cc78 4a3e
00000340: b075 1e3d 7096 82bc 805a e7bc 8634 503e
00000350: a031 e23c 58fd d63d 80ff 403e 34e6 56be
00000360: 48ff 68bd e893 e0bd e270 083e b077 66bd
00000370: 04b4 d9bd 3274 4cbe 2070 00be 72c7 24be
00000380: 8027 f1bd 4eed 6dbe d0ee 613e ec73 523e
00000390: 9605 533e 5837 7ebd e41a a5bd 3445 653e
000003a0: d07c 00be 148b 3a3e f869 0abe 90b9 a6bc
000003b0: 3e0d 14be c464 f4bd 2c9d 6a3e 46a1 423e
000003c0: 44a4 9f3d cc45 3c3e 009a 2d3c 1cfe f2bd
000003d0: 129f 71be 7628 00be d8fd 41bd fc13 8abd
000003e0: cc3d d23d 98cb 2abe 3ae4 0fbe 7420 fabd
000003f0: 2012 9a3c 6695 703e 80bb 9c3b 4abe 7bbe

feature_network.3.bias f4 [32]
0.0 0.0 0.0 0.0 0.0 0.0 0.0 0.0
0.0 0.0 0.0 0.0 0.0 0.0 0.0 0.0
0.0 0.0 0.0 0.0 0.0 0.0 0.0 0.0
0.0 0.0 0.0 0.0 0.0 0.0 0.0 0.0
00000000: 0000 0000 0000 0000 0000 0000 0000 0000
00000010: 0000 0000 0000 0000 0000 0000 0000 0000
00000020: 0000 0000 0000 0000 0000 0000 0000 0000
00000030: 0000 0000 0000 0000 0000 0000 0000 0000
00000040: 0000 0000 0000 0000 0000 0000 0000 0000
00000050: 0000 0000 0000 0000 0000 0000 0000 0000
00000060: 0000 0000 0000 0000 0000 0000 0000 0000
00000070: 0000 0000 0000 0000 0000 0000 0000 0000

q_network.weight f4 [1, 32]
-0.19180869 0.12521553 -0.1129947 -0.22221905 -0.022003263 -0.19585381 -0.036795616 -0.33351177
-0.17390656 -0.27846804 0.3685841 -0.11754972 0.17959946 0.33451074 -0.32348257 -0.012702823
-0.27734458 -0.20131968 -0.23072867 0.005082488 -0.104842424 -0.22560476 0.30678308 -0.30529308
0.27934843 -0.2622377 0.053272128 0.31952685 0.29213846 -0.018979281 0.14178741 -0.10493934
00000000: 7f69 44be 8038 003e c469 e7bd 648d 63be
00000010: 3040 b4bc e78d 48be 00b7 16bd 0ec2 aabe
00000020: 9014 32be 5d93 8ebe 0eb7 bc3e e8bd f0bd
00000030: ece8 373e fe44 ab3e 829f a5be 801f 50bc
00000040: 1c00 8ebe bf26 4ebe 2344 6cbe 008b a63b
00000050: a0b7 d6bd ef04 67be ac12 9d3e 604f 9cbe
00000060: c206 8f3e 0544 86be e033 5a3d 0699 a33e
00000070: 2c93 953e 707a 9bbc b830 113e 70ea d6bd
