training_results/dqn_MrX_1754411567.pth (torch, 922021 bytes, 28 tensors)

feature_network.0.weight f4 [128, 229]
000000 d1 4f 65 bc 6c c1 d0 bd b1 12 b4 3d 8b 24 47 3b
       -0.0139960805 -0.10193142 0.087926276 0.0030386772
000010 cd c3 e9 3d 7a 4a 96 3b a8 56 9e bd de e6 1d 3e
       0.11414299 0.004586515 -0.07731372 0.154201
000020 11 e2 9e 3d 89 76 e4 bd 60 61 07 3e 31 b2 f4 bd
       0.077579625 -0.11155421 0.1322074 -0.1194805
000030 f0 ee 98 bc 04 91 2f bc 0d 45 ba bd ae 7f 8c 3d
       -0.018668622 -0.010715727 -0.09095202 0.068602905
000040 28 a6 0c 3d 01 6f f8 bd 9c 0f 99 bc b7 6d ef 3c
       0.034338146 -0.12130547 -0.018684201 0.02922712
000050 ee f3 02 3e 37 43 07 3d c9 b6 12 bc 6a 5a 27 3e
       0.12788364 0.033023085 -0.008954712 0.16343084
000060 71 e5 35 3d 1b fd cc 3d 1b c3 19 3d 7e 34 17 bd
       0.044408266 0.100092135 0.037539583 -0.036915295
000070 c3 59 b2 bc 5d 9c 1d 3e 60 4d ba 3d 76 da 10 bd
       -0.021771317 0.15391679 0.09096789 -0.03536459
000080 67 d4 10 be 90 b3 cf 3d 40 fb c7 bd b9 ee b7 3d
       -0.14143525 0.10141671 -0.09764719 0.089810796
000090 e4 0e 42 bd 5d b5 06 3d 74 94 e9 3d 2f 32 19 bd
       -0.047377482 0.032887805 0.11405268 -0.037401374
0000a0 9a 88 fd bc de cd 04 3c 39 60 30 be 42 ec 44 bd
       -0.030948926 0.008105723 -0.17224206 -0.048076876
0000b0 91 88 33 3e 59 f1 5e 3c 91 fe b1 3d d3 f8 b2 bd
       0.17532565 0.013607346 0.08691133 -0.08738866
0000c0 d9 e1 b6 bd 2f 88 0c be 7f 8c 92 bc f3 91 6a 3d
       -0.08929796 -0.13723825 -0.01788926 0.057268094
0000d0 8b 2c 1a 3d 3f f8 95 3d f0 52 a4 3c 81 1f a5 3d
       0.037640136 0.0732274 0.020059079 0.080626495
0000e0 68 8f 4f 3c 93 79 6e bd 22 bb 9c bd fc eb f8 bd
       0.012668468 -0.05822141 -0.0765288 -0.121543854
0000f0 45 67 e2 3d b0 bd 95 bd 07 f2 01 be 2a 5d bb bc
       0.11054853 -0.07311571 -0.12689982 -0.022871573
000100 8f 43 bd 3b 82 c5 47 bc d5 c3 aa 3d e6 bd a3 bd
       0.005775876 -0.012193086 0.08338133 -0.07995205
000110 8e 7d 0a bc 44 fb 09 bd 8f d4 da 3a 63 a0 c1 bd
       -0.008452786 -0.03368689 0.0016695427 -0.094544195
000120 d7 19 cd 3d 57 4c 87 bc 53 d2 a8 bd ac 76 10 3d
       0.10014694 -0.016515894 -0.08243241 0.035269424
000130 3f e1 33 bd 21 5a ae 3d ea 62 83 3c 60 54 81 bd
       -0.043915983 0.085132845 0.016038377 -0.063149214
000140 03 ed 93 3b 37 b5 a7 3d 68 e1 77 3d c3 1f 04 be
       0.004514338 0.08188861 0.0605177 -0.12902741
000150 d5 e2 de 3d d6 35 94 3b 08 1e 3a 3d 0a 3f 7e 3d
       0.108831085 0.0045230193 0.045438796 0.062071837
000160 58 12 06 3e d2 bf 0d bd 1f ff dc bc 6a d0 9b 3c
       0.13092935 -0.034606762 -0.02697712 0.019020278
000170 ec 01 72 be c7 1e 02 3d 74 f4 83 3b 86 13 9e 3c
       -0.23633546 0.031767633 0.004026944 0.019296419
000180 4f 32 4d bb 81 10 f4 bd 1d cb 16 3d 88 c5 7e 3d
       -0.0031310504 -0.1191721 0.036814798 0.0622001
000190 6c be c2 3d c5 e0 e5 3d c9 86 b5 bd f0 1d f1 3d
       0.09508976 0.11224512 -0.08863599 0.11773288
0001a0 6a 30 81 3a 9e d4 03 3d 41 55 3d bd 74 36 8f bd
       0.0009856347 0.03218519 -0.046223883 -0.06992808
0001b0 e3 42 86 bd ad 21 ba 3d a4 c9 ba bd 6e 7d 49 bc
       -0.065557264 0.090884544 -0.09120491 -0.012297971
0001c0 1b 42 55 bc 7f 64 f0 3b 20 42 a5 bc 9b a1 3c 3c
       -0.013016249 0.007336199 -0.020173132 0.011513139
0001d0 31 85 b2 3c 39 a3 e5 bc b2 60 06 3e f8 d2 e8 3c
       0.021792026 -0.028031932 0.13122824 0.02842091
0001e0 29 08 11 3d 57 81 a3 39 d4 3b 95 3d fb 38 8f 3d
       0.035408173 0.00031186148 0.07286802 0.0699329
0001f0 ed 39 d4 3d ac da 54 3e aa ef 0d 3e b6 94 ce bc
       0.10362611 0.20786542 0.13860956 -0.025217395
000200 07 17 27 3d c7 85 92 bc f7 82 98 3c 97 2d 4b bc
       0.040793445 -0.017886056 0.018617136 -0.012401006
000210 8b bd 92 bd 92 c4 7d 3d 97 7e 33 3e 97 87 19 3c
       -0.07165059 0.061955042 0.17528759 0.009370706
000220 aa b2 dc bd 81 7f 46 bd 51 62 9a bc 13 a1 dd bd
       -0.10776265 -0.04846144 -0.018845709 -0.10821738
000230 e6 b5 ea 3d d9 b4 3e bd a2 68 2e 3e 15 c8 2f 3e
       0.114604756 -0.04655919 0.17032102 0.17166169
000240 be a5 0c 3e ff e8 28 3e 65 76 15 3e f9 41 17 3e
       0.137351 0.16495131 0.14595945 0.1477126
000250 02 e9 d9 bd e4 af 5d 3d 41 b0 3f 3d ff 42 a1 3d
       -0.10640146 0.05412282 0.04679895 0.078741066
000260 60 e9 44 3d be 7e c2 3d a3 22 27 be fb 6e 43 bc
       0.048074126 0.094968304 -0.16321807 -0.011928315
000270 92 d1 c6 3d 66 02 41 3d 86 3f 82 3d 3f 71 2d 3d
       0.09707941 0.047121428 0.063597724 0.042344328
000280 e8 df d1 39 37 35 be 3c 49 9d cd 3b d6 cb e5 3c
       0.0004003041 0.023218734 0.0062748534 0.028051298
000290 ce c6 a3 3d 52 52 ff bd 5b 60 ac 3c e4 77 c3 bc
       0.07996903 -0.12466873 0.02104204 -0.02386088
0002a0 36 0e 14 3c b9 e8 a0 3d 5a a6 81 3d de e1 9c ba
       0.009036591 0.07856888 0.06330557 -0.0011969169
0002b0 db 52 a7 bd 51 c6 65 bc a4 1a 9f 3d 68 7a a1 bc
       -0.081701 -0.014024333 0.07768753 -0.019711688
0002c0 55 03 37 bd 9b fa ea 3d 70 68 b7 bd 70 12 f3 bd
       -0.044680912 0.114735804 -0.08955467 -0.11868751
0002d0 7b 8b dc 3d 2c e1 a9 3d fc f4 00 3d f3 1e b1 bd
       0.10768791 0.08294901 0.031483635 -0.08648481
0002e0 97 09 08 bd 3c 40 a0 3d a3 53 64 bd 5c b9 95 bd
       -0.03321227 0.07824752 -0.055743825 -0.07310745
0002f0 f3 2a 98 3d f8 c5 54 be d9 3e 4d bd b2 43 68 3b
       0.07430067 -0.20778644 -0.050108764 0.003544074
000300 f7 0c f7 3c 86 eb 02 bd b6 66 3e ba fd 89 da bc
       0.03015755 -0.031962894 -0.000726323 -0.026677126
000310 b2 fe 57 3c 99 08 d1 3d 3d 5c 15 3e 25 ba 91 bd
       0.013183283 0.10206718 0.14585967 -0.071155824
000320 53 76 ef bd 22 2d 3d bd 63 45 71 bd ef 7a 08 be
       -0.116924904 -0.04618562 -0.058904063 -0.13328145
000330 c5 64 3c be 1c e1 31 bb bd b2 80 3d eb 5f 3d 3d
       -0.18397816 -0.0027142232 0.062840916 0.046234053
000340 21 62 09 be 43 dc 25 be b4 95 ea bd b3 ff 15 be
       -0.1341634 -0.16197304 -0.11454335 -0.14648323
000350 3e 0e 36 be 0c 68 39 3c 43 ed e2 bd ba b8 f6 bd
       -0.1777887 0.011316311 -0.1108041 -0.120469525
000360 3b e2 38 be 64 19 0f bd 5a eb 44 3c b5 43 4f 38
       -0.1805505 -0.034936324 0.012019003 4.9415703e-05
000370 e1 cf c7 3c dc 75 15 be d4 c3 34 be 04 00 59 bd
       0.024391117 -0.14595741 -0.17652828 -0.05297853
000380 2e 95 1d be 1d 68 40 bd fa 86 70 bd b5 a0 24 3c
       -0.15388939 -0.04697429 -0.058722474 0.010048081
000390 19 64 c8 3d 9e 9c 02 3d e8 2d 4a 3d 3c 92 45 3e
       0.09784717 0.031887643 0.049360186 0.19294065
0003a0 54 ba 4e 3e 8d f5 fe 3c 3d 07 eb 3c 7d a5 1c bd
       0.20188266 0.031122947 0.028689975 -0.03824376
0003b0 27 22 56 3c 7c 73 d9 bc 45 ff d0 3d dd 1b 4c 3d
       0.013069666 -0.026544325 0.10204939 0.04983126
0003c0 f3 8a 92 3b d6 a9 8d 3d 9d 1f a6 bd e7 ce a5 bd
       0.0044721304 0.06917159 -0.081114985 -0.08096104
0003d0 d2 4e 60 3a b9 93 48 3d be 38 b4 bd 9f a2 a1 bb
       0.0008556667 0.048969004 -0.08799885 -0.004932716
0003e0 85 bd 27 3d a8 c6 d0 3c f3 68 10 be 57 ba b0 3d
       0.040952224 0.025485352 -0.14102535 0.086292915
0003f0 cc 50 24 bd 6b 27 9d bd b5 e7 5f be 5d eb b5 3d
       -0.040116116 -0.07673534 -0.21865733 0.088827826

feature_network.0.bias f4 [128]
000000 9d 85 61 bd 37 cd 90 bc 05 89 86 bb 98 2c 25 bc
       -0.055059064 -0.017675979 -0.0041056895 -0.010081433
000010 33 05 0b bd 8b df d7 bc 6c 84 43 bd 68 c4 c7 bc
       -0.033940505 -0.02635171 -0.04773371 -0.024385646
000020 00 00 00 00 ea b9 04 bc 55 ab 0f bd 4c ea c9 3c
       0.0 -0.008100966 -0.035075504 0.024647854
000030 d6 1a 98 bc 22 5d 05 bd 46 7d 9a bc 03 31 0a bd
       -0.018567484 -0.03255952 -0.018858563 -0.033738147
000040 12 44 ab bc 18 92 e0 bc 52 4c 3d bc 59 4d 96 bc
       -0.020906482 -0.027413413 -0.011553841 -0.01834743
000050 ee db 58 bc 52 f3 26 bd 3e 45 9b bc bf 0c 01 bc
       -0.013236029 -0.040759392 -0.018953916 -0.007876574
000060 dc 5a 94 bc 53 ce f8 bc 34 57 06 bd f9 d1 00 bd
       -0.018109731 -0.03037182 -0.032798007 -0.031450246
000070 a7 24 1b ba 5c a2 c6 bc 00 00 00 00 f8 cf e0 bc
       -0.00059182424 -0.02424734 0.0 -0.027442917
000080 d0 23 d2 bc 92 0a 3f bd 80 24 da bc 87 0a 17 bd
       -0.025651842 -0.04664094 -0.026628733 -0.036875274
000090 02 14 bb 39 83 86 23 bd d4 16 83 bc 1e f3 4d bc
       0.00035682326 -0.039923202 -0.016002096 -0.012570171
0000a0 e2 ba 2c bc 02 36 0b bd 4f d8 30 bd 44 f7 bb bc
       -0.010542603 -0.033987053 -0.043175038 -0.022945054
0000b0 ee bc d5 bc 39 ea 34 bd 51 7e fb bc 3d 39 93 bc
       -0.026091065 -0.044168685 -0.03069988 -0.01797163
0000c0 3f eb 73 bc bf 0a 13 bd 87 41 ae bc da 2f dc bc
       -0.01488763 -0.03589892 -0.02127148 -0.026878286
0000d0 eb 1c 94 bc 95 3f aa 3b 06 8c ab bc 7b 08 d4 bc
       -0.018080195 0.005195568 -0.020940792 -0.02588295
0000e0 7e c2 0c bd cf c6 b4 bc a5 a2 9e bc 62 96 31 bd
       -0.03436517 -0.022067456 -0.019364664 -0.043356307
0000f0 1a f3 dd bc 54 dd e1 bc ce 90 81 bc 6c 42 60 bc
       -0.027093459 -0.027571358 -0.015816119 -0.013687711
000100 31 f3 a9 bc 64 d0 bb bc 13 7b da bb 3e fe b5 bb
       -0.020745846 -0.022926517 -0.0066675036 -0.0055539897
000110 6a 4e 9b bc ae 26 fb bc 44 f8 d6 bc 9c 58 0e bd
       -0.01895829 -0.030658092 -0.02624143 -0.034752473
000120 99 dc 67 bd 27 85 7b bc ee 03 d8 bc 5b 90 52 3c
       -0.056606863 -0.01535157 -0.026369061 0.0128518
000130 6d e3 64 3b e7 73 a0 bc 8f 38 f2 bc 7f 48 1a bc
       0.0034925595 -0.019586517 -0.029567985 -0.0094166985
000140 1f 84 2d bc ad c8 a1 bc d3 46 08 bd 57 15 88 bc
       -0.010590582 -0.01974901 -0.03327067 -0.016611738
000150 d5 f1 2b bd 18 9d 0f bd 48 a4 48 bd 2b f0 da bb
       -0.041978676 -0.035061926 -0.048984796 -0.0066814623
000160 d7 55 8b bb c9 43 77 bd b0 3b 19 bb 8a bb bb bc
       -0.0042521763 -0.06036738 -0.0023381524 -0.022916574
000170 db b4 53 bc e7 d1 89 3b 2e 0d 16 bc 22 63 84 bc
       -0.012921537 0.0042059305 -0.009158416 -0.016160551
000180 0d e7 48 bd 71 88 5f bc 21 c7 e4 bc 58 83 08 bb
       -0.049048472 -0.01364337 -0.027926983 -0.002083024
000190 52 d0 9d bb 65 d9 8a 3a d1 df 81 ba ff e0 9d bb
       -0.0048160935 0.0010593353 -0.0009908621 -0.0048180814
0001a0 39 98 13 bd 0c f0 af bc 8c 76 2f 3c ee 2a 31 bd
       -0.036033843 -0.021476768 0.010709416 -0.04325383
0001b0 02 4b 04 bd f3 4b dd bc fe df 4e bd b9 c7 85 bd
       -0.032298096 -0.027013754 -0.050506584 -0.06532235
0001c0 0c df 59 bc 73 3d 28 38 61 f0 77 bc 61 16 f7 3c
       -0.013297807 4.011155e-05 -0.015132994 0.030162038
0001d0 fe d4 2e 3c 08 2b c6 3a f0 90 35 3c a0 d3 bb bc
       0.0106708985 0.0015119025 0.011081919 -0.02292806
0001e0 00 00 00 00 80 b3 86 bc b0 06 b1 bc 00 00 00 00
       0.0 -0.016443014 -0.021609634 0.0
0001f0 34 18 0e bd db 23 bd bc 0f 61 15 bd 82 dc 9d bb
       -0.03469105 -0.023088386 -0.036469515 -0.0048175463

feature_network.3.weight f4 [128, 128]
000000 b1 76 d7 3d 53 6e 13 3e 82 05 17 3e aa 46 19 3e
       0.105206855 0.14397554 0.14748195 0.14968362
000010 ed 1c 54 bd 58 90 0e 3e f9 9c 8f 3c e1 7b 6a be
       -0.0517854 0.1392225 0.017530905 -0.22898819
000020 00 0c 09 bb 8e 2b 9f bd 6c c4 7b bc ce 70 0c be
       -0.0020911694 -0.07771979 -0.015366655 -0.13714907
000030 fa 92 10 3e b2 d2 cf bd 20 1f 0a bd 7b 3b fc 3d
       0.14118567 -0.10147609 -0.03372109 0.123160325
000040 f4 bf e5 bd 15 1d 14 be 3c dd f5 bd 0c 1e 08 3d
       -0.11218253 -0.14464219 -0.12005088 0.03323178
000050 66 6e 9e bd a1 a3 0e bd b4 fb 1a 3e 67 dd 62 bd
       -0.077359006 -0.034824017 0.1513508 -0.055386927
000060 8c 45 62 bd f3 5a aa 3d ca 43 9e bd 3a 0e 06 be
       -0.055242106 0.083181284 -0.077277735 -0.13091365
000070 f0 d2 07 be a9 3a c8 3d 31 01 0d 3e 25 64 aa 3d
       -0.1326406 0.097768135 0.13769986 0.08319882
000080 64 76 26 3d b5 da a5 3d 2f 64 c4 3d 17 8a f9 bd
       0.04064025 0.08098356 0.09589421 -0.12184542
000090 47 df 70 3d e6 04 3c 3d a5 5a 98 bd 62 f2 0b be
       0.058806684 0.04590311 -0.07439164 -0.1366668
0000a0 52 cf 57 bd 22 f1 30 3e 9f 1c f2 bb 6f b5 1e be
       -0.05268795 0.17279485 -0.007388666 -0.15498899
0000b0 89 3f ef 3a 5f e6 b9 bd 25 9d af bd da 79 ca 3d
       0.0018253188 -0.09077143 -0.08574895 0.098865226
0000c0 8e de af 3d 9a d1 0f be bf 2a 1d be 0c d9 de bb
       0.08587371 -0.140448 -0.15348338 -0.0068007763
0000d0 dc 81 2b bd 7d 7b d4 3d ea 45 e7 3d 51 11 f5 bd
       -0.04187189 0.10375116 0.11292632 -0.119661935
0000e0 f7 92 c6 bd 0a cc d8 3d ec 05 92 3d 2a 99 e7 3d
       -0.09696 0.10585792 0.07130036 0.113085106
0000f0 b9 14 2f 3d 81 4f a2 bd 62 dc e3 bd ed 8b 7c 3d
       0.042744372 -0.079253204 -0.11126019 0.06165688
000100 6b b6 19 be 86 1c 29 be 0e 5f 6f 3c 61 3f 5d 3e
       -0.15010993 -0.16514787 0.014610065 0.21606208
000110 9f 2e bb 3d 0f 77 01 bd 52 c9 9b 3d 1e 07 b7 bd
       0.09139752 -0.031607684 0.07606758 -0.08936904
000120 b9 64 75 3d 26 b5 e3 bd 96 bc c8 bd 6a fc 7f be
       0.05991051 -0.11118536 -0.09801595 -0.24998632
000130 fe 49 2c be 23 2d be bd f2 21 0c 3e 6b ad eb bc
       -0.16825101 -0.09285953 0.13684824 -0.028769216
000140 13 bf a9 bd 70 a6 8b 3d f6 e4 fe bd 43 e3 b5 bd
       -0.08288398 0.06818855 -0.124460146 -0.08881237
000150 47 61 29 be 86 63 a1 bd 0d b2 57 3d 53 36 22 be
       -0.16541015 -0.07880311 0.052660037 -0.15841036
000160 ef f5 5f bd 9a d2 98 3d a9 66 8c bd 98 f3 aa bd
       -0.0546779 0.07462044 -0.06855518 -0.08347243
000170 a8 07 94 3d 8e c5 0a be 41 9b 23 bc f7 59 78 be
       0.07228023 -0.13551924 -0.009985746 -0.24253069
000180 6c f3 a3 3d 0f 04 af bd 80 4e 16 3d c9 50 de bd
       0.080054134 -0.08545696 0.036695957 -0.10855252
000190 dd f1 52 3d 97 4f 94 bd c6 e8 80 3e fe b4 a5 bd
       0.05150019 -0.07241743 0.25177592 -0.08091162
0001a0 82 be 23 3d 34 b3 b9 bd de e0 b2 bd 63 c8 f4 bd
       0.039976604 -0.090673834 -0.08734296 -0.11952283
0001b0 0f d1 67 3d f5 27 e6 3d cc a4 8c bd c1 03 8d 3c
       0.05659586 0.1123809 -0.0686737 0.017213704
0001c0 a7 3c 87 3d 6c 0f 24 be 9b 0a 13 be 42 1b 49 bd
       0.066033654 -0.16021508 -0.14359514 -0.04909826
0001d0 35 05 e5 bd ee 06 aa bd 23 b9 83 3e 46 22 b5 bc
       -0.11182634 -0.08302103 0.25727186 -0.02211107
0001e0 30 5b 4c 3c 29 5a 66 bd fb 8f 2b be 68 e8 e5 bd
       0.012472913 -0.056238327 -0.16754143 -0.112259686
0001f0 4e 5e 08 be 2f 90 33 3a 58 1e 40 3c 42 3e 51 3d
       -0.13317224 0.0006849793 0.0117259845 0.051084764
000200 2b 1d c4 bd 62 e5 13 3e 5e 97 1d 3d 17 21 9c bc
       -0.09575876 0.14442971 0.038474433 -0.019058747
000210 b7 76 23 bd e1 0d 13 3e 82 47 91 bd a5 4b ba bd
       -0.039908137 0.14360763 -0.07093717 -0.09096459
000220 c8 30 c3 3c 83 24 19 3e 14 08 ed 3a db bd d1 3c
       0.023826972 0.14955334 0.0018084073 0.025603225
000230 ef ef 2a bc a2 d4 69 bc 71 ad 13 be eb c2 8b 3d
       -0.010433181 -0.014271887 -0.14421631 0.06824287
000240 63 f7 04 3e fa 39 94 bd 21 9a 1e bc a1 c0 d6 bd
       0.12984996 -0.07237621 -0.009680302 -0.1048596
000250 67 9a 73 3d 8f e7 70 3c 0d 42 78 bd 0d a5 e2 bc
       0.05947342 0.014703645 -0.060609866 -0.027666593
000260 b4 e4 d3 bd 16 1b 2f be a8 f8 e3 3d 95 24 10 be
       -0.10346356 -0.17100176 0.11131412 -0.14076455
000270 6f fc 49 3d 25 90 29 be c0 87 e8 bb 6c ed 05 be
       0.049313005 -0.16558893 -0.007096261 -0.1307885
000280 41 c8 be 3d 4d 0c 90 bd ef 8e ba 3d 76 ba 06 be
       0.09315539 -0.07033596 0.09109294 -0.13157067
000290 62 35 d8 bc 99 e4 17 bd 2a d5 ed bd ab f3 05 be
       -0.026392642 -0.037083242 -0.116129234 -0.13081233
0002a0 a6 69 ef bd 6c 99 b9 3c c2 12 d0 3d a0 bb 1a be
       -0.11690073 0.022656165 0.10159828 -0.15110636
0002b0 e8 be aa 3d d7 8d df bd 02 50 a7 3d 60 67 1a be
       0.08337194 -0.10915726 0.08169557 -0.15078497
0002c0 bd f6 b3 3d 22 1a aa bd 25 59 26 bd 3c 5c fc 3d
       0.08787296 -0.08305766 -0.04061236 0.1232228
0002d0 f2 52 19 3d 8b 92 b6 bc ed bc 04 be 7e 9c 04 be
       0.03743262 -0.022286674 -0.12962694 -0.12950322
0002e0 63 86 55 ba 7f 28 0f be 8b 93 91 bd 26 12 97 3d
       -0.00081453304 -0.13980292 -0.0710822 0.073765084
0002f0 91 b6 fe 3d 99 e1 1c 3e 9c fb 7b bd ef 75 cb 3d
       0.124371655 0.15320434 -0.06151925 0.099346034
000300 d8 e5 1a 3e ea 3d df 3b 3b 70 b1 3d c5 ae 53 3d
       0.15126741 0.0068128007 0.086639844 0.051680345
000310 af 2e 7d 3d ad 20 ea bd e4 e2 af 3d 31 e1 dc 3d
       0.0618121 -0.11432014 0.08588198 0.10785139
000320 dc ff 05 be 94 a4 a9 3d 5b 88 ef 3d 6c 39 20 be
       -0.13085884 0.08283344 0.116959296 -0.15646905
000330 ff 13 54 3d 0d 5e e4 3c 90 a3 ec bd 16 33 55 3d
       0.051776882 0.027876878 -0.115546346 0.052050672
000340 9b 1b 6a bd 62 6d 8d 3d a5 e3 39 be 28 14 a8 3d
       -0.057155233 0.06905629 -0.18153246 0.082069695
000350 d4 5e f7 3d 34 09 91 3d ac e5 0a be 48 ad b3 bd
       0.12078634 0.070818335 -0.13564175 -0.08773285
000360 08 a6 d3 bd ee 8b 7d 3d 80 bc 0d 3e 8a 3b 13 3e
       -0.10334402 0.061901025 0.13841438 0.14378181
000370 b5 17 a8 3d 4e ca 0e be 6f 01 0d bc f4 31 18 be
       0.08207647 -0.1394436 -0.008606299 -0.14862806
000380 da 82 26 3d e3 23 b0 3d 6b aa 3f bd 83 79 f1 3b
       0.040652134 0.08600595 -0.046793383 0.0073692217
000390 d8 83 b0 3d 8a 9b b4 bd 0a 0c dc bd 58 c6 7b bd
       0.08618897 -0.08818729 -0.10744484 -0.061468452
0003a0 d3 7e 0d be 59 0d 26 3d 58 3e 46 bd 78 ec 18 be
       -0.13817911 0.040540073 -0.0483993 -0.14933956
0003b0 81 c5 f7 bd 8f c7 15 3e 9b 72 c0 3d 8b 8b 2c 3d
       -0.12098218 0.14626907 0.09396859 0.042125266
0003c0 57 22 a3 3d 33 7f 29 3d 77 d1 64 3d b5 b8 33 be
       0.07965534 0.041381072 0.055863824 -0.17550929
0003d0 f1 ad 96 bd 80 4e 10 3e 08 0c 9c bd c0 90 da 3d
       -0.073573954 0.14092445 -0.07619482 0.1067214
0003e0 b0 84 1b 3c f0 87 22 3d d4 6d c4 bc 04 2c 4e 3d
       0.009492084 0.03968042 -0.023978151 0.050334945
0003f0 c9 db c3 3d 92 7f 9d 3d e1 e6 7b 3d 43 ed 83 3d
       0.09563405 0.07690348 0.06149948 0.064417385

feature_network.3.bias f4 [128]
000000 27 1a 9c 3c 9a 8e ef bc 86 01 19 3b 4c 18 64 bd
       0.01905544 -0.029242802 0.0023346855 -0.055687234
000010 55 65 a1 bc d2 c6 72 bc bb 1c b4 3c 20 23 a1 bc
       -0.01970164 -0.01481791 0.021986356 -0.01967007
000020 fd 79 6d 3c d3 18 ab bd 0a 47 ab bc 53 c3 25 bc
       0.014494416 -0.08354344 -0.020907898 -0.01011737
000030 b5 0f 54 bd 5c be 4f 3d d2 1c 81 bd dc 5d e9 bc
       -0.051772792 0.05071865 -0.06304325 -0.028487138
000040 6d d7 19 bd d6 27 7d 3c d3 66 1f 3d 03 35 02 bd
       -0.03755896 0.015451392 0.03891642 -0.031788837
000050 bd ad df bc f8 29 d7 3a 21 74 53 bd 12 7d 4c bc
       -0.027304525 0.0016415706 -0.05162442 -0.012480991
000060 57 3b 29 3d 92 19 86 bd 89 31 82 3b 9a 46 4e bd
       0.041316357 -0.06547846 0.00397319 -0.0503603
000070 f3 52 5f 3c a8 ea 16 bc 33 47 32 3c a8 55 2a 3b
       0.0136306165 -0.00921122 0.010881233 0.0025990997
000080 dc 49 ec bc bd e4 35 bd 67 2c 87 3c 70 b6 73 3c
       -0.028843813 -0.044407595 0.016500665 0.014875039
000090 83 11 25 bd 2c ed 7b bc 01 db 09 bc ce 04 7d bc
       -0.040299904 -0.01537637 -0.008414031 -0.01544304
0000a0 fa 00 42 bd 71 ed 36 bd 92 4c 91 3b 27 f4 ec 3b
       -0.047364213 -0.044660036 0.0044341767 0.0072312537
0000b0 6f 2e 51 3c e4 80 0c 3d f7 83 ab bd 2e ca a5 3b
       0.012767418 0.034302607 -0.0837478 0.005059502
0000c0 73 d3 06 ba 23 e0 7d bd 3c 85 2f ba da 64 d6 3c
       -0.0005143203 -0.06198133 -0.00066955737 0.026171137
0000d0 b3 43 04 bc cd 5c 69 bb 3c 99 6b 3c 33 bc 5d 3b
       -0.008072781 -0.0035608292 0.014379796 0.00338341
0000e0 5d 66 1d bd 65 ee 7c 3c 82 34 0d 3c 57 ec 98 3c
       -0.0384277 0.015437697 0.008618476 0.018667383
0000f0 fd 3d 03 bd 81 7c 3b bc b9 ec 9a bc 01 a3 12 3c
       -0.03204154 -0.011443258 -0.018911706 0.008949996
000100 3e 5c 90 3c 1d 60 6f bc 77 84 e6 3b 74 37 c6 3c
       0.01762211 -0.014610318 0.007034834 0.024196364
000110 87 3d 64 3b 03 52 f9 bc eb 78 2b bd 12 a7 ab 3c
       0.0034826712 -0.030434614 -0.041863363 0.020953689
000120 66 4b 8f bd f6 3b 25 bc 51 27 03 bc cc ec 5a bd
       -0.06996803 -0.010085097 -0.008004979 -0.053448483
000130 b5 b7 65 bd fc ca 42 bc be b8 4d 3c fa 74 c4 bb
       -0.0560834 -0.011889216 0.012556253 -0.00599539
000140 c8 3b 51 3b 96 b8 5f bb 99 0d 83 3b 3c 5b da bc
       0.0031926502 -0.0034137121 0.0039994237 -0.026654832
000150 4a 66 c5 bd 21 8c a2 39 a8 de 05 3b e9 20 4d bc
       -0.09638651 0.00031003452 0.0020426903 -0.012520053
000160 78 1a 8f 3c 74 a1 96 bd 1f ba 8b 3c 3c 00 54 bd
       0.017468676 -0.073550135 0.017056523 -0.051758036
000170 01 ad 6c bd 59 e9 02 3d 65 fb 45 bd c0 66 08 bc
       -0.057782177 0.03196082 -0.04833545 -0.008325279
000180 79 5d 0b 3d 35 13 79 bd 63 37 b7 bb cb e8 c6 bd
       0.03402469 -0.060809333 -0.0055913194 -0.097123705
000190 48 b8 ab 3c 9e 32 04 bd 99 fc 98 bd d4 8b 33 bd
       0.020961896 -0.032274835 -0.07470054 -0.043834522
0001a0 b9 76 a8 bb fc 0c 27 3c 4b 2b 83 bd be 2e 10 bd
       -0.005141106 0.010195967 -0.06404742 -0.035200827
0001b0 5b e9 2e 3c e0 9a 7b bd a6 b3 98 ba 29 fb 7e bb
       0.0106757535 -0.061426997 -0.0011650219 -0.0038907027
0001c0 7d 34 73 bd da 21 26 3c 99 36 ad 3b eb 8a 32 bd
       -0.05937623 0.010139907 0.0052860496 -0.043589514
0001d0 c9 a1 16 bd a7 c9 e7 bc 7e e3 17 bd 37 d5 51 bd
       -0.036775384 -0.028294398 -0.037082188 -0.05122873
0001e0 c0 b7 f1 bc 41 6c 1a bd 9b 81 31 bb 51 b7 e5 bc
       -0.029506564 -0.037700895 -0.0027085308 -0.028041514
0001f0 99 05 05 bd 24 d4 de bb 48 ae 0a bd 9a 1f c0 bc
       -0.03247604 -0.0068001915 -0.033857614 -0.023452569

feature_network.6.weight f4 [64, 128]
000000 d9 16 79 bd 15 62 9c bc b3 e9 29 be 76 f0 19 be
       -0.060812805 -0.019089738 -0.16593055 -0.15033135
000010 5f 56 c2 3d d3 b8 4d bb 32 a9 b1 3d 90 2e a0 3d
       0.0948913 -0.0031390681 0.086748496 0.07821381
000020 97 ad 06 3e 4d 17 70 bc ef db b5 3d f1 11 f9 bd
       0.13152157 -0.014653993 0.0887984 -0.12161625
000030 b1 d3 33 3d 77 4e 05 bc 18 d8 8f bd d1 f5 c3 3d
       0.043903057 -0.008136383 -0.070236385 0.0956837
000040 5d 47 04 3e 49 56 93 3c c9 35 1a be 52 fc e8 bc
       0.12917848 0.01798548 -0.1505958 -0.028440628
000050 ec 56 34 3e 9c 18 05 be 7a d2 ff 3c b6 ac 11 bd
       0.17611283 -0.12997669 0.031228293 -0.0355651
000060 df e3 a8 3d 5c 48 18 3e f2 e6 4a 3d 26 9a 07 be
       0.08246588 0.14871353 0.049536653 -0.13242397
000070 59 82 b7 3d ad 6e 1e bc 7f 56 c1 bd 23 8a 87 bd
       0.08960409 -0.009669942 -0.09440326 -0.06618144
000080 3d a4 e2 bd 45 da 2d be 99 c4 d4 bd 9a 0d 72 bd
       -0.11066482 -0.16977794 -0.103890605 -0.059095003
000090 bd 42 2b 3e b0 43 40 be 96 f9 1e 3e db 60 19 be
       0.16724677 -0.1877582 0.15524897 -0.14978354
0000a0 38 ba da bd 22 3a dc bd 46 79 06 3e af 4c 3d 3e
       -0.1068005 -0.107532755 0.131322 0.18486284
0000b0 75 19 3f bd a4 82 76 bc e9 56 88 bd 95 58 13 bd
       -0.046655137 -0.015045796 -0.06657202 -0.03597315
0000c0 0c cb 02 3e f5 c9 94 bd a3 fb 37 3e ec b2 a7 bd
       0.12772769 -0.07265083 0.17967086 -0.081884235
0000d0 4f 6a 1f be c0 a1 95 bd c5 d7 25 bd 27 dc ec bd
       -0.15567897 -0.07306242 -0.040488977 -0.11565428
0000e0 e4 30 2e bd 96 f9 d9 3d 0d 68 4f 3e 7c 69 f6 bd
       -0.042527094 0.10643308 0.20254536 -0.12031838
0000f0 14 8f a7 3d 9e 04 e3 bd 24 8c e2 bd 48 46 97 3d
       0.08181587 -0.11084865 -0.11061886 0.07386452
000100 86 14 44 3d f0 8d 0b 3e 4a 8e dc 3d 3f 9e 0b 3e
       0.047871135 0.13628364 0.10769327 0.13634585
000110 9e f3 96 3d 11 26 1b 3d 5e f7 13 3e ce ca 0d 3e
       0.07370685 0.0378781 0.14449832 0.13846895
000120 c0 94 fc bd 19 2e 85 bd f5 84 4a 3d f9 97 19 be
       -0.12333059 -0.06502933 0.049443204 -0.14999379
000130 c1 1f cc bc 95 6a 0b 3e d1 c9 44 3c 63 69 48 be
       -0.024917485 0.13614877 0.012011007 -0.19571452
000140 9e 45 13 3e f8 02 b1 bd f2 88 86 3d bd dc 0b be
       0.14382026 -0.08643144 0.06569089 -0.13658424
000150 95 e7 36 3e d8 ab f6 bd b5 85 bf bd bb 4a 73 3c
       0.17861779 -0.12044495 -0.093516745 0.01484936
000160 c9 e7 2c 3d 6c de 9f bd 79 49 32 be 8a 95 f9 3c
       0.042213235 -0.078060955 -0.1741084 0.030466814
000170 b0 7d 33 be c7 9a 9b 3d a3 eb d0 bc 2f 75 f3 bd
       -0.17528415 0.07597881 -0.025502985 -0.11887585
000180 e6 00 97 bc 2a c1 f2 3d d0 fe c9 3b 1d 59 53 3c
       -0.018433046 0.11853249 0.006164409 0.012899664
000190 08 28 16 3e 8c 7e 22 3e ec 56 f5 bd 30 e0 f9 3d
       0.14663708 0.15868586 -0.1197947 0.122009635
0001a0 b1 87 4c 3d c4 ec 3a 3e 95 e1 69 be 3c 22 44 bc
       0.049934093 0.18254381 -0.22839959 -0.011971053
0001b0 af 72 1d 3d 5d 00 84 bd 3a 02 8b bd 35 57 af bc
       0.03843945 -0.06445382 -0.06787534 -0.021403888
0001c0 a0 65 cc bd 12 5f 95 3d b8 5f cb bd 3b ce 53 3c
       -0.09980321 0.07293524 -0.09930366 0.012927587
0001d0 33 de 0f 3e b5 9e b2 bd 93 88 36 3d b4 58 2e 3e
       0.14049606 -0.08721677 0.04456384 0.17026025
0001e0 14 d0 ff bd 94 ad 93 3c a8 2f 14 bd 38 5e 95 bd
       -0.1249086 0.018027104 -0.03617826 -0.072933614
0001f0 53 fa ef 3d 11 cb d8 bd 58 26 92 3d 9c 32 b6 3d
       0.117176674 -0.10585607 0.0713622 0.08896372
000200 e2 72 11 be eb a2 1b be 55 06 75 3c 11 93 45 be
       -0.1420398 -0.15198867 0.014955123 -0.19294383
000210 2d ea 0f bc 35 9f 1d 3e 8a f7 85 be 19 09 bb bd
       -0.008783859 0.15392764 -0.2616542 -0.091325946
000220 a7 36 28 be 52 28 0b be 9c c4 c4 3c 0f 26 22 bd
       -0.16427098 -0.135896 0.024019532 -0.039587077
000230 4c 87 fb bd 4c bd 45 b8 39 5f 8f bd f4 1b 1b bd
       -0.12281665 -4.7144757e-05 -0.07000584 -0.037868455
000240 4a e7 e1 bd ca 52 18 be 0f 4f d5 3d 39 e6 29 be
       -0.11030443 -0.14875332 0.1041547 -0.16591729
000250 f5 f7 18 3e ea 67 f8 bd a6 3e df 3d 21 97 e0 3c
       0.14938338 -0.12129195 0.10900621 0.027415814
000260 93 58 72 be 63 f6 a3 bd 0d 46 28 3e 28 81 0b be
       -0.23666601 -0.08005979 0.16432972 -0.13623488
000270 04 57 63 bd 6a 10 0c 3d 5f 46 9c 3c 88 6f 81 bd
       -0.055502906 0.03419534 0.019076524 -0.06320101
000280 5b 34 ab bd 64 25 f5 bc 38 05 09 be cd 63 ae bd
       -0.083595954 -0.029925056 -0.13380897 -0.08515129
000290 2f 53 57 bc e7 22 f7 3d 03 77 50 3e 94 25 a4 bd
       -0.013142391 0.12067204 0.203579 -0.0801498
0002a0 ac 55 03 3d 78 cd 00 3e 45 d0 01 3d c3 a4 44 3e
       0.032064125 0.1257838 0.031692762 0.19203477
0002b0 90 2e 9b bd a3 c1 c6 3b 96 73 97 3d 9e d7 23 be
       -0.075772405 0.0060655638 0.07395093 -0.1600022
0002c0 08 20 b0 ba f3 f5 1d bc c0 4f 67 bd 8e 01 39 be
       -0.001343728 -0.009641158 -0.05647254 -0.18067
0002d0 a0 ea 4b 3c a0 ec c8 bd 7f c1 f2 bd 6e 0b fb bd
       0.012446076 -0.09810758 -0.11853313 -0.122580394
0002e0 4e 9e 6c 3d e0 f1 d6 3d 50 42 a9 3c d1 b8 2a be
       0.05776816 0.10495353 0.020661503 -0.16672064
0002f0 81 42 27 3e 5f cc 10 be ba a6 a9 3d 44 5f e1 bd
       0.16333963 -0.14140461 0.08283754 -0.110044986
000300 79 55 e9 bd 45 b1 17 3e e5 88 6c bd e9 36 e4 3c
       -0.11393256 0.14813717 -0.05774774 0.027858214
000310 21 2c 07 bd 5b 14 84 3d e7 0f 9e bb 21 59 a4 bd
       -0.03300107 0.06449195 -0.004823673 -0.080248125
000320 3b 45 17 3e de 80 4b bc 22 b4 e3 3d 4a bb 27 be
       0.14772503 -0.012420861 0.11118342 -0.16380039
000330 66 93 90 3d 9d d7 e6 3d 98 d9 6d be 21 3b 69 3d
       0.07059364 0.11271594 -0.23227537 0.056941155
000340 7e 12 6b bc d8 6b 95 bd 13 d4 17 be 61 62 47 be
       -0.014347671 -0.0729596 -0.14826994 -0.19471122
000350 ea b3 de 3d fe 3c 5b be e9 14 13 be bb 25 19 be
       0.1087416 -0.21409985 -0.14363445 -0.149558
000360 1f 2b 19 be ea 61 5a be 55 80 80 3d 21 e4 d5 bd
       -0.14957856 -0.21326414 0.062744774 -0.10443903
000370 02 eb 97 3d 7e e8 4a be 52 c0 2b 3d 97 70 05 3c
       0.07417871 -0.19815251 0.041931458 0.008144519
000380 75 74 72 bd 78 2c 06 3e 31 db 52 3c 00 81 a8 bb
       -0.059193093 0.13102901 0.012869642 -0.005142331
000390 d4 4d da bc 23 6d 75 3e b1 c4 b4 bd 3f 93 9b 3d
       -0.02664844 0.23967414 -0.088265784 0.07596444
0003a0 bb 83 b7 bc 66 50 4a 3d 7a cd f3 bd a0 89 3d 3d
       -0.022401681 0.04939308 -0.11904426 0.046273828
0003b0 77 0f 88 3d 08 cc cb bc 5a f6 eb bd e8 53 8d bd
       0.06643575 -0.024877563 -0.11521597 -0.069007695
0003c0 96 4f 49 be 2b 25 18 be 68 9c d9 3d ee e8 ba 3d
       -0.19659266 -0.14857928 0.10625535 0.09126459
0003d0 b8 21 2a 3d 80 f8 65 3c a8 7d 25 be 8e 1f 0d be
       0.041536063 0.014036298 -0.16161215 -0.13781568
0003e0 16 d1 0b be 8a 7f df 3d d3 dc dd 3b 40 fd 2f 3e
       -0.13653979 0.10912998 0.006770709 0.17186451
0003f0 a0 fd 78 3d 2d 64 f2 bd 2f ec b1 bd 98 f1 cd bc
       0.06078875 -0.11835513 -0.086876266 -0.025139615

feature_network.6.bias f4 [64]
000000 ed 5e c7 3c d0 b2 01 bd ba 55 56 bd 57 5e 64 bd
       0.024337256 -0.03166467 -0.05232785 -0.055754032
000010 b8 4c 29 3d 62 49 d1 bb 35 57 9f 39 be 4a 5b 3d
       0.04133293 -0.0063869217 0.00030391818 0.053538077
000020 e7 21 83 bd 06 0b 3b bd 4a 10 7a 3c 83 cb b7 bc
       -0.06402951 -0.04566481 0.015262673 -0.02243591
000030 7d 89 7b bc 15 78 5a bd 81 0a 4a bd b7 79 ce bc
       -0.015352604 -0.053337175 -0.049326424 -0.025204523
000040 f3 eb f9 3c 1d d2 48 bd 3f 55 5e bd fc 7e f4 bc
       0.030508017 -0.049028505 -0.054280516 -0.029845707
000050 fd 67 6c bd 5a e7 3a bd d9 62 53 3d cf 87 e4 bc
       -0.05771636 -0.04563079 0.05160794 -0.02789679
000060 e6 49 ff bc e7 05 ce 3c 59 3b 00 bc 0e ea 3b bd
       -0.031163167 0.025149299 -0.00782665 -0.04587751
000070 61 d2 96 bc 69 b3 50 bd bd df 1d bd a0 3b 7a bc
       -0.018410863 -0.05095235 -0.03854345 -0.015273005
000080 a9 11 83 3d 09 79 29 bd ea be 44 bd ef 04 90 3b
       0.06399853 -0.041375194 -0.048033632 0.0043951194
000090 39 69 b3 3b 79 ff 0b bd fe 0b 53 3b ac 5a ac bb
       0.00547519 -0.034179185 0.0032203193 -0.0052598324
0000a0 1a 3d 89 3c 8c 28 34 bb 52 4c 4a bd 7c c3 ec bc
       0.016752768 -0.0027489988 -0.04938919 -0.028901808
0000b0 97 7a 54 3c c0 e8 52 bc 46 71 3b 3d ed c0 e4 bc
       0.012968681 -0.012872875 0.045762323 -0.027924025
0000c0 30 83 31 bb 20 a9 93 bb f8 47 1a bd 6e 79 5e bd
       -0.002708625 -0.0045062453 -0.03766629 -0.054315023
0000d0 93 02 43 bd 87 3e 8c bd 14 dd b4 3b 5b 88 c2 3c
       -0.047609877 -0.06847864 0.0055195186 0.02374666
0000e0 72 70 41 bd aa 65 41 bd 23 23 90 bd 53 e1 29 bd
       -0.047226377 -0.047216095 -0.07037952 -0.04147465
0000f0 9a 4c 3a bd 4e bc 1b 3a 31 71 24 3d cd f4 3e 3d
       -0.04548321 0.00059408403 0.04014701 0.04662018

q_network.weight f4 [1, 64]
000000 b5 91 11 3e 75 1d 2f 3d 3f 49 ec bc 27 c5 19 be
       0.14215739 0.0427527 -0.02884352 -0.15016614
000010 a7 1d f4 3c b5 de 67 be ff 79 24 3e 72 72 36 3e
       0.029799296 -0.2264355 0.16062163 0.17817095
000020 4c 0d 45 3e d7 2e f2 bd 10 ac 62 3e 57 c8 e4 3b
       0.19243354 -0.1182534 0.22135949 0.00698189
000030 0f a8 31 bd 86 06 ec bd 01 89 44 be 62 9e 77 3d
       -0.043373164 -0.11524682 -0.19192888 0.06045378
000040 e2 bf d5 bd 09 58 89 3e 5e c5 d9 bd 1e c4 13 be
       -0.10436989 0.26824978 -0.10633348 -0.14430282
000050 23 0b 66 bc 00 f4 86 be 6c be 88 3e 40 7f 89 be
       -0.014040741 -0.26358032 0.2670778 -0.26854897
000060 66 02 02 3d d3 37 14 3d fc 05 63 3e 6b 67 83 be
       0.03174057 0.03618605 0.22170252 -0.2566484
000070 cf 15 08 be 6f 5a 04 be 46 7a c1 bd 73 7f 3b be
       -0.1328957 -0.12925123 -0.0944715 -0.18310337
000080 5f 23 38 3e 50 3d 58 3d 16 d1 91 bd e4 45 f6 3d
       0.17982243 0.052792847 -0.07119958 0.12025049
000090 ff db 79 3d 0f d8 4c be ab 56 38 3e b5 6f 69 3d
       0.06100082 -0.20004295 0.18001811 0.056991298
0000a0 9d 9d 5c 3e b5 14 67 3d 74 4b 66 be b0 49 4b be
       0.215445 0.056416232 -0.2248972 -0.19852328
0000b0 24 81 de 3d a3 d7 00 be ff d2 60 3e c9 d3 17 bc
       0.10864475 -0.12582259 0.21955489 -0.009266802
0000c0 93 24 3e be 61 42 55 be 69 c1 81 be aa 7b 2b be
       -0.1856864 -0.20826103 -0.25342873 -0.16746393
0000d0 34 52 37 be 8e be a1 bd 6d 7e ea 3d 86 29 78 3d
       -0.17902452 -0.078976735 0.11449895 0.060586475
0000e0 06 c1 bf bb 23 8e 9d bd 5a da 05 bd ca 0a 69 be
       -0.0058518676 -0.07693126 -0.03267894 -0.22758022
0000f0 91 f6 80 be 55 f5 87 be a9 dc 71 3d ea c0 8b 3e
       -0.25188115 -0.2655436 0.05904833 0.2729562

feature_network.0.weight f4 [128, 229]
000000 c2 5b 1e bc 6c c1 d0 bd ff 26 79 3d 64 4c 2f 3d
       -0.009665431 -0.10193142 0.060828205 0.04279746
000010 98 f4 df 3d 02 a1 cb bc 46 05 b3 bd a1 f0 1a 3e
       0.109353244 -0.024857048 -0.0874124 0.15130855
000020 43 e8 61 3d 12 ed a1 bd 42 5b 89 3d a4 55 c2 bd
       0.055153143 -0.07906546 0.06706859 -0.09488991
000030 bc 25 93 bc c5 e6 35 bc 50 f4 c9 bd 37 13 d0 3a
       -0.01796233 -0.011102383 -0.09861052 0.0015874867
000040 70 3d 01 3d b1 1b ca bd d7 97 d4 bd 41 77 ff 3b
       0.031552732 -0.09868563 -0.10380524 0.0077961986
000050 0c 53 09 3e b3 0a 31 3c 23 a2 51 3c 0b 7e 02 3e
       0.13410586 0.010805774 0.012795004 0.12743394
000060 41 2a 07 3c 7a 62 a5 3d 2b 9e 46 3c 08 d7 b9 3b
       0.00824982 0.080754235 0.012122671 0.0056713857
000070 62 8c 94 bc 1c e8 19 3e 8e f1 d0 3d 48 14 0d bd
       -0.018133346 0.15029949 0.10202323 -0.03444317
000080 d3 12 0f be 44 4c 8d 3d 6d 16 3a be f5 0c 9a 3d
       -0.13972025 0.06899312 -0.18172617 0.075220026
000090 82 d9 b9 bd f5 6d a4 bc 3e 0c 8f 3d f7 b9 88 bd
       -0.090746894 -0.020071963 0.06984757 -0.06676095
0000a0 a6 4b f1 bc ef 69 63 bc 20 0f 10 be d0 09 8c bd
       -0.029455017 -0.013880237 -0.1406827 -0.06837809
0000b0 86 ca 1e 3e 59 26 3a bc 71 17 b7 3d 14 64 d0 bd
       0.15506944 -0.011361682 0.08940018 -0.101753384
0000c0 9e 82 8c bd a2 57 0d be a7 1a 67 bd cc 11 8d 3d
       -0.06860851 -0.1380296 -0.056421902 0.0688816
0000d0 86 30 61 3d dd a0 8b 3d 5d 85 0e 3c fc 3c fe 3d
       0.054977916 0.068177916 0.0086987885 0.124139756
0000e0 47 28 a9 bc 84 59 9d bb 02 d3 af bd 5b 6f 02 be
       -0.020649089 -0.004801931 -0.085851684 -0.12737791
0000f0 ce d1 61 3d a5 b9 6f bd 6f 1f dc bd 88 e0 cf 3b
       0.055131726 -0.058526654 -0.10748183 0.006343905
000100 d6 df 68 bb 72 4f 50 bd 88 f1 55 3d fb e5 a9 bd
       -0.0035533807 -0.050857015 0.052232295 -0.082958184
000110 a1 33 ea 3c ec e1 47 bd 8d 39 81 ba 99 f4 c2 bd
       0.028589072 -0.04879944 -0.000985907 -0.095193096
000120 47 21 cc 3d 33 32 1d 3b e4 45 a5 bd ae 1e ce bc
       0.09967285 0.002398622 -0.08069971 -0.025161114
000130 07 b6 85 bd 5a ab b2 3d 52 ae a3 bc 8b b1 3f bd
       -0.065288596 0.08724089 -0.019980583 -0.046800178
000140 35 2e 83 bc fd f6 ad 3d 51 90 31 3d ef b8 1c be
       -0.016013244 0.08494375 0.04335052 -0.15304922
000150 e1 13 05 3e bf e3 82 bb dd 38 26 3d 7e ae f1 3d
       0.12995864 -0.0039944346 0.040581573 0.1180086
000160 4b fd 11 3e 6e 05 85 3c 85 b7 7c bd cd 52 c9 bc
       0.1425678 0.01623794 -0.061698455 -0.024575615
000170 8b 7b 19 be f9 69 ba 3c ad 74 5c 3d 38 83 7f bc
       -0.14988534 0.02275561 0.05382221 -0.01559525
000180 ec 9d 62 bc da 4f 9c bd d8 99 4b 3d 5d 7a 4e 3d
       -0.013831597 -0.07632418 0.049707264 0.050409663
000190 8f 4b f5 3d 02 8b f0 3d 7f 32 bd bd 88 6c 1d 3e
       0.11977302 0.11745264 -0.09238147 0.15373433
0001a0 9c e1 9f bc 1e cb d1 3c 0a 8c 62 bd 3b 3f a5 bd
       -0.019516759 0.02560955 -0.055309333 -0.08068701
0001b0 c8 07 79 bd 7a 4f 92 3d a1 cd b2 bd b6 49 b2 3c
       -0.060798436 0.07144065 -0.08730627 0.021763664
0001c0 a3 db c6 bd ab 66 08 ba 22 95 5a 3b ec 2b 2f 3d
       -0.09709861 -0.0005203287 0.003335305 0.042766497
0001d0 f7 30 54 3b 45 96 f7 bc b8 8c 09 3e 06 fd 34 3d
       0.0032377818 -0.030223021 0.13432586 0.044186614
0001e0 0a e2 cc 3c e2 8e 5a 3d b1 87 d9 3d 9e 63 b2 3d
       0.025010128 0.05335892 0.10621584 0.08710407
0001f0 47 84 7e 3d 7c 2c 69 3e 29 d9 18 3e d1 96 36 3d
       0.06213787 0.22770876 0.1492659 0.044577423
000200 64 f6 30 3d 40 c8 95 3a 0f e9 ad bc f0 7e 46 bb
       0.043203726 0.0011427477 -0.021229295 -0.0030288063
000210 d7 a6 83 bd 2d e9 ba 3d 73 d8 e6 3d cc 51 96 3c
       -0.064283065 0.09126506 0.11271753 0.01834955
000220 e6 2e 78 bc ee d0 5a bc 15 db 5f 3a fe da e7 bd
       -0.0151479 -0.013355477 0.00085394207 -0.11321066
000230 63 f8 ba 3d ec f6 7f bd 86 d3 ff 3d fb b3 47 3e
       0.09129407 -0.062491342 0.12491517 0.19502251
000240 f6 00 b7 3d bf 37 20 3e 3f 34 17 3e 99 da 17 3e
       0.0893573 0.15646265 0.14766024 0.14829482
000250 c9 d9 e3 bd e4 e4 6b 3d 9f 1c c4 3c c4 77 77 3d
       -0.111255236 0.057591334 0.023939429 0.06041695
000260 8e 9c 70 3d 36 bc 09 3e 33 08 0b be 92 a2 75 bc
       0.058743052 0.13450703 -0.13577347 -0.014992373
000270 da e9 cf 3d f6 ee 6e 3d 1c 0e c9 3d 26 87 55 bc
       0.101520255 0.05833336 0.09817144 -0.01303271
000280 1f a5 ba 3a e1 b9 bc 3c 74 34 e9 3c 57 2b 2e 3d
       0.0014239884 0.023037853 0.028467394 0.0425218
000290 6b 5f 92 3d 20 61 df bd 4f d0 32 bc 5d fb ab bc
       0.07147106 -0.10907197 -0.010913922 -0.020993883
0002a0 36 8d d5 3c eb 9a a2 3d 7c 2b 67 3d b3 e9 b3 ba
       0.026068311 0.079397045 0.056437954 -0.0013726264
0002b0 04 31 89 bd 03 f5 31 bc 1f 9d d4 3d 4e 4d 8d bd
       -0.06698802 -0.010861638 0.10381531 -0.0689951
0002c0 51 ed 81 bd ce 89 e6 3d b6 85 f2 bd cb b2 03 be
       -0.06344093 0.11256753 -0.118419096 -0.12861173
0002d0 c3 02 06 3e 09 a3 8e 3d dd dd 88 3d da 85 c0 bd
       0.13086991 0.0696469 0.06682942 -0.0940053
0002e0 8a 41 2d bd fb 94 77 3d aa 77 d6 bd ca 91 d2 bd
       -0.04229883 0.060444813 -0.10472043 -0.10281713
0002f0 8c 5d e6 3d 87 2a 1f be cd ec fe bc a0 44 63 3d
       0.112483114 -0.15543567 -0.031118775 0.055485368
000300 ad 77 51 3d 36 2b 4d bc 06 f2 86 bb e6 10 0e bd
       0.051139522 -0.012522509 -0.004118207 -0.034684084
000310 26 49 91 3c 0e e5 bc 3d cd 4b ba 3d 3e 37 2b bd
       0.017735075 0.09223376 0.09096489 -0.04180073
000320 f8 bb a4 bd dc b2 bb bc 9b 87 3f bd 94 9c e7 bd
       -0.08043665 -0.022912435 -0.046760183 -0.11309162
000330 e0 b0 20 be 4b f5 ad 3c b4 1d 9d 3d cc d5 08 3d
       -0.15692472 0.021235129 0.07671681 0.033407018
000340 c0 34 cc bd 0e ac 09 be c5 eb ea bd cc 7e 17 be
       -0.09970999 -0.1344454 -0.11470751 -0.14794463
000350 9e 23 18 be c8 34 ae 3c d0 30 c6 bd 79 a0 dc bd
       -0.14857337 0.021265402 -0.09677279 -0.10772795
000360 bd a9 2b be 4d 7f e8 bc 6f 91 39 3d 3b 89 7b 3b
       -0.16763969 -0.028381014 0.045304712 0.0038381356
000370 54 f3 bb 3c 8c 62 e8 bd 57 90 2c be 53 30 72 bc
       0.022943176 -0.11346921 -0.16851936 -0.014782029
000380 c5 6e ff bd 2a 6b 44 bd 05 33 1c bd 30 52 f6 3c
       -0.124722995 -0.047953762 -0.038134594 0.030068487
000390 a4 f8 c7 3d f4 d5 56 3d e8 2d 4a 3d 4a 8a 25 3e
       0.09764221 0.052450135 0.049360186 0.16166034
0003a0 53 8c 21 3e c0 f7 ae 3d b8 c6 c9 3b 4a 39 c4 bd
       0.15776186 0.08543348 0.0061577223 -0.095812395
0003b0 b6 13 44 bb bd 06 81 bb 43 f6 a3 bb 43 b8 c9 bc
       -0.0029918975 -0.003937571 -0.005003722 -0.024623996
0003c0 97 ae ea 3c 5c 55 81 3d fe 4d 85 bd 34 0a cd bc
       0.028647704 0.06315109 -0.065090165 -0.02502928
0003d0 2e 62 93 bd 1f cb 69 3c 58 9c 8d bd 37 6b 48 bd
       -0.07196461 0.014269619 -0.06914586 -0.048930373
0003e0 d4 f9 a8 3d 4d 53 e0 bc 29 7f ab bd 76 c6 90 3d
       0.08250776 -0.02738347 -0.08373863 0.070691034
0003f0 ad ed 6e bc 07 cd 57 bd 61 68 29 be 72 94 3a 3d
       -0.0145830335 -0.052685764 -0.16543724 0.045551725

feature_network.0.bias f4 [128]
000000 4b e0 2c bd ff 2c f8 bb ca 90 84 bb db 6a 6e ba
       -0.04220609 -0.0075737233 -0.0040455805 -0.0009094902
000010 90 e0 68 bc 30 df d7 bc 95 f8 09 bd 96 e0 35 bc
       -0.014213696 -0.026351541 -0.033684332 -0.011100909
000020 00 00 00 00 e3 c0 58 3c a7 7c 93 bc 26 24 c8 3c
       0.0 0.0132295815 -0.018003775 0.0244313
000030 6a 75 5e bc 87 43 d8 bc 2e 77 9a bc f7 54 f5 bc
       -0.013577798 -0.026399387 -0.018855657 -0.029947741
000040 5c 3e ab bc 3b ea 30 bc 75 b0 cd bb 11 4d 96 bc
       -0.020903759 -0.010798032 -0.006277139 -0.018347295
000050 9b 79 8b bb 09 31 06 bd fe f1 1d bc 95 e1 4d bb
       -0.00425644 -0.032761607 -0.009640215 -0.0031414975
000060 a6 5a 94 bc ae f9 95 bb 1f 57 06 bd 79 e4 e1 bc
       -0.01810963 -0.0045768833 -0.03279793 -0.027574765
000070 8d d7 5a 3b 51 91 ad bc 00 00 00 00 97 5a dd bc
       0.0033392638 -0.021187456 0.0 -0.027020736
000080 2f 76 bd bc 4d 41 0c bd cd 2c b5 bc bc 6c 9e bc
       -0.023127643 -0.034241963 -0.02211609 -0.019338958
000090 fe c4 63 3c 7e 0e bf bc b9 16 83 bc ef 96 dd bc
       0.013901947 -0.02332234 -0.016002046 -0.02704951
0000a0 cd 08 1b bc 28 69 37 bc d3 aa d1 bc 00 b7 ad bc
       -0.0094625475 -0.011194505 -0.02559415 -0.021205425
0000b0 97 8d 0a bc 05 ea 34 bd d2 9a 93 bc 28 39 93 bc
       -0.008456609 -0.04416849 -0.01801816 -0.01797159
0000c0 ed d4 73 bc 6f 69 af bc 11 d7 03 bc 1d 2b 03 bc
       -0.014882308 -0.02141258 -0.008046881 -0.0080058845
0000d0 6d 9d ea bc 02 17 ad 3b 6b e0 82 bc 7f a9 5b bc
       -0.02863952 0.0052822838 -0.015976151 -0.01340711
0000e0 e4 86 04 bd 12 bc b4 bc df 73 ba bb f1 54 09 bd
       -0.032355204 -0.022062335 -0.0056900824 -0.033528272
0000f0 c1 09 a0 bc 32 7b bf bc 0c 48 46 bc 9d d3 97 3b
       -0.019535901 -0.023374174 -0.012102138 0.0046333806
000100 3b c8 6b bc 42 dd 63 bc 6c cb 99 bb b2 ff ff bc
       -0.014391 -0.013907732 -0.004693439 -0.031249855
000110 d9 f4 76 bc e2 7e b1 bc 5c f9 a8 bc eb 00 ab bc
       -0.015073025 -0.021666948 -0.020626716 -0.020874461
000120 ce 59 24 bd f6 84 7b bc 00 00 00 00 ac 52 59 3b
       -0.040124707 -0.015351525 0.0 0.0033160849
000130 95 89 c0 3b 65 73 a0 bc 60 38 f2 bc c1 05 91 bb
       0.005875776 -0.019586274 -0.029567897 -0.0044257347
000140 b9 a2 ae 3c e4 f3 8c 3b 70 79 73 bc 3f 15 88 bc
       0.021317827 0.004301535 -0.014860496 -0.016611693
000150 8a 11 dc bc 56 38 d4 bc 08 4b d2 bc b7 ee 86 3b
       -0.026863832 -0.02590577 -0.025670543 0.0041178125
000160 f3 5c a1 bc 21 9e 3b bd d0 aa ff bb b5 70 c4 bc
       -0.019697642 -0.0458051 -0.007802345 -0.023979524
000170 25 b1 53 bc d9 b0 85 3c 23 b8 1b 3b e0 5b a0 bc
       -0.0129206525 0.01631968 0.0023760877 -0.01957506
000180 d2 08 f0 bc e0 d1 8f bc f7 c6 e4 bc 11 ce 15 3c
       -0.02930108 -0.01755613 -0.027926905 0.009143368
000190 84 d2 9b bb ea 48 0e 3c 8b 80 ca 3a 92 c5 5e 3c
       -0.00475532 0.008684376 0.0015449686 0.013596909
0001a0 e2 e0 af bc f5 19 9e bc 94 a1 0e 3c 80 2a 31 bd
       -0.021469537 -0.019299487 0.008705515 -0.04325342
0001b0 f6 db d7 bc b2 e8 82 bc b5 f6 c9 bc df 6d 58 bd
       -0.026350003 -0.015980098 -0.024653772 -0.052839156
0001c0 4c ed 72 bc b7 2f 77 3c 64 09 51 bb cd e0 e9 3c
       -0.014827084 0.01508706 -0.0031896466 0.028549576
0001d0 aa 95 1d 3c 7a 5f ce 36 d2 62 46 3c 36 85 3b bc
       0.009618202 6.1503933e-06 0.012108522 -0.011445334
0001e0 00 00 00 00 18 b3 86 bc b5 47 b0 bc 00 00 00 00
       0.0 -0.01644282 -0.021518568 0.0
0001f0 49 61 f2 bc d4 1e a8 bc d0 b6 21 bc ab 0e 98 3c
       -0.029587405 -0.020522512 -0.009870246 0.018561682

feature_network.3.weight f4 [128, 128]
000000 2e a6 d9 3d b9 ae f9 3d 91 7f 36 3e e4 24 00 3d
       0.106273994 0.12191529 0.178221 0.03128518
000010 29 37 1b 3c 58 90 0e 3e 72 cd f9 bc 11 71 1b be
       0.0094736 0.1392225 -0.030493472 -0.1517985
000020 00 0c 09 bb 8d 91 e2 bc d1 e3 27 3d 6d 8c 14 be
       -0.0020911694 -0.027657295 0.040988747 -0.14506693
000030 45 bc 11 3e b3 dc a4 bd 4a aa e4 bc 1a 94 e9 3d
       0.14231975 -0.080499075 -0.027913231 0.11405201
000040 f4 bf e5 bd 85 b8 f8 bd 60 c8 ba bd 0c 1e 08 3d
       -0.11218253 -0.12144569 -0.0912025 0.03323178
000050 9a e5 0a be eb a2 00 bd dd e0 05 3e 58 11 2b 3d
       -0.13564149 -0.03140537 0.1307406 0.041764587
000060 99 45 62 bd 22 cf 29 3d d2 43 9e bd 3a 0e 06 be
       -0.055242155 0.041457303 -0.077277794 -0.13091365
000070 57 b5 a8 bd db 9e 00 3e 31 01 0d 3e af b3 d7 3b
       -0.08237713 0.12560599 0.13769986 0.0065826993
000080 83 88 a0 bd 2e 38 84 3d 42 3e ae 3d 94 8f f9 bd
       -0.078385375 0.06456028 0.085079685 -0.121855885
000090 d8 9e 2f 3d e6 04 3c 3d a5 5a 98 bd 84 fe 56 bd
       0.042876095 0.04590311 -0.07439164 -0.05248882
0000a0 5b 2b 21 bd f9 e0 1c 3e ea aa a2 bc ea 23 d2 bd
       -0.039347988 0.15320195 -0.019856889 -0.10260756
0000b0 c8 d5 1c 3d 5f e6 b9 bd f2 7a 96 bc da 79 ca 3d
       0.038289815 -0.09077143 -0.018369172 0.098865226
0000c0 99 de af 3d 39 b2 c7 bd 33 ac 17 be f9 58 14 bc
       0.08587379 -0.0975079 -0.14811783 -0.009054416
0000d0 ec 75 3a bd 5d 83 11 3d 54 ff fb 3d 2c c9 c3 bd
       -0.045522615 0.03552567 0.12304559 -0.09559855
0000e0 f0 92 c6 bd 0a cc d8 3d d1 88 9d 3d 4a d1 0c 3e
       -0.09695995 0.10585792 0.07692111 0.13751712
0000f0 e5 2e a5 3d ce 50 cc bd cc 75 c6 bd 3c f4 4a bd
       0.08065585 -0.0997635 -0.09690437 -0.049549326
000100 11 96 e6 bd f3 cc 1e be 5d a8 78 bd c7 1a b0 3d
       -0.11259092 -0.1550787 -0.06070744 0.085988574
000110 ef 97 b7 3d 56 db 4b bd c4 92 c8 bc 58 a7 04 be
       0.08964526 -0.049769722 -0.024484046 -0.12954462
000120 97 95 8e 3d 26 b5 e3 bd 96 bc c8 bd 74 96 27 be
       0.06962126 -0.11118536 -0.09801595 -0.16365987
000130 7e 94 9d bd 25 2d be bd f2 21 0c 3e 24 28 89 bd
       -0.07694338 -0.092859544 0.13684824 -0.06697109
000140 20 71 15 bd 18 9f 4c 3d 35 be 93 bd 43 e3 b5 bd
       -0.036484838 0.04995641 -0.072140135 -0.08881237
000150 f1 7b 05 be d5 57 53 bd fe 99 9c 3d 0b e3 ff bd
       -0.13035561 -0.051597435 0.07646559 -0.12494477
000160 2a 66 26 bd 90 50 66 3d 8d c6 99 bd 9d f3 aa bd
       -0.040624775 0.056229174 -0.07508574 -0.08347247
000170 a8 07 94 3d 3a 9e a2 bd 97 7a 07 bd f4 31 47 be
       0.07228023 -0.079403356 -0.033075895 -0.1945265
000180 ed aa a9 3d 6b 4d d0 bd 80 4e 16 3d de ad c3 bd
       0.08284555 -0.10171016 0.036695957 -0.09554647
000190 3a 5a 40 3d be c7 59 bd d7 86 30 3e d1 3b e4 bd
       0.046961047 -0.053169005 0.17238937 -0.111442216
0001a0 0b 76 92 ba af d2 9c bd a2 ee f2 bd 5e c8 f4 bd
       -0.0011174096 -0.07657372 -0.11861922 -0.119522795
0001b0 0a da 86 3c ee 0a 50 3b 78 ab 9a bd 01 3e d4 3c
       0.016461391 0.0031744796 -0.07552236 0.025908472
0001c0 c8 1e 83 3d ca b3 0a be 18 3b 22 be 30 ff 1f be
       0.064023554 -0.13545147 -0.15842855 -0.1562469
0001d0 39 2c ff bc 66 30 ae bd ea f0 39 3e c3 27 6c bc
       -0.031149017 -0.08505325 0.18158308 -0.014413777
0001e0 30 5b 4c 3c 2f 5a 66 bd 83 2a f0 bd 68 e8 e5 bd
       0.012472913 -0.05623835 -0.117268585 -0.112259686
0001f0 44 45 d6 bd 80 6d d0 bc ed d6 98 bc 93 37 8d 3d
       -0.1046243 -0.025442839 -0.018657172 0.068953656
000200 9e 5a d1 bd 42 5b 0b 3e c9 30 ff 3c 5c 6d 22 3d
       -0.10222362 0.13609031 0.031151192 0.039655074
000210 b6 ca 5b 3c de 0d 13 3e ba 59 3d bd f2 6a c3 bd
       0.013415029 0.14360759 -0.046228148 -0.095418826
000220 c8 30 c3 3c 58 a2 a2 3d 97 e2 0d 3c 29 0f 5d 3d
       0.023826972 0.07941121 0.00865998 0.053969536
000230 62 de bf bb 73 99 d2 bc 2f b5 14 be 60 d3 95 3d
       -0.0058553675 -0.025707936 -0.14522241 0.07315707
000240 63 f7 04 3e 20 d0 a5 bd 44 cd d3 ba b2 c0 d6 bd
       0.12984996 -0.08096337 -0.0016159196 -0.104859725
000250 1c f8 a6 3d 86 a1 cf 3a 6d e3 77 3b 08 b2 a0 bc
       0.08152792 0.0015840984 0.0037824765 -0.019616142
000260 af e4 d3 bd 29 98 0e be b1 f8 e3 3d 67 13 10 be
       -0.10346352 -0.13925232 0.111314185 -0.14069901
000270 de 88 31 3d 45 83 1f be c0 87 e8 bb 86 cc 01 be
       0.043343417 -0.15577419 -0.007096261 -0.12675676
000280 f7 70 bf 3d 3d 3f 88 bd 75 89 bc 3d ed b6 ec bd
       0.09347718 -0.06652687 0.09205905 -0.11558328
000290 f2 0f 15 3d 5f e4 17 bd 2e d5 ed bd 07 86 93 bd
       0.03639216 -0.037083026 -0.116129264 -0.07203298
0002a0 fe 7d c5 bd f7 a5 26 38 91 60 f1 3d 3d bc 0a be
       -0.09643172 3.973205e-05 0.11785997 -0.1354837
0002b0 1f e5 97 3d d2 8d df bd 99 d3 9b 3d 60 67 1a be
       0.07416748 -0.10915722 0.076087184 -0.15078497
0002c0 a0 f8 b3 3d a0 a5 bd bd a1 3e 0d bc c2 0e fa 3d
       0.08787656 -0.09260106 -0.008620889 0.12209846
0002d0 c6 bb 72 3d 49 a8 08 bd 0c 9f c7 bd 27 b6 04 be
       0.059261106 -0.033363614 -0.09747133 -0.1296011
0002e0 69 70 fa b9 7f 28 0f be e4 33 bd bd 7f 45 84 3d
       -0.00047767468 -0.13980292 -0.09238413 0.06458568
0002f0 aa 25 ff 3d 23 75 1e 3e d8 a4 41 bd 0e bd d9 3d
       0.12458356 0.15474372 -0.047276348 0.106317624
000300 80 72 8e 3d 90 84 83 3b b8 9b a4 3d 00 08 71 3d
       0.06955433 0.0040136054 0.080375135 0.05884552
000310 e9 15 69 3d 8e 80 d2 bd 2e 18 32 3d 79 9d f2 3d
       0.05690566 -0.10278426 0.04348009 0.11846442
000320 aa 6d e1 bd 94 a4 a9 3d ce 6e b6 3d 29 c9 03 be
       -0.11007245 0.08283344 0.08907853 -0.12869705
000330 da d4 90 3d 0d 5e e4 3c 8a a3 ec bd 65 b7 bf 3d
       0.07071848 0.027876878 -0.1155463 0.093611516
000340 d6 a0 3b 3d c4 5a da 3c 2f bd 26 be 2a 14 a8 3d
       0.045807682 0.026654609 -0.16283105 0.08206971
000350 be 4e 02 3e 0c db ac 3d a6 93 10 be f3 77 82 bd
       0.1272535 0.084402174 -0.14118823 -0.06370535
000360 b9 f9 c7 bd a9 4f c5 3d e8 53 f3 3d 56 e9 0b 3e
       -0.09764428 0.096343346 0.11881238 0.1366323
000370 f8 17 a8 3d 9e 06 14 be 73 cf 5d bc e4 ca 1c be
       0.08207697 -0.1445565 -0.013538229 -0.15311772
000380 97 0f 4c 3d 58 23 b8 3d 5e aa 3f bd ee 57 34 3d
       0.049819555 0.08991116 -0.046793334 0.04402917
000390 12 da e0 3d 56 5c 7e bd 12 47 83 bd f5 ec 67 bd
       0.109790936 -0.062099777 -0.0641004 -0.056622464
0003a0 95 2a 0e be 48 a7 44 3d db 64 7c bc 78 ec 18 be
       -0.13883431 0.048011094 -0.015404905 -0.14933956
0003b0 52 e7 00 be 3c 8c 99 3d 27 2b bb 3d 4d 28 32 3d
       -0.12588242 0.07497451 0.0913909 0.043495465
0003c0 09 fd b6 3d 62 96 c8 3c b4 4b d9 3d 9c e9 09 be
       0.089349814 0.02448577 0.10610142 -0.13468021
0003d0 73 df b4 bd 47 4e 1b 3e f5 70 8b bd 9d bb ef 3d
       -0.08831682 0.15166579 -0.06808654 0.11705706
0003e0 b0 84 1b 3c eb 87 22 3d a7 d7 d8 bc 04 2c 4e 3d
       0.009492084 0.039680403 -0.026470019 0.050334945
0003f0 93 cc b7 3d 8d a4 c5 3d 65 be a7 3d aa 21 27 3d
       0.08974566 0.09650526 0.08190612 0.04080359
