training_results/dqn_detectives_1753803556.pth (torch, 155139 bytes, 10 tensors)

feature_network.0.weight f4 [64, 239]
00000000: fc3d 4f3d 962c 0d3e e084 21bc 4c55 98bd
00000010: 10ca 233c 04b9 02bd daa7 a83d 1a28 1abd
00000020: 34ff a2bc 4a94 a43d c0bf 493b 5614 a73d
00000030: 1ddb f8bd 9f5e e2bd 707f 223c 188d 92bc
00000040: e688 a8bd 18b4 d9bd b564 0dbe 5a06 91bd
00000050: ccb8 f03d c86c d73c 2233 9c3d 1498 053e
00000060: c1cb ecbd 30a9 ce3d 2ea2 b53d 187e 5cbd
00000070: 9a2e 90bd c2c6 0ebe ef27 c7bd a0f5 bcbc
00000080: 44d5 c5bc ee86 07be 40d5 7c3b 86ca 47bd
00000090: c0db 283c 8eb3 d0bd a09f a93c 8806 a4bc
000000a0: 4097 f73b fd20 0fbe f04f c7bc b6d2 79bd
000000b0: e0b5 fa3c 70cc 69bc a7e0 b7bd 6a41 5abd
000000c0: 3036 db3d 1af7 c33d 1431 633d 7824 063e
000000d0: ec12 16bd 3cd7 063e 5e63 13bd 80e5 533b
000000e0: 356e 96bd 28fb ef3d cefa 3cbd 80bf 953b
000000f0: 209b a9bd e2d7 4dbd 4062 f43d 1864 e93d
00000100: d4c4 0d3e edb6 90bd c8b5 323d bc1e 95bc
00000110: d29a 0cbe 30bf f83d be89 ccbd 429c 77bd
00000120: 749d 0dbe 001d 713c 40bc a23d 7ef0 5fbd
00000130: 0483 ee3d 70ba 7f3d 30b9 063e 10a8 acbc
00000140: f026 dd3d 0e4c 48bd 5cec 63bd a484 9dbd
00000150: 7fe4 96bd e810 983d 34ed d93d 768b d9bd
00000160: dc24 043e 02b5 7bbd 986a e8bc 7f0c ffbd
00000170: 4098 5d3b c823 813d e0bc 893b 404a 29bd
00000180: 3ac4 023e 3875 973c a011 953c 7ec7 0e3e
00000190: d651 d33d 7812 bcbc ec64 e3bc 5883 c2bd
000001a0: 2204 7dbd 8018 c93d 94b2 a93d d187 aabd
000001b0: 00bf f43c 5e7b 5dbd 5c45 40bd 187f 94bd
000001c0: d2c4 9f3d 6e4a 57bd 2364 b1bd d08d 993c
000001d0: 6a03 abbd d270 cabd e096 3d3d e06e 0e3c
000001e0: ba9f a93d 6e48 d03d 0ab8 be3d f7fe cabd
000001f0: 92dd b03d 20a4 df3d 28df 8d3d e43e d03d
00000200: e872 753d fd23 9bbd 06bd acbd 646b 06bd
00000210: 82dc 1cbd 8cc0 1dbd d243 bbbd c843 693d
00000220: 2f1b 0dbe 4c48 083e 5424 bb3d 400e 3c3c
00000230: e872 b83d 8c89 1f3d 50c1 483c ac4a 02bd
00000240: d0c0 ecbd 24ff d8bc 9c5a 853d 00a5 7fba
00000250: d8b6 2f3d 503f f63c 680a aa3c e8b6 903c
00000260: 583f 973c d29e 70bd 1206 b7bd 00c4 d4b9
00000270: 8740 90bd 6ced dfbd 4002 813d ea59 a03d
00000280: 36d7 cabd 7c5d c5bd 983f 7a3d 2edd 94bd
00000290: 8087 be3d 6e19 c43d dece c43d acf6 e73d
000002a0: f898 52bd e096 44bc b876 063e ce76 b13d
000002b0: 340c 03be 90f4 6abc b0d9 9ebc 6cb2 073e
000002c0: 6825 293d 5401 9b3d e078 42bc 205a 793c
000002d0: 40e9 2a3d 68a4 b93d 2315 9ebd 6816 c93d
000002e0: f285 44bd 6094 783c f77f f4bd 741d e23d
000002f0: ae59 94bd 30bd a53d b8a7 c4bd b6ef d6bd
00000300: 9846 9a3d 6465 3e3d c064 9c3b 5096 6e3d
00000310: 7098 233c aea1 23bd 2472 5d3d 10a8 6cbc
00000320: 12ae e7bd 4b9b 95bd 5c8b d7bc bcc5 e13d
00000330: 442a 1e3d da1e 48bd 06e2 d8bd 57ad bdbd
00000340: ce7b 68bd 2e4c 0f3e 7037 f7bc 36de c3bd
00000350: 2031 f13d d430 653d 19d1 80bd a4a1 abbd
00000360: b445 ebbc bc0c de3d cc6c c43d c5af e8bd
00000370: 68fb 1fbd 6626 a9bd 859b 97bd cc5d f13d
00000380: 1a37 d43d 48d0 a43d b017 93bd 5292 003e
00000390: 3073 353d 44cb 7cbd 36fc 9d3d 8c50 a73d
000003a0: 0c81 5d3d f695 69bd d431 c9bd 4617 79bd
000003b0: e073 a6bb 6857 d83d c498 0abe ccab 43bd
000003c0: c4dd 19bd b08e f53d 0d51 0cbe d42b 4f3d
000003d0: 506d 1bbc 1404 2c3d ccb0 783d 34d0 083d
000003e0: e81f 013d 345b 013e 80dc 553c a0c2 9ebb
000003f0: 6ed5 c7bd 7598 b3bd 685b 01be 34dd f33d
0.050596222 0.1378654 -0.00985834 -0.07438144 0.009996906 -0.031914726 0.0823514 -0.0376359
-0.019897081 0.080360964 0.0030784458 0.08158176 -0.121511675 -0.11053204 0.009918079 -0.017889544
-0.08229236 -0.10630053 -0.13807948 -0.070812896 0.11753997 0.026296988 0.0762694 0.13046294
-0.115623005 0.10090864 0.08868824 -0.05383119 -0.070401385 -0.13943008 -0.097244136 -0.023066342
-0.024149545 -0.13235065 0.0038579255 -0.048777126 0.010306299 -0.10190497 0.020705998 -0.020022646
0.007555872 -0.13977428 -0.02433011 -0.060991965 0.030604303 -0.014269933 -0.08978396 -0.05328504
0.10703695 0.09568615 0.055466726 0.13099849 -0.03663914 0.13168043 -0.035983436 0.0032332838
-0.07345239 0.11717826 -0.046137623 0.0045699477 -0.08281541 -0.05025471 0.11932802 0.113960445
0.13844615 -0.0706614 0.04363039 -0.018203132 -0.13730934 0.12145841 -0.0998721 -0.060451753
-0.13829595 0.014716387 0.07946062 -0.05467271 0.11646083 0.06243366 0.13156581 -0.021076232
0.10798442 -0.048900656 -0.05564533 -0.07691315 -0.07367801 0.074250996 0.10640946 -0.10622303
0.12904686 -0.06145192 -0.02837114 -0.12453555 0.0033812672 0.06305653 0.004203424 -0.041330576
0.12770167 0.018488511 0.01819688 0.13943288 0.10318343 -0.022958025 -0.027758084 -0.09497708
-0.06177152 0.09819126 0.08286014 -0.08326686 0.029876232 -0.05407273 -0.046941146 -0.07250804
0.07801212 -0.052561216 -0.08661678 0.01874438 -0.083502606 -0.098848 0.046286464 0.008693427
0.082824185 0.10170065 0.093124464 -0.09911912 0.08636011 0.10919976 0.06927329 0.101682454
0.059924036 -0.075752236 -0.08434491 -0.03281726 -0.03829623 -0.038513705 -0.09143795 0.056949407
-0.13779901 0.13308829 0.091377884 0.011478007 0.09006292 0.038949534 0.012253121 -0.031809494
-0.115602136 -0.026488848 0.06511423 -0.0009752065 0.042898983 0.030059487 0.020756915 0.017665341
0.018462822 -0.058745213 -0.08936705 -0.00040581822 -0.070435576 -0.109339565 0.06299257 0.0782965
-0.099043295 -0.09636971 0.061095804 -0.07268749 0.09303188 0.09575163 0.09609769 0.11326346
-0.051415414 -0.011998862 0.13131225 0.08665238 -0.12797624 -0.014340535 -0.01939091 0.13251656
0.04129544 0.07568613 -0.011869639 0.015219241 0.04172635 0.09064561 -0.07718875 0.09818727
-0.047979303 0.015172094 -0.1193847 0.11040774 -0.072436675 0.08092725 -0.09602302 -0.1049494
0.07532996 0.046483412 0.0047727525 0.058248818 0.009985074 -0.03994911 0.05406393 -0.014444366
-0.11312498 -0.073050104 -0.026311569 0.11024043 0.038614526 -0.048857547 -0.105899855 -0.092615776
-0.056758694 0.13993904 -0.030177802 -0.09563868 0.11776948 0.05595477 -0.06289882 -0.0838044
-0.02871976 0.10842273 0.09591064 -0.113616504 -0.03905812 -0.08259277 -0.0740271 0.117854685
0.10362072 0.08047539 -0.071822524 0.12555817 0.044299304 -0.061717287 0.07714121 0.0816966
0.054078147 -0.05702778 -0.09823957 -0.06081321 -0.0050797313 0.105635464 -0.13534838 -0.04777126
-0.037565008 0.11990106 -0.13702793 0.050578907 -0.009486511 0.041996077 0.06071548 0.033401683
0.03152457 0.12632447 0.01305306 -0.0048449785 -0.09757505 -0.08769313 -0.12632525 0.119074255

feature_network.0.bias f4 [64]
00000000: 0000 0000 0000 0000 0000 0000 0000 0000
00000010: 0000 0000 0000 0000 0000 0000 0000 0000
00000020: 0000 0000 0000 0000 0000 0000 0000 0000
00000030: 0000 0000 0000 0000 0000 0000 0000 0000
00000040: 0000 0000 0000 0000 0000 0000 0000 0000
00000050: 0000 0000 0000 0000 0000 0000 0000 0000
00000060: 0000 0000 0000 0000 0000 0000 0000 0000
00000070: 0000 0000 0000 0000 0000 0000 0000 0000
00000080: 0000 0000 0000 0000 0000 0000 0000 0000
00000090: 0000 0000 0000 0000 0000 0000 0000 0000
000000a0: 0000 0000 0000 0000 0000 0000 0000 0000
000000b0: 0000 0000 0000 0000 0000 0000 0000 0000
000000c0: 0000 0000 0000 0000 0000 0000 0000 0000
000000d0: 0000 0000 0000 0000 0000 0000 0000 0000
000000e0: 0000 0000 0000 0000 0000 0000 0000 0000
000000f0: 0000 0000 0000 0000 0000 0000 0000 0000
0.0 0.0 0.0 0.0 0.0 0.0 0.0 0.0
0.0 0.0 0.0 0.0 0.0 0.0 0.0 0.0
0.0 0.0 0.0 0.0 0.0 0.0 0.0 0.0
0.0 0.0 0.0 0.0 0.0 0.0 0.0 0.0
0.0 0.0 0.0 0.0 0.0 0.0 0.0 0.0
0.0 0.0 0.0 0.0 0.0 0.0 0.0 0.0
0.0 0.0 0.0 0.0 0.0 0.0 0.0 0.0
0.0 0.0 0.0 0.0 0.0 0.0 0.0 0.0

feature_network.3.weight f4 [32, 64]
00000000: b0a4 b33d b024 1a3e 8210 173e 7066 c53c
00000010: 4c1c d5bd b22f 25be 8897 41be 28af da3d
00000020: c41c 083e 68bc 7fbd 6898 5f3d a01c f4bd
00000030: e891 763e 705c 16bd c8ee 8c3d ec30 393e
00000040: d0f5 4d3e a8c4 763d 9840 b2bd e01e 2fbe
00000050: 3866 f4bd 3c1e 7f3e 9495 f4bd a075 2cbd
00000060: 607c 0f3c d0f1 aebc 74a1 933d b81b 8cbd
00000070: 002e 173e 9e1f 19be 3a86 46be 002c ecbc
00000080: bef0 563e 6005 4ebd 20fd 1bbd 74e6 11be
00000090: b452 0dbe c816 d73d c0ec 893c 60de 683c
000000a0: 22ec 1e3e c216 5e3e 10ad c93d 400c d8bc
000000b0: 06c7 3ebe 20c6 eb3c a078 053c fcf3 c8bd
000000c0: 768d 6f3e 6207 173e 3427 003e 08f0 82bd
000000d0: b064 f93d ae9d 35be 883a 793d 1032 ca3d
000000e0: 8881 b1bd 366f 15be 70a1 883c e4d4 173e
000000f0: eece 613e 50c9 61be 58ad ff3d 8053 093b
00000100: e006 cb3d 0048 313a 5064 f5bc 2e76 7c3e
00000110: 6457 ef3d 4af6 1ebe 4c61 413e 3cfe ccbd
00000120: d4be 1dbe ee95 77be 8ca5 4bbe d0a8 29bd
00000130: 78de 5e3d 24f9 c8bd 2e49 513e 8404 57be
00000140: 54be 8ebd 2a11 4f3e 889f 5c3d cc54 203e
00000150: 668c 133e 4e80 023e b208 31be e066 51bd
00000160: 003a b73d 8665 103e c898 6ebd 18ba 0fbd
00000170: aac0 4abe 002a b33a bcef 4dbe 600a 65bd
00000180: d09e ca3c 14ae 48be 6acb 74be 061c 1bbe
00000190: e810 fcbd 008e 9a3d 88ad 30be 6810 773e
000001a0: bcd7 aabd ce6d 5fbe 7c63 18be 9662 2b3e
000001b0: acec c83d dc22 e6bd eea2 503e 2066 2a3e
000001c0: a0d1 36bc 50c8 e83c e4f5 cc3d 100e 513e
000001d0: b283 44be c891 113e 98ee 33be 7c26 1d3e
000001e0: 6001 aabd 7005 083e a079 25bc c26e 443e
000001f0: c4cc f63d fe4e 63be 60c1 083e 681b 5abe
00000200: 6832 0abe d407 fcbd 70ad 323e 5e70 733e
00000210: 84a6 323e 2032 dbbd e46e 083e a836 6f3e
00000220: 4c65 8dbd 9054 783e 6627 623e 5a93 67be
00000230: f077 cabc 1c91 793e 6a70 273e 4ca2 b33d
00000240: 34ea 7b3e 2ac8 47be fed8 2dbe a077 6cbc
00000250: d806 30be 8026 413c 783c 4fbe dc54 943d
00000260: ac5c 65be 60e5 a5bc 80ab 5d3b f02b 63be
00000270: f88d cbbd c81e 13be c022 e23c d0b2 94bd
00000280: 78ee 21be 30b2 debc 0022 023c 12f9 313e
00000290: c030 fc3b 30f0 d1bd 001a 03ba 5443 3ebe
000002a0: 42e5 0b3e 907b 06bd 9434 01be 54ab 5c3e
000002b0: caf8 61be c092 25bc 3241 193e 7848 30bd
000002c0: b0e9 a3bd 682b b1bd 147a a43d f06f 5f3e
000002d0: d88c 3cbe 54ec fdbd 2069 17bd e2e2 643e
000002e0: 38cd b3bd 80f6 02bb 644b 1cbe 22b9 42be
000002f0: e648 72be 583a 043d 7020 e5bd 425f 253e
00000300: 8072 70be 449b 513e 5c87 eb3d b865 2bbe
00000310: a860 4c3e e026 823d c09e 9abb f859 64bd
00000320: b8dd 473d 34a0 bd3d e0e7 a9bd acc7 c83d
00000330: e83b 02be eaf8 3dbe 508e 90bd a868 4d3d
00000340: 3c6d 283e c2cd 5bbe ccbd f83d 489e 4dbe
00000350: b878 be3d b412 ddbd 2ca0 db3d 60d7 51be
00000360: a4d9 1bbe 54a0 8b3d 8a1d 42be 284a 75be
00000370: da26 09be a48c 3f3e 7663 6e3e d22c 4d3e
00000380: 6055 063e e8f3 0cbe 06b8 333e bc95 d1bd
00000390: 7886 2fbd e474 dc3d f84b 2f3e 8018 6cbd
000003a0: 30ca 8b3d a470 e43d 4cf7 043e 402d 483e
000003b0: b028 cebd d4da 9d3d 88cc 863d 1422 cbbd
000003c0: 103d b1bc 74ef 1fbe 5ebd 133e 7850 113e
000003d0: 502e b2bd dc1d a6bd 2663 633e 12dd 393e
000003e0: 9a0e 59be 3a15 6f3e fc9a 3bbe a8cc 1e3e
000003f0: 8847 4f3d 521b 64be d87c bb3d 3814 19bd
0.08771646 0.15053058 0.14752391 0.024096698 -0.10405788 -0.16131476 -0.18905461 0.1067794
0.13292223 -0.062435538 0.054588705 -0.11919522 0.24079096 -0.03670925 0.068814814 0.18085068
0.20113301 0.06024614 -0.087037265 -0.17101622 -0.11933559 0.24913877 -0.11942592 -0.042104363
0.008757681 -0.02135554 0.07208529 -0.068412244 0.14763641 -0.14953467 -0.19387141 -0.028829575
0.20990273 -0.050298095 -0.038083196 -0.14248067 -0.1380108 0.10502392 0.016836524 0.014213175
0.15519765 0.21688369 0.09847462 -0.026373029 -0.18630609 0.028780997 0.008146435 -0.09812161
0.23393807 0.1474891 0.12514955 -0.063934386 0.12177408 -0.17735931 0.060846835 0.0987283
-0.08667284 -0.14593205 0.016678542 0.14827305 0.22051594 -0.22049451 0.124842346 0.002095431
0.09913421 0.0006762743 -0.02995506 0.24654457 0.1168659 -0.1552364 0.18884772 -0.10009429
-0.15404826 -0.24178287 -0.1988737 -0.041420758 0.05441138 -0.09813145 0.20438072 -0.20997816
-0.06969896 0.20221391 0.05386308 0.15657347 0.14409027 0.12744257 -0.17288473 -0.0511235
0.089466095 0.14101228 -0.058251172 -0.035089582 -0.19800058 0.0013669133 -0.20110983 -0.055918097
0.02473393 -0.19597656 -0.23905721 -0.15147409 -0.12307912 0.075466156 -0.17253697 0.24127352
-0.08341929 -0.21819231 -0.148817 0.16736826 0.098107666 -0.11237118 0.20374653 0.1664052
-0.011158377 0.028415829 0.100078374 0.2041552 -0.19190863 0.14215767 -0.17571485 0.15346712
-0.083010435 0.13283324 -0.010099798 0.19182876 0.12050775 -0.22198102 0.13355017 -0.21299517
-0.13495791 -0.123061806 0.17448974 0.23773333 0.17446333 -0.1070292 0.13323551 0.23360693
-0.069040865 0.24251008 0.22085342 -0.22614804 -0.024715394 0.24371761 0.16351476 0.0877119
0.2460106 -0.1950995 -0.16977307 -0.014432818 -0.1719011 0.011788964 -0.20237911 0.07242748
-0.22398633 -0.020250976 0.0033824146 -0.2218473 -0.09939188 -0.14367211 0.02760446 -0.07260668
-0.15813625 -0.027184576 0.007942677 0.17380169 0.007696241 -0.1025089 -0.0005001128 -0.18580371
0.13661674 -0.032832682 -0.12617713 0.21549731 -0.22067562 -0.010105789 0.14966276 -0.04303786
-0.08003557 -0.08650857 0.08031097 0.21820045 -0.18413103 -0.12398592 -0.03696549 0.22352174
-0.08779377 -0.0019983351 -0.15263134 -0.19015935 -0.23660621 0.032282203 -0.111878276 0.16149619
-0.23481178 0.20469385 0.11500427 -0.16738021 0.19958746 0.06355071 -0.0047186315 -0.055749863
0.04879543 0.09259072 -0.0829618 0.098037094 -0.12718165 -0.18551984 -0.07058394 0.050148636
0.1644792 -0.21465209 0.12145576 -0.20079911 0.09300369 -0.10794583 0.1072391 -0.20492315
-0.15219742 0.068176895 -0.18956581 -0.2395407 -0.13393727 0.18705994 0.23280129 0.20036629
0.13118505 -0.13764918 0.17550668 -0.10233638 -0.04285285 0.107644826 0.17118824 -0.057640553
0.068256736 0.11154297 0.12984961 0.19548512 -0.10066354 0.07707754 0.0658198 -0.09918609
-0.021635562 -0.15618688 0.14427707 0.14190853 -0.0870024 -0.08111164 0.22205791 0.18150738
-0.21196976 0.23347941 -0.1832084 0.15507758 0.050605327 -0.22276047 0.091546714 -0.037372798

feature_network.3.bias f4 [32]
00000000: 0000 0000 0000 0000 0000 0000 0000 0000
00000010: 0000 0000 0000 0000 0000 0000 0000 0000
00000020: 0000 0000 0000 0000 0000 0000 0000 0000
00000030: 0000 0000 0000 0000 0000 0000 0000 0000
00000040: 0000 0000 0000 0000 0000 0000 0000 0000
00000050: 0000 0000 0000 0000 0000 0000 0000 0000
00000060: 0000 0000 0000 0000 0000 0000 0000 0000
00000070: 0000 0000 0000 0000 0000 0000 0000 0000
0.0 0.0 0.0 0.0 0.0 0.0 0.0 0.0
0.0 0.0 0.0 0.0 0.0 0.0 0.0 0.0
0.0 0.0 0.0 0.0 0.0 0.0 0.0 0.0
0.0 0.0 0.0 0.0 0.0 0.0 0.0 0.0

q_network.0.weight f4 [1, 32]
00000000: 74f8 7d3e 98ef b5bd 00d8 903e c473 433e
00000010: d032 73bd 40df 57be c086 bebb 8819 00bd
00000020: 209d 8a3e c493 7c3e 086b e63d 1e6c bcbe
00000030: 9826 eb3d c012 f13b 00d4 7f3e a62f d63e
00000040: 13f6 66be 98d4 42bd 4821 853e 344c ca3e
00000050: 9233 84be dddd d4be 0090 663e 42f8 0fbe
00000060: 28bf 99be a4b7 ebbd 4ac6 cfbe a4de c8be
00000070: 98a0 923d fc79 90be 605e 293e 5034 613e
0.24801809 -0.088835895 0.28289795 0.1908713 -0.05937463 -0.21081257 -0.0058144033 -0.03127435
0.27073002 0.24665743 0.11250883 -0.36801237 0.114819705 0.0073569715 0.24983215 0.41833228
-0.22554807 -0.047566026 0.26001954 0.39511263 -0.25820595 -0.41575518 0.22515869 -0.14059547
-0.30028653 -0.11509636 -0.4058097 -0.3923236 0.07159537 -0.28218067 0.16539907 0.21992612

feature_network.0.weight f4 [64, 239]
00000000: fc3d 4f3d 962c 0d3e e084 21bc 4c55 98bd
00000010: 10ca 233c 04b9 02bd daa7 a83d 1a28 1abd
00000020: 34ff a2bc 4a94 a43d c0bf 493b 5614 a73d
00000030: 1ddb f8bd 9f5e e2bd 707f 223c 188d 92bc
00000040: e688 a8bd 18b4 d9bd b564 0dbe 5a06 91bd
00000050: ccb8 f03d c86c d73c 2233 9c3d 1498 053e
00000060: c1cb ecbd 30a9 ce3d 2ea2 b53d 187e 5cbd
00000070: 9a2e 90bd c2c6 0ebe ef27 c7bd a0f5 bcbc
00000080: 44d5 c5bc ee86 07be 40d5 7c3b 86ca 47bd
00000090: c0db 283c 8eb3 d0bd a09f a93c 8806 a4bc
000000a0: 4097 f73b fd20 0fbe f04f c7bc b6d2 79bd
000000b0: e0b5 fa3c 70cc 69bc a7e0 b7bd 6a41 5abd
000000c0: 3036 db3d 1af7 c33d 1431 633d 7824 063e
000000d0: ec12 16bd 3cd7 063e 5e63 13bd 80e5 533b
000000e0: 356e 96bd 28fb ef3d cefa 3cbd 80bf 953b
000000f0: 209b a9bd e2d7 4dbd 4062 f43d 1864 e93d
00000100: d4c4 0d3e edb6 90bd c8b5 323d bc1e 95bc
00000110: d29a 0cbe 30bf f83d be89 ccbd 429c 77bd
00000120: 749d 0dbe 001d 713c 40bc a23d 7ef0 5fbd
00000130: 0483 ee3d 70ba 7f3d 30b9 063e 10a8 acbc
00000140: f026 dd3d 0e4c 48bd 5cec 63bd a484 9dbd
00000150: 7fe4 96bd e810 983d 34ed d93d 768b d9bd
00000160: dc24 043e 02b5 7bbd 986a e8bc 7f0c ffbd
00000170: 4098 5d3b c823 813d e0bc 893b 404a 29bd
00000180: 3ac4 023e 3875 973c a011 953c 7ec7 0e3e
00000190: d651 d33d 7812 bcbc ec64 e3bc 5883 c2bd
000001a0: 2204 7dbd 8018 c93d 94b2 a93d d187 aabd
000001b0: 00bf f43c 5e7b 5dbd 5c45 40bd 187f 94bd
000001c0: d2c4 9f3d 6e4a 57bd 2364 b1bd d08d 993c
000001d0: 6a03 abbd d270 cabd e096 3d3d e06e 0e3c
000001e0: ba9f a93d 6e48 d03d 0ab8 be3d f7fe cabd
000001f0: 92dd b03d 20a4 df3d 28df 8d3d e43e d03d
00000200: e872 753d fd23 9bbd 06bd acbd 646b 06bd
00000210: 82dc 1cbd 8cc0 1dbd d243 bbbd c843 693d
00000220: 2f1b 0dbe 4c48 083e 5424 bb3d 400e 3c3c
00000230: e872 b83d 8c89 1f3d 50c1 483c ac4a 02bd
00000240: d0c0 ecbd 24ff d8bc 9c5a 853d 00a5 7fba
00000250: d8b6 2f3d 503f f63c 680a aa3c e8b6 903c
00000260: 583f 973c d29e 70bd 1206 b7bd 00c4 d4b9
00000270: 8740 90bd 6ced dfbd 4002 813d ea59 a03d
00000280: 36d7 cabd 7c5d c5bd 983f 7a3d 2edd 94bd
00000290: 8087 be3d 6e19 c43d dece c43d acf6 e73d
000002a0: f898 52bd e096 44bc b876 063e ce76 b13d
000002b0: 340c 03be 90f4 6abc b0d9 9ebc 6cb2 073e
000002c0: 6825 293d 5401 9b3d e078 42bc 205a 793c
000002d0: 40e9 2a3d 68a4 b93d 2315 9ebd 6816 c93d
000002e0: f285 44bd 6094 783c f77f f4bd 741d e23d
000002f0: ae59 94bd 30bd a53d b8a7 c4bd b6ef d6bd
00000300: 9846 9a3d 6465 3e3d c064 9c3b 5096 6e3d
00000310: 7098 233c aea1 23bd 2472 5d3d 10a8 6cbc
00000320: 12ae e7bd 4b9b 95bd 5c8b d7bc bcc5 e13d
00000330: 442a 1e3d da1e 48bd 06e2 d8bd 57ad bdbd
00000340: ce7b 68bd 2e4c 0f3e 7037 f7bc 36de c3bd
00000350: 2031 f13d d430 653d 19d1 80bd a4a1 abbd
00000360: b445 ebbc bc0c de3d cc6c c43d c5af e8bd
00000370: 68fb 1fbd 6626 a9bd 859b 97bd cc5d f13d
00000380: 1a37 d43d 48d0 a43d b017 93bd 5292 003e
00000390: 3073 353d 44cb 7cbd 36fc 9d3d 8c50 a73d
000003a0: 0c81 5d3d f695 69bd d431 c9bd 4617 79bd
000003b0: e073 a6bb 6857 d83d c498 0abe ccab 43bd
000003c0: c4dd 19bd b08e f53d 0d51 0cbe d42b 4f3d
000003d0: 506d 1bbc 1404 2c3d ccb0 783d 34d0 083d
000003e0: e81f 013d 345b 013e 80dc 553c a0c2 9ebb
000003f0: 6ed5 c7bd 7598 b3bd 685b 01be 34dd f33d
0.050596222 0.1378654 -0.00985834 -0.07438144 0.009996906 -0.031914726 0.0823514 -0.0376359
-0.019897081 0.080360964 0.0030784458 0.08158176 -0.121511675 -0.11053204 0.009918079 -0.017889544
-0.08229236 -0.10630053 -0.13807948 -0.070812896 0.11753997 0.026296988 0.0762694 0.13046294
-0.115623005 0.10090864 0.08868824 -0.05383119 -0.070401385 -0.13943008 -0.097244136 -0.023066342
-0.024149545 -0.13235065 0.0038579255 -0.048777126 0.010306299 -0.10190497 0.020705998 -0.020022646
0.007555872 -0.13977428 -0.02433011 -0.060991965 0.030604303 -0.014269933 -0.08978396 -0.05328504
0.10703695 0.09568615 0.055466726 0.13099849 -0.03663914 0.13168043 -0.035983436 0.0032332838
-0.07345239 0.11717826 -0.046137623 0.0045699477 -0.08281541 -0.05025471 0.11932802 0.113960445
0.13844615 -0.0706614 0.04363039 -0.018203132 -0.13730934 0.12145841 -0.0998721 -0.060451753
-0.13829595 0.014716387 0.07946062 -0.05467271 0.11646083 0.06243366 0.13156581 -0.021076232
0.10798442 -0.048900656 -0.05564533 -0.07691315 -0.07367801 0.074250996 0.10640946 -0.10622303
0.12904686 -0.06145192 -0.02837114 -0.12453555 0.0033812672 0.06305653 0.004203424 -0.041330576
0.12770167 0.018488511 0.01819688 0.13943288 0.10318343 -0.022958025 -0.027758084 -0.09497708
-0.06177152 0.09819126 0.08286014 -0.08326686 0.029876232 -0.05407273 -0.046941146 -0.07250804
0.07801212 -0.052561216 -0.08661678 0.01874438 -0.083502606 -0.098848 0.046286464 0.008693427
0.082824185 0.10170065 0.093124464 -0.09911912 0.08636011 0.10919976 0.06927329 0.101682454
0.059924036 -0.075752236 -0.08434491 -0.03281726 -0.03829623 -0.038513705 -0.09143795 0.056949407
-0.13779901 0.13308829 0.091377884 0.011478007 0.09006292 0.038949534 0.012253121 -0.031809494
-0.115602136 -0.026488848 0.06511423 -0.0009752065 0.042898983 0.030059487 0.020756915 0.017665341
0.018462822 -0.058745213 -0.08936705 -0.00040581822 -0.070435576 -0.109339565 0.06299257 0.0782965
-0.099043295 -0.09636971 0.061095804 -0.07268749 0.09303188 0.09575163 0.09609769 0.11326346
-0.051415414 -0.011998862 0.13131225 0.08665238 -0.12797624 -0.014340535 -0.01939091 0.13251656
0.04129544 0.07568613 -0.011869639 0.015219241 0.04172635 0.09064561 -0.07718875 0.09818727
-0.047979303 0.015172094 -0.1193847 0.11040774 -0.072436675 0.08092725 -0.09602302 -0.1049494
0.07532996 0.046483412 0.0047727525 0.058248818 0.009985074 -0.03994911 0.05406393 -0.014444366
-0.11312498 -0.073050104 -0.026311569 0.11024043 0.038614526 -0.048857547 -0.105899855 -0.092615776
-0.056758694 0.13993904 -0.030177802 -0.09563868 0.11776948 0.05595477 -0.06289882 -0.0838044
-0.02871976 0.10842273 0.09591064 -0.113616504 -0.03905812 -0.08259277 -0.0740271 0.117854685
0.10362072 0.08047539 -0.071822524 0.12555817 0.044299304 -0.061717287 0.07714121 0.0816966
0.054078147 -0.05702778 -0.09823957 -0.06081321 -0.0050797313 0.105635464 -0.13534838 -0.04777126
-0.037565008 0.11990106 -0.13702793 0.050578907 -0.009486511 0.041996077 0.06071548 0.033401683
0.03152457 0.12632447 0.01305306 -0.0048449785 -0.09757505 -0.08769313 -0.12632525 0.119074255

feature_network.0.bias f4 [64]
00000000: 0000 0000 0000 0000 0000 0000 0000 0000
00000010: 0000 0000 0000 0000 0000 0000 0000 0000
00000020: 0000 0000 0000 0000 0000 0000 0000 0000
00000030: 0000 0000 0000 0000 0000 0000 0000 0000
00000040: 0000 0000 0000 0000 0000 0000 0000 0000
00000050: 0000 0000 0000 0000 0000 0000 0000 0000
00000060: 0000 0000 0000 0000 0000 0000 0000 0000
00000070: 0000 0000 0000 0000 0000 0000 0000 0000
00000080: 0000 0000 0000 0000 0000 0000 0000 0000
00000090: 0000 0000 0000 0000 0000 0000 0000 0000
000000a0: 0000 0000 0000 0000 0000 0000 0000 0000
000000b0: 0000 0000 0000 0000 0000 0000 0000 0000
000000c0: 0000 0000 0000 0000 0000 0000 0000 0000
000000d0: 0000 0000 0000 0000 0000 0000 0000 0000
000000e0: 0000 0000 0000 0000 0000 0000 0000 0000
000000f0: 0000 0000 0000 0000 0000 0000 0000 0000
0.0 0.0 0.0 0.0 0.0 0.0 0.0 0.0
0.0 0.0 0.0 0.0 0.0 0.0 0.0 0.0
0.0 0.0 0.0 0.0 0.0 0.0 0.0 0.0
0.0 0.0 0.0 0.0 0.0 0.0 0.0 0.0
0.0 0.0 0.0 0.0 0.0 0.0 0.0 0.0
0.0 0.0 0.0 0.0 0.0 0.0 0.0 0.0
0.0 0.0 0.0 0.0 0.0 0.0 0.0 0.0
0.0 0.0 0.0 0.0 0.0 0.0 0.0 0.0

feature_network.3.weight f4 [32, 64]
00000000: b0a4 b33d b024 1a3e 8210 173e 7066 c53c
00000010: 4c1c d5bd b22f 25be 8897 41be 28af da3d
00000020: c41c 083e 68bc 7fbd 6898 5f3d a01c f4bd
00000030: e891 763e 705c 16bd c8ee 8c3d ec30 393e
00000040: d0f5 4d3e a8c4 763d 9840 b2bd e01e 2fbe
00000050: 3866 f4bd 3c1e 7f3e 9495 f4bd a075 2cbd
00000060: 607c 0f3c d0f1 aebc 74a1 933d b81b 8cbd
00000070: 002e 173e 9e1f 19be 3a86 46be 002c ecbc
00000080: bef0 563e 6005 4ebd 20fd 1bbd 74e6 11be
00000090: b452 0dbe c816 d73d c0ec 893c 60de 683c
000000a0: 22ec 1e3e c216 5e3e 10ad c93d 400c d8bc
000000b0: 06c7 3ebe 20c6 eb3c a078 053c fcf3 c8bd
000000c0: 768d 6f3e 6207 173e 3427 003e 08f0 82bd
000000d0: b064 f93d ae9d 35be 883a 793d 1032 ca3d
000000e0: 8881 b1bd 366f 15be 70a1 883c e4d4 173e
000000f0: eece 613e 50c9 61be 58ad ff3d 8053 093b
00000100: e006 cb3d 0048 313a 5064 f5bc 2e76 7c3e
00000110: 6457 ef3d 4af6 1ebe 4c61 413e 3cfe ccbd
00000120: d4be 1dbe ee95 77be 8ca5 4bbe d0a8 29bd
00000130: 78de 5e3d 24f9 c8bd 2e49 513e 8404 57be
00000140: 54be 8ebd 2a11 4f3e 889f 5c3d cc54 203e
00000150: 668c 133e 4e80 023e b208 31be e066 51bd
00000160: 003a b73d 8665 103e c898 6ebd 18ba 0fbd
00000170: aac0 4abe 002a b33a bcef 4dbe 600a 65bd
00000180: d09e ca3c 14ae 48be 6acb 74be 061c 1bbe
00000190: e810 fcbd 008e 9a3d 88ad 30be 6810 773e
000001a0: bcd7 aabd ce6d 5fbe 7c63 18be 9662 2b3e
000001b0: acec c83d dc22 e6bd eea2 503e 2066 2a3e
000001c0: a0d1 36bc 50c8 e83c e4f5 cc3d 100e 513e
000001d0: b283 44be c891 113e 98ee 33be 7c26 1d3e
000001e0: 6001 aabd 7005 083e a079 25bc c26e 443e
000001f0: c4cc f63d fe4e 63be 60c1 083e 681b 5abe
00000200: 6832 0abe d407 fcbd 70ad 323e 5e70 733e
00000210: 84a6 323e 2032 dbbd e46e 083e a836 6f3e
00000220: 4c65 8dbd 9054 783e 6627 623e 5a93 67be
00000230: f077 cabc 1c91 793e 6a70 273e 4ca2 b33d
00000240: 34ea 7b3e 2ac8 47be fed8 2dbe a077 6cbc
00000250: d806 30be 8026 413c 783c 4fbe dc54 943d
00000260: ac5c 65be 60e5 a5bc 80ab 5d3b f02b 63be
00000270: f88d cbbd c81e 13be c022 e23c d0b2 94bd
00000280: 78ee 21be 30b2 debc 0022 023c 12f9 313e
00000290: c030 fc3b 30f0 d1bd 001a 03ba 5443 3ebe
000002a0: 42e5 0b3e 907b 06bd 9434 01be 54ab 5c3e
000002b0: caf8 61be c092 25bc 3241 193e 7848 30bd
000002c0: b0e9 a3bd 682b b1bd 147a a43d f06f 5f3e
000002d0: d88c 3cbe 54ec fdbd 2069 17bd e2e2 643e
000002e0: 38cd b3bd 80f6 02bb 644b 1cbe 22b9 42be
000002f0: e648 72be 583a 043d 7020 e5bd 425f 253e
00000300: 8072 70be 449b 513e 5c87 eb3d b865 2bbe
00000310: a860 4c3e e026 823d c09e 9abb f859 64bd
00000320: b8dd 473d 34a0 bd3d e0e7 a9bd acc7 c83d
00000330: e83b 02be eaf8 3dbe 508e 90bd a868 4d3d
00000340: 3c6d 283e c2cd 5bbe ccbd f83d 489e 4dbe
00000350: b878 be3d b412 ddbd 2ca0 db3d 60d7 51be
00000360: a4d9 1bbe 54a0 8b3d 8a1d 42be 284a 75be
00000370: da26 09be a48c 3f3e 7663 6e3e d22c 4d3e
00000380: 6055 063e e8f3 0cbe 06b8 333e bc95 d1bd
00000390: 7886 2fbd e474 dc3d f84b 2f3e 8018 6cbd
000003a0: 30ca 8b3d a470 e43d 4cf7 043e 402d 483e
000003b0: b028 cebd d4da 9d3d 88cc 863d 1422 cbbd
000003c0: 103d b1bc 74ef 1fbe 5ebd 133e 7850 113e
000003d0: 502e b2bd dc1d a6bd 2663 633e 12dd 393e
000003e0: 9a0e 59be 3a15 6f3e fc9a 3bbe a8cc 1e3e
000003f0: 8847 4f3d 521b 64be d87c bb3d 3814 19bd
0.08771646 0.15053058 0.14752391 0.024096698 -0.10405788 -0.16131476 -0.18905461 0.1067794
0.13292223 -0.062435538 0.054588705 -0.11919522 0.24079096 -0.03670925 0.068814814 0.18085068
0.20113301 0.06024614 -0.087037265 -0.17101622 -0.11933559 0.24913877 -0.11942592 -0.042104363
0.008757681 -0.02135554 0.07208529 -0.068412244 0.14763641 -0.14953467 -0.19387141 -0.028829575
0.20990273 -0.050298095 -0.038083196 -0.14248067 -0.1380108 0.10502392 0.016836524 0.014213175
0.15519765 0.21688369 0.09847462 -0.026373029 -0.18630609 0.028780997 0.008146435 -0.09812161
0.23393807 0.1474891 0.12514955 -0.063934386 0.12177408 -0.17735931 0.060846835 0.0987283
-0.08667284 -0.14593205 0.016678542 0.14827305 0.22051594 -0.22049451 0.124842346 0.002095431
0.09913421 0.0006762743 -0.02995506 0.24654457 0.1168659 -0.1552364 0.18884772 -0.10009429
-0.15404826 -0.24178287 -0.1988737 -0.041420758 0.05441138 -0.09813145 0.20438072 -0.20997816
-0.06969896 0.20221391 0.05386308 0.15657347 0.14409027 0.12744257 -0.17288473 -0.0511235
0.089466095 0.14101228 -0.058251172 -0.035089582 -0.19800058 0.0013669133 -0.20110983 -0.055918097
0.02473393 -0.19597656 -0.23905721 -0.15147409 -0.12307912 0.075466156 -0.17253697 0.24127352
-0.08341929 -0.21819231 -0.148817 0.16736826 0.098107666 -0.11237118 0.20374653 0.1664052
-0.011158377 0.028415829 0.100078374 0.2041552 -0.19190863 0.14215767 -0.17571485 0.15346712
-0.083010435 0.13283324 -0.010099798 0.19182876 0.12050775 -0.22198102 0.13355017 -0.21299517
-0.13495791 -0.123061806 0.17448974 0.23773333 0.17446333 -0.1070292 0.13323551 0.23360693
-0.069040865 0.24251008 0.22085342 -0.22614804 -0.024715394 0.24371761 0.16351476 0.0877119
0.2460106 -0.1950995 -0.16977307 -0.014432818 -0.1719011 0.011788964 -0.20237911 0.07242748
-0.22398633 -0.020250976 0.0033824146 -0.2218473 -0.09939188 -0.14367211 0.02760446 -0.07260668
-0.15813625 -0.027184576 0.007942677 0.17380169 0.007696241 -0.1025089 -0.0005001128 -0.18580371
0.13661674 -0.032832682 -0.12617713 0.21549731 -0.22067562 -0.010105789 0.14966276 -0.04303786
-0.08003557 -0.08650857 0.08031097 0.21820045 -0.18413103 -0.12398592 -0.03696549 0.22352174
-0.08779377 -0.0019983351 -0.15263134 -0.19015935 -0.23660621 0.032282203 -0.111878276 0.16149619
-0.23481178 0.20469385 0.11500427 -0.16738021 0.19958746 0.06355071 -0.0047186315 -0.055749863
0.04879543 0.09259072 -0.0829618 0.098037094 -0.12718165 -0.18551984 -0.07058394 0.050148636
0.1644792 -0.21465209 0.12145576 -0.20079911 0.09300369 -0.10794583 0.1072391 -0.20492315
-0.15219742 0.068176895 -0.18956581 -0.2395407 -0.13393727 0.18705994 0.23280129 0.20036629
0.13118505 -0.13764918 0.17550668 -0.10233638 -0.04285285 0.107644826 0.17118824 -0.057640553
0.068256736 0.11154297 0.12984961 0.19548512 -0.10066354 0.07707754 0.0658198 -0.09918609
-0.021635562 -0.15618688 0.14427707 0.14190853 -0.0870024 -0.08111164 0.22205791 0.18150738
-0.21196976 0.23347941 -0.1832084 0.15507758 0.050605327 -0.22276047 0.091546714 -0.037372798

feature_network.3.bias f4 [32]
00000000: 0000 0000 0000 0000 0000 0000 0000 0000
00000010: 0000 0000 0000 0000 0000 0000 0000 0000
00000020: 0000 0000 0000 0000 0000 0000 0000 0000
00000030: 0000 0000 0000 0000 0000 0000 0000 0000
00000040: 0000 0000 0000 0000 0000 0000 0000 0000
00000050: 0000 0000 0000 0000 0000 0000 0000 0000
00000060: 0000 0000 0000 0000 0000 0000 0000 0000
00000070: 0000 0000 0000 0000 0000 0000 0000 0000
0.0 0.0 0.0 0.0 0.0 0.0 0.0 0.0
0.0 0.0 0.0 0.0 0.0 0.0 0.0 0.0
0.0 0.0 0.0 0.0 0.0 0.0 0.0 0.0
0.0 0.0 0.0 0.0 0.0 0.0 0.0 0.0

q_network.0.weight f4 [1, 32]
00000000: 74f8 7d3e 98ef b5bd 00d8 903e c473 433e
00000010: d032 73bd 40df 57be c086 bebb 8819 00bd
00000020: 209d 8a3e c493 7c3e 086b e63d 1e6c bcbe
00000030: 9826 eb3d c012 f13b 00d4 7f3e a62f d63e
00000040: 13f6 66be 98d4 42bd 4821 853e 344c ca3e
00000050: 9233 84be dddd d4be 0090 663e 42f8 0fbe
00000060: 28bf 99be a4b7 ebbd 4ac6 cfbe a4de c8be
00000070: 98a0 923d fc79 90be 605e 293e 5034 613e
0.24801809 -0.088835895 0.28289795 0.1908713 -0.05937463 -0.21081257 -0.0058144033 -0.03127435
0.27073002 0.24665743 0.11250883 -0.36801237 0.114819705 0.0073569715 0.24983215 0.41833228
-0.22554807 -0.047566026 0.26001954 0.39511263 -0.25820595 -0.41575518 0.22515869 -0.14059547
-0.30028653 -0.11509636 -0.4058097 -0.3923236 0.07159537 -0.28218067 0.16539907 0.21992612
