training_results/dqn_mr_x_1753787355.pth (torch, 470163 bytes, 28 tensors)

feature_network.0.weight f4 [64, 239]
-0.22435318 -0.058720402 -0.066386074 0.10346401 0.34323856 -0.11056675 0.06157303 -0.024662428
0.0879799 0.107606664 -0.124271214 -0.116292536 0.33266255 0.016918376 0.41764185 0.1402334
0.019222066 0.10594401 -0.01856289 -0.023673438 -0.03574954 -0.118410334 0.10657589 -0.31510997
0.375471 0.3535159 0.08200762 -0.20148042 0.27314326 0.31760156 -0.43168214 0.042215258
-0.10123603 0.09548922 -0.05614727 -0.10088976 -0.05494819 0.07669632 -0.2587207 0.034672767
0.39516404 -0.20507947 -0.29713392 -0.031200714 -0.056066938 -0.008278504 0.015985072 -0.023744427
0.043154523 0.009889469 0.13765004 0.2927298 -0.301263 -0.22540766 0.38554913 0.24484843
0.05782026 -0.13082573 -0.0074501783 -0.09044213 -1.3053417e-05 0.015530333 0.099300206 0.010169044
0.087321 -0.010971814 0.36449412 0.07642792 0.076865286 0.13422325 0.061791167 -0.12727153
-0.13607179 0.008693725 0.020383477 -0.08601327 -0.03535761 0.1065263 0.2016663 -0.2600508
0.32927737 0.13069966 -0.119489774 -0.039998636 -0.07076841 -0.07661093 0.033894822 0.38809597
-0.37305775 0.10011642 -0.12948227 0.20051715 0.17782556 -0.011508763 -0.3735283 -0.024995811
0.2986231 0.2729023 -0.09361412 0.078767106 0.005867541 -0.35416862 0.40988025 0.3664414
0.20567445 -0.0032321662 -0.16234212 -0.08900759 -0.07483321 0.18278036 0.01353009 -0.05503188
-0.11190727 -0.2852397 0.007524878 -0.26527274 -0.21405639 -0.3772006 0.1206474 0.3096149
-0.37317875 0.08751851 0.07979131 0.13158774 -0.021786861 0.18791845 -0.20208089 -0.29655787
-0.026268266 -0.25735584 -0.03873507 0.11563122 -0.039017357 -0.011272609 0.10970315 -0.03549563
-0.093059525 0.35838047 0.12512627 0.094216004 0.082170665 0.25369954 0.16059655 0.393171
-0.022422418 0.1340152 0.07288557 0.014013037 -0.0060932934 -0.08488134 -0.06534382 0.35105398
-0.40358678 -0.1121041 0.013783023 0.36699685 -0.32600886 0.04389575 0.09225567 -0.039297655
0.020873338 0.08062731 -0.24413767 -0.06315506 -0.0014098436 -0.09358257 -0.05194416 0.019070402
-0.09006724 -0.16343011 0.104512274 -0.21344653 0.08197443 0.25796488 0.019225612 0.2145821
0.31949762 -0.05539842 -0.08793152 0.049406245 -0.08198811 0.07659812 -0.12879384 -0.059272118
-0.11790568 0.11310309 -0.40930265 -0.053684458 0.32981735 0.17510697 -0.050193816 0.08632527
-0.0538793 -0.07486028 0.19094962 -0.048279144 0.10306987 0.25078326 0.36598265 0.16852479
0.21275932 -0.44085133 -0.16784862 -0.248006 -0.19504647 -0.23611401 -0.3081733 -0.3348622
-0.3422709 -0.4161506 -0.16626704 -0.19805922 -0.22630788 -0.43743524 -0.18856403 -0.16302736
-0.38435748 -0.31807202 -0.41487402 -0.22649929 -0.18417299 -0.43047413 -0.18526272 -0.4145408
-0.36070642 -0.23633677 -0.19296393 0.111795634 0.13284403 -0.4185088 0.002487123 -0.057112478
-0.26698792 -0.005627662 0.26651698 -0.26901338 -0.27458593 -0.31273335 -0.15982184 -0.3130804
0.11933297 0.040928245 0.0707864 0.12402102 0.10294017 0.09487863 -0.08818272 -0.053789288
0.12252897 -0.1339192 0.122354835 0.036615342 -0.09767047 0.31669205 -0.083031625 0.39306614
00000000: d7bc 65be ce84 70bd 6cf5 87bd f0e4 d33d
00000010: f7bc af3e d270 e2bd 0034 7c3d dc08 cabc
00000020: ce2e b43d e260 dc3d e881 febd c82a eebd
00000030: bf52 aa3e 6898 8a3c 27d5 d53e 5899 0f3e
00000040: 9877 9d3c 2cf9 d83d 3411 98bc ccee c1bc
00000050: 1c6e 12bd 1e81 f2bd 7644 da3d 1856 a1be
00000060: bc3d c03e 0900 b53e 9cf3 a73d e250 4ebe
00000070: 6fd9 8b3e ac9c a23e 7105 ddbe e8e9 2c3d
00000080: d654 cfbd da8f c33d aefa 65bd 4a9f cebd
00000090: 5a11 61bd f612 9d3d 0a77 84be 0805 0e3d
000000a0: f152 ca3e 5a00 52be f021 98be a498 ffbc
000000b0: 72a6 65bd 90a2 07bc 20f3 823c ac83 c2bc
000000c0: ccc2 303d 7007 223c 22f4 0c3e aee0 953e
000000d0: 253f 9abe 44d1 66be b266 c53e 8cb9 7a3e
000000e0: f0d4 6c3d 2ef7 05be a020 f4bb b939 b9bd
000000f0: 0000 5bb7 f072 7e3c e85d cb3d 109c 263c
00000100: 5ad5 b23d 20c3 33bc f99e ba3e 3e86 9c3d
00000110: 8c6b 9d3d d271 093e bc18 7d3d 7853 02be
00000120: 6756 0bbe 2070 0e3c 40fb a63c ba27 b0bd
00000130: 24d3 10bd 762a da3d 9c81 4e3e 6125 85be
00000140: 0b97 a83e 22d6 053e 0eb7 f4bd 9cd5 23bd
00000150: 07ef 90bd 31e6 9cbd 4cd5 0a3d 84b4 c63e
00000160: 6d01 bfbe d609 cd3d 0097 04be 5e54 4d3e
00000170: e717 363e 408f 3cbc 1a3f bfbe 04c4 ccbc
00000180: 21e5 983e dab9 8b3e c2b8 bfbd a650 a13d
00000190: 8044 c03b 9755 b5be d3db d13e 359e bb3e
000001a0: 539c 523e c0d2 53bb 033d 26be 9d49 b6bd
000001b0: 2742 99bd c62a 3b3e 50ad 5d3c 1c69 61bd
000001c0: a42f e5bd f00a 92be 4093 f63b d4d1 87be
000001d0: 9931 5bbe 7020 c1be fc15 f73d d885 9e3e
000001e0: 4911 bfbe e83c b33d a069 a33d f0be 063e
000001f0: 5c7a b2bc b26d 403e 4bee 4ebe 6fd6 97be
00000200: 8c30 d7bc 25c4 83be aaa8 1ebd 10d0 ec3d
00000210: aad0 1fbd c0b0 38bc 0cac e03d de63 11bd
00000220: fe95 bebd a57d b73e 1a21 003e 52f4 c03d
00000230: 1849 a83d e8e4 813e 6c73 243e b64d c93e
00000240: 38af b7bc 483b 093e 0845 953d f096 653c
00000250: 40aa c7bb 45d6 adbd fbd2 85bd 59bd b33e
00000260: eda2 cebe d696 e5bd 30d2 613c 03e7 bb3e
00000270: a2ea a6be 08cc 333d 8af0 bc3d 94f6 20bd
00000280: 90fe aa3c ee1f a53d 3aff 79be 7157 81bd
00000290: 80ca b8ba 38a8 bfbd 66c3 54bd 8839 9c3c
000002a0: 2c75 b8bd 395a 27be 880a d63d ba91 5abe
000002b0: 36e2 a73d f913 843e 087f 9d3c 69bb 5b3e
000002c0: 3195 a33e 74e9 62bd 7115 b4bd 345e 4a3d
000002d0: 62e9 a7bd 7adf 9c3d 88e2 03be 52c7 72bd
000002e0: 8878 f1bd 98a2 e73d 1e90 d1be 3ce4 5bbd
000002f0: d2dd a83e 3e4f 333e 0898 4dbd 4ecb b03d
00000300: 8ab0 5cbd 5950 99bd 4c88 433e 5ac0 45bd
00000310: 4c16 d33d aa66 803e 1462 bb3e c391 2c3e
00000320: 94dd 593e 44b7 e1be 82e0 2bbe 49f5 7dbe
00000330: 43ba 47be dfc7 71be e4c8 9dbe 0f73 abbe
00000340: 223e afbe b111 d5be e841 2abe 09d0 4abe
00000350: 41bd 67be 83f7 dfbe ee16 41be a5f0 26be
00000360: 81ca c4be 56da a2be 5e6a d4be 6eef 67be
00000370: d897 3cbe 1b67 dcbe 83b5 3dbe b13e d4be
00000380: 83ae b8be 4402 72be 5698 45be 1cf5 e43d
00000390: 4408 083e c946 d6be 00ff 223b c6ee 69bd
000003a0: a4b2 88be 4068 b8bb ea74 883e 1fbc 89be
000003b0: 8796 8cbe 961e a0be 56a8 23be 134c a0be
000003c0: d864 f43d 60a4 273d 76f8 903d bcfe fd3d
000003d0: 4cd2 d23d ba4f c23d 2499 b4bd 2852 5cbd
000003e0: 78f0 fa3d 1d22 09be 2c95 fa3d f8f9 153d
000003f0: 7507 c8bd 7625 a23e 7c0c aabd f73f c93e

feature_network.0.bias f4 [64]
-0.3002716 -0.30027097 -0.30027428 -0.30027008 -0.22061987 -0.30027312 -0.3002748 -0.30027407
-0.2530975 -0.34447914 -0.3002606 -0.21560562 -0.30026448 -0.35985866 -0.34514445 -0.30025566
-0.26203677 -0.3002684 -0.30027488 -0.30917755 -0.3095542 -0.3002696 -0.23597257 -0.26327083
-0.34514132 -0.30025357 -0.19606775 -0.72807866 -0.30027437 -0.40196368 -0.29865116 -0.30026364
-0.3002745 -0.3070807 -0.30021462 0.0 -0.30026883 -0.42232665 -0.30027258 -0.30025557
-0.06952825 -0.062778495 -0.4033605 -0.25934413 -0.14748788 -0.30027124 -0.3126204 -0.3002749
-0.300271 -0.3002736 -0.24925068 -0.30027422 -0.30468884 -0.27784818 -0.19135126 -0.31255025
-0.30027437 0.0 -0.31250226 -0.30027446 -0.30027437 -0.30027422 -0.36697978 -0.30027363
00000000: 33bd 99be 1ebd 99be 8dbd 99be 00bd 99be
00000010: 2dea 61be 66bd 99be 9ebd 99be 86bd 99be
00000020: ff95 81be 925f b0be c2bb 99be b8c7 5cbe
00000030: 44bc 99be 653f b8be c6b6 b0be 1cbb 99be
00000040: af29 86be c8bc 99be a1bd 99be 854c 9ebe
00000050: e37d 9ebe f0bc 99be cba2 71be 6fcb 86be
00000060: 5db6 b0be d6ba 99be fcc5 48be 5d63 3abf
00000070: 90bd 99be 2fce cdbe cee8 98be 28bc 99be
00000080: 94bd 99be ae39 9dbe bbb5 99be 0000 0000
00000090: d6bc 99be 333b d8be 54bd 99be 19bb 99be
000000a0: d464 8ebd 0392 80bd 4485 cebe c1c8 84be
000000b0: 1007 17be 27bd 99be c80f a0be a2bd 99be
000000c0: 1fbd 99be 76bd 99be 923b 7fbe 8bbd 99be
000000d0: 2d00 9cbe 1e42 8ebe 96f1 43be 9606 a0be
000000e0: 90bd 99be 0000 0000 4c00 a0be 93bd 99be
000000f0: 90bd 99be 8bbd 99be c6e4 bbbe 77bd 99be

feature_network.3.weight f4 [64, 64]
-0.21623766 -0.21523115 -0.13964415 -0.19653325 0.09868973 0.02012059 -0.16404286 0.12749936
0.016438246 -0.028913066 0.0007084459 -0.09826968 0.08028029 -0.11531403 -0.18041709 0.19162081
-0.19423875 -0.12505358 0.09785114 0.12141682 0.0026494265 -0.071538314 0.21184759 0.023079067
-0.14728707 0.06007062 -0.05291356 0.07324757 0.1420766 0.09104414 0.011516124 0.067464694
0.18051518 -0.11347161 -0.15441051 0.022703975 -0.109334804 0.12433322 0.145775 0.1982718
-0.20299284 -0.6173893 -0.05439581 0.055203512 0.12007588 -0.102644056 -0.07660109 -0.19314653
0.15543844 -0.18515876 -0.041192695 0.032204434 -0.14529562 0.15164961 -0.12429586 0.049164966
0.1810386 0.19057624 -0.10810833 -0.04391268 -0.039366618 -0.11008073 -0.0440879 -0.05610989
-0.23009714 -0.118153974 -0.20711607 0.47308922 -0.26735696 0.11166714 -0.38628367 -0.3080726
-0.35945395 -0.29683346 -0.24201004 -0.36900708 0.15555854 -0.3684055 -0.30788594 0.42183545
-0.47728696 -0.41157925 -0.2895377 -0.48597988 -0.19495618 0.2570694 -0.4066771 -0.19170642
-0.21044011 -0.28225407 -0.20284611 0.0697559 -0.46452388 -0.42327744 -0.38356468 0.42079782
-0.43641004 -0.37858337 0.49636936 0.040262148 -0.37362912 -0.17957453 -0.189946 -0.4623776
0.18999039 -0.03417021 -0.07946028 -0.5166417 -0.21952777 -0.1875076 -0.27244166 -0.30022
0.25471184 -0.30724406 -0.35573077 -0.4563449 -0.17980099 -0.20128028 0.041435525 -0.10470775
-0.15610476 0.13871627 -0.19585262 -0.3297809 -0.4416705 -0.33951378 -0.2049576 -0.08701322
-0.51250106 -0.15994722 -0.1585654 -0.13112655 -0.42962798 -0.17057143 -0.11957722 -0.27207005
0.006150916 -0.16019654 -0.2640107 -0.5101118 0.24117766 -0.1139561 -0.32325932 -0.37510046
-0.13402402 0.46124977 -0.42261928 -0.14861481 -0.28830728 -0.15391092 0.17548263 -0.0025955439
-0.28625122 0.42156538 -0.30129474 -0.18666886 -0.43013513 0.48557332 -0.50512636 -0.23807627
-0.26384088 -0.22376736 -0.24715447 0.075360194 0.41238678 -0.3407433 0.17059837 -0.12663753
-0.06605169 -0.3727066 -0.15526478 -0.46158865 -0.3663611 0.46769387 -0.4095448 -0.32919735
-0.5095613 -0.1263596 -0.3320402 -0.28191707 0.09510894 0.08214368 0.102379784 0.22057557
-0.34957126 -0.077792436 -0.22200537 -0.1289609 -0.4672107 -0.13458218 -0.08603718 -0.37514964
-0.26035202 -0.1228689 0.5050587 -0.18765564 -0.5056746 -0.15004764 -0.115477905 0.11997048
-0.0067877322 -0.451895 -0.087568715 0.59852 0.037832484 -0.513372 -0.28091156 -0.0011002123
-0.30776355 0.06927602 0.12793034 -0.12840477 -0.039920863 0.026195139 0.056377932 0.11214553
-0.18275964 -0.45770764 0.40615514 0.15902556 -0.26338288 0.45162833 -0.23341414 0.10421772
-0.10815402 -0.364185 -0.2386999 -0.11955836 0.15935016 0.48452735 0.36062828 0.044441596
0.054954454 -0.27732077 -0.50984883 0.6106465 -0.46473604 -0.12051076 0.26036173 -0.42914727
-0.41144922 0.13427348 0.34278607 -0.21391696 -0.15455985 0.13405164 -0.060818676 -0.20424007
-0.14705543 0.096183196 -0.3511093 -0.37741065 -0.41768557 -0.49948424 0.47924986 -0.4234978
00000000: 686d 5dbe 8e65 5cbe e0fe 0ebe 0340 49be
00000010: d71d ca3d f0d3 a43c dafa 27be 318f 023e
00000020: 80a9 863c 18db ecbc 00b7 393a 9d41 c9bd
00000030: fe69 a43d c329 ecbd 42bf 38be 3f38 443e
00000040: 86e6 46be 0c0e 00be 2e66 c83d 62a9 f83d
00000050: 00a2 2d3b ae82 92bd 93ee 583e 5010 bd3c
00000060: 6cd2 16be 9c0c 763d e4bb 58bd d202 963d
00000070: 877c 113e 5a75 ba3d 20ae 3c3c ee2a 8a3d
00000080: f9d8 383e ce63 e8bd ca1d 1ebe b0fd b93c
00000090: edea dfbd 6aa2 fe3d 0b46 153e c307 4b3e
000000a0: 5bdd 4fbe 3a0d 1ebf 24ce 5ebd 141d 623d
000000b0: 58ea f53d 0c37 d2bd 08e1 9cbd 34c8 45be
000000c0: 412b 1f3e 429a 3dbe acb9 28bd cce8 033d
000000d0: 60c8 14be 094a 1b3e d48e febd 3461 493d
000000e0: 2f62 393e 6b26 433e e667 ddbd c8dd 33bd
000000f0: e43e 21bd 0172 e1bd 8495 34bd 7cd3 65bd
00000100: 969e 6bbe b6fa f1bd 3c16 54be c038 f23e
00000110: 03e3 88be beb1 e43d f9c6 c5be b1bb 9dbe
00000120: 590a b8be 8efa 97be 7bd1 77be 7fee bcbe
00000130: bd4a 1f3e a59f bcbe 3aa3 9dbe d1fa d73e
00000140: f55e f4be 84ba d2be 493e 94be 5bd2 f8be
00000150: 98a2 47be 9a9e 833e fb37 d0be b04e 44be
00000160: 9d7d 57be 9b83 90be e4b6 4fbe 2edc 8e3d
00000170: 13d6 edbe d2b7 d8be 9762 c4be d072 d73e
00000180: 2371 dfbe aed5 c1be 2024 fe3e ece9 243d
00000190: 514c bfbe 63e2 37be 3481 42be c2bc ecbe
000001a0: d78c 423e 10f6 0bbd 12bc a2bd a142 04bf
000001b0: e3cb 60be fe01 40be 797d 8bbe 70b6 99be
000001c0: 9769 823e 184f 9dbe 5822 b6be 0aa6 e9be
000001d0: c01d 38be 6b1c 4ebe 4cb8 293d 0471 d6bd
000001e0: edd9 1fbe a30b 0e3e 978d 48be 0bd9 a8be
000001f0: a322 e2be c0d4 adbe 68e0 51be fd33 b2bd
00000200: 4533 03bf 34c9 23be f85e 22be 0a46 06be
00000210: 33f8 dbbe 47aa 2ebe e7e4 f4bd c44c 8bbe
00000220: a08d c93b 900a 24be 692c 87be b096 02bf
00000230: 47f7 763e d161 e9bd 3f82 a5be 2b0d c0be
00000240: 983d 09be ee28 ec3e 8e61 d8be 7b2e 18be
00000250: 039d 93be d39a 1dbe b8b1 333e 001a 2abb
00000260: 858f 92be 6bd7 d73e 4e43 9abe 1f26 3fbe
00000270: ac3a dcbe 119d f83e f64f 01bf 44ca 73be
00000280: 2716 87be 4523 65be 1016 7dbe 7256 9a3d
00000290: 5c24 d33e e875 aebe 57b1 2e3e 45ad 01be
000002a0: 1c46 87bd 66d3 bebe bbfd 1ebe 5955 ecbe
000002b0: af93 bbbe 9275 ef3e dbaf d1be 8e8c a8be
000002c0: 9c72 02bf 6964 01be 2c01 aabe 6f57 90be
000002d0: 7ac8 c23d f23a a83d 7eac d13d 90de 613e
000002e0: 01fb b2be a451 9fbd 6055 63be 530e 04be
000002f0: 3e36 efbe e9cf 09be 4334 b0bd 9d13 c0be
00000300: dc4c 85be b1a2 fbbd 874b 013f cd28 40be
00000310: e473 01bf 17a6 19be ae7f ecbd 15b3 f53d
00000320: a06b debb c85e e7be 3a57 b3bd 9b38 193f
00000330: 3cf6 1a3d 596c 03bf a4d3 8fbe 0035 90ba
00000340: 2f93 9dbe 96e0 8d3d 2c00 033e 8a7c 03be
00000350: 0f84 23bd 3097 d63c 8cec 663d 8eac e53d
00000360: 5825 3bbe a858 eabe 91f3 cf3e 99d7 223e
00000370: 1fda 86be d43b e73e 1e04 6fbe 1a70 d53d
00000380: db7f ddbd 7576 babe bf6d 74be 03db f4bd
00000390: b02c 233e f813 f83e 45a4 b83e 6408 363d
000003a0: ec17 613d fdfc 8dbe 7485 02bf 5453 1c3f
000003b0: e2f1 edbe 58ce f6bd 224e 853e 31b9 dbbe
000003c0: 79a9 d2be fd7e 093e a881 af3e 0c0d 5bbe
000003d0: f044 1ebe d544 093e 011d 79bd 4f24 51be
000003e0: b395 16be b2fb c43d 99c4 b3be f83b c1be
000003f0: e2da d5be 66bc ffbe 3d60 f53e b4d4 d8be

feature_network.3.bias f4 [64]
-0.17639986 -0.41752076 -0.30028552 -0.025158886 -0.30027398 -0.2741876 -0.30027 -0.08293877
-0.39382917 -0.2216094 -0.38097692 -0.13475254 -0.24473485 -0.18409425 -0.28991535 -0.30464572
0.00631961 -0.3604493 -0.08846271 -0.369643 -0.4046389 -0.05361404 -0.39275384 -0.22789927
-0.30963534 -0.300993 -0.30557647 -0.24137206 0.0015746031 -0.3032055 -0.4071472 -0.52423805
-0.24842246 -0.22823928 -0.21824846 -0.30380294 0.089724354 -0.37321618 -0.21751688 0.22637871
-0.27279294 -0.43290183 0.008382686 -0.34378 -0.07577519 -0.35562137 -0.3113984 -0.4796854
-0.5226016 -0.024414266 -0.3002745 -0.3921206 -0.33615893 -0.53249156 0.009714995 -0.6402267
-0.26442042 -0.29886526 -0.5626715 0.37596452 -0.37627634 -0.30027413 -0.3614608 -0.34903586
00000000: 2aa2 34be 48c5 d5be 06bf 99be 021a cebc
00000010: 83bd 99be 5162 8cbe fdbc 99be cddb a9bd
00000020: faa3 c9be 93ed 62be 680f c3be 92fc 09be
00000030: c69b 7abe 3483 3cbe c96f 94be 86fa 9bbe
00000040: bb14 cf3b d08c b8be f02b b5bd d941 bdbe
00000050: d42c cfbe 659a 5bbd 0817 c9be 6d5e 69be
00000060: 8688 9ebe c11b 9abe 8574 9cbe 3d2a 77be
00000070: ea62 ce3a c03d 9bbe 9975 d0be 7734 06bf
00000080: 7562 7ebe 8fb7 69be 867c 5fbe 0f8c 9bbe
00000090: 67c1 b73d 3116 bfbe bfbc 5ebe d2cf 673e
000000a0: 84ab 8bbe 4fa5 ddbe 8957 093c ef03 b0be
000000b0: 0630 9bbd 0114 b6be 9c6f 9fbe 5399 f5be
000000c0: 38c9 05bf 6d00 c8bc 94bd 99be 08c4 c8be
000000d0: 061d acbe 5e51 08bf a42b 1f3c e6e5 23bf
000000e0: 1d62 87be de04 99be 3d0b 10bf 6c7e c03e
000000f0: 4ba7 c0be 88bd 99be 6411 b9be d4b4 b2be

feature_network.6.weight f4 [64, 64]
0.091753736 0.31956133 -0.2587302 -0.29039195 -0.3705955 -0.21115857 -0.22641714 -0.316379
0.23849796 -0.30553445 0.15538482 -0.2726375 -0.3456957 -0.17073897 -0.084523216 -0.3145966
0.16860224 0.1445408 -0.36523718 -0.360874 0.4703251 -0.40423426 -0.16381556 -0.48253226
-0.3195508 -0.039623156 -0.34358194 -0.29743743 -0.43355018 -0.37060493 -0.3607414 -0.43286064
-0.21334326 -0.09541279 -0.29678705 0.1888045 -0.3263821 -0.42854944 0.14497931 -0.1523821
-0.27139893 -0.09159053 -0.14757219 -0.4283598 0.46796763 -0.3098329 -0.18011579 -0.4351696
-0.4702896 -0.13384417 -0.167113 -0.60504925 -0.4038275 -0.37211144 -0.09473348 -0.31629184
-0.49165064 -0.26951846 -0.45981085 0.0329341 -0.0073854052 -0.42393538 -0.13134752 0.50686705
-0.09318397 -0.04961087 0.27235535 -0.59187746 -0.20509416 -0.40426657 0.2587857 -0.41093424
0.50178903 0.40217254 -0.04249595 0.092582725 0.15779112 0.0074123167 -0.0114298565 0.1959439
-0.35073566 0.35782805 0.01563265 0.32661444 0.3430394 -0.06731866 -0.23212846 -0.20595324
0.17373194 -0.27600276 -0.16030061 0.16423768 -0.15967941 -0.4587606 0.17554255 -0.43343234
-0.4022481 0.3007203 0.09576295 0.1399991 -0.4468708 0.13645096 0.31136897 -0.3353814
0.39511076 -0.11226107 -0.7552773 -0.6527862 -0.018674048 -0.20455988 -0.21934946 0.11696565
-0.5138839 -0.21458422 0.4675074 0.47075582 0.56767327 -0.27706516 -0.023029394 -0.82945716
-0.05090989 0.24175583 -0.55692625 -0.37167856 0.36435217 0.37196168 0.4406394 0.5773015
-0.04063262 -0.5206761 0.38744518 -0.4761982 0.23562732 -0.43626437 0.3950769 -0.0065322593
-0.32770562 -0.33677375 -0.13553382 0.16469719 0.20228365 -0.31254512 -0.06380734 -0.055967532
-0.24354127 -0.34830105 -0.034739077 -0.14113511 -0.10902784 -0.3350876 -0.31037098 -0.12221148
-0.4565606 -0.23558109 0.13582553 -0.4155083 -0.27316123 -0.13760199 -0.4155785 0.23403394
-0.17811534 -0.023773955 -0.19519673 -0.104255535 -0.40546134 0.49040797 -0.054899674 -0.38900498
-0.016278895 0.3746885 -0.18031758 -0.2787741 -0.19291638 0.4375799 0.3800191 -0.12745906
0.34477997 -0.2165404 -0.21881202 -0.5267961 -0.111951046 0.0822814 -0.3915619 0.28060246
-0.12205012 0.16999958 0.13783304 -0.13577187 -0.13382088 0.15010901 -0.39183637 0.13407466
-0.086861566 -0.059304267 -0.17493132 -0.16766132 0.06977467 -0.13966009 -0.20479445 -0.34928545
-0.04456471 -0.30293158 0.15305205 -0.118493065 -0.38506123 -0.08196631 -0.08012748 -0.33441702
0.17434572 -0.038529575 -0.18131529 -0.34495857 -0.15039048 -0.46473068 -0.021529227 -0.38125473
-0.45349574 -0.066649154 0.017678991 -0.18640393 -0.48777193 -0.26955143 -0.06849169 0.2042007
-0.11764188 -0.10441148 -0.07448193 -0.17801398 -0.32057884 -0.3096323 -0.19183818 -0.5572549
-0.4494168 -0.012976661 -0.27845758 -0.3749931 -0.044420406 0.08524971 0.048272118 -0.21998078
0.12695028 -0.1538311 0.20276715 -0.47387832 -0.44524664 -0.1499854 -0.40670902 -0.29663512
-0.45209593 -0.3817673 -0.48042592 -0.36337003 -0.3998493 0.05475135 -0.33154365 -0.45246
00000000: 62e9 bb3d 8b9d a33e 4978 84be 41ae 94be
00000010: b2be bdbe f439 58be e5d9 67be 6efc a1be
00000020: cf38 743e 036f 9cbe 331d 1f3e 2497 8bbe
00000030: 07ff b0be 32d6 2ebe 821a adbd ce12 a1be
00000040: 11a6 2c3e 8102 143e 5e00 bbbe 7ac4 b8be
00000050: 74ce f03e cbf7 cebe 44bf 27be 780e f7be
00000060: 2a9c a3be e44b 22bd f9e9 afbe b849 98be
00000070: 4afa ddbe eebf bdbe 19b3 b8be e99f ddbe
00000080: a876 5abe c867 c3bd 79f4 97be f855 413e
00000090: 8e1b a7be d56a dbbe 7575 143e 0e0a 1cbe
000000a0: cdf4 8abe d193 bbbd 2a1d 17be fa51 dbbe
000000b0: 7499 ef3e 6ba2 9ebe 4670 38be 8dce debe
000000c0: ccc9 f0be 720e 09be ac1f 2bbe 82e4 1abf
000000d0: 7ac2 cebe 6485 bebe a003 c2bd 01f1 a1be
000000e0: a2b9 fbbe 53fe 89be 546c ebbe e8e5 063d
000000f0: 4501 f2bb 0f0e d9be f77f 06be 0ac2 013f
00000100: 3dd7 bebd c534 4bbd 2972 8b3e 4885 17bf
00000110: 3404 52be 07fc cebe 8f7f 843e f965 d2be
00000120: 3f75 003f 8fe9 cd3e 3c10 2ebd 039c bd3d
00000130: ff93 213e 05e3 f23b 4b44 3bbc 85a5 483e
00000140: a093 b3be 3d35 b73e 0b10 803c 023a a73e
00000150: dca2 af3e 5ede 89bd 15b3 6dbe 68e5 52be
00000160: c9e6 313e 3c50 8dbe d825 24be ec2d 283e
00000170: 0083 23be abe2 eabe 6dc1 333e d8ea ddbe
00000180: 77f3 cdbe 03f8 993e 5e1f c43d ed5b 0f3e
00000190: 40cc e4be cdb9 0b3e c16b 9f3e 1cb7 abbe
000001a0: f54b ca3e 22e9 e5bd da59 41bf ff1c 27bf
000001b0: 51fa 98bc 2578 51be 259d 60be b08b ef3d
000001c0: e58d 03bf f7bb 5bbe 215d ef3e e806 f13e
000001d0: 0953 113f 7cdb 8dbe 24a8 bcbc 4e57 54bf
000001e0: e486 50bd d78e 773e b892 0ebf a74c bebe
000001f0: 5e8c ba3e c371 be3e 7d9b e13e 08ca 133f
00000200: 646e 26bd 074b 05bf 375f c63e 40d0 f3be
00000210: 4a48 713e 0b5e dfbe 8547 ca3e 900c d6bb
00000220: 08c9 a7be 9c6d acbe 61c9 0abe 61a6 283e
00000230: 7223 4f3e ea05 a0be 6cad 82bd 363e 65bd
00000240: e262 79be 8454 b2be 904a 0ebd b985 10be
00000250: fd49 dfbd 9a90 abbe f2e8 9ebe 034a fabd
00000260: 50c2 e9be 2b3c 71be d915 0b3e 81bd d4be
00000270: cadb 8bbe 89e7 0cbe b5c6 d4be 98a6 6f3e
00000280: de63 36be 99c1 c2bc a7e1 47be ed83 d5bd
00000290: a198 cfbe c116 fb3e 7bde 60bd a92b c7be
000002a0: 515b 85bc 2cd7 bf3e 2ca5 38be 7bbb 8ebe
000002b0: df8b 45be 790a e03e dd91 c23e a184 02be
000002c0: 0087 b03e c4bc 5dbe 4210 60be 1cdc 06bf
000002d0: 9746 e5bd 2783 a83d cd7a c8be 20ab 8f3e
000002e0: 6af5 f9bd 5f14 2e3e 1b24 0d3e c807 0bbe
000002f0: 5708 09be 2db6 193e c79e c8be de4a 093e
00000300: 7ae4 b1bd 08e9 72bd 3221 33be 69af 2bbe
00000310: 06e6 8e3d 0e03 0fbe a3b5 51be 8bd5 b2be
00000320: 7c89 36bd d919 9bbe adb9 1c3e 7eac f2bd
00000330: bf26 c5be f4dd a7bd e019 a4bd b538 abbe
00000340: af87 323e 30d1 1dbd b7aa 39be 699e b0be
00000350: f6ff 19be 2ef1 edbe 105e b0bc d233 c3be
00000360: 9830 e8be 5a7f 88bd 88d3 903c ace0 3ebe
00000370: 3ebd f9be a502 8abe 5f45 8cbd fd19 513e
00000380: 3aee f0bd b0d5 d5bd fb89 98bd 4c49 36be
00000390: e922 a4be 2088 9ebe 3a71 44be 42a8 0ebf
000003a0: f519 e6be 109c 54bc fe91 8ebe 18ff bfbe
000003b0: 2cf2 35bd 6697 ae3d fcb8 453d a442 61be
000003c0: 41ff 013e e685 1dbe 31a2 4f3e 2ea0 f2be
000003d0: 5ef7 e3be c695 19be 2a3c d0be 8fe0 97be
000003e0: 1e79 e7be 0177 c3be 63fa f5be a30b babe
000003f0: 0cb9 ccbe f442 603d 17c0 a9be d6a8 e7be

feature_network.6.bias f4 [64]
-0.31378764 -0.23425235 -0.23266394 -0.61679435 -0.23597133 -0.22856303 -0.4868281 -0.20061256
-0.30024642 -0.33828837 -0.20542951 -0.37674627 -0.29755363 0.20372185 -0.32275745 -0.44355634
-0.27289483 -0.35147396 -0.2036705 -0.29588366 -0.30416006 -0.22954153 -0.30240038 -0.23078796
-0.3596389 -0.27489173 -0.30212027 -0.34101447 -0.24172711 -0.30027416 -0.3099769 -0.44422108
-0.41712183 -0.22736135 -0.41850883 -0.12140271 -0.18537503 -0.1897654 -0.1989855 -0.3144079
-0.39296928 -0.20892271 -0.448017 -0.21914507 -0.3981076 -0.36722597 0.17313068 -0.03994785
-0.19021413 -0.19228317 -0.040428758 -0.3002694 -0.21974109 -0.51683164 -0.40286073 -0.7467449
-0.440668 -0.5914764 -0.36981937 -0.43466866 -0.5136266 -0.2958661 0.03617846 -0.3002748
00000000: c6a8 a0be d9df 6fbe 753f 6ebe 3ce6 1dbf
00000010: 78a2 71be 6d0c 6abe 8841 f9be 616d 4dbe
00000020: e6b9 99be 2234 adbe 1d5c 52be e3e4 c0be
00000030: f358 98be 769c 503e 7740 a5be d119 e3be
00000040: dfb8 8bbe 65f4 b3be 008f 50be 107e 97be
00000050: deba 9bbe ef0c 6bbe 39d4 9abe ae53 6cbe
00000060: 9722 b8be 9cbe 8cbe 82af 9abe 7399 aebe
00000070: 5087 77be 89bd 99be 4bb5 9ebe f270 e3be
00000080: fe90 d5be 6ad1 68be ca46 d6be fca1 f8bd
00000090: f4d2 3dbe dc51 42be dbc2 4bbe 13fa a0be
000000a0: 4533 c9be d6ef 55be 7c62 e5be 9167 60be
000000b0: c2d4 cbbe 0b05 bcbe 2b49 313e 5ba0 23bd
000000c0: 7ec7 42be e1e5 44be a098 25bd e9bc 99be
000000d0: cf03 61be 144f 04bf c343 cebe ac2a 3fbf
000000e0: 3c9f e1be ff6a 17bf f758 bdbe e48c debe
000000f0: 087d 03bf c37b 97be dd2f 143d 9ebd 99be

q_network.weight f4 [1, 64]
-0.069633156 0.096655756 -0.07207597 -0.28782952 0.20623186 0.101848565 -0.2632653 0.040853694
0.22447987 -0.24129704 0.12037491 -0.048293684 -0.026030539 0.005780029 -0.12397429 -0.21625683
0.09065899 -0.26781562 -0.13145493 0.19350553 -0.17003125 0.041986354 -0.10962647 0.15014975
0.13483714 -0.087647386 -0.14067681 -0.14739019 -0.11433398 0.18688503 -0.17359285 -0.28891888
-0.27785292 0.081011206 -0.17189296 0.15198493 -0.033816323 -0.033555094 0.16788039 0.11813437
-0.2541944 0.008678188 -0.1905355 0.21213424 0.089082 -0.2637374 -0.0042985375 0.112308025
0.021842504 -0.21225053 -0.07017002 0.23098071 0.24187556 0.20037973 0.26324183 -0.58132863
-0.14422451 0.22848794 -0.08841239 -0.09563588 0.29683006 0.08380222 -0.0005586831 -0.11637117
00000000: d49b 8ebd 74f3 c53d 919c 93bd 645e 93be
00000010: 722e 533e fb95 d03d b6ca 86be 3456 273d
00000020: 0dde 653e 9216 77be 1f87 f63d 99cf 45bd
00000030: ff3d d5bc 6666 bd3b 3ce6 fdbd 6e72 5dbe
00000040: 6cab b93d 211f 89be 1f9c 06be 5026 463e
00000050: ac1c 2ebe e2f9 2b3d d883 e0bd dbc0 193e
00000060: bf12 0a3e 7980 b3bd 950d 10be 74ed 16be
00000070: ef27 eabd ca5e 3f3e 53c2 31be 2ded 93be
00000080: bd42 8ebe 34e9 a53d b504 30be f0a1 1b3e
00000090: fc82 0abd 1171 09bd d6e8 2b3e 6ff0 f13d
000000a0: c525 82be f52e 0e3c bd1b 43be b839 593e
000000b0: a070 b63d 9708 87be bfda 8cbb c001 e63d
000000c0: 0def b23c 3458 59be 4db5 8fbd 3586 6c3e
000000d0: 3aae 773e 5830 4d3e a2c7 863e f4d1 14bf
000000e0: 97af 13be bef8 693e 8e11 b5bd bfdc c3bd
000000f0: 1cfa 973e 80a0 ab3d 9774 12ba 0254 eebd

feature_network.0.weight f4 [64, 239]
-0.22435318 -0.058720402 -0.066386074 0.10346401 0.34323856 -0.11056675 0.06157303 -0.024662428
0.0879799 0.107606664 -0.124271214 -0.116292536 0.33266255 0.016918376 0.41764185 0.1402334
0.019222066 0.10594401 -0.01856289 -0.023673438 -0.03574954 -0.118410334 0.10657589 -0.31510997
0.375471 0.3535159 0.08200762 -0.20148042 0.27314326 0.31760156 -0.43168214 0.042215258
-0.10123603 0.09548922 -0.05614727 -0.10088976 -0.05494819 0.07669632 -0.2587207 0.034672767
0.39516404 -0.20507947 -0.29713392 -0.031200714 -0.056066938 -0.008278504 0.015985072 -0.023744427
0.043154523 0.009889469 0.13765004 0.2927298 -0.301263 -0.22540766 0.38554913 0.24484843
0.05782026 -0.13082573 -0.0074501783 -0.09044213 -1.3053417e-05 0.015530333 0.099300206 0.010169044
0.087321 -0.010971814 0.36449412 0.07642792 0.076865286 0.13422325 0.061791167 -0.12727153
-0.13607179 0.008693725 0.020383477 -0.08601327 -0.03535761 0.1065263 0.2016663 -0.2600508
0.32927737 0.13069966 -0.119489774 -0.039998636 -0.07076841 -0.07661093 0.033894822 0.38809597
-0.37305775 0.10011642 -0.12948227 0.20051715 0.17782556 -0.011508763 -0.3735283 -0.024995811
0.2986231 0.2729023 -0.09361412 0.078767106 0.005867541 -0.35416862 0.40988025 0.3664414
0.20567445 -0.0032321662 -0.16234212 -0.08900759 -0.07483321 0.18278036 0.01353009 -0.05503188
-0.11190727 -0.2852397 0.007524878 -0.26527274 -0.21405639 -0.3772006 0.1206474 0.3096149
-0.37317875 0.08751851 0.07979131 0.13158774 -0.021786861 0.18791845 -0.20208089 -0.29655787
-0.026268266 -0.25735584 -0.03873507 0.11563122 -0.039017357 -0.011272609 0.10970315 -0.03549563
-0.093059525 0.35838047 0.12512627 0.094216004 0.082170665 0.25369954 0.16059655 0.393171
-0.022422418 0.1340152 0.07288557 0.014013037 -0.0060932934 -0.08488134 -0.06534382 0.35105398
-0.40358678 -0.1121041 0.013783023 0.36699685 -0.32600886 0.04389575 0.09225567 -0.039297655
0.020873338 0.08062731 -0.24413767 -0.06315506 -0.0014098436 -0.09358257 -0.05194416 0.019070402
-0.09006724 -0.16343011 0.104512274 -0.21344653 0.08197443 0.25796488 0.019225612 0.2145821
0.31949762 -0.05539842 -0.08793152 0.049406245 -0.08198811 0.07659812 -0.12879384 -0.059272118
-0.11790568 0.11310309 -0.40930265 -0.053684458 0.32981735 0.17510697 -0.050193816 0.08632527
-0.0538793 -0.07486028 0.19094962 -0.048279144 0.10306987 0.25078326 0.36598265 0.16852479
0.21275932 -0.44085133 -0.16784862 -0.248006 -0.19504647 -0.23611401 -0.3081733 -0.3348622
-0.3422709 -0.4161506 -0.16626704 -0.19805922 -0.22630788 -0.43743524 -0.18856403 -0.16302736
-0.38435748 -0.31807202 -0.41487402 -0.22649929 -0.18417299 -0.43047413 -0.18526272 -0.4145408
-0.36070642 -0.23633677 -0.19296393 0.111795634 0.13284403 -0.4185088 0.002487123 -0.057112478
-0.26698792 -0.005627662 0.26651698 -0.26901338 -0.27458593 -0.31273335 -0.15982184 -0.3130804
0.11933297 0.040928245 0.0707864 0.12402102 0.10294017 0.09487863 -0.08818272 -0.053789288
0.12252897 -0.1339192 0.122354835 0.036615342 -0.09767047 0.31669205 -0.083031625 0.39306614
00000000: d7bc 65be ce84 70bd 6cf5 87bd f0e4 d33d
00000010: f7bc af3e d270 e2bd 0034 7c3d dc08 cabc
00000020: ce2e b43d e260 dc3d e881 febd c82a eebd
00000030: bf52 aa3e 6898 8a3c 27d5 d53e 5899 0f3e
00000040: 9877 9d3c 2cf9 d83d 3411 98bc ccee c1bc
00000050: 1c6e 12bd 1e81 f2bd 7644 da3d 1856 a1be
00000060: bc3d c03e 0900 b53e 9cf3 a73d e250 4ebe
00000070: 6fd9 8b3e ac9c a23e 7105 ddbe e8e9 2c3d
00000080: d654 cfbd da8f c33d aefa 65bd 4a9f cebd
00000090: 5a11 61bd f612 9d3d 0a77 84be 0805 0e3d
000000a0: f152 ca3e 5a00 52be f021 98be a498 ffbc
000000b0: 72a6 65bd 90a2 07bc 20f3 823c ac83 c2bc
000000c0: ccc2 303d 7007 223c 22f4 0c3e aee0 953e
000000d0: 253f 9abe 44d1 66be b266 c53e 8cb9 7a3e
000000e0: f0d4 6c3d 2ef7 05be a020 f4bb b939 b9bd
000000f0: 0000 5bb7 f072 7e3c e85d cb3d 109c 263c
00000100: 5ad5 b23d 20c3 33bc f99e ba3e 3e86 9c3d
00000110: 8c6b 9d3d d271 093e bc18 7d3d 7853 02be
00000120: 6756 0bbe 2070 0e3c 40fb a63c ba27 b0bd
00000130: 24d3 10bd 762a da3d 9c81 4e3e 6125 85be
00000140: 0b97 a83e 22d6 053e 0eb7 f4bd 9cd5 23bd
00000150: 07ef 90bd 31e6 9cbd 4cd5 0a3d 84b4 c63e
00000160: 6d01 bfbe d609 cd3d 0097 04be 5e54 4d3e
00000170: e717 363e 408f 3cbc 1a3f bfbe 04c4 ccbc
00000180: 21e5 983e dab9 8b3e c2b8 bfbd a650 a13d
00000190: 8044 c03b 9755 b5be d3db d13e 359e bb3e
000001a0: 539c 523e c0d2 53bb 033d 26be 9d49 b6bd
000001b0: 2742 99bd c62a 3b3e 50ad 5d3c 1c69 61bd
000001c0: a42f e5bd f00a 92be 4093 f63b d4d1 87be
000001d0: 9931 5bbe 7020 c1be fc15 f73d d885 9e3e
000001e0: 4911 bfbe e83c b33d a069 a33d f0be 063e
000001f0: 5c7a b2bc b26d 403e 4bee 4ebe 6fd6 97be
00000200: 8c30 d7bc 25c4 83be aaa8 1ebd 10d0 ec3d
00000210: aad0 1fbd c0b0 38bc 0cac e03d de63 11bd
00000220: fe95 bebd a57d b73e 1a21 003e 52f4 c03d
00000230: 1849 a83d e8e4 813e 6c73 243e b64d c93e
00000240: 38af b7bc 483b 093e 0845 953d f096 653c
00000250: 40aa c7bb 45d6 adbd fbd2 85bd 59bd b33e
00000260: eda2 cebe d696 e5bd 30d2 613c 03e7 bb3e
00000270: a2ea a6be 08cc 333d 8af0 bc3d 94f6 20bd
00000280: 90fe aa3c ee1f a53d 3aff 79be 7157 81bd
00000290: 80ca b8ba 38a8 bfbd 66c3 54bd 8839 9c3c
000002a0: 2c75 b8bd 395a 27be 880a d63d ba91 5abe
000002b0: 36e2 a73d f913 843e 087f 9d3c 69bb 5b3e
000002c0: 3195 a33e 74e9 62bd 7115 b4bd 345e 4a3d
000002d0: 62e9 a7bd 7adf 9c3d 88e2 03be 52c7 72bd
000002e0: 8878 f1bd 98a2 e73d 1e90 d1be 3ce4 5bbd
000002f0: d2dd a83e 3e4f 333e 0898 4dbd 4ecb b03d
00000300: 8ab0 5cbd 5950 99bd 4c88 433e 5ac0 45bd
00000310: 4c16 d33d aa66 803e 1462 bb3e c391 2c3e
00000320: 94dd 593e 44b7 e1be 82e0 2bbe 49f5 7dbe
00000330: 43ba 47be dfc7 71be e4c8 9dbe 0f73 abbe
00000340: 223e afbe b111 d5be e841 2abe 09d0 4abe
00000350: 41bd 67be 83f7 dfbe ee16 41be a5f0 26be
00000360: 81ca c4be 56da a2be 5e6a d4be 6eef 67be
00000370: d897 3cbe 1b67 dcbe 83b5 3dbe b13e d4be
00000380: 83ae b8be 4402 72be 5698 45be 1cf5 e43d
00000390: 4408 083e c946 d6be 00ff 223b c6ee 69bd
000003a0: a4b2 88be 4068 b8bb ea74 883e 1fbc 89be
000003b0: 8796 8cbe 961e a0be 56a8 23be 134c a0be
000003c0: d864 f43d 60a4 273d 76f8 903d bcfe fd3d
000003d0: 4cd2 d23d ba4f c23d 2499 b4bd 2852 5cbd
000003e0: 78f0 fa3d 1d22 09be 2c95 fa3d f8f9 153d
000003f0: 7507 c8bd 7625 a23e 7c0c aabd f73f c93e

feature_network.0.bias f4 [64]
-0.3002716 -0.30027097 -0.30027428 -0.30027008 -0.22061987 -0.30027312 -0.3002748 -0.30027407
-0.2530975 -0.34447914 -0.3002606 -0.21560562 -0.30026448 -0.35985866 -0.34514445 -0.30025566
-0.26203677 -0.3002684 -0.30027488 -0.30917755 -0.3095542 -0.3002696 -0.23597257 -0.26327083
-0.34514132 -0.30025357 -0.19606775 -0.72807866 -0.30027437 -0.40196368 -0.29865116 -0.30026364
-0.3002745 -0.3070807 -0.30021462 0.0 -0.30026883 -0.42232665 -0.30027258 -0.30025557
-0.06952825 -0.061950613 -0.4033605 -0.25934413 -0.14748788 -0.30027124 -0.3126204 -0.3002749
-0.300271 -0.3002736 -0.24925068 -0.30027422 -0.30468884 -0.27784818 -0.19135126 -0.31255025
-0.30027437 0.0 -0.31250226 -0.30027446 -0.30027437 -0.30027422 -0.36697978 -0.30027363
00000000: 33bd 99be 1ebd 99be 8dbd 99be 00bd 99be
00000010: 2dea 61be 66bd 99be 9ebd 99be 86bd 99be
00000020: ff95 81be 925f b0be c2bb 99be b8c7 5cbe
00000030: 44bc 99be 653f b8be c6b6 b0be 1cbb 99be
00000040: af29 86be c8bc 99be a1bd 99be 854c 9ebe
00000050: e37d 9ebe f0bc 99be cba2 71be 6fcb 86be
00000060: 5db6 b0be d6ba 99be fcc5 48be 5d63 3abf
00000070: 90bd 99be 2fce cdbe cee8 98be 28bc 99be
00000080: 94bd 99be ae39 9dbe bbb5 99be 0000 0000
00000090: d6bc 99be 333b d8be 54bd 99be 19bb 99be
000000a0: d464 8ebd edbf 7dbd 4485 cebe c1c8 84be
000000b0: 1007 17be 27bd 99be c80f a0be a2bd 99be
000000c0: 1fbd 99be 76bd 99be 923b 7fbe 8bbd 99be
000000d0: 2d00 9cbe 1e42 8ebe 96f1 43be 9606 a0be
000000e0: 90bd 99be 0000 0000 4c00 a0be 93bd 99be
000000f0: 90bd 99be 8bbd 99be c6e4 bbbe 77bd 99be

feature_network.3.weight f4 [64, 64]
-0.21623766 -0.21523115 -0.13964415 -0.19653325 0.09868973 0.02012059 -0.16404286 0.12749936
0.016438246 -0.028913066 0.0007084459 -0.09826968 0.08028029 -0.11531403 -0.18041709 0.19162081
-0.19423875 -0.12505358 0.09785114 0.12141682 0.0026494265 -0.071538314 0.21184759 0.023079067
-0.14728707 0.06007062 -0.05291356 0.07324757 0.1420766 0.09104414 0.011516124 0.067464694
0.18051518 -0.11347161 -0.15441051 0.022703975 -0.109334804 0.12433322 0.145775 0.1982718
-0.20299284 -0.6173893 -0.05439581 0.055203512 0.12007588 -0.102644056 -0.07660109 -0.19314653
0.15543844 -0.18515876 -0.041192695 0.032204434 -0.14529562 0.15164961 -0.12429586 0.049164966
0.1810386 0.19057624 -0.10810833 -0.04391268 -0.039366618 -0.11008073 -0.0440879 -0.05610989
-0.23009714 -0.118153974 -0.20711607 0.47308922 -0.26735696 0.11166714 -0.38628367 -0.3080726
-0.35945395 -0.29683346 -0.24201004 -0.36900708 0.15555854 -0.3684055 -0.30788594 0.42183545
-0.47728696 -0.41157925 -0.2895377 -0.48597988 -0.19495618 0.2570694 -0.4066771 -0.19170642
-0.21044011 -0.28225407 -0.20284611 0.0697559 -0.46452388 -0.42327744 -0.38356468 0.42079782
-0.43641004 -0.37858337 0.49636936 0.040262148 -0.37362912 -0.17957453 -0.189946 -0.4623776
0.18999039 -0.03417021 -0.07946028 -0.5166417 -0.21952777 -0.1875076 -0.27244166 -0.30022
0.25471184 -0.30724406 -0.35573077 -0.4563449 -0.17980099 -0.20128028 0.041435525 -0.10470775
-0.15610476 0.13871627 -0.19585262 -0.3297809 -0.4416705 -0.33951378 -0.2049576 -0.08701322
-0.51250106 -0.15994722 -0.1585654 -0.13112655 -0.42962798 -0.17057143 -0.11957722 -0.27207005
0.006150916 -0.16019654 -0.2640107 -0.5101118 0.24117766 -0.1139561 -0.32325932 -0.37510046
-0.13402402 0.46124977 -0.42261928 -0.14861481 -0.28830728 -0.15391092 0.17548263 -0.0025955439
-0.28625122 0.42156538 -0.30129474 -0.18666886 -0.43013513 0.48557332 -0.50512636 -0.23807627
-0.26384088 -0.22376736 -0.24715447 0.075360194 0.41238678 -0.3407433 0.17059837 -0.12663753
-0.06605169 -0.3727066 -0.15526478 -0.46158865 -0.3663611 0.46769387 -0.4095448 -0.32919735
-0.5095613 -0.1263596 -0.3320402 -0.28191707 0.09510894 0.08214368 0.102379784 0.22057557
-0.34957126 -0.077792436 -0.22200537 -0.1289609 -0.4672107 -0.13458218 -0.08603718 -0.37514964
-0.26035202 -0.1228689 0.5050587 -0.18765564 -0.5056746 -0.15004764 -0.115477905 0.11997048
-0.0067877322 -0.451895 -0.087568715 0.59852 0.037832484 -0.513372 -0.28091156 -0.0011002123
-0.30776355 0.06927602 0.12793034 -0.12840477 -0.039920863 0.026195139 0.056377932 0.11214553
-0.18275964 -0.45770764 0.40615514 0.15902556 -0.26338288 0.45162833 -0.23341414 0.10421772
-0.10815402 -0.364185 -0.2386999 -0.11955836 0.15935016 0.48452735 0.36062828 0.044441596
0.054954454 -0.27732077 -0.50984883 0.6106465 -0.46473604 -0.12051076 0.26036173 -0.42914727
-0.41144922 0.13427348 0.34278607 -0.21391696 -0.15455985 0.13405164 -0.060818676 -0.20424007
-0.14705543 0.096183196 -0.3511093 -0.37741065 -0.41768557 -0.49948424 0.47924986 -0.4234978
00000000: 686d 5dbe 8e65 5cbe e0fe 0ebe 0340 49be
00000010: d71d ca3d f0d3 a43c dafa 27be 318f 023e
00000020: 80a9 863c 18db ecbc 00b7 393a 9d41 c9bd
00000030: fe69 a43d c329 ecbd 42bf 38be 3f38 443e
00000040: 86e6 46be 0c0e 00be 2e66 c83d 62a9 f83d
00000050: 00a2 2d3b ae82 92bd 93ee 583e 5010 bd3c
00000060: 6cd2 16be 9c0c 763d e4bb 58bd d202 963d
00000070: 877c 113e 5a75 ba3d 20ae 3c3c ee2a 8a3d
00000080: f9d8 383e ce63 e8bd ca1d 1ebe b0fd b93c
00000090: edea dfbd 6aa2 fe3d 0b46 153e c307 4b3e
000000a0: 5bdd 4fbe 3a0d 1ebf 24ce 5ebd 141d 623d
000000b0: 58ea f53d 0c37 d2bd 08e1 9cbd 34c8 45be
000000c0: 412b 1f3e 429a 3dbe acb9 28bd cce8 033d
000000d0: 60c8 14be 094a 1b3e d48e febd 3461 493d
000000e0: 2f62 393e 6b26 433e e667 ddbd c8dd 33bd
000000f0: e43e 21bd 0172 e1bd 8495 34bd 7cd3 65bd
00000100: 969e 6bbe b6fa f1bd 3c16 54be c038 f23e
00000110: 03e3 88be beb1 e43d f9c6 c5be b1bb 9dbe
00000120: 590a b8be 8efa 97be 7bd1 77be 7fee bcbe
00000130: bd4a 1f3e a59f bcbe 3aa3 9dbe d1fa d73e
00000140: f55e f4be 84ba d2be 493e 94be 5bd2 f8be
00000150: 98a2 47be 9a9e 833e fb37 d0be b04e 44be
00000160: 9d7d 57be 9b83 90be e4b6 4fbe 2edc 8e3d
00000170: 13d6 edbe d2b7 d8be 9762 c4be d072 d73e
00000180: 2371 dfbe aed5 c1be 2024 fe3e ece9 243d
00000190: 514c bfbe 63e2 37be 3481 42be c2bc ecbe
000001a0: d78c 423e 10f6 0bbd 12bc a2bd a142 04bf
000001b0: e3cb 60be fe01 40be 797d 8bbe 70b6 99be
000001c0: 9769 823e 184f 9dbe 5822 b6be 0aa6 e9be
000001d0: c01d 38be 6b1c 4ebe 4cb8 293d 0471 d6bd
000001e0: edd9 1fbe a30b 0e3e 978d 48be 0bd9 a8be
000001f0: a322 e2be c0d4 adbe 68e0 51be fd33 b2bd
00000200: 4533 03bf 34c9 23be f85e 22be 0a46 06be
00000210: 33f8 dbbe 47aa 2ebe e7e4 f4bd c44c 8bbe
00000220: a08d c93b 900a 24be 692c 87be b096 02bf
00000230: 47f7 763e d161 e9bd 3f82 a5be 2b0d c0be
00000240: 983d 09be ee28 ec3e 8e61 d8be 7b2e 18be
00000250: 039d 93be d39a 1dbe b8b1 333e 001a 2abb
00000260: 858f 92be 6bd7 d73e 4e43 9abe 1f26 3fbe
00000270: ac3a dcbe 119d f83e f64f 01bf 44ca 73be
00000280: 2716 87be 4523 65be 1016 7dbe 7256 9a3d
00000290: 5c24 d33e e875 aebe 57b1 2e3e 45ad 01be
000002a0: 1c46 87bd 66d3 bebe bbfd 1ebe 5955 ecbe
000002b0: af93 bbbe 9275 ef3e dbaf d1be 8e8c a8be
000002c0: 9c72 02bf 6964 01be 2c01 aabe 6f57 90be
000002d0: 7ac8 c23d f23a a83d 7eac d13d 90de 613e
000002e0: 01fb b2be a451 9fbd 6055 63be 530e 04be
000002f0: 3e36 efbe e9cf 09be 4334 b0bd 9d13 c0be
00000300: dc4c 85be b1a2 fbbd 874b 013f cd28 40be
00000310: e473 01bf 17a6 19be ae7f ecbd 15b3 f53d
00000320: a06b debb c85e e7be 3a57 b3bd 9b38 193f
00000330: 3cf6 1a3d 596c 03bf a4d3 8fbe 0035 90ba
00000340: 2f93 9dbe 96e0 8d3d 2c00 033e 8a7c 03be
00000350: 0f84 23bd 3097 d63c 8cec 663d 8eac e53d
00000360: 5825 3bbe a858 eabe 91f3 cf3e 99d7 223e
00000370: 1fda 86be d43b e73e 1e04 6fbe 1a70 d53d
00000380: db7f ddbd 7576 babe bf6d 74be 03db f4bd
00000390: b02c 233e f813 f83e 45a4 b83e 6408 363d
000003a0: ec17 613d fdfc 8dbe 7485 02bf 5453 1c3f
000003b0: e2f1 edbe 58ce f6bd 224e 853e 31b9 dbbe
000003c0: 79a9 d2be fd7e 093e a881 af3e 0c0d 5bbe
000003d0: f044 1ebe d544 093e 011d 79bd 4f24 51be
000003e0: b395 16be b2fb c43d 99c4 b3be f83b c1be
000003f0: e2da d5be 66bc ffbe 3d60 f53e b4d4 d8be

feature_network.3.bias f4 [64]
-0.17639986 -0.41752076 -0.30028552 -0.025158886 -0.30027398 -0.2741876 -0.30027 -0.08293877
-0.39382917 -0.2216094 -0.38097692 -0.13475254 -0.24473485 -0.18409425 -0.28991535 -0.30450487
0.0064196857 -0.3604493 -0.08846271 -0.369643 -0.4046389 -0.053332362 -0.39275384 -0.22789927
-0.30963534 -0.300993 -0.30557647 -0.24137206 0.0030778716 -0.30322137 -0.4071472 -0.52423805
-0.24789773 -0.22823928 -0.21824846 -0.30380294 0.09015559 -0.37321618 -0.21751688 0.22635144
-0.27279294 -0.43290183 0.008648719 -0.34378 -0.07577519 -0.35562137 -0.3113984 -0.4796854
-0.5226016 -0.024414266 -0.3002745 -0.3921206 -0.33615893 -0.53249156 0.00987566 -0.6402267
-0.26427644 -0.29886526 -0.5626715 0.37611446 -0.37627634 -0.30027413 -0.3614608 -0.34903586
00000000: 2aa2 34be 48c5 d5be 06bf 99be 021a cebc
00000010: 83bd 99be 5162 8cbe fdbc 99be cddb a9bd
00000020: faa3 c9be 93ed 62be 680f c3be 92fc 09be
00000030: c69b 7abe 3483 3cbe c96f 94be 10e8 9bbe
00000040: 3a5c d23b d08c b8be f02b b5bd d941 bdbe
00000050: d42c cfbe 0973 5abd 0817 c9be 6d5e 69be
00000060: 8688 9ebe c11b 9abe 8574 9cbe 3d2a 77be
00000070: 1eb6 493b d53f 9bbe 9975 d0be 7734 06bf
00000080: e7d8 7dbe 8fb7 69be 867c 5fbe 0f8c 9bbe
00000090: 7ea3 b83d 3116 bfbe bfbc 5ebe acc8 673e
000000a0: 84ab 8bbe 4fa5 ddbe 5bb3 0d3c ef03 b0be
000000b0: 0630 9bbd 0114 b6be 9c6f 9fbe 5399 f5be
000000c0: 38c9 05bf 6d00 c8bc 94bd 99be 08c4 c8be
000000d0: 061d acbe 5e51 08bf 85cd 213c e6e5 23bf
000000e0: 3e4f 87be de04 99be 3d0b 10bf 1392 c03e
000000f0: 4ba7 c0be 88bd 99be 6411 b9be d4b4 b2be

feature_network.6.weight f4 [64, 64]
0.091753736 0.31956133 -0.2587302 -0.29039195 -0.3705955 -0.21115857 -0.22641714 -0.316379
0.23849796 -0.30553445 0.15538482 -0.2726375 -0.3456957 -0.17073897 -0.084523216 -0.3145966
0.16860224 0.1445408 -0.36523718 -0.360874 0.4703251 -0.40423426 -0.16381556 -0.48253226
-0.3195508 -0.039623156 -0.34358194 -0.29743743 -0.43355018 -0.37060493 -0.3607414 -0.43286064
-0.21334326 -0.09541279 -0.29678705 0.1888045 -0.3263821 -0.42854944 0.14497931 -0.1523821
-0.27139893 -0.09159053 -0.14757219 -0.4283598 0.46796763 -0.3098329 -0.18011579 -0.4351696
-0.4702896 -0.13384417 -0.167113 -0.60504925 -0.4038275 -0.37211144 -0.09473348 -0.31629184
-0.49165064 -0.26951846 -0.45981085 0.0329341 -0.0073854052 -0.42393538 -0.13134752 0.50686705
-0.09318397 -0.04961087 0.27235535 -0.59187746 -0.20509416 -0.40426657 0.2587857 -0.41093424
0.50178903 0.40217254 -0.04249595 0.092582725 0.15779112 0.0074123167 -0.0114298565 0.1959439
-0.35073566 0.35782805 0.01563265 0.32661444 0.3430394 -0.06731866 -0.23212846 -0.20595324
0.17373194 -0.27600276 -0.16030061 0.16423768 -0.15967941 -0.4587606 0.17554255 -0.43343234
-0.4022481 0.3007203 0.09576295 0.1399991 -0.4468708 0.13645096 0.31136897 -0.3353814
0.39511076 -0.11226107 -0.7552773 -0.6527862 -0.018674048 -0.20455988 -0.21934946 0.11696565
-0.5138839 -0.21458422 0.4675074 0.47075582 0.56767327 -0.27706516 -0.023029394 -0.82945716
-0.05090989 0.24175583 -0.55692625 -0.37167856 0.36435217 0.37196168 0.4406394 0.5773015
-0.04063262 -0.5206761 0.38744518 -0.4761982 0.23562732 -0.43626437 0.3950769 -0.0065322593
-0.32770562 -0.33677375 -0.13553382 0.16469719 0.20228365 -0.31254512 -0.06380734 -0.055967532
-0.24354127 -0.34830105 -0.034739077 -0.14113511 -0.10902784 -0.3350876 -0.31037098 -0.12221148
-0.4565606 -0.23558109 0.13582553 -0.4155083 -0.27316123 -0.13760199 -0.4155785 0.23403394
-0.17811534 -0.023773955 -0.19519673 -0.104255535 -0.40546134 0.49040797 -0.054899674 -0.38900498
-0.016278895 0.3746885 -0.18031758 -0.2787741 -0.19291638 0.4375799 0.3800191 -0.12745906
0.34477997 -0.2165404 -0.21881202 -0.5267961 -0.111951046 0.0822814 -0.3915619 0.28060246
-0.12205012 0.16999958 0.13783304 -0.13577187 -0.13382088 0.15010901 -0.39183637 0.13407466
-0.086861566 -0.059304267 -0.17493132 -0.16766132 0.06977467 -0.13966009 -0.20479445 -0.34928545
-0.04456471 -0.30293158 0.15305205 -0.118493065 -0.38506123 -0.08196631 -0.08012748 -0.33441702
0.17434572 -0.038529575 -0.18131529 -0.34495857 -0.15039048 -0.46473068 -0.021529227 -0.38125473
-0.45349574 -0.066649154 0.017678991 -0.18640393 -0.48777193 -0.26955143 -0.06849169 0.2042007
-0.11764188 -0.10441148 -0.07448193 -0.17801398 -0.32057884 -0.3096323 -0.19183818 -0.5572549
-0.4494168 -0.012976661 -0.27845758 -0.3749931 -0.044420406 0.08524971 0.048272118 -0.21998078
0.12695028 -0.1538311 0.20276715 -0.47387832 -0.44524664 -0.1499854 -0.40670902 -0.29663512
-0.45209593 -0.3817673 -0.48042592 -0.36337003 -0.3998493 0.05475135 -0.33154365 -0.45246
00000000: 62e9 bb3d 8b9d a33e 4978 84be 41ae 94be
00000010: b2be bdbe f439 58be e5d9 67be 6efc a1be
00000020: cf38 743e 036f 9cbe 331d 1f3e 2497 8bbe
00000030: 07ff b0be 32d6 2ebe 821a adbd ce12 a1be
00000040: 11a6 2c3e 8102 143e 5e00 bbbe 7ac4 b8be
00000050: 74ce f03e cbf7 cebe 44bf 27be 780e f7be
00000060: 2a9c a3be e44b 22bd f9e9 afbe b849 98be
00000070: 4afa ddbe eebf bdbe 19b3 b8be e99f ddbe
00000080: a876 5abe c867 c3bd 79f4 97be f855 413e
00000090: 8e1b a7be d56a dbbe 7575 143e 0e0a 1cbe
000000a0: cdf4 8abe d193 bbbd 2a1d 17be fa51 dbbe
000000b0: 7499 ef3e 6ba2 9ebe 4670 38be 8dce debe
000000c0: ccc9 f0be 720e 09be ac1f 2bbe 82e4 1abf
000000d0: 7ac2 cebe 6485 bebe a003 c2bd 01f1 a1be
000000e0: a2b9 fbbe 53fe 89be 546c ebbe e8e5 063d
000000f0: 4501 f2bb 0f0e d9be f77f 06be 0ac2 013f
00000100: 3dd7 bebd c534 4bbd 2972 8b3e 4885 17bf
00000110: 3404 52be 07fc cebe 8f7f 843e f965 d2be
00000120: 3f75 003f 8fe9 cd3e 3c10 2ebd 039c bd3d
00000130: ff93 213e 05e3 f23b 4b44 3bbc 85a5 483e
00000140: a093 b3be 3d35 b73e 0b10 803c 023a a73e
00000150: dca2 af3e 5ede 89bd 15b3 6dbe 68e5 52be
00000160: c9e6 313e 3c50 8dbe d825 24be ec2d 283e
00000170: 0083 23be abe2 eabe 6dc1 333e d8ea ddbe
00000180: 77f3 cdbe 03f8 993e 5e1f c43d ed5b 0f3e
00000190: 40cc e4be cdb9 0b3e c16b 9f3e 1cb7 abbe
000001a0: f54b ca3e 22e9 e5bd da59 41bf ff1c 27bf
000001b0: 51fa 98bc 2578 51be 259d 60be b08b ef3d
000001c0: e58d 03bf f7bb 5bbe 215d ef3e e806 f13e
000001d0: 0953 113f 7cdb 8dbe 24a8 bcbc 4e57 54bf
000001e0: e486 50bd d78e 773e b892 0ebf a74c bebe
000001f0: 5e8c ba3e c371 be3e 7d9b e13e 08ca 133f
00000200: 646e 26bd 074b 05bf 375f c63e 40d0 f3be
00000210: 4a48 713e 0b5e dfbe 8547 ca3e 900c d6bb
00000220: 08c9 a7be 9c6d acbe 61c9 0abe 61a6 283e
00000230: 7223 4f3e ea05 a0be 6cad 82bd 363e 65bd
00000240: e262 79be 8454 b2be 904a 0ebd b985 10be
00000250: fd49 dfbd 9a90 abbe f2e8 9ebe 034a fabd
00000260: 50c2 e9be 2b3c 71be d915 0b3e 81bd d4be
00000270: cadb 8bbe 89e7 0cbe b5c6 d4be 98a6 6f3e
00000280: de63 36be 99c1 c2bc a7e1 47be ed83 d5bd
00000290: a198 cfbe c116 fb3e 7bde 60bd a92b c7be
000002a0: 515b 85bc 2cd7 bf3e 2ca5 38be 7bbb 8ebe
000002b0: df8b 45be 790a e03e dd91 c23e a184 02be
000002c0: 0087 b03e c4bc 5dbe 4210 60be 1cdc 06bf
000002d0: 9746 e5bd 2783 a83d cd7a c8be 20ab 8f3e
000002e0: 6af5 f9bd 5f14 2e3e 1b24 0d3e c807 0bbe
000002f0: 5708 09be 2db6 193e c79e c8be de4a 093e
00000300: 7ae4 b1bd 08e9 72bd 3221 33be 69af 2bbe
00000310: 06e6 8e3d 0e03 0fbe a3b5 51be 8bd5 b2be
00000320: 7c89 36bd d919 9bbe adb9 1c3e 7eac f2bd
00000330: bf26 c5be f4dd a7bd e019 a4bd b538 abbe
00000340: af87 323e 30d1 1dbd b7aa 39be 699e b0be
00000350: f6ff 19be 2ef1 edbe 105e b0bc d233 c3be
00000360: 9830 e8be 5a7f 88bd 88d3 903c ace0 3ebe
00000370: 3ebd f9be a502 8abe 5f45 8cbd fd19 513e
00000380: 3aee f0bd b0d5 d5bd fb89 98bd 4c49 36be
00000390: e922 a4be 2088 9ebe 3a71 44be 42a8 0ebf
000003a0: f519 e6be 109c 54bc fe91 8ebe 18ff bfbe
000003b0: 2cf2 35bd 6697 ae3d fcb8 453d a442 61be
000003c0: 41ff 013e e685 1dbe 31a2 4f3e 2ea0 f2be
000003d0: 5ef7 e3be c695 19be 2a3c d0be 8fe0 97be
000003e0: 1e79 e7be 0177 c3be 63fa f5be a30b babe
000003f0: 0cb9 ccbe f442 603d 17c0 a9be d6a8 e7be

feature_network.6.bias f4 [64]
-0.31378764 -0.23425235 -0.23266394 -0.61679435 -0.23597133 -0.22856303 -0.4868281 -0.20061256
-0.30024642 -0.33828837 -0.20542951 -0.37674627 -0.29755363 0.203817 -0.32275745 -0.44355634
-0.27289483 -0.35147396 -0.2036705 -0.29588366 -0.30416006 -0.22954153 -0.30240038 -0.23078796
-0.3596389 -0.27489173 -0.30212027 -0.34101447 -0.24172711 -0.30027416 -0.3099769 -0.44422108
-0.41712183 -0.22736135 -0.41850883 -0.12140271 -0.18537503 -0.1897654 -0.1989855 -0.3144079
-0.39296928 -0.20892271 -0.448017 -0.21914507 -0.3981076 -0.36722597 0.17284036 -0.03994785
-0.19021413 -0.19228317 -0.040428758 -0.3002694 -0.21974109 -0.51683164 -0.40286073 -0.7467449
-0.440668 -0.5914764 -0.36981937 -0.43466866 -0.5136266 -0.2958661 0.036202975 -0.3002748
00000000: c6a8 a0be d9df 6fbe 753f 6ebe 3ce6 1dbf
00000010: 78a2 71be 6d0c 6abe 8841 f9be 616d 4dbe
00000020: e6b9 99be 2234 adbe 1d5c 52be e3e4 c0be
00000030: f358 98be 67b5 503e 7740 a5be d119 e3be
00000040: dfb8 8bbe 65f4 b3be 008f 50be 107e 97be
00000050: deba 9bbe ef0c 6bbe 39d4 9abe ae53 6cbe
00000060: 9722 b8be 9cbe 8cbe 82af 9abe 7399 aebe
00000070: 5087 77be 89bd 99be 4bb5 9ebe f270 e3be
00000080: fe90 d5be 6ad1 68be ca46 d6be fca1 f8bd
00000090: f4d2 3dbe dc51 42be dbc2 4bbe 13fa a0be
000000a0: 4533 c9be d6ef 55be 7c62 e5be 9167 60be
000000b0: c2d4 cbbe 0b05 bcbe 10fd 303e 5ba0 23bd
000000c0: 7ec7 42be e1e5 44be a098 25bd e9bc 99be
000000d0: cf03 61be 144f 04bf c343 cebe ac2a 3fbf
000000e0: 3c9f e1be ff6a 17bf f758 bdbe e48c debe
000000f0: 087d 03bf c37b 97be 9249 143d 9ebd 99be

q_network.weight f4 [1, 64]
-0.069633156 0.096655756 -0.07207597 -0.28782952 0.20623186 0.101848565 -0.2632653 0.040853694
0.22447987 -0.24129704 0.12037491 -0.048293684 -0.026030539 0.010796232 -0.12397429 -0.21625683
0.09065899 -0.26781562 -0.13145493 0.19350553 -0.17003125 0.041986354 -0.10962647 0.15014975
0.13483714 -0.087647386 -0.14067681 -0.14739019 -0.11433398 0.18688503 -0.17359285 -0.28891888
-0.27785292 0.081011206 -0.17189296 0.15198493 -0.033816323 -0.033555094 0.16788039 0.11813437
-0.2541944 0.008678188 -0.1905355 0.21213424 0.089082 -0.2637374 -0.0056059686 0.112308025
0.021842504 -0.21225053 -0.07017002 0.23098071 0.24187556 0.20037973 0.26324183 -0.58132863
-0.14422451 0.22848794 -0.08841239 -0.09563588 0.29683006 0.08380222 -0.0021311457 -0.11637117
00000000: d49b 8ebd 74f3 c53d 919c 93bd 645e 93be
00000010: 722e 533e fb95 d03d b6ca 86be 3456 273d
00000020: 0dde 653e 9216 77be 1f87 f63d 99cf 45bd
00000030: ff3d d5bc aee2 303c 3ce6 fdbd 6e72 5dbe
00000040: 6cab b93d 211f 89be 1f9c 06be 5026 463e
00000050: ac1c 2ebe e2f9 2b3d d883 e0bd dbc0 193e
00000060: bf12 0a3e 7980 b3bd 950d 10be 74ed 16be
00000070: ef27 eabd ca5e 3f3e 53c2 31be 2ded 93be
00000080: bd42 8ebe 34e9 a53d b504 30be f0a1 1b3e
00000090: fc82 0abd 1171 09bd d6e8 2b3e 6ff0 f13d
000000a0: c525 82be f52e 0e3c bd1b 43be b839 593e
000000b0: a070 b63d 9708 87be 46b2 b7bb c001 e63d
000000c0: 0def b23c 3458 59be 4db5 8fbd 3586 6c3e
000000d0: 3aae 773e 5830 4d3e a2c7 863e f4d1 14bf
000000e0: 97af 13be bef8 693e 8e11 b5bd bfdc c3bd
000000f0: 1cfa 973e 80a0 ab3d b1aa 0bbb 0254 eebd
