training_results/dqn_detectives_1753803529.pth (torch, 155203 bytes, 10 tensors)

feature_network.0.weight f4 [64, 239]
0	0x3e02790c	0.12741488
1	0xbdd7cb8e	-0.10536872
2	0xbd0f7af0	-0.03502935
3	0xbd98c4df	-0.07459425
4	0xbd9db79a	-0.07701035
5	0x3db0806a	0.08618243
6	0x3dfe9574	0.1243085
7	0x3daf45f8	0.08558267
8	0x3df078bc	0.11741778
9	0xbdd83e5e	-0.105587706
10	0xbde3e0b6	-0.111268446
11	0xbd5b4f24	-0.05354227
12	0x3d72f7e8	0.059318453
13	0x3cb3da60	0.021954715
14	0xbc9bbcf8	-0.019011006
15	0xbe0bbd58	-0.13646448
16	0x3d7ec79c	0.06220208
17	0xbcbd6bf8	-0.023122773
18	0xbde1e511	-0.11030019
19	0x3d8209f4	0.06349555
20	0x3d9255fc	0.071453065
21	0x3d9a75d4	0.07542005
22	0x3d9b6fce	0.075896844
23	0xbe069ac7	-0.1314498
24	0xbdda1539	-0.10648579
25	0xbd6ed312	-0.05830676
26	0x3d4dfce4	0.050290003
27	0x3d31edd8	0.043439716
28	0x3d511008	0.05104068
29	0x3d65544c	0.055988595
30	0xbd1efd2e	-0.03881567
31	0x3dacc502	0.08436014
32	0xbdc32c24	-0.095299035
33	0x3ccd4098	0.025055215
34	0x3d9068cc	0.070512384
35	0x3d8d615a	0.06903334
36	0x3b5997c0	0.0033202022
37	0x3dfe6f44	0.12423566
38	0xbd1f16ac	-0.03883998
39	0xbdf9d648	-0.12199074
40	0xbe026f37	-0.12737738
41	0x3dae1400	0.084999084
42	0x3aa29100	0.0012402833
43	0x3d161d08	0.03664878
44	0xbd30ab1c	-0.043131933
45	0xbe0fcbbc	-0.14042562
46	0x3c8ada48	0.016949788
47	0x3e00a8ec	0.12564439
48	0xbdaa0412	-0.083015576
49	0x3d249010	0.04017645
50	0x3e0251da	0.12726536
51	0xbdf89a66	-0.12138824
52	0xbc3e3bb0	-0.01161091
53	0xbdfe7d18	-0.124262035
54	0xbd8ce1ab	-0.0687898
55	0xbd5a35fc	-0.05327414
56	0xbd58e8be	-0.052956335
57	0xbd67f15e	-0.05662667
58	0xbc297630	-0.0103431195
59	0x3d2f9358	0.042865127
60	0xbd8b8ab4	-0.06813565
61	0xbdea3807	-0.114364676
62	0xbdcad8ba	-0.099046186
63	0xbd84c3b1	-0.06482638
64	0xbde93f96	-0.11389081
65	0x3dfcce14	0.12343994
66	0xbdbe5b5c	-0.09294769
67	0xbbc2e9a0	-0.0059482604
68	0xbdb7b9fb	-0.0897102
69	0x3d760214	0.060060576
70	0x3dfa4744	0.12220624
71	0x3c3fd6b0	0.0117089
72	0xbba43ea0	-0.0050123483
73	0xbcc1cff0	-0.023658723
74	0x3ba11980	0.00491637
75	0x3dfb751c	0.12278196
76	0xbdf10f2a	-0.117704704
77	0x3dda66ec	0.10664162
78	0x3deb1aac	0.11479697
79	0xbc621b90	-0.013800517
80	0x3db207b6	0.08692877
81	0xbd3d02d2	-0.046145268
82	0xbca22f40	-0.019797921
83	0xbe02c28e	-0.12769529
84	0x3dc32574	0.09528628
85	0x3da35f40	0.07977152
86	0x3e05f52e	0.1308181
87	0xbdf68b6c	-0.12038311
88	0xbe07994b	-0.1324207
89	0xbcdc2384	-0.026872404
90	0xbe033a73	-0.12815265
91	0x3d41d5e4	0.047323123
92	0xbb8e3540	-0.004339844
93	0x3c95ea48	0.01830019
94	0x3dff06d0	0.12452471
95	0x3cf8e1b8	0.030381069
96	0x3db20112	0.086916104
97	0x3de34640	0.110973835
98	0x3d944b8c	0.07240972
99	0x3e0e92cc	0.13923186
100	0x3d62e704	0.055396095
101	0xbe06bccc	-0.13157958
102	0xbdffd556	-0.124918625
103	0xbe06b9a1	-0.1315675
104	0x3d12c428	0.0358316
105	0x3d10176c	0.035178587
106	0xbd926bfe	-0.07149504
107	0xbbc745e0	-0.006081328
108	0xbd966f45	-0.07345442
109	0x3d9fae88	0.07796961
110	0xbde1d872	-0.11027612
111	0x3d368b34	0.04456635
112	0xbdce26f1	-0.10066021
113	0xbc786f80	-0.015163302
114	0xbe0d5580	-0.13802147
115	0xbc30bfe0	-0.010787934
116	0x3dfab17c	0.12240884
117	0x3e0eb6f2	0.13936976
118	0xbd61ddd2	-0.055143185
119	0x3dbf45cc	0.093394846
120	0xbd0cc362	-0.03436602
121	0x3b918680	0.0044410825
122	0x3d212868	0.039345175
123	0xbd555eee	-0.052092485
124	0x3da15e62	0.0787933
125	0xbdd776ab	-0.10520681
126	0xbcad35d0	-0.021143824
127	0xbde5d075	-0.11221401
128	0x3d4e5274	0.050371602
129	0x3daadba2	0.08342673
130	0xbdf84724	-0.12122944
131	0xbd9a8922	-0.07545687
132	0xbdbcd89c	-0.092210025
133	0xbd5a30b6	-0.05326911
134	0x3cbfb358	0.023400947
135	0x3df6a1f4	0.12042609
136	0xbd06a7e6	-0.032874964
137	0x3e0196ec	0.12655228
138	0xbd846e54	-0.06466356
139	0xbd92fcd8	-0.07177132
140	0xbdcea42c	-0.10089907
141	0x3d40a60c	0.047033355
142	0x3dadfa22	0.08494975
143	0xbc838fc4	-0.016059764
144	0xbe097c18	-0.13426244
145	0x3c8c5740	0.017131448
146	0x3e01639c	0.12635654
147	0xbd0f0dbe	-0.034925215
148	0xbdb79ae6	-0.089650914
149	0x3d9d9e0e	0.07696162
150	0xbdab3902	-0.08360483
151	0x3d939fd8	0.07208222
152	0x3c002440	0.007821143
153	0xbd3d7500	-0.046254158
154	0x3b5d39c0	0.0033756346
155	0x3da218a8	0.07914859
156	0x3cfe62c0	0.031052947
157	0x3d886134	0.06659165
158	0x3b702c00	0.003664732
159	0x3a0f5e00	0.0005469024
160	0x3ce31598	0.027720258
161	0x3dd3b1f4	0.10336676
162	0x3d5317f0	0.0515365
163	0x3c6a0840	0.0142841935
164	0xbd9a67cd	-0.0753933
165	0x3d01a7b0	0.03165406
166	0xbae3ee00	-0.0017389655
167	0x3df00c38	0.117210805
168	0x3d9d700e	0.07687388
169	0x3d63582c	0.05550401
170	0x3deb5db0	0.11492479
171	0xbd9172ac	-0.0710195
172	0xbca05c50	-0.019575268
173	0x3e0f2ca6	0.13981876
174	0xbc2bb630	-0.010480449
175	0xbc30fa80	-0.010801911
176	0x3d6920f4	0.056916192
177	0x3d64d850	0.055870354
178	0x3c8a98f0	0.01691863
179	0xbcf49b28	-0.02985914
180	0xbd885ebe	-0.06658696
181	0xbdeddfe8	-0.11614972
182	0xbd5d68e2	-0.054055102
183	0xbd6a8f16	-0.057265364
184	0x3d2525fc	0.040319428
185	0xbde6a052	-0.112610474
186	0x3cd4b898	0.025966927
187	0xbb84bfc0	-0.0040511787
188	0xbd2e392c	-0.042534992
189	0xbdb0de68	-0.086361706
190	0xbe02595a	-0.12729397
191	0x3d7f9e00	0.06240654
192	0x3dad24f0	0.08454311
193	0xbd8838da	-0.066514686
194	0xbdf92573	-0.12165346
195	0xbc6a9610	-0.014318004
196	0x3db7b4b6	0.08970015
197	0xbdf55d94	-0.11980739
198	0x3d435720	0.04769051
199	0xbd788f76	-0.06068369
200	0x3d7dbfb8	0.061950415
201	0x3e0979c8	0.13425362
202	0x3ca93698	0.020655915
203	0xbdd56110	-0.10418904
204	0x3ddb0262	0.10693814
205	0xbe092fb6	-0.13397107
206	0xbbeb3460	-0.0071778744
207	0xbdba1daa	-0.09087689
208	0xbe066944	-0.13126093
209	0x3d5fac10	0.05460745
210	0x3e04150a	0.12898651
211	0x3d63b184	0.055589214
212	0x3c4c2740	0.01246053
213	0xbd2cbee6	-0.042174242
214	0xbdd43ccc	-0.103631586
215	0xbc4fefd0	-0.012691453
216	0xbdbaa167	-0.09112816
217	0x3e089ab4	0.13340265
218	0xbd4ad54a	-0.049519815
219	0x3d56afec	0.052413866
220	0x3d59dfa0	0.05319178
221	0xbe0d71b6	-0.13812909
222	0x3d432588	0.047643214
223	0x3daa3334	0.083105475
224	0xbcf73c94	-0.030180253
225	0x3d9dc41a	0.07703419
226	0xbc2d8c70	-0.010592565
227	0x3d4f3d24	0.050595418
228	0xbd8423da	-0.06452151
229	0x3de00acc	0.10939559
230	0xbe0e0287	-0.13868152
231	0xbdc0483c	-0.093887776
232	0x3dd4af90	0.103850484
233	0x3d93c62e	0.07215534
234	0xbcbe9db0	-0.02326855
235	0xbcd160a0	-0.02555877
236	0x3da523f6	0.080635
237	0xbde3643d	-0.11103103
238	0x3dfb1bb4	0.12261143
239	0xbdfc6d48	-0.12325531
240	0x3e06ae30	0.13152385
241	0x3dd59342	0.10428478
242	0xbde56f2b	-0.11202844
243	0xbd4ed904	-0.05049993
244	0xbdfef709	-0.12449462
245	0xbd3e2898	-0.046425432
246	0x3def005c	0.116699904
247	0x3d9e38cc	0.07725677
248	0xbd21e3f0	-0.03952402
249	0xbe00e8b2	-0.12588766
250	0x3e07fcf2	0.13280085
251	0xbd952472	-0.07282342
252	0x3d621184	0.055192485
253	0xbdcfe4fc	-0.10151097
254	0xbdb0d628	-0.08634597
255	0x3c63e220	0.013908893

feature_network.0.bias f4 [64]
0	0x00000000	0.0
1	0x00000000	0.0
2	0x00000000	0.0
3	0x00000000	0.0
4	0x00000000	0.0
5	0x00000000	0.0
6	0x00000000	0.0
7	0x00000000	0.0
8	0x00000000	0.0
9	0x00000000	0.0
10	0x00000000	0.0
11	0x00000000	0.0
12	0x00000000	0.0
13	0x00000000	0.0
14	0x00000000	0.0
15	0x00000000	0.0
16	0x00000000	0.0
17	0x00000000	0.0
18	0x00000000	0.0
19	0x00000000	0.0
20	0x00000000	0.0
21	0x00000000	0.0
22	0x00000000	0.0
23	0x00000000	0.0
24	0x00000000	0.0
25	0x00000000	0.0
26	0x00000000	0.0
27	0x00000000	0.0
28	0x00000000	0.0
29	0x00000000	0.0
30	0x00000000	0.0
31	0x00000000	0.0
32	0x00000000	0.0
33	0x00000000	0.0
34	0x00000000	0.0
35	0x00000000	0.0
36	0x00000000	0.0
37	0x00000000	0.0
38	0x00000000	0.0
39	0x00000000	0.0
40	0x00000000	0.0
41	0x00000000	0.0
42	0x00000000	0.0
43	0x00000000	0.0
44	0x00000000	0.0
45	0x00000000	0.0
46	0x00000000	0.0
47	0x00000000	0.0
48	0x00000000	0.0
49	0x00000000	0.0
50	0x00000000	0.0
51	0x00000000	0.0
52	0x00000000	0.0
53	0x00000000	0.0
54	0x00000000	0.0
55	0x00000000	0.0
56	0x00000000	0.0
57	0x00000000	0.0
58	0x00000000	0.0
59	0x00000000	0.0
60	0x00000000	0.0
61	0x00000000	0.0
62	0x00000000	0.0
63	0x00000000	0.0

feature_network.3.weight f4 [32, 64]
0	0xbe6ed0c0	-0.2332182
1	0xbdc12520	-0.09430909
2	0x3c9f2ec0	0.019431472
3	0xbe73cb64	-0.23808056
4	0xbd82e270	-0.06390846
5	0x3dc7dfd8	0.09759492
6	0x3e05794a	0.1303455
7	0x3da10d68	0.07863885
8	0x3ddb8988	0.107195914
9	0x3e450b20	0.19242525
10	0x3d3da660	0.046301246
11	0xbe6f2b16	-0.2335628
12	0xbcb7cef0	-0.022437543
13	0x3d5426d0	0.051794827
14	0xbb39f280	-0.00283733
15	0xbd63c198	-0.055604547
16	0x3e4ee85c	0.20205826
17	0xbdab15ac	-0.08353743
18	0xbe320548	-0.17384827
19	0xbd875cfc	-0.06609532
20	0xbd9e6fa0	-0.077361345
21	0xbdfda1b0	-0.12384355
22	0x3e2bb638	0.1676873
23	0x3e06babe	0.13157174
24	0xbd12cd88	-0.03584054
25	0xbda8cfe4	-0.08242777
26	0x3d97a3bc	0.07404277
27	0x3cf426d0	0.029803663
28	0xbe6d7362	-0.23188546
29	0xbde6ec34	-0.11275521
30	0xbe33375a	-0.17501584
31	0x3d079f98	0.033111185
32	0xbd273e18	-0.0408307
33	0xbe6e0bea	-0.23246732
34	0x3e509396	0.203688
35	0xbce601d0	-0.028077036
36	0x3e5e1746	0.21688566
37	0x3da8ab30	0.082357764
38	0x3e57c0fa	0.21069708
39	0xbce75620	-0.02823931
40	0x3e7d0e62	0.24712518
41	0x3cde4d00	0.027136326
42	0xbc3465c0	-0.011010587
43	0x3be61680	0.007021725
44	0x3e5bbcc6	0.2145873
45	0xbe195056	-0.14972052
46	0x3d8d6fe0	0.06906104
47	0xbdadc870	-0.08485496
48	0xbc289660	-0.010289758
49	0xbe1cfdae	-0.15331146
50	0xbdc04fc4	-0.09390214
51	0x3c679820	0.0141353905
52	0x3e622654	0.22084934
53	0xbde67b68	-0.112540066
54	0xbdcafafc	-0.09911153
55	0x3e183e88	0.14867604
56	0xbc308060	-0.0107727945
57	0xbd98ba98	-0.07457465
58	0xbdc3d8a8	-0.09562808
59	0x3e4ffe0a	0.20311752
60	0x3c492740	0.012277424
61	0x3cede580	0.029040098
62	0x3e67290a	0.22574249
63	0xbdb3bc54	-0.08776155
64	0x3e4f0fe8	0.20220912
65	0xbd982494	-0.07428852
66	0xbe3d688e	-0.18496916
67	0x3df46a60	0.11934352
68	0xbdb2d32c	-0.08731684
69	0x3d83f6a0	0.06443524
70	0xbe5859a2	-0.21127942
71	0x3de846b8	0.113416135
72	0xbe3b4f7e	-0.18292043
73	0x3e4bb2e2	0.19892457
74	0x3e67a00a	0.22619644
75	0xbcea0460	-0.02856654
76	0xbe361ae2	-0.17783692
77	0x3e6eab18	0.23307455
78	0xbe1285e4	-0.14308888
79	0x3ddc6fec	0.10763535
80	0x3e421522	0.18953374
81	0x3d84ec3c	0.06490371
82	0x3c94d0f0	0.018166035
83	0x3e53f7ea	0.2070004
84	0x3e16373e	0.1466951
85	0x3e17858a	0.14797035
86	0xbd547148	-0.051865846
87	0x3dfa5964	0.12224081
88	0xbdbf5624	-0.09342602
89	0x3e1bdfda	0.15222111
90	0xbd0af120	-0.03392136
91	0x3e542296	0.20716318
92	0x3e793414	0.24336272
93	0xbe15443a	-0.14576808
94	0xbe3169e8	-0.17325556
95	0xbade1100	-0.0016942322
96	0xbe3ea5e6	-0.18617973
97	0x3e25cccc	0.16191405
98	0x3cd61e30	0.026137441
99	0xbe3c3126	-0.18378124
100	0xbe4a7630	-0.19771647
101	0xbd06ce30	-0.03291148
102	0xbe58243e	-0.21107575
103	0xbe0dc72a	-0.13845506
104	0xbda3fec4	-0.08007577
105	0xbd62f180	-0.055406094
106	0x3e0368e8	0.12832987
107	0x3dc88988	0.09791857
108	0xbcb41770	-0.021983832
109	0x3cdaf500	0.026728153
110	0x3e29be02	0.16576388
111	0xbdb6b8dc	-0.08921978
112	0xbe09d40e	-0.13459799
113	0x3cbe2070	0.023208827
114	0xbe19a8fe	-0.15005872
115	0xbd983d74	-0.07433596
116	0x3c6e6580	0.014550567
117	0x3d550e60	0.052015662
118	0x3d6e05a0	0.058110833
119	0x3dc58e08	0.09646231
120	0xbd77af98	-0.060470194
121	0x3e7391da	0.23786107
122	0xbe319e70	-0.17345595
123	0xbe6966ba	-0.22793093
124	0xbe5b38e8	-0.21408427
125	0x3dcd49ac	0.100238174
126	0x3de060e8	0.109559834
127	0xbe376dbe	-0.17912957
128	0xbd98bb84	-0.07457641
129	0x3dd345e4	0.10316065
130	0xbdf76844	-0.12080434
131	0x3c1fc860	0.009752363
132	0x3e4cfadc	0.2001757
133	0x3d424778	0.04743144
134	0xbe6e086e	-0.23245403
135	0xbdb936a4	-0.09043625
136	0xbe73c496	-0.2380546
137	0xbe1cd712	-0.15316418
138	0x3e4a3b08	0.19749081
139	0x3e71ce26	0.23613796
140	0xbdbc8fd4	-0.092071205
141	0x3d6d1bc0	0.057887793
142	0x3e017d9e	0.12645575
143	0xbe4c53b8	-0.19953811
144	0xbd4ac550	-0.049504578
145	0xbdf225bc	-0.118236035
146	0x3e18add0	0.14910054
147	0x3e330802	0.17483523
148	0x3e7bd7d6	0.24594054
149	0xbde17948	-0.11009461
150	0xbd87c814	-0.06629959
151	0xbe6fe93e	-0.23428819
152	0x3e5fd016	0.21856722
153	0xbe648d8c	-0.22319621
154	0xbe0e14ba	-0.13875094
155	0xbe536956	-0.20645651
156	0x3db675dc	0.08909199
157	0x3dad2e68	0.08456117
158	0x3e1b9dc4	0.15196902
159	0x3e46fa9c	0.19431537
160	0x3e5dfcfc	0.21678537
161	0x3d602620	0.05472386
162	0xbc4b0820	-0.012392074
163	0xbe3d444e	-0.18483087
164	0x3e603f22	0.21899083
165	0x3e533f7a	0.20629683
166	0xbdab3344	-0.083593875
167	0xbdbf1e68	-0.093319714
168	0xbe3a6de6	-0.18205985
169	0xbe0a3ff8	-0.13500965
170	0xbc837710	-0.016047984
171	0xbdf53a10	-0.11973965
172	0x3e6f248e	0.23353788
173	0xbe6e0884	-0.23245436
174	0xbe5c8886	-0.21536455
175	0xbe0c7802	-0.13717654
176	0xbe4f94d8	-0.20271623
177	0xbd139e80	-0.03603983
178	0x3e6ae3ca	0.22938457
179	0x3e045568	0.12923205
180	0x3d8e5528	0.06949836
181	0xbe21e8e8	-0.15811503
182	0xbcffe1e0	-0.031235635
183	0x3b808440	0.0039220154
184	0x3e25738c	0.16157359
185	0x3e082978	0.13297069
186	0x3e035d84	0.12828642
187	0x3e1d8118	0.15381277
188	0xbb6f5300	-0.0036517978
189	0x3e353bf2	0.17698649
190	0xbdf5d6d4	-0.12003866
191	0xbe1b18bc	-0.15146154
192	0xbe032b08	-0.12809384
193	0xbe0e1838	-0.13876426
194	0x3e3dd4d0	0.18538213
195	0xbe00da90	-0.12583375
196	0xbb369000	-0.0027856827
197	0xbd2ec698	-0.042669863
198	0x3e446f2e	0.19183037
199	0x3daf23f4	0.085517794
200	0xbe5d1c34	-0.2159279
201	0x3dbdcfac	0.09268126
202	0xbe68dde0	-0.22740889
203	0xbcbb9cc0	-0.022901893
204	0x3e6f0fb4	0.23345834
205	0xbdb8a1d0	-0.09015238
206	0xbdcf04dc	-0.10108349
207	0x3cfeb9a0	0.031094372
208	0xbe58f082	-0.21185496
209	0x3e639b36	0.22227177
210	0xbcd1b330	-0.025598139
211	0x3d63b328	0.05559078
212	0xbd697f30	-0.05700606
213	0xbd851f24	-0.0650008
214	0xbd4b64c0	-0.04965663
215	0x3cadc600	0.021212578
216	0x3e3cb302	0.18427661
217	0xbe59c498	-0.21266401
218	0xbda513d0	-0.080604196
219	0xbd8b28d0	-0.06794894
220	0x3e5f7a78	0.21824062
221	0xbccacd90	-0.024756223
222	0x3d901c64	0.07036665
223	0xbd6a1760	-0.0571512
224	0xbda8cac8	-0.082418025
225	0x3d953ef8	0.07287401
226	0xbe3a47e8	-0.18191493
227	0x3e3628d6	0.17789015
228	0xbe5988c4	-0.21243578
229	0xbe15bb3e	-0.14622208
230	0x3e0bfc08	0.13670361
231	0x3da59f44	0.08087018
232	0xbcec1500	-0.028818607
233	0xbe359e9e	-0.17736289
234	0xbe4a3ed8	-0.19750535
235	0x3e01a9d0	0.12662435
236	0x3e063a5a	0.13108197
237	0xbe52c738	-0.20583808
238	0xbd7560f8	-0.05990693
239	0x3dfbf778	0.1230306
240	0x3d11e290	0.035616457
241	0xbe1db0b0	-0.15399432
242	0x3c971650	0.018443257
243	0xbde3d660	-0.11124873
244	0xbe4a9f9a	-0.19787446
245	0xbe1f6d82	-0.15569118
246	0x3e75462e	0.23952553
247	0xbe4f74e0	-0.20259428
248	0xbe4b2758	-0.19839227
249	0x3d306d20	0.04307282
250	0xbcfe0510	-0.031008273
251	0xbac96000	-0.0015363693
252	0x3d3fcf38	0.04682848
253	0x3bf33080	0.007421553
254	0xbe266df4	-0.16252881
255	0xbe0d6566	-0.13808212

feature_network.3.bias f4 [32]
0	0x00000000	0.0
1	0x00000000	0.0
2	0x00000000	0.0
3	0x00000000	0.0
4	0x00000000	0.0
5	0x00000000	0.0
6	0x00000000	0.0
7	0x00000000	0.0
8	0x00000000	0.0
9	0x00000000	0.0
10	0x00000000	0.0
11	0x00000000	0.0
12	0x00000000	0.0
13	0x00000000	0.0
14	0x00000000	0.0
15	0x00000000	0.0
16	0x00000000	0.0
17	0x00000000	0.0
18	0x00000000	0.0
19	0x00000000	0.0
20	0x00000000	0.0
21	0x00000000	0.0
22	0x00000000	0.0
23	0x00000000	0.0
24	0x00000000	0.0
25	0x00000000	0.0
26	0x00000000	0.0
27	0x00000000	0.0
28	0x00000000	0.0
29	0x00000000	0.0
30	0x00000000	0.0
31	0x00000000	0.0

q_network.0.weight f4 [1, 32]
0	0x3daa7110	0.08322346
1	0x3e4e66a0	0.20156336
2	0x3c99a5d0	0.018755823
3	0x3bdf7280	0.0068190694
4	0xbe5857a8	-0.21127188
5	0x3e1d4d44	0.15361506
6	0xbe01f9c6	-0.12692937
7	0xbe8f841c	-0.2803048
8	0x3ecfd55e	0.40592474
9	0x3eb33a06	0.35005206
10	0x3ed71e7e	0.4201545
11	0x3dc52c60	0.096276045
12	0xbeaaeb28	-0.33382535
13	0xbe98ab0c	-0.29817998
14	0x3ea83b1e	0.32857603
15	0x3ea7bcf4	0.32761347
16	0x3e55d7e4	0.20883137
17	0xbebb73c2	-0.36611754
18	0xbe4a4308	-0.19752133
19	0xbe085122	-0.133122
20	0xbd849ec0	-0.06475592
21	0x3ed731da	0.4203022
22	0x3ecb7d6a	0.3974412
23	0xbe747bb9	-0.23875321
24	0xbcddf390	-0.027093679
25	0x3ed154b4	0.40884936
26	0x3d68ba50	0.056818306
27	0x3df70510	0.120615125
28	0xbe1923b6	-0.14955029
29	0xbed2fdff	-0.4120941
30	0xbecc4734	-0.39898074
31	0x3ed40e2e	0.41417068

feature_network.0.weight f4 [64, 239]
0	0x3e02790c	0.12741488
1	0xbdd7cb8e	-0.10536872
2	0xbd0f7af0	-0.03502935
3	0xbd98c4df	-0.07459425
4	0xbd9db79a	-0.07701035
5	0x3db0806a	0.08618243
6	0x3dfe9574	0.1243085
7	0x3daf45f8	0.08558267
8	0x3df078bc	0.11741778
9	0xbdd83e5e	-0.105587706
10	0xbde3e0b6	-0.111268446
11	0xbd5b4f24	-0.05354227
12	0x3d72f7e8	0.059318453
13	0x3cb3da60	0.021954715
14	0xbc9bbcf8	-0.019011006
15	0xbe0bbd58	-0.13646448
16	0x3d7ec79c	0.06220208
17	0xbcbd6bf8	-0.023122773
18	0xbde1e511	-0.11030019
19	0x3d8209f4	0.06349555
20	0x3d9255fc	0.071453065
21	0x3d9a75d4	0.07542005
22	0x3d9b6fce	0.075896844
23	0xbe069ac7	-0.1314498
24	0xbdda1539	-0.10648579
25	0xbd6ed312	-0.05830676
26	0x3d4dfce4	0.050290003
27	0x3d31edd8	0.043439716
28	0x3d511008	0.05104068
29	0x3d65544c	0.055988595
30	0xbd1efd2e	-0.03881567
31	0x3dacc502	0.08436014
32	0xbdc32c24	-0.095299035
33	0x3ccd4098	0.025055215
34	0x3d9068cc	0.070512384
35	0x3d8d615a	0.06903334
36	0x3b5997c0	0.0033202022
37	0x3dfe6f44	0.12423566
38	0xbd1f16ac	-0.03883998
39	0xbdf9d648	-0.12199074
40	0xbe026f37	-0.12737738
41	0x3dae1400	0.084999084
42	0x3aa29100	0.0012402833
43	0x3d161d08	0.03664878
44	0xbd30ab1c	-0.043131933
45	0xbe0fcbbc	-0.14042562
46	0x3c8ada48	0.016949788
47	0x3e00a8ec	0.12564439
48	0xbdaa0412	-0.083015576
49	0x3d249010	0.04017645
50	0x3e0251da	0.12726536
51	0xbdf89a66	-0.12138824
52	0xbc3e3bb0	-0.01161091
53	0xbdfe7d18	-0.124262035
54	0xbd8ce1ab	-0.0687898
55	0xbd5a35fc	-0.05327414
56	0xbd58e8be	-0.052956335
57	0xbd67f15e	-0.05662667
58	0xbc297630	-0.0103431195
59	0x3d2f9358	0.042865127
60	0xbd8b8ab4	-0.06813565
61	0xbdea3807	-0.114364676
62	0xbdcad8ba	-0.099046186
63	0xbd84c3b1	-0.06482638
64	0xbde93f96	-0.11389081
65	0x3dfcce14	0.12343994
66	0xbdbe5b5c	-0.09294769
67	0xbbc2e9a0	-0.0059482604
68	0xbdb7b9fb	-0.0897102
69	0x3d760214	0.060060576
70	0x3dfa4744	0.12220624
71	0x3c3fd6b0	0.0117089
72	0xbba43ea0	-0.0050123483
73	0xbcc1cff0	-0.023658723
74	0x3ba11980	0.00491637
75	0x3dfb751c	0.12278196
76	0xbdf10f2a	-0.117704704
77	0x3dda66ec	0.10664162
78	0x3deb1aac	0.11479697
79	0xbc621b90	-0.013800517
80	0x3db207b6	0.08692877
81	0xbd3d02d2	-0.046145268
82	0xbca22f40	-0.019797921
83	0xbe02c28e	-0.12769529
84	0x3dc32574	0.09528628
85	0x3da35f40	0.07977152
86	0x3e05f52e	0.1308181
87	0xbdf68b6c	-0.12038311
88	0xbe07994b	-0.1324207
89	0xbcdc2384	-0.026872404
90	0xbe033a73	-0.12815265
91	0x3d41d5e4	0.047323123
92	0xbb8e3540	-0.004339844
93	0x3c95ea48	0.01830019
94	0x3dff06d0	0.12452471
95	0x3cf8e1b8	0.030381069
96	0x3db20112	0.086916104
97	0x3de34640	0.110973835
98	0x3d944b8c	0.07240972
99	0x3e0e92cc	0.13923186
100	0x3d62e704	0.055396095
101	0xbe06bccc	-0.13157958
102	0xbdffd556	-0.124918625
103	0xbe06b9a1	-0.1315675
104	0x3d12c428	0.0358316
105	0x3d10176c	0.035178587
106	0xbd926bfe	-0.07149504
107	0xbbc745e0	-0.006081328
108	0xbd966f45	-0.07345442
109	0x3d9fae88	0.07796961
110	0xbde1d872	-0.11027612
111	0x3d368b34	0.04456635
112	0xbdce26f1	-0.10066021
113	0xbc786f80	-0.015163302
114	0xbe0d5580	-0.13802147
115	0xbc30bfe0	-0.010787934
116	0x3dfab17c	0.12240884
117	0x3e0eb6f2	0.13936976
118	0xbd61ddd2	-0.055143185
119	0x3dbf45cc	0.093394846
120	0xbd0cc362	-0.03436602
121	0x3b918680	0.0044410825
122	0x3d212868	0.039345175
123	0xbd555eee	-0.052092485
124	0x3da15e62	0.0787933
125	0xbdd776ab	-0.10520681
126	0xbcad35d0	-0.021143824
127	0xbde5d075	-0.11221401
128	0x3d4e5274	0.050371602
129	0x3daadba2	0.08342673
130	0xbdf84724	-0.12122944
131	0xbd9a8922	-0.07545687
132	0xbdbcd89c	-0.092210025
133	0xbd5a30b6	-0.05326911
134	0x3cbfb358	0.023400947
135	0x3df6a1f4	0.12042609
136	0xbd06a7e6	-0.032874964
137	0x3e0196ec	0.12655228
138	0xbd846e54	-0.06466356
139	0xbd92fcd8	-0.07177132
140	0xbdcea42c	-0.10089907
141	0x3d40a60c	0.047033355
142	0x3dadfa22	0.08494975
143	0xbc838fc4	-0.016059764
144	0xbe097c18	-0.13426244
145	0x3c8c5740	0.017131448
146	0x3e01639c	0.12635654
147	0xbd0f0dbe	-0.034925215
148	0xbdb79ae6	-0.089650914
149	0x3d9d9e0e	0.07696162
150	0xbdab3902	-0.08360483
151	0x3d939fd8	0.07208222
152	0x3c002440	0.007821143
153	0xbd3d7500	-0.046254158
154	0x3b5d39c0	0.0033756346
155	0x3da218a8	0.07914859
156	0x3cfe62c0	0.031052947
157	0x3d886134	0.06659165
158	0x3b702c00	0.003664732
159	0x3a0f5e00	0.0005469024
160	0x3ce31598	0.027720258
161	0x3dd3b1f4	0.10336676
162	0x3d5317f0	0.0515365
163	0x3c6a0840	0.0142841935
164	0xbd9a67cd	-0.0753933
165	0x3d01a7b0	0.03165406
166	0xbae3ee00	-0.0017389655
167	0x3df00c38	0.117210805
168	0x3d9d700e	0.07687388
169	0x3d63582c	0.05550401
170	0x3deb5db0	0.11492479
171	0xbd9172ac	-0.0710195
172	0xbca05c50	-0.019575268
173	0x3e0f2ca6	0.13981876
174	0xbc2bb630	-0.010480449
175	0xbc30fa80	-0.010801911
176	0x3d6920f4	0.056916192
177	0x3d64d850	0.055870354
178	0x3c8a98f0	0.01691863
179	0xbcf49b28	-0.02985914
180	0xbd885ebe	-0.06658696
181	0xbdeddfe8	-0.11614972
182	0xbd5d68e2	-0.054055102
183	0xbd6a8f16	-0.057265364
184	0x3d2525fc	0.040319428
185	0xbde6a052	-0.112610474
186	0x3cd4b898	0.025966927
187	0xbb84bfc0	-0.0040511787
188	0xbd2e392c	-0.042534992
189	0xbdb0de68	-0.086361706
190	0xbe02595a	-0.12729397
191	0x3d7f9e00	0.06240654
192	0x3dad24f0	0.08454311
193	0xbd8838da	-0.066514686
194	0xbdf92573	-0.12165346
195	0xbc6a9610	-0.014318004
196	0x3db7b4b6	0.08970015
197	0xbdf55d94	-0.11980739
198	0x3d435720	0.04769051
199	0xbd788f76	-0.06068369
200	0x3d7dbfb8	0.061950415
201	0x3e0979c8	0.13425362
202	0x3ca93698	0.020655915
203	0xbdd56110	-0.10418904
204	0x3ddb0262	0.10693814
205	0xbe092fb6	-0.13397107
206	0xbbeb3460	-0.0071778744
207	0xbdba1daa	-0.09087689
208	0xbe066944	-0.13126093
209	0x3d5fac10	0.05460745
210	0x3e04150a	0.12898651
211	0x3d63b184	0.055589214
212	0x3c4c2740	0.01246053
213	0xbd2cbee6	-0.042174242
214	0xbdd43ccc	-0.103631586
215	0xbc4fefd0	-0.012691453
216	0xbdbaa167	-0.09112816
217	0x3e089ab4	0.13340265
218	0xbd4ad54a	-0.049519815
219	0x3d56afec	0.052413866
220	0x3d59dfa0	0.05319178
221	0xbe0d71b6	-0.13812909
222	0x3d432588	0.047643214
223	0x3daa3334	0.083105475
224	0xbcf73c94	-0.030180253
225	0x3d9dc41a	0.07703419
226	0xbc2d8c70	-0.010592565
227	0x3d4f3d24	0.050595418
228	0xbd8423da	-0.06452151
229	0x3de00acc	0.10939559
230	0xbe0e0287	-0.13868152
231	0xbdc0483c	-0.093887776
232	0x3dd4af90	0.103850484
233	0x3d93c62e	0.07215534
234	0xbcbe9db0	-0.02326855
235	0xbcd160a0	-0.02555877
236	0x3da523f6	0.080635
237	0xbde3643d	-0.11103103
238	0x3dfb1bb4	0.12261143
239	0xbdfc6d48	-0.12325531
240	0x3e06ae30	0.13152385
241	0x3dd59342	0.10428478
242	0xbde56f2b	-0.11202844
243	0xbd4ed904	-0.05049993
244	0xbdfef709	-0.12449462
245	0xbd3e2898	-0.046425432
246	0x3def005c	0.116699904
247	0x3d9e38cc	0.07725677
248	0xbd21e3f0	-0.03952402
249	0xbe00e8b2	-0.12588766
250	0x3e07fcf2	0.13280085
251	0xbd952472	-0.07282342
252	0x3d621184	0.055192485
253	0xbdcfe4fc	-0.10151097
254	0xbdb0d628	-0.08634597
255	0x3c63e220	0.013908893

feature_network.0.bias f4 [64]
0	0x00000000	0.0
1	0x00000000	0.0
2	0x00000000	0.0
3	0x00000000	0.0
4	0x00000000	0.0
5	0x00000000	0.0
6	0x00000000	0.0
7	0x00000000	0.0
8	0x00000000	0.0
9	0x00000000	0.0
10	0x00000000	0.0
11	0x00000000	0.0
12	0x00000000	0.0
13	0x00000000	0.0
14	0x00000000	0.0
15	0x00000000	0.0
16	0x00000000	0.0
17	0x00000000	0.0
18	0x00000000	0.0
19	0x00000000	0.0
20	0x00000000	0.0
21	0x00000000	0.0
22	0x00000000	0.0
23	0x00000000	0.0
24	0x00000000	0.0
25	0x00000000	0.0
26	0x00000000	0.0
27	0x00000000	0.0
28	0x00000000	0.0
29	0x00000000	0.0
30	0x00000000	0.0
31	0x00000000	0.0
32	0x00000000	0.0
33	0x00000000	0.0
34	0x00000000	0.0
35	0x00000000	0.0
36	0x00000000	0.0
37	0x00000000	0.0
38	0x00000000	0.0
39	0x00000000	0.0
40	0x00000000	0.0
41	0x00000000	0.0
42	0x00000000	0.0
43	0x00000000	0.0
44	0x00000000	0.0
45	0x00000000	0.0
46	0x00000000	0.0
47	0x00000000	0.0
48	0x00000000	0.0
49	0x00000000	0.0
50	0x00000000	0.0
51	0x00000000	0.0
52	0x00000000	0.0
53	0x00000000	0.0
54	0x00000000	0.0
55	0x00000000	0.0
56	0x00000000	0.0
57	0x00000000	0.0
58	0x00000000	0.0
59	0x00000000	0.0
60	0x00000000	0.0
61	0x00000000	0.0
62	0x00000000	0.0
63	0x00000000	0.0

feature_network.3.weight f4 [32, 64]
0	0xbe6ed0c0	-0.2332182
1	0xbdc12520	-0.09430909
2	0x3c9f2ec0	0.019431472
3	0xbe73cb64	-0.23808056
4	0xbd82e270	-0.06390846
5	0x3dc7dfd8	0.09759492
6	0x3e05794a	0.1303455
7	0x3da10d68	0.07863885
8	0x3ddb8988	0.107195914
9	0x3e450b20	0.19242525
10	0x3d3da660	0.046301246
11	0xbe6f2b16	-0.2335628
12	0xbcb7cef0	-0.022437543
13	0x3d5426d0	0.051794827
14	0xbb39f280	-0.00283733
15	0xbd63c198	-0.055604547
16	0x3e4ee85c	0.20205826
17	0xbdab15ac	-0.08353743
18	0xbe320548	-0.17384827
19	0xbd875cfc	-0.06609532
20	0xbd9e6fa0	-0.077361345
21	0xbdfda1b0	-0.12384355
22	0x3e2bb638	0.1676873
23	0x3e06babe	0.13157174
24	0xbd12cd88	-0.03584054
25	0xbda8cfe4	-0.08242777
26	0x3d97a3bc	0.07404277
27	0x3cf426d0	0.029803663
28	0xbe6d7362	-0.23188546
29	0xbde6ec34	-0.11275521
30	0xbe33375a	-0.17501584
31	0x3d079f98	0.033111185
32	0xbd273e18	-0.0408307
33	0xbe6e0bea	-0.23246732
34	0x3e509396	0.203688
35	0xbce601d0	-0.028077036
36	0x3e5e1746	0.21688566
37	0x3da8ab30	0.082357764
38	0x3e57c0fa	0.21069708
39	0xbce75620	-0.02823931
40	0x3e7d0e62	0.24712518
41	0x3cde4d00	0.027136326
42	0xbc3465c0	-0.011010587
43	0x3be61680	0.007021725
44	0x3e5bbcc6	0.2145873
45	0xbe195056	-0.14972052
46	0x3d8d6fe0	0.06906104
47	0xbdadc870	-0.08485496
48	0xbc289660	-0.010289758
49	0xbe1cfdae	-0.15331146
50	0xbdc04fc4	-0.09390214
51	0x3c679820	0.0141353905
52	0x3e622654	0.22084934
53	0xbde67b68	-0.112540066
54	0xbdcafafc	-0.09911153
55	0x3e183e88	0.14867604
56	0xbc308060	-0.0107727945
57	0xbd98ba98	-0.07457465
58	0xbdc3d8a8	-0.09562808
59	0x3e4ffe0a	0.20311752
60	0x3c492740	0.012277424
61	0x3cede580	0.029040098
62	0x3e67290a	0.22574249
63	0xbdb3bc54	-0.08776155
64	0x3e4f0fe8	0.20220912
65	0xbd982494	-0.07428852
66	0xbe3d688e	-0.18496916
67	0x3df46a60	0.11934352
68	0xbdb2d32c	-0.08731684
69	0x3d83f6a0	0.06443524
70	0xbe5859a2	-0.21127942
71	0x3de846b8	0.113416135
72	0xbe3b4f7e	-0.18292043
73	0x3e4bb2e2	0.19892457
74	0x3e67a00a	0.22619644
75	0xbcea0460	-0.02856654
76	0xbe361ae2	-0.17783692
77	0x3e6eab18	0.23307455
78	0xbe1285e4	-0.14308888
79	0x3ddc6fec	0.10763535
80	0x3e421522	0.18953374
81	0x3d84ec3c	0.06490371
82	0x3c94d0f0	0.018166035
83	0x3e53f7ea	0.2070004
84	0x3e16373e	0.1466951
85	0x3e17858a	0.14797035
86	0xbd547148	-0.051865846
87	0x3dfa5964	0.12224081
88	0xbdbf5624	-0.09342602
89	0x3e1bdfda	0.15222111
90	0xbd0af120	-0.03392136
91	0x3e542296	0.20716318
92	0x3e793414	0.24336272
93	0xbe15443a	-0.14576808
94	0xbe3169e8	-0.17325556
95	0xbade1100	-0.0016942322
96	0xbe3ea5e6	-0.18617973
97	0x3e25cccc	0.16191405
98	0x3cd61e30	0.026137441
99	0xbe3c3126	-0.18378124
100	0xbe4a7630	-0.19771647
101	0xbd06ce30	-0.03291148
102	0xbe58243e	-0.21107575
103	0xbe0dc72a	-0.13845506
104	0xbda3fec4	-0.08007577
105	0xbd62f180	-0.055406094
106	0x3e0368e8	0.12832987
107	0x3dc88988	0.09791857
108	0xbcb41770	-0.021983832
109	0x3cdaf500	0.026728153
110	0x3e29be02	0.16576388
111	0xbdb6b8dc	-0.08921978
112	0xbe09d40e	-0.13459799
113	0x3cbe2070	0.023208827
114	0xbe19a8fe	-0.15005872
115	0xbd983d74	-0.07433596
116	0x3c6e6580	0.014550567
117	0x3d550e60	0.052015662
118	0x3d6e05a0	0.058110833
119	0x3dc58e08	0.09646231
120	0xbd77af98	-0.060470194
121	0x3e7391da	0.23786107
122	0xbe319e70	-0.17345595
123	0xbe6966ba	-0.22793093
124	0xbe5b38e8	-0.21408427
125	0x3dcd49ac	0.100238174
126	0x3de060e8	0.109559834
127	0xbe376dbe	-0.17912957
128	0xbd98bb84	-0.07457641
129	0x3dd345e4	0.10316065
130	0xbdf76844	-0.12080434
131	0x3c1fc860	0.009752363
132	0x3e4cfadc	0.2001757
133	0x3d424778	0.04743144
134	0xbe6e086e	-0.23245403
135	0xbdb936a4	-0.09043625
136	0xbe73c496	-0.2380546
137	0xbe1cd712	-0.15316418
138	0x3e4a3b08	0.19749081
139	0x3e71ce26	0.23613796
140	0xbdbc8fd4	-0.092071205
141	0x3d6d1bc0	0.057887793
142	0x3e017d9e	0.12645575
143	0xbe4c53b8	-0.19953811
144	0xbd4ac550	-0.049504578
145	0xbdf225bc	-0.118236035
146	0x3e18add0	0.14910054
147	0x3e330802	0.17483523
148	0x3e7bd7d6	0.24594054
149	0xbde17948	-0.11009461
150	0xbd87c814	-0.06629959
151	0xbe6fe93e	-0.23428819
152	0x3e5fd016	0.21856722
153	0xbe648d8c	-0.22319621
154	0xbe0e14ba	-0.13875094
155	0xbe536956	-0.20645651
156	0x3db675dc	0.08909199
157	0x3dad2e68	0.08456117
158	0x3e1b9dc4	0.15196902
159	0x3e46fa9c	0.19431537
160	0x3e5dfcfc	0.21678537
161	0x3d602620	0.05472386
162	0xbc4b0820	-0.012392074
163	0xbe3d444e	-0.18483087
164	0x3e603f22	0.21899083
165	0x3e533f7a	0.20629683
166	0xbdab3344	-0.083593875
167	0xbdbf1e68	-0.093319714
168	0xbe3a6de6	-0.18205985
169	0xbe0a3ff8	-0.13500965
170	0xbc837710	-0.016047984
171	0xbdf53a10	-0.11973965
172	0x3e6f248e	0.23353788
173	0xbe6e0884	-0.23245436
174	0xbe5c8886	-0.21536455
175	0xbe0c7802	-0.13717654
176	0xbe4f94d8	-0.20271623
177	0xbd139e80	-0.03603983
178	0x3e6ae3ca	0.22938457
179	0x3e045568	0.12923205
180	0x3d8e5528	0.06949836
181	0xbe21e8e8	-0.15811503
182	0xbcffe1e0	-0.031235635
183	0x3b808440	0.0039220154
184	0x3e25738c	0.16157359
185	0x3e082978	0.13297069
186	0x3e035d84	0.12828642
187	0x3e1d8118	0.15381277
188	0xbb6f5300	-0.0036517978
189	0x3e353bf2	0.17698649
190	0xbdf5d6d4	-0.12003866
191	0xbe1b18bc	-0.15146154
192	0xbe032b08	-0.12809384
193	0xbe0e1838	-0.13876426
194	0x3e3dd4d0	0.18538213
195	0xbe00da90	-0.12583375
196	0xbb369000	-0.0027856827
197	0xbd2ec698	-0.042669863
198	0x3e446f2e	0.19183037
199	0x3daf23f4	0.085517794
200	0xbe5d1c34	-0.2159279
201	0x3dbdcfac	0.09268126
202	0xbe68dde0	-0.22740889
203	0xbcbb9cc0	-0.022901893
204	0x3e6f0fb4	0.23345834
205	0xbdb8a1d0	-0.09015238
206	0xbdcf04dc	-0.10108349
207	0x3cfeb9a0	0.031094372
208	0xbe58f082	-0.21185496
209	0x3e639b36	0.22227177
210	0xbcd1b330	-0.025598139
211	0x3d63b328	0.05559078
212	0xbd697f30	-0.05700606
213	0xbd851f24	-0.0650008
214	0xbd4b64c0	-0.04965663
215	0x3cadc600	0.021212578
216	0x3e3cb302	0.18427661
217	0xbe59c498	-0.21266401
218	0xbda513d0	-0.080604196
219	0xbd8b28d0	-0.06794894
220	0x3e5f7a78	0.21824062
221	0xbccacd90	-0.024756223
222	0x3d901c64	0.07036665
223	0xbd6a1760	-0.0571512
224	0xbda8cac8	-0.082418025
225	0x3d953ef8	0.07287401
226	0xbe3a47e8	-0.18191493
227	0x3e3628d6	0.17789015
228	0xbe5988c4	-0.21243578
229	0xbe15bb3e	-0.14622208
230	0x3e0bfc08	0.13670361
231	0x3da59f44	0.08087018
232	0xbcec1500	-0.028818607
233	0xbe359e9e	-0.17736289
234	0xbe4a3ed8	-0.19750535
235	0x3e01a9d0	0.12662435
236	0x3e063a5a	0.13108197
237	0xbe52c738	-0.20583808
238	0xbd7560f8	-0.05990693
239	0x3dfbf778	0.1230306
240	0x3d11e290	0.035616457
241	0xbe1db0b0	-0.15399432
242	0x3c971650	0.018443257
243	0xbde3d660	-0.11124873
244	0xbe4a9f9a	-0.19787446
245	0xbe1f6d82	-0.15569118
246	0x3e75462e	0.23952553
247	0xbe4f74e0	-0.20259428
248	0xbe4b2758	-0.19839227
249	0x3d306d20	0.04307282
250	0xbcfe0510	-0.031008273
251	0xbac96000	-0.0015363693
252	0x3d3fcf38	0.04682848
253	0x3bf33080	0.007421553
254	0xbe266df4	-0.16252881
255	0xbe0d6566	-0.13808212

feature_network.3.bias f4 [32]
0	0x00000000	0.0
1	0x00000000	0.0
2	0x00000000	0.0
3	0x00000000	0.0
4	0x00000000	0.0
5	0x00000000	0.0
6	0x00000000	0.0
7	0x00000000	0.0
8	0x00000000	0.0
9	0x00000000	0.0
10	0x00000000	0.0
11	0x00000000	0.0
12	0x00000000	0.0
13	0x00000000	0.0
14	0x00000000	0.0
15	0x00000000	0.0
16	0x00000000	0.0
17	0x00000000	0.0
18	0x00000000	0.0
19	0x00000000	0.0
20	0x00000000	0.0
21	0x00000000	0.0
22	0x00000000	0.0
23	0x00000000	0.0
24	0x00000000	0.0
25	0x00000000	0.0
26	0x00000000	0.0
27	0x00000000	0.0
28	0x00000000	0.0
29	0x00000000	0.0
30	0x00000000	0.0
31	0x00000000	0.0

q_network.0.weight f4 [1, 32]
0	0x3daa7110	0.08322346
1	0x3e4e66a0	0.20156336
2	0x3c99a5d0	0.018755823
3	0x3bdf7280	0.0068190694
4	0xbe5857a8	-0.21127188
5	0x3e1d4d44	0.15361506
6	0xbe01f9c6	-0.12692937
7	0xbe8f841c	-0.2803048
8	0x3ecfd55e	0.40592474
9	0x3eb33a06	0.35005206
10	0x3ed71e7e	0.4201545
11	0x3dc52c60	0.096276045
12	0xbeaaeb28	-0.33382535
13	0xbe98ab0c	-0.29817998
14	0x3ea83b1e	0.32857603
15	0x3ea7bcf4	0.32761347
16	0x3e55d7e4	0.20883137
17	0xbebb73c2	-0.36611754
18	0xbe4a4308	-0.19752133
19	0xbe085122	-0.133122
20	0xbd849ec0	-0.06475592
21	0x3ed731da	0.4203022
22	0x3ecb7d6a	0.3974412
23	0xbe747bb9	-0.23875321
24	0xbcddf390	-0.027093679
25	0x3ed154b4	0.40884936
26	0x3d68ba50	0.056818306
27	0x3df70510	0.120615125
28	0xbe1923b6	-0.14955029
29	0xbed2fdff	-0.4120941
30	0xbecc4734	-0.39898074
31	0x3ed40e2e	0.41417068
