training_results/dqn_detectives_1754067813.pth (torch, 917799 bytes, 28 tensors)

feature_network.0.weight f4 [128, 228]
-0.0015998342 0.02080287 0.11846901 0.08426353 0.14539322 -0.04242247 0.17263213 -0.02109114
-0.1768332 -0.050179996 -0.08258413 -0.109835766 -0.07736571 -0.04318599 0.025774289 -0.18580575
-0.11396589 0.15013729 -0.21010667 0.12920631 0.08775013 0.123069875 0.15110531 -0.020018606
0.103615135 -0.06991097 -0.08409433 -0.1228115 -0.024239428 -0.08902926 0.004849861 0.04579198
0.07165642 -0.091903515 -0.1231692 -0.08256647 -0.116941236 -0.04825672 0.17671753 0.19412082
-0.091346465 -0.07139322 0.045931205 0.13083962 -0.07712898 0.141695 -0.11860668 0.08211545
-0.060333624 -0.12031711 0.04239374 0.0015590597 -0.05715147 0.10893652 0.047729805 -0.14874211
0.0102071995 0.032946903 -0.032860074 -0.12583056 -0.19739227 0.035345584 0.21842633 -0.015697433
0.10896555 -0.17232393 -0.0031084588 -0.1453083 0.043827694 -0.049658358 0.1024681 0.027707037
-0.017526684 0.04875752 -0.11500979 -0.04869949 0.005355762 -0.029671825 0.15704013 -0.11363714
0.011996508 -0.021765739 -7.738374e-05 0.11051583 0.08204704 -0.03942321 0.1358077 0.015289384
-0.022529146 -0.04441441 -0.07325032 0.10630682 -0.02898225 0.062651224 0.084789015 0.10038769
0.13918546 -0.021237308 0.04059946 -0.055757705 -0.009902925 -0.13389404 0.022424938 0.19506729
-0.10036609 0.05437546 -0.14057386 0.020809473 -0.12168454 0.119903326 -0.05919889 0.069415264
-0.032221843 0.13787977 -0.054055348 0.121360995 -0.09114769 0.13898289 0.057330243 -0.13158327
-0.0848868 -0.017862992 -0.12296228 -0.10622325 0.07333544 0.10515682 -0.0104176095 0.0056499513
-0.11103765 0.017774021 0.22617921 0.14455941 0.06977197 -0.06234422 -0.04947119 0.048173707
-0.07767875 -0.10704663 -0.036576886 0.08492732 -0.014641494 0.15020199 -0.18798523 0.14576712
0.13765045 -0.01629495 -0.020175228 0.059200466 0.03690734 0.2701298 -0.028861316 0.12375373
0.10328795 -0.07369146 -0.01887017 -0.08461285 0.093282074 -0.07722634 -0.08528526 -0.1315795
-0.02395832 -0.013204197 0.009954688 0.10496111 -0.06051887 0.035145346 0.14656213 0.08813332
-0.09892593 0.1153723 0.062445182 0.052069303 0.11806966 0.000537597 0.069460034 0.06413198
0.14321421 0.08877008 -0.047283534 -0.0063684955 0.06974495 0.21959664 -0.051372122 0.087002054
-0.18966413 0.068020314 -0.1269357 -0.006458521 -0.01723621 0.05377657 -0.12372864 -0.04026407
-0.05727873 0.09605538 0.009707939 -0.11030471 0.10025965 -0.13275053 0.09062596 -0.016324176
-0.0012239884 -0.16669863 -0.19803372 -0.15285338 -0.047932852 -0.07669457 0.09320811 0.011094399
-0.14691935 0.010090769 -0.0463758 0.07896552 0.009083758 -0.13937639 -0.11049628 -0.13080534
0.040322565 -0.028612573 0.015223972 0.06459242 -0.046893865 -0.15173452 -0.01623053 0.07763619
0.07867763 0.057844028 -0.034913804 0.03579102 -0.06869731 -0.0837587 -0.0011208813 0.03705836
-0.07526722 -0.070936516 -0.02103792 0.054834064 0.077482894 -0.05714039 -0.026670186 -0.219812
0.054261427 0.14693752 0.11252975 0.09603842 0.009182851 0.08292037 -0.09472132 -0.026570845
-0.03003187 0.018876743 0.20119381 0.091463774 -0.099942386 -0.12117485 0.1697485 -0.021097979
00000000: 87b1 d1ba c86a aa3c e19f f23d 5c92 ac3d
00000010: f6e1 143e 2fc3 2dbd 7ac6 303e 54c7 acbc
00000020: c313 35be 8a89 4dbd de21 a9bd 93f1 e0bd
00000030: ea71 9ebd cbe3 30bd 9a24 d33c dd43 3ebe
00000040: f366 e9bd 97bd 193e 3426 57be a94e 043e
00000050: 57b6 b33d 0f0c fc3d 5abb 1a3e 0ffe a3bc
00000060: 2c34 d43d 7c2d 8fbd a639 acbd 9984 fbbd
00000070: c491 c6bc f954 b6bd 95eb 9e3b 5f90 3b3d
00000080: 9ac0 923d e937 bcbd 2240 fcbd 9c18 a9bd
00000090: e37e efbd d7a8 45bd 71f5 343e 9cc7 463e
000000a0: db13 bbbd 9c36 92bd 5c22 3c3d d2fa 053e
000000b0: ccf5 9dbd 7e18 113e 0fe8 f2bd 252c a83d
000000c0: 6420 77bd d168 f6bd 0fa5 2d3d 5d59 cc3a
000000d0: a917 6abd 1c1a df3d 5480 433d da4f 18be
000000e0: 193c 273c 55f3 063d 4998 06bd bad9 00be
000000f0: 3321 4abe 88c6 103d 27ab 5f3e e797 80bc
00000100: 5529 df3d af75 30be 49b7 4bbb b3cb 14be
00000110: ab84 333d 9066 4bbd ccda d13d def9 e23c
00000120: 1f94 8fbc f7b5 473d 418a ebbd 1e79 47bd
00000130: 637f af3b 5412 f3bc 21cf 203e 97ba e8bd
00000140: 008d 443c 104e b2bc 1449 a2b8 2056 e23d
00000150: 4708 a83d 3b7a 21bd 2c11 0b3e 5380 7a3c
00000160: 0b8f b8bc e2eb 35bd 4404 96bd 64b7 d93d
00000170: 2f6c edbc 494f 803d dda5 ad3d 1098 cd3d
00000180: a286 0e3e ddf9 adbc 9f4b 263d 3162 64bd
00000190: e13f 22bc 851b 09be 81b4 b73c b8bf 473e
000001a0: bd8c cdbd cdb8 5e3d 98f2 0fbe a178 aa3c
000001b0: be35 f9bd e08f f53d 897a 72bd 9729 8e3d
000001c0: 0dfb 03bd 5b30 0d3e 2469 5dbd 1d8c f83d
000001d0: a4ab babd 8851 0e3e 1ed3 6a3d c4bd 06be
000001e0: 21d9 adbd 6955 92bc a6d3 fbbd 938b d9bd
000001f0: e430 963d 755c d73d 9fae 2abc 3a23 b93b
00000200: b567 e3bd d39a 913c 869b 673e 6207 143e
00000210: 9be4 8e3d a75c 7fbd 4da2 4abd cb51 453d
00000220: 0916 9fbd 433b dbbd a5d1 15bd 60ee ad3d
00000230: e0e2 6fbc 8dce 193e 337f 40be fa43 153e
00000240: 3df4 0c3e fd7c 85bc 8546 a5bc 307c 723d
00000250: 272c 173d 744e 8a3e 916e ecbc 9872 fd3d
00000260: a288 d33d 8ceb 96bd 9d95 9abc 8049 adbd
00000270: ac0a bf3d d828 9ebd 0aaa aebd c7bc 06be
00000280: 3d44 c4bc 6b56 58bc fd18 233c daf5 d63d
00000290: a2e2 77bd 91f4 0f3d 6214 163e 3e7f b43d
000002a0: ae99 cabd 5048 ec3d 85c6 7f3d 9f46 553d
000002b0: 82ce f13d 86ed 0c3a 1041 8e3d a157 833d
000002c0: bfa6 123e 16cd b53d 61ac 41bd d0ae d0bb
000002d0: 71d6 8e3d f1dd 603e 936b 52bd 222e b23d
000002e0: 5037 42be 3c4e 8b3d 6ffb 01be 00a2 d3bb
000002f0: f432 8dbc d244 5c3d 7165 fdbd f0eb 24bd
00000300: 1a9d 6abd afb8 c43d 0c0e 1f3c 70e7 e1bd
00000310: ee54 cd3d c1ef 07be 1a9a b93d 47ba 85bc
00000320: 3c6e a0ba 0cb3 2abe 5ac9 4abe 9985 1cbe
00000330: 3d55 44bd 0b12 9dbd e5e3 be3d 48c5 353c
00000340: 0772 16be c153 253c 8df4 3dbd adb8 a13d
00000350: 0bd4 143c afb8 0ebe e04b e2bd d6f1 05be
00000360: 4629 253d ea64 eabc f76d 793c 0849 843d
00000370: c813 40bd 4b60 1bbe e3f5 84bc b9ff 9e3d
00000380: bd21 a13d dced 6c3d c701 0fbd 9b99 123d
00000390: 2db1 8cbd ae89 abbd 89ea 92ba 82ca 173d
000003a0: b325 9abd 2a47 91bd b757 acbc af99 603d
000003b0: 5aaf 9e3d 0b0c 6abd 6f7b dabc 6616 61be
000003c0: 3b41 5e3d ca76 163e ff75 e63d cbaf c43d
000003d0: ab73 163c 28d2 a93d 40fd c1bd 1aab d9bc
000003e0: 6505 f6bc 66a3 9a3c c005 4e3e 5c51 bb3d
000003f0: 98ae ccbd 852a f8bd 8dd2 2d3e abd5 acbc

feature_network.0.bias f4 [128]
-0.03715201 -0.0036305143 0.0120261675 -0.020387119 0.011745498 -0.022005254 -0.022286978 0.0021517614
0.0 -0.009882457 -0.024996137 -0.012556991 0.01800586 -0.009744834 -0.0086306995 -0.008943638
-0.02531536 0.0109241055 0.024928562 -0.01676069 -0.0145188775 -0.0013514898 -0.010691617 -0.014222527
-0.017561318 -0.010707435 0.007516755 0.024609948 -0.026642503 0.017070126 0.0 -0.019818349
0.001890211 -0.022234842 -0.018507078 -0.0311519 0.013596594 0.0058435677 0.0028306996 -0.028294632
0.0 -0.029950617 0.00023388719 -0.025278509 -0.008096653 -0.02844675 -0.018582003 0.0
-0.031526048 -0.014626309 -0.017976059 -0.022287842 -0.020641612 -0.028382193 0.0017678549 -0.028499413
0.008787051 -0.03215889 -0.01618589 -0.021046741 -0.017458672 -0.020159043 -0.024109615 -0.018018879
-0.0013523368 -0.0020252867 0.021110555 -0.029486654 -0.009060924 -0.029132765 -0.0015924668 -0.012823727
-0.0329999 -0.011393676 -0.016104298 -0.041217256 -0.010783189 0.0035458626 -0.018268844 -0.025490185
-0.019195894 -0.020826565 -0.032305583 -0.030954625 0.0074142567 -0.025986116 -0.026572319 -0.008036017
0.0026363195 -0.013282832 -0.009535261 -0.02187021 -0.023791661 -0.0050462834 -0.0062601836 -0.03550141
0.00054342294 -0.03992147 -0.012205984 -0.021622613 0.0013290051 -0.008708117 -0.020582592 0.0
-0.019398004 -0.018867455 -0.005131104 -0.023868134 -0.0019544105 0.018881176 -0.01802851 -0.01485466
-0.013402521 0.0 -0.019424088 -0.016353993 0.0097100595 -0.017991886 0.023471486 0.0
-0.017329726 0.00076506805 0.0017844818 -0.00936374 -0.0006503203 0.013150017 -0.014126511 -0.025374243
00000000: b52c 18bd eced 6dbb 6709 453c e302 a7bc
00000010: 3070 403c 5d44 b4bc 2e93 b6bc 9104 0d3b
00000020: 0000 0000 07ea 21bc b3c4 ccbc d6bb 4dbc
00000030: 0681 933c cca8 1fbc c767 0dbc 5688 12bc
00000040: 2862 cfbc 05fb 323c fc36 cc3c b74d 89bc
00000050: 96e0 6dbc 7924 b1ba e42b 2fbc 9a05 69bc
00000060: c1dc 8fbc 3d6e 2fbc 1c4f f63b cd9a c93c
00000070: 6141 dabc a6d6 8b3c 0000 0000 175a a2bc
00000080: f5c0 f73a d825 b6bc 289c 97bc 4532 ffbc
00000090: 40c4 5e3c 667b bf3b 4283 393b 25ca e7bc
000000a0: 0000 0000 ff5a f5bc 9d3f 7539 e014 cfbc
000000b0: d3a7 04bc 2909 e9bc 4939 98bc 0000 0000
000000c0: 7521 01bd 30a3 6fbc 8742 93bc fe94 b6bc
000000d0: 9918 a9bc c681 e8bc 5eb7 e73a 9a77 e9bc
000000e0: 90f7 0f3c 0ab9 03bd 4698 84bc 376a acbc
000000f0: 7d05 8fbc 9424 a5bc 8781 c5bc 549c 93bc
00000100: e540 b1ba acba 04bb 0bf0 ac3c ff8d f1bc
00000110: 4574 14bc d6a7 eebc 52ba d0ba 9c1a 52bc
00000120: e72a 07bd 8aac 3abc 29ed 83bc 6dd3 28bd
00000130: f9ab 30bc b461 683b 8ba8 95bc cbd0 d0bc
00000140: b540 9dbc 799c aabc dc52 04bd 8e94 fdbc
00000150: 4bf3 f23b d6e0 d4bc 31ae d9bc 80a9 03bc
00000160: 1ac6 2c3b 3ca0 59bc c939 1cbc 2829 b3bc
00000170: bbe6 c2bc 4b5b a5bb 3a22 cdbb ed69 11bd
00000180: 7f74 0e3a b284 23bd 9cfb 47bc e821 b1bc
00000190: 0332 ae3a 7dac 0ebc d39c a8bc 0000 0000
000001a0: 90e8 9ebc ec8f 9abc d222 a8bb 1b87 c3bc
000001b0: 9115 00bb b2ac 9a3c 87b0 93bc f660 73bc
000001c0: 3f96 5bbc 0000 0000 441f 9fbc cff8 85bc
000001d0: f116 1f3c b863 93bc 4647 c03c 0000 0000
000001e0: 12f7 8dbc d98e 483a 46e5 e93a 5f6a 19bc
000001f0: 427a 2aba 2b73 573c e272 67bc a5dd cfbc

feature_network.3.weight f4 [128, 128]
0.051987555 0.02969795 -0.0067732735 -0.055609737 -0.14007404 -0.17739035 0.11970042 -0.21656641
-0.09962026 0.113710865 -0.16824195 0.052957192 0.047521744 0.016983941 -0.14318669 -0.09364892
0.10620374 0.038229484 -0.0523561 -0.14563121 -0.11891972 -0.16730031 0.1402145 -0.071433894
-0.13350944 -0.13101754 0.11893864 -0.022395391 -0.023315866 -0.15106264 -0.1510451 0.09088017
0.028585259 -0.05607603 0.087956 -0.07795805 -0.21489416 0.112408444 -0.1611214 -0.11390209
0.08396196 -0.042183213 -0.08418705 0.04537116 -0.03595085 -0.07347547 0.05846172 0.024028182
-0.039421923 -0.110125616 0.0043046027 -0.042021703 -0.13752332 -0.057788774 0.10500485 0.0042414935
-0.16685963 -0.020477766 0.05304105 0.22276102 0.0009564548 -0.10553485 -0.08628822 -0.09263503
0.061803862 0.09335303 -0.054383952 -0.06805523 -0.1288645 -0.049835637 0.01811463 -0.00870732
-0.10346377 0.00366306 0.13934676 0.011016393 0.0454472 0.062673844 -0.10777402 -0.04692333
-0.14096342 0.19531137 0.09421302 -0.044917315 -0.23013319 0.08563969 -0.15121695 -0.09834232
0.086388715 -0.09174508 0.105550915 -0.03532764 0.10570975 0.06520971 -0.09227662 0.01716644
-0.22618766 -0.04296625 0.031085474 0.058997568 -0.17724085 -0.010342906 0.016090171 0.09103212
-0.10758593 -0.0066855233 0.06516023 -0.05082289 0.14948778 -0.027964901 -0.005720016 -0.0046137185
0.1875178 0.08161087 -0.022400513 0.018221343 -0.105180055 -0.016505428 -0.016247768 -0.08846852
-0.12335807 -0.09926299 0.111818805 0.0049118414 -0.19840573 -0.23083724 -0.009025222 -0.041625705
0.022272477 -0.1470564 0.17297243 -0.119390324 0.15757662 0.18078901 -0.010388598 0.1704068
-0.03347735 -0.11821677 -0.011136658 -0.095497936 0.21434918 0.11775319 -0.118367925 -0.014347336
0.044231415 0.12820657 0.014012315 0.052254643 -0.08833308 0.19565341 0.18321873 0.11616937
0.1422944 0.14143611 -0.097408615 -0.08784903 0.0011387444 0.058869623 -0.077430375 -0.13250339
0.07367372 0.11588244 -0.07087125 -0.06965701 0.16590297 -0.011012412 0.1951361 -0.12609306
0.1030847 0.11877054 0.16108917 0.10443645 0.048876517 -0.018363286 -0.10819846 -0.07650425
0.05968824 0.18831275 0.028500365 0.13387044 -0.025057971 -0.015248331 -0.041565623 -0.053324644
0.16734461 0.06218171 0.14326209 -0.05256299 0.08831529 0.113941394 0.11015917 -0.036765452
-0.03046985 -0.15476297 -0.2171808 -0.010902169 -0.058554843 -0.11941717 -0.13443707 -0.11446043
-0.062278986 0.09318023 -0.13267976 0.15805842 0.1409061 -0.07483244 -0.076917775 -0.057173606
-0.09180454 -0.10300111 0.063747056 0.14358272 -0.121159986 0.10362962 0.094834074 0.048991922
0.01950183 0.16459566 0.048326842 -0.020681836 0.026655799 -0.15139195 -0.07872332 0.12917131
-0.053329296 -0.046179757 0.10058627 0.088006 -0.03034994 0.13389786 0.03320972 0.08261122
-0.06897081 0.0066907643 -0.11354542 0.024007302 -0.08646141 0.006412918 0.028012075 0.11878598
-0.013638848 -0.059520602 0.16180092 -0.032135688 0.07183935 0.03472413 -0.10086538 -0.12355969
0.037409544 -0.12143154 -0.03346351 -0.033832684 0.10919747 -0.13232443 0.1055292 -0.048571844
00000000: e7f0 543d 1e49 f33c 56f2 ddbb 09c7 63bd
00000010: 926f 0fbe d1a5 35be 7e25 f53d 96c3 5dbe
00000020: b505 ccbd 3ee1 e83d 9e47 2cbe a4e9 583d
00000030: 29a6 423d e821 8b3c 889f 12be 01cb bfbd
00000040: 5981 d93d 8596 1c3d 5a73 56bd 5920 15be
00000050: 2f8c f3bd c650 2bbe 6494 0f3e ef4b 92bd
00000060: b3b6 08be 7629 06be 1a96 f33d 8a76 b7bc
00000070: ea00 bfbc 2ab0 1abe 91ab 1abe 621f ba3d
00000080: a22b ea3c fbaf 65bd 4622 b43d 78a8 9fbd
00000090: 370d 5cbe 6636 e63d 02fd 24be 8045 e9bd
000000a0: 40f4 ab3d 4ec8 2cbd 436a acbd 1cd7 393d
000000b0: 3341 13bd 4f7a 96bd 8e75 6f3d c0d6 c43c
000000c0: e278 21bd 8a89 e1bd a00d 8d3b f31e 2cbd
000000d0: ead2 0cbe ecb3 6cbd c80c d73d 3afc 8a3b
000000e0: 40dd 2abe fdc0 a7bc 9241 593d 771b 643e
000000f0: 98ba 7a3a a822 d8bd e1b7 b0bd 6fb7 bdbd
00000100: 0c26 7d3d e02f bf3d b5c1 5ebd 8a60 8bbd
00000110: 0ef5 03be 7420 4cbd 2265 943c 26a9 0ebc
00000120: d0e4 d3bd f30f 703b ebb0 0e3e 1a7e 343c
00000130: d826 3a3d 255b 803d a0b8 dcbd ad32 40bd
00000140: b758 10be b4ff 473e c1f2 c03d 38fb 37bd
00000150: 09a8 6bbe dd63 af3d 9ed8 1abe b367 c9bd
00000160: 91ec b03d d8e4 bbbd 142b d83d b7b3 10bd
00000170: 5a7e d83d ab8c 853d 86fb bcbd a2a0 8c3c
00000180: bd9d 67be 61fd 2fbd f7a6 fe3c 6fa7 713d
00000190: a07e 35be 4b75 29bc 89cf 833c 0c6f ba3d
000001a0: 0356 dcbd 3c12 dbbb ba72 853d aa2b 50bd
000001b0: 5313 193e a616 e5bc f96e bbbb ad2e 97bb
000001c0: ab04 403e 9a23 a73d 4881 b7bc ed44 953c
000001d0: a468 d7bd 6436 87bc 0a1a 85bc fc2e b5bd
000001e0: 28a3 fcbd 654a cbbd 4201 e53d 83f3 a03b
000001f0: df2a 4bbe 9960 6cbe 86de 13bc b77f 2abd
00000200: c574 b63c f495 16be af1f 313e ea82 f4bd
00000210: c45b 213e c120 393e f034 2abc 1f7f 2e3e
00000220: 8c1f 09bd a21b f2bd 8776 36bc 6c94 c3bd
00000230: 5a7e 5b3e 9628 f13d e26a f2bd 1711 6bbc
00000240: 002c 353d 9548 033e e993 653c f708 563d
00000250: f9e7 b4bd 5e59 483e b19d 3b3e 35ea ed3d
00000260: a0b5 113e a1d4 103e 2b7e c7bd 31ea b3bd
00000270: ec41 953a 4621 713d d193 9ebd f8ae 07be
00000280: 3fe2 963d c653 ed3d f224 91bd 56a8 8ebd
00000290: 78e2 293e 676d 34bc c2d1 473e 8a1e 01be
000002a0: 121e d33d f83d f33d 8ff4 243e c7e2 d53d
000002b0: be32 483d 9a6e 96bc 2797 ddbd 43ae 9cbd
000002c0: a87b 743d 0fd5 403e 9979 e93c 5515 093e
000002d0: 6046 cdbc 23d4 79bc b740 2abd f16a 5abd
000002e0: 635c 2b3e 40b2 7e3d 4cb3 123e 4a4c 57bd
000002f0: a6de b43d 1b5a e93d 229b e13d 5f97 16bd
00000300: e89b f9bc 2f7a 1ebe a564 5ebe 039f 32bc
00000310: 34d7 6fbd fd90 f4bd dfa9 09be 3b6a eabd
00000320: 4018 7fbd 47d5 be3d 34dd 07be 11da 213e
00000330: b049 103e c041 99bd 1187 9dbd df2e 6abd
00000340: 0504 bcbd 3ff2 d2bd d18d 823d 5907 133e
00000350: ba22 f8bd c43b d43d 5e38 c23d c1ab 483d
00000360: 4dc2 9f3c c48b 283e 5ef2 453d f46c a9bc
00000370: 435d da3c 7e06 1bbe b139 a1bd 7c45 043e
00000380: d26f 5abd fc26 3dbd 2d00 ce3d 7d3c b43d
00000390: 70a0 f8bc 851c 093e ea06 083d 1230 a93d
000003a0: 9140 8dbd 333e db3b 808a e8bd f6aa c43c
000003b0: ae12 b1bd 7523 d23b 9479 e53c 1046 f33d
000003c0: 7a75 5fbc e0cb 73bd 24af 253e b6a0 03bd
000003d0: 8220 933d e43a 0e3d 8292 cebd dd0c fdbd
000003e0: c03a 193d 19b1 f8bd 0911 09bd 2494 0abd
000003f0: eca2 df3d 0e80 07be b11f d83d 45f3 46bd

feature_network.3.bias f4 [128]
0.011730357 -0.04805153 -0.015831836 0.00015488513 -0.011196684 -0.056761876 0.028163776 -0.042095356
-0.037211366 -0.05053735 -0.016844992 -0.0011774622 -0.02006911 -0.048314504 0.0104576545 0.028215343
-0.00977204 -0.02655923 -0.045224097 -0.017907977 -0.019411655 0.05080681 -0.020122621 -0.006598685
-0.021888433 -0.04821866 -0.026608715 0.049101822 0.001875933 -0.020888336 0.052934606 -0.008074748
-0.011645006 0.012242814 -0.0580651 0.012514394 0.049055796 -0.022210566 -0.067763105 0.029777147
0.0033178427 -0.026613418 -0.02408726 -0.0086249085 -0.06286367 -0.01430005 -0.03670477 0.04994218
-0.015355841 -0.046587355 0.026083587 0.052214563 -0.04113013 -0.011673403 -0.024904463 0.037746392
0.03231411 -0.019918164 -0.042290874 0.0948757 0.042320207 -0.046659134 -0.048506904 0.04694914
-0.017281583 -0.008206309 -0.030613242 -0.008563873 0.016163645 0.06494614 -0.063397415 0.03489571
-0.023529895 0.023144616 0.047874633 -0.027053015 0.030248856 -0.024025502 -0.035644975 -0.063344866
-0.06158838 0.027712973 0.069122106 0.058193307 -0.035601836 -0.029055646 0.012572072 -0.024042051
-0.028215341 0.0047200904 -0.043117646 -0.034671195 -0.01423349 -0.04994452 0.04071849 0.0059278617
0.006372268 0.05090165 -0.03351022 0.0085767405 -0.0314421 -0.017723206 -0.0012052077 -0.018277036
0.06925557 0.03919732 0.010940461 -0.04247648 0.008928877 -0.02828722 0.07112259 0.015936285
-0.014430655 -0.0044554793 -0.026871413 -0.036567237 0.044000395 0.009948928 -0.053821165 0.0059052855
0.04301329 -0.05223697 -0.05245306 0.003229594 0.007779555 -0.01754595 0.034691725 -0.0133840805
00000000: af30 403c aed1 44bd c4b1 81bc a968 2239
00000010: 4c72 37bc 247f 68bd b8b7 e63c 2e6c 2cbd
00000020: f26a 18bd 4100 4fbd 82fe 89bc 1355 9aba
00000030: f967 a4bc 6ee5 45bd 9556 2b3c dd23 e73c
00000040: e81a 20bc be92 d9bc e73c 39bd c0b3 92bc
00000050: 3105 9fbc cd1a 503d 32d8 a4bc c839 d8bb
00000060: 5f4f b3bc ee80 45bd 85fa d9bc fe1e 493d
00000070: dee1 f53a 041e abbc f5d1 583d f34b 04bc
00000080: b2ca 3ebc 1596 483c acd5 6dbd 2c09 4d3c
00000090: bbee 483d eff2 b5bc 62c7 8abd 34ef f33c
000000a0: 2a70 593b 6204 dabc a552 c5bc 7d4f 0dbc
000000b0: abbe 80bd c24a 6abc be57 16bd 2c90 4c3d
000000c0: 1197 7bbc 62d2 3ebd 3fad d53c f0de 553d
000000d0: 1178 28bd cd41 3fbc 7204 ccbc f69b 1a3d
000000e0: cd5b 043d 6b2b a3bc 3239 2dbd 314e c23d
000000f0: f457 2d3d a61d 3fbd 2daf 46bd be4d 403d
00000100: 1b92 8dbc c173 06bc 9fc8 fabc 7d4f 0cbc
00000110: 9f69 843c 7b02 853d 81d6 81bd ceee 0e3d
00000120: c4c1 c0bc c799 bd3c 3118 443d 499e ddbc
00000130: 73cc f73c 21d1 c4bc 7700 12bd f4ba 81bd
00000140: 1944 7cbd 5106 e33c e48f 8d3d 1b5c 6e3d
00000150: 3bd3 11bd 1b06 eebc 18fb 4d3c d6f3 c4bc
00000160: dc23 e7bc fdaa 9a3b 219c 30bd 6203 0ebd
00000170: 9633 69bc a092 4cbd 6ec8 263d 823e c23b
00000180: 75ce d03b 407e 503d 0342 09bd 7585 0c3c
00000190: 6ec9 00bd 4230 91bc 0ff8 9dba b9b9 95bc
000001a0: ddd5 8d3d 5e8d 203d 9f3f 333c d1fb 2dbd
000001b0: 6d4a 123c 9aba e7bc b8a8 913d d08c 823c
000001c0: 8e6e 6cbc 45ff 91bb 7021 dcbc 87c7 15bd
000001d0: c239 343d d400 233c 9573 5cbd 2081 c13b
000001e0: b42e 303d 6ff6 55bd 05d9 56bd 99a7 533b
000001f0: a3eb fe3b 86bc 8fbc e918 0e3d e748 5bbc

feature_network.6.weight f4 [64, 128]
-0.0067500253 0.0011350032 -0.16791774 -0.15062904 0.14093365 0.15016507 -0.13315487 0.02500265
-0.12446915 0.052300468 -0.08755977 -0.01680094 0.02256702 0.12564535 -0.24934128 -0.10484385
0.07455317 0.0084052915 0.054580815 -0.057979375 -0.02073878 0.11106965 -0.073480934 0.011852805
-0.029436918 -0.06237309 0.042585712 0.107129164 0.020923782 -0.096424386 -0.04323959 -0.15813139
-0.05162891 -0.16695428 0.10294177 -0.1587007 0.15288788 0.004120119 0.16529723 0.07432787
-0.0681485 -0.039904308 -0.044080373 -0.14815205 -0.010144051 0.10006556 0.055286545 -0.0034382946
0.016815066 -0.03863927 -0.111578055 0.16918628 -0.12645936 0.07781209 -0.13983923 -0.0071745818
0.11413513 0.040998362 -0.19236515 -0.10791879 -0.17979844 0.0728303 -0.008426773 -0.23917116
0.08710275 0.015317918 0.05981934 0.107343 -0.05656372 0.10519503 -0.12103332 0.045886043
0.103285484 -0.04832208 0.0372931 -0.13155818 -0.2397069 -0.17412376 0.056727957 -0.06880093
-0.16486254 -0.17983115 -0.139736 -0.08674605 0.050710835 0.08528805 0.022238594 -0.16116832
-0.14919953 0.017421303 0.1127787 0.1187293 0.019771218 0.061437167 -0.029326797 -0.1376041
0.016407343 -0.058923062 0.011380397 -0.12365818 0.037112854 0.090134785 -0.08282428 -0.044552002
-0.1315824 0.1196919 0.031344667 -0.14345852 0.018670423 -0.12382548 0.036895577 -0.03877638
-0.045864746 -0.13206242 0.110985726 0.15647651 0.12400547 0.036671292 0.008195064 0.12242388
-0.049496077 -0.15506023 0.0031632648 -0.040031966 -0.018877888 0.025312876 0.009199073 -0.01693917
0.11652196 0.0010620223 0.11073598 0.009089037 -0.045385133 -0.038050756 -0.061927274 0.1613032
-0.046822153 -0.120195284 0.09282488 -0.009739278 0.15541135 0.043915074 -0.048855618 0.014507537
0.017104227 -0.1974361 -0.018099608 -0.16578802 -0.18211934 0.019291995 -0.16019952 -0.20452456
0.04577647 0.10278385 0.14069596 0.1986391 -0.09202265 -0.030464927 0.19982736 -0.062043138
-0.057279542 0.061772577 0.06366313 0.17798461 0.09056888 0.028299702 -0.016877482 -0.09740433
0.1472118 -0.13865292 0.108914256 0.100996226 0.007891153 -0.13098969 -0.03533545 -0.16828759
0.097219065 0.11230656 0.013340065 0.030042455 0.004656364 0.12878065 -0.0030705822 0.07646951
0.224153 -0.15576439 0.106643096 -0.038575068 -0.04182601 -0.086881295 0.076499835 -0.030803064
0.13695882 -0.14296268 0.09781079 0.14744319 -0.12769152 0.037974164 0.110874616 0.17991115
0.1363013 0.021845642 0.248407 0.07660135 -0.12696141 -0.1784064 -0.05696834 0.06909329
-0.06287102 0.18325941 0.13559389 -0.045111004 0.14474626 0.08056374 0.0026949504 0.011589379
0.21684694 -0.08219691 0.059955694 -0.10150151 -0.14473668 -0.026636915 0.0019468272 -0.18255192
0.056989193 0.15742151 -0.09753661 -0.07705089 0.10666598 -0.02779941 0.06370625 -0.052233562
0.058794588 -0.09854661 -0.24710655 0.04946934 -0.07516123 -0.21997929 0.013781262 0.05671059
-0.038258184 -0.23048925 0.16591163 -0.041022394 -0.07985144 0.17970647 -0.14528283 0.15184438
-0.0030612682 -0.13554895 0.086372726 -0.09131853 0.14401563 -0.1692844 -0.033947986 -0.021166956
00000000: 512f ddbb 63c4 943a a1f2 2bbe 803e 1abe
00000010: e950 103e dfc4 193e c059 08be 5cd2 cc3c
00000020: afe9 febd 0439 563d 8952 b3bd 20a2 89bc
00000030: 79de b83c 2da9 003e 5253 7fbe 5fb8 d6bd
00000040: 55af 983d 59b6 093c 2290 5f3d c87b 6dbd
00000050: 60e4 a9bc 7c78 e33d 2c7d 96bd 4432 423c
00000060: b125 f1bc ed7a 7fbd 5b6e 2e3d 8966 db3d
00000070: 5a68 ab3c 267a c5bd ff1b 31bd 32ed 21be
00000080: d678 53bd 10f6 2abe 22d3 d23d 7082 22be
00000090: a48e 1c3e 1002 873b ad43 293e 3639 983d
000000a0: 7191 8bbd b372 23bd 9f8d 34bd 2cb5 17be
000000b0: 3c33 26bc 2cef cc3d 2574 623d 0355 61bb
000000c0: c0bf 893c 3644 1ebd 0983 e4bd 2b3f 2d3e
000000d0: 907e 01be f25b 9f3d 0432 0fbe c118 ebbb
000000e0: aebf e93d e6ed 273d 5ffb 44be 8704 ddbd
000000f0: 151d 38be 0d28 953d 7310 0abc 49e9 74be
00000100: ed62 b23d 01f8 7a3c 2005 753d a6d6 db3d
00000110: 5caf 67bd 7e70 d73d 51e0 f7bd 01f3 3b3d
00000120: 5787 d33d 60ed 45bd a6c0 183d 30b7 06be
00000130: ba75 75be 804d 32be 935b 683d 81e7 8cbd
00000140: bad1 28be a825 38be f416 0fbe eaa7 b1bd
00000150: 2ab6 4f3d 80ab ae3d b62d b63c 4f09 25be
00000160: c3c7 18be 1fb7 8e3c 85f8 e63d 5928 f33d
00000170: 40f7 a13c 8aa5 7b3d c03e f0bc 17e8 0cbe
00000180: b168 863c 4f59 71bd d874 3a3c 8040 fdbd
00000190: a603 183d 9698 b83d c79f a9bd 297c 36bd
000001a0: 89bd 06be 0721 f53d 4463 003d cae6 12be
000001b0: b7f2 983c 3798 fdbd d11f 173d fbd3 1ebd
000001c0: acdc 3bbd 5f3b 07be 7c4c e33d 613b 203e
000001d0: 94f6 fd3d a334 163d 9744 063c 5fb9 fa3d
000001e0: 66bc 4abd 1cc8 1ebe c74e 4f3b 8ff8 23bd
000001f0: cda5 9abc f35c cf3c b5b7 163c 04c4 8abc
00000200: 11a3 ee3d 8e33 8b3a 8cc9 e23d 2fea 143c
00000210: c3e5 39bd 1cdb 1bbd 74a7 7dbd ab2c 253e
00000220: 96c8 3fbd f228 f6bd f81a be3d 7e91 1fbc
00000230: 2724 1f3e 4be0 333d d41c 48bd 05b1 6d3c
00000240: 2a1e 8c3c b02c 4abe a145 94bc 56c4 29be
00000250: 7e7d 3abe 3f0a 9e3c 580b 24be e36e 51be
00000260: 1c80 3b3d 5780 d23d 9a12 103e 0c68 4b3e
00000270: 5f76 bcbd 9591 f9bc 8b9f 4c3e f220 7ebd
00000280: f49d 6abd 3e05 7d3d d161 823d 9941 363e
00000290: 2d7c b93d c7d4 e73c a542 8abc ec7b c7bd
000002a0: b1be 163e 08fb 0dbe 700e df3d 1cd7 ce3d
000002b0: e549 013c 2922 06be e8bb 10bd 9553 2cbe
000002c0: ca1a c73d fb00 e63d 4a90 5a3c 981b f63c
000002d0: 6a94 983b 13df 033e d23b 49bb 0c9c 9c3d
000002e0: 5d88 653e b380 1fbe b267 da3d e400 1ebd
000002f0: c051 2bbd d2ee b1bd f2ab 9c3d b556 fcbc
00000300: ef3e 0c3e cf64 12be 0651 c83d 59fb 163e
00000310: 91c1 02be cc8a 1b3d 3b12 e33d a13a 383e
00000320: 9192 0b3e a2f5 b23c 685e 7e3e 2be1 9c3d
00000330: 2c02 02be 2bb0 36be a257 69bd c880 8d3d
00000340: 85c2 80bd 5ba8 3b3e 20d9 0a3e 51c6 38bd
00000350: 5d38 143e 9afe a43d c49d 303b 61e1 3d3c
00000360: 200d 5e3e db56 a8bd 1a94 753d 06e0 cfbd
00000370: da35 14be a935 dabc ae2c ff3a e4ee 3abe
00000380: 806d 693d 1b33 213e 46c1 c7bd dbcc 9dbd
00000390: b173 da3d 97bb e3bc 6c78 823d dcf2 55bd
000003a0: 98d2 703d ced2 c9bd 8009 7dbe 5da0 4a3d
000003b0: 22ee 99bd 4042 61be cdca 613c 5d49 683d
000003c0: 9db4 1cbd 6005 6cbe bde4 293e 1907 28bd
000003d0: 2789 a3bd f904 383e 06c5 14be 187d 1b3e
000003e0: 8f9f 48bb 58cd 0abe 2fe4 b03d 3605 bbbd
000003f0: d578 133e e458 2dbe 0b0d 0bbd 5366 adbc

feature_network.6.bias f4 [64]
-0.047928367 0.035285503 -0.020515002 0.0843745 -0.054771177 0.045773823 -0.036523998 0.00443444
-0.04080338 -0.016706923 -0.010886348 0.09958495 -0.03976793 0.08368649 0.030129215 -0.0273877
0.051841658 0.00093224423 -0.08072783 -0.006633432 -0.03649252 -0.0037425724 -0.031417277 -0.024814993
0.08969252 -0.0077709793 -0.015598556 -0.023855386 0.09559421 -0.04262791 -0.039906915 -0.037123717
-0.027254686 -0.036614645 -0.04621138 0.027435785 0.06518766 0.053967465 -0.06619128 0.03653215
-0.042435374 -0.023384638 0.07230565 -0.0156020075 0.008599502 -0.047224678 -0.03938072 0.027283
-0.035335075 -0.053903874 -0.035901673 -0.036804684 -0.05499584 -0.06330978 0.06542294 -0.06092127
0.046603363 -0.02959878 0.024659736 -0.026543237 -0.022329625 0.042713277 -0.040267672 -0.03443685
00000000: 8950 44bd 8887 103d 140f a8bc 8acc ac3d
00000010: be57 60bd 557d 3b3d 309a 15bd c74e 913b
00000020: 7221 27bd f5dc 88bc a75c 32bc 32f3 cb3d
00000030: b2e3 22bd d363 ab3d 8bd1 f63c 2b5c e0bc
00000040: eb57 543d da61 743a a254 a5bd 435d d9bb
00000050: 2e79 15bd f245 75bb 67af 00bd d048 cbbc
00000060: b6b0 b73d b3a3 febb 1691 7fbc 5f6c c3bc
00000070: e6c6 c33d 9a9a 2ebd 6f75 23bd 0a0f 18bd
00000080: 3845 dfbc 3df9 15bd 2548 3dbd 03c1 e03c
00000090: 1c81 853d fd0c 5d3d 4b8f 87bd bca2 153d
000000a0: b7d0 2dbd 2491 bfbc fc14 943d 909f 7fbc
000000b0: ede4 0c3c aa6e 41bd ae4d 21bd 9980 df3c
000000c0: 83bb 10bd 4fca 5cbd a20d 13bd 82c0 16bd
000000d0: 5143 61bd 8fa8 81bd 76fc 853d 9588 79bd
000000e0: 2be3 3e3d 2479 f2bc 3703 ca3c 3471 d9bc
000000f0: 9eec b6bc 1ef4 2e3d b7ef 24bd a80d 0dbd

q_network.weight f4 [1, 64]
0.0029693667 -0.113882676 0.09180847 -0.15049924 0.08782083 -0.088459715 0.101147056 -0.025150545
0.057147417 0.035693817 0.25332803 -0.16779295 -0.0007941921 -0.3486042 -0.24678719 0.11510922
-0.22663285 0.026977701 -0.014321126 -0.24055353 0.025692698 -0.010933121 0.00239975 -0.0090340525
-0.099650115 -0.13246912 0.057765607 0.13495119 -0.26657814 0.2624931 0.055593148 -0.014287475
0.07921115 0.100469105 0.116546005 -0.12539996 -0.065530114 -0.18236788 0.063353665 -0.03207805
0.012595189 -0.0169115 -0.25790846 0.25409478 -0.1623451 0.15272778 0.03545188 -0.33389106
-0.056730635 0.07595949 0.0974087 0.2637712 0.015498861 -0.07797531 -0.06272377 0.15609317
-0.269728 0.0738791 -0.37118196 0.0045291223 0.014696586 -0.33484572 0.060714792 0.1266476
00000000: b599 423b 523b e9bd 1406 bc3d 791c 1abe
00000010: 68db b33d 5e2a b5bd 3026 cf3d 8408 cebc
00000020: 6913 6a3d ae33 123d 36b4 813e ead1 2bbe
00000030: 5431 50ba 407c b2be c8b5 7cbe 62be eb3d
00000040: 7112 68be 5700 dd3c 28a3 6abc aa53 76be
00000050: 7e79 d23c d520 33bc 2045 1d3b 9003 14bc
00000060: 5c15 ccbd fca5 07be a19b 6c3d a530 0a3e
00000070: ee7c 88be 7f65 863e a4b5 633d 0316 6abc
00000080: 7539 a23d bfc2 cd3d acaf ee3d d968 00be
00000090: a734 86bd a5be 3abe 91bf 813d 4664 03bd
000000a0: 0d5c 4e3c fc89 8abc 940c 84be b618 823e
000000b0: cb3d 26be ac64 1c3e fe35 113d c5f3 aabe
000000c0: 625e 68bd a690 9b3d 367e c73d 050d 873e
000000d0: efee 7d3c 85b1 9fbd 5275 80bd e3d6 1f3e
000000e0: ca19 8abe ed4d 973d 900b bebe 0869 943b
000000f0: f3c9 703c e670 abbe 13b0 783d e9af 013e

feature_network.0.weight f4 [128, 228]
-0.014507763 0.02080287 0.12998916 0.107968576 0.12610684 -0.010703733 0.10963936 -0.098793246
-0.19288301 -0.069820225 -0.105344936 -0.06381296 -0.02416877 -0.00030794888 0.029380966 -0.16227613
-0.08500322 0.14457582 -0.17718674 0.10545158 0.06610233 0.020358268 0.07745048 -0.0057398453
0.11845545 -0.09923483 -0.09130007 -0.097784206 -0.026045369 -0.08527935 -0.00037089584 0.03473788
0.028695285 -0.027697034 -0.10850504 -0.05502148 -0.08906123 -0.05030378 0.17211838 0.19104366
-0.107790016 -0.0605215 0.06403877 0.11815987 -0.050263733 0.09124271 -0.10046623 0.04950855
-0.05338916 -0.09590065 0.03375684 -0.006609877 -0.041775763 0.09498381 0.019681593 -0.070701145
0.062961824 0.060951434 -0.012705952 -0.11085109 -0.18782803 0.051639367 0.22476575 -0.030139381
0.10899329 -0.13442564 -0.033316515 -0.11669363 0.079180256 -0.07168579 0.12317529 -0.023881568
0.0054883542 -0.005439161 -0.059860047 -0.06505145 -0.01521973 -0.033744965 0.1568232 -0.05844016
-0.066707715 -0.010177512 -0.025337456 0.029514764 0.04934283 0.021583145 0.122105315 0.032007862
-0.040213447 -0.022414085 -0.018670183 0.0781584 -0.02082192 0.093259856 0.07404457 0.104499504
0.15997957 0.006117972 0.053094156 -0.058684267 -0.012998194 -0.1499088 0.038991008 0.1495149
-0.13732563 0.08122407 -0.14149375 0.042038556 -0.11958184 0.115362816 -0.06417492 0.06129608
0.02170861 0.10861571 -0.10310249 0.11247562 -0.10585904 0.15301368 0.057482503 -0.12171455
-0.0813806 -0.009436963 -0.11871403 -0.10361109 0.018916149 0.12603875 -0.0070297536 0.010059262
-0.0902264 0.01704006 0.16730958 0.10011714 0.051811647 -0.060057655 -0.057897266 0.019110996
-0.06454911 -0.131462 0.027434802 0.07525538 -0.031121166 0.15518428 -0.141642 0.14574766
0.13016948 -0.035896752 -0.016228298 0.05135225 0.076490775 0.20017402 -0.017656252 0.112862475
0.11264239 -0.06690992 -0.0044032945 -0.06298355 0.07783334 -0.049522843 -0.10169772 -0.16722834
0.025343437 0.028338268 -0.030829182 0.112742156 -0.12759377 0.06715636 0.11290938 0.092589214
-0.07409125 0.089643836 0.058460325 0.08340059 0.115816325 -0.012019805 0.018674616 0.016728373
0.144428 0.11909318 -0.041992426 0.0068592383 0.07193832 0.16441916 -0.06453454 0.07286907
-0.06403895 0.043742906 -0.068049766 0.010264794 0.019847302 0.09528126 -0.1550591 -0.060200386
-0.12900501 0.12700471 0.0076513044 -0.107891575 0.0521504 -0.12494764 0.07806838 -0.012589939
0.022690237 -0.15400313 -0.16942942 -0.11913549 -0.04763787 -0.06769066 0.08431637 0.00809772
-0.16081055 0.010508819 -0.03163752 0.07249933 0.0035943778 -0.14802194 -0.11165521 -0.1379807
0.037768755 -0.037343867 0.012140818 0.058747202 -0.038839836 -0.16513121 -0.024814596 0.06933307
0.07304152 0.058778755 -0.032601837 -0.0004935388 -0.03287388 -0.0837587 -0.026338914 0.0016407388
-0.09815774 -0.02739712 -0.017845357 0.09812491 0.09165359 -0.075970426 -0.034862734 -0.1891283
0.067935236 0.10755558 0.08928087 0.06946661 0.023465222 0.12975928 -0.06510677 -0.0676005
-0.06618594 -0.046261624 0.17180535 0.041146893 -0.15976505 -0.1122564 0.13081622 0.032835215
00000000: f8b1 6dbc c86a aa3c e11b 053e a11e dd3d
00000010: 2722 013e b65e 2fbc 9a8a e03d 1d54 cabd
00000020: 2083 45be e8fd 8ebd 16bf d7bd 5fb0 82bd
00000030: 96fd c5bc 3374 a1b9 5ab0 f03c b72b 26be
00000040: 2b16 aebd af0b 143e 7170 35be fff6 d73d
00000050: a960 873d 62c6 a63c 5b9e 9e3d 5015 bcbb
00000060: c598 f23d a13b cbbd 88fb babd 1643 c8bd
00000070: 195d d5bc f1a6 aebd cc74 c2b9 4f49 0e3d
00000080: 6012 eb3c e4e4 e2bc e437 debd 345e 61bd
00000090: bc65 b6bd 560b 4ebd cd3f 303e f3a0 433e
000000a0: 03c1 dcbd 64e5 77bd c226 833d cdfd f13d
000000b0: 58e1 4dbd 75dd ba3d 3dc1 cdbd 7ac9 4a3d
000000c0: 98ae 5abd 8f67 c4bd 9d44 0a3d ab97 d8bb
000000d0: 101d 2bbd df86 c23d 4b3b a13c c3cb 90bd
000000e0: 21f2 803d 36a8 793d a02c 50bc e505 e3bd
000000f0: fe55 40be cd83 533d fe28 663e dde6 f6bc
00000100: e037 df3d e0a6 09be e676 08bd 12fd eebd
00000110: 4229 a23d 00d0 92bd 5443 fc3d 47a3 c3bc
00000120: a7d7 b33b fd3a b2bb cf2f 75bd b239 85bd
00000130: 2d5c 79bc 2938 0abd 4396 203e f35e 6fbd
00000140: 0e9e 88bd 94bf 26bc 7f90 cfbc f2c8 f13c
00000150: b51b 4a3d 23cf b03c 5a12 fa3d ad1a 033d
00000160: dbb6 24bd be9d b7bc 36f2 98bc 8311 a03d
00000170: bb92 aabc 06ff be3d aea4 973d d603 d63d
00000180: afd1 233e 4579 c83b 4279 593d ea5e 70bd
00000190: 61f6 54bc b181 19be 09b5 1f3d 6f1a 193e
000001a0: 179f 0cbe ce58 a63d bde3 10be 9f30 2c3d
000001b0: 53e7 f4bd 5743 ec3d 246e 83bd 9911 7b3d
000001c0: 41d6 b13c ea71 de3d 6627 d3bd 9e59 e63d
000001d0: a0cc d8bd 9eaf 1c3e c672 6b3d 7a45 f9bd
000001e0: dfaa a6bd 7e9d 1abc 5720 f3bd 0d32 d4bd
000001f0: 0af6 9a3c 4d10 013e d959 e6bb 9acf 243c
00000200: 9ec8 b8bd 9997 8b3c 3453 2b3e 370a cd3d
00000210: 7338 543d 04ff 75bd af25 6dbd aa8e 9c3c
00000220: 5332 84bd f99d 06be f3be e03c 7e1f 9a3d
00000230: d1f1 febc a1e8 1e3e 9a0a 11be e03e 153e
00000240: 264b 053e 7908 13bd 35f1 84bc bd56 523d
00000250: 32a7 9c3d 6bfa 4c3e d8a3 90bc 7124 e73d
00000260: 0eb1 e63d 1108 89bd 8349 90bb 85fd 80bd
00000270: 1667 9f3d 77d8 4abd e546 d0bd e83d 2bbe
00000280: 0a9d cf3c a825 e83c 7b8d fcbc 5ce5 e63d
00000290: f1a7 02be 4689 893d 083d e73d 6a9f bd3d
000002a0: 27bd 97bd 3097 b73d 1874 6f3d eecd aa3d
000002b0: 1c31 ed3d b7ee 44bc 82fb 983c f109 893c
000002c0: efe4 133e 20e7 f33d 4000 2cbd 76c3 e03b
000002d0: 6654 933d 7f5d 283e af2a 84bd 613c 953d
000002e0: da26 83bd c32b 333d ad5d 8bbd ab2d 283c
000002f0: cf96 a23c d222 c33d d0c7 1ebe ae94 76bd
00000300: e419 04be 860d 023e cbb7 fa3b 42f6 dcbd
00000310: a89b 553d 8ce4 ffbd 51e2 9f3d 0846 4ebc
00000320: e0e0 b93c ffb2 1dbe e87e 2dbe 4ffd f3bd
00000330: ed1f 43bd 67a1 8abd 10ae ac3d 4dac 043c
00000340: 85ab 24be 2e2d 2c3c 5896 01bd 877a 943d
00000350: a78f 6b3b 1093 17be 7dab e4bd d04a 0dbe
00000360: 69b3 1a3d e2f5 18bd 48ea 463c e8a0 703d
00000370: 8516 1fbd 2818 29be fb47 cbbc 7ffe 8d3d
00000380: cb96 953d fec1 703d 8189 05bd d460 01ba
00000390: c3a6 06bd ae89 abbd b5c4 d7bc 0f0e d73a
000003a0: ed06 c9bd ed6f e0bc 6d30 92bc b6f5 c83d
000003b0: e1b4 bb3d 6296 9bbd 3acc 0ebd d9aa 41be
000003c0: a121 8b3d 1a46 dc3d e4d8 b63d 8344 8e3d
000003d0: 233a c03c 9edf 043e b356 85bd 2272 8abd
000003e0: 7e8c 87bd d47c 3dbd beed 2f3e a589 283d
000003f0: 7399 23be afe6 e5bd b0f4 053e 387e 063d

feature_network.0.bias f4 [128]
-0.04403848 0.008437465 -0.009506452 -0.02120153 0.0028934542 0.0006716142 -0.022286978 0.014459711
0.0 -0.015325204 -0.0280361 0.00033558536 0.020044956 -0.009712276 -0.018003935 -0.009550952
-0.010812901 0.020665653 0.008885369 -0.01676069 -0.01658444 0.0032012565 -0.0074526854 -0.015033593
0.0015450099 0.0023767436 -0.0008741034 0.0399603 -0.026642503 0.011476338 0.0 -0.019818349
0.01803595 -0.017196147 -0.018507078 -0.024231428 0.008889163 -0.00046745792 -0.0049918573 -0.0295815
0.0 -0.008156009 -0.006834769 -0.01066729 -0.00821452 -0.032117356 -0.018582003 0.0
-0.02486036 0.008095897 -0.017976059 -0.022453908 -0.020422617 0.006804481 -0.01083626 0.011314035
0.020374212 -0.034824297 -0.01485726 -0.011059109 -0.01829989 -0.020159043 0.0018422706 -0.0007841836
-0.0037859492 -0.016330479 0.0074903173 -0.022666765 -0.009574057 -0.016448684 0.009637875 -0.032745324
-0.03505456 -0.011393676 -0.0075816056 -0.041217256 -0.007320742 0.008096876 -0.018268844 -0.025490059
-0.019195894 -0.01514855 -0.025907924 -0.016775632 0.04996627 -0.027292062 -0.041132804 -0.0117504345
-0.008340048 -0.0028746424 0.0012643527 -0.02187021 -0.023791661 0.006059592 -0.013480517 -0.030042024
-0.0019160577 -0.030280527 -0.022866005 -0.015268606 -0.0068922555 -0.0025186716 -0.017426496 0.0
0.0020087557 -0.011335357 -0.016437193 -0.023868134 0.011991872 0.02894208 -0.012178129 -0.0061543705
-0.023285313 0.0 -0.021634791 -0.020907076 0.008104016 -0.019126957 0.026138201 0.0
-0.017437609 0.00040990196 -0.0020220557 -0.007985213 0.020360876 0.016486162 -0.014126511 -0.025374243
00000000: b161 34bd 4b3d 0a3c f3c0 1bbc d5ae adbc
00000010: 1ba0 3d3b 440f 303a 2e93 b6bc 6ce8 6c3c
00000020: 0000 0000 9016 7bbc f7ab e5bc 81f1 af39
00000030: 5235 a43c 3d20 1fbc fd7c 93bc 997b 1cbc
00000040: 9828 31bc 044b a93c f093 113c b74d 89bc
00000050: 17dc 87bc 2ccc 513b a835 f4bb 764f 76bc
00000060: ee81 ca3a 24c3 1b3b 1624 65ba 69ad 233d
00000070: 6141 dabc 4007 3c3c 0000 0000 175a a2bc
00000080: 21c0 933c efde 8cbc 289c 97bc fd80 c6bc
00000090: daa3 113c 2415 f5b9 bc92 a3bb e754 f2bc
000000a0: 0000 0000 c8a0 05bc 33f6 dfbb dbc5 2ebc
000000b0: 3296 06bc 7d8d 03bd 4939 98bc 0000 0000
000000c0: f4a7 cbbc a7a4 043c 8742 93bc 42f1 b7bc
000000d0: 554d a7bc 20f8 de3b 928a 31bc 815e 393c
000000e0: d2e7 a63c eca3 0ebd dd6b 73bc 4431 35bc
000000f0: a7e9 95bc 9424 a5bc 5878 f13a ac91 4dba
00000100: b01d 78bb 7fc7 85bc 5671 f53b a7af b9bc
00000110: 81dc 1cbc 64bf 86bc 2de8 1d3c f61f 06bd
00000120: 5f95 0fbd 8aac 3abc 1e6f f8bb 6dd3 28bd
00000130: d6e2 efbb c2a8 043c 8ba8 95bc 87d0 d0bc
00000140: b540 9dbc a031 78bc db3c d4bc 0d6d 89bc
00000150: 6ea9 4c3d 9a93 dfbc df7a 28bd e584 40bc
00000160: b2a4 08bc 7f64 3cbb a3b8 a53a 2829 b3bc
00000170: bbe6 c2bc 8b8f c63b 63dd 5cbc b11a f6bc
00000180: 3a24 fbba de0e f8bc 7d51 bbbc 2d29 7abc
00000190: 6ed8 e1bb 4c10 25bb 03c2 8ebc 0000 0000
000001a0: 54a5 033b efb7 39bc 4ba7 86bc 1b87 c3bc
000001b0: 8f79 443c f117 ed3c c686 47bc 9aaa c9bb
000001c0: d7c0 bebc 0000 0000 723b b1bc 5145 abbc
000001d0: b5c6 043c 23b0 9cbc c81f d63c 0000 0000
000001e0: 51d9 8ebc 1ce8 d639 7784 04bb 69d4 02bc
000001f0: dacb a63c fd0d 873c e272 67bc a5dd cfbc

feature_network.3.weight f4 [128, 128]
0.0539114 0.05182843 -0.022750229 -0.011027363 -0.14640154 -0.1809237 0.11970042 -0.20537318
-0.09962026 0.110919215 -0.16525258 0.049335785 0.05123264 0.016987193 -0.13956325 -0.07453854
0.10620374 0.05223408 -0.04749457 -0.14563121 -0.11917604 -0.14506942 0.13386425 -0.07285451
-0.12725942 -0.13210732 0.12149483 0.02397828 -0.023315866 -0.12978306 -0.1510451 0.09088017
0.0504521 -0.05607562 0.087956 -0.0787158 -0.21079268 0.10988461 -0.11841333 -0.113902345
0.08396196 -0.030274512 -0.07834787 0.05539936 -0.058258444 -0.07851459 0.05846172 0.024028182
-0.04329658 -0.1128834 0.0043046027 -0.03886647 -0.13751553 -0.053360116 0.087804124 0.013308525
-0.14516391 -0.022787482 0.043491907 0.19687597 0.0084421765 -0.10553485 -0.08362643 -0.09141818
0.061606474 0.06530072 -0.07038669 -0.06964988 -0.10285605 -0.07011003 0.027794741 -0.01132153
-0.10116653 0.00366306 0.13627487 0.011016393 0.017944044 0.08897289 -0.10777402 -0.04692333
-0.14096342 0.18901323 0.09264814 -0.041723244 -0.23116778 0.08224467 -0.13832489 -0.11130043
0.079420224 -0.07668281 0.095402084 -0.03532764 0.10570975 0.08387716 -0.118847184 0.019942494
-0.21445629 -0.03804398 0.023703698 0.0880502 -0.16598693 -0.0313558 0.03560141 0.09103212
-0.11174436 -0.0020192945 0.057268336 -0.05082289 0.12531307 -0.008488814 -0.004004006 -0.003445664
0.16863169 0.08161087 -0.024416938 0.032351106 -0.10195072 -0.016505428 -0.0069105453 -0.08846852
-0.120196134 -0.103650495 0.102360405 0.00015634844 -0.17874701 -0.22232743 -0.009025222 -0.041625705
0.0183388 -0.12988795 0.19451806 -0.137228 0.14522523 0.19383766 -0.010388598 0.17638218
-0.03347735 -0.11092145 -0.011870136 -0.10268617 0.20753242 0.11775644 -0.096888475 -0.015552456
0.038021695 0.16733265 -0.0148077635 0.052254643 -0.08533968 0.16007313 0.15546311 0.109586775
0.15159492 0.13552731 -0.09925928 -0.027047008 0.0011387443 0.044255007 -0.077430375 -0.13250339
0.11169017 0.11596443 -0.07087125 -0.0682357 0.16644834 -0.01431742 0.17927161 -0.12620568
0.1030847 0.11239711 0.14877777 0.11171964 0.05429502 -0.03318312 -0.10819846 -0.07650425
0.073965155 0.1427798 0.028500365 0.1401895 -0.025062885 -0.067605235 -0.009717454 -0.062095072
0.21240664 0.06341146 0.13592741 -0.0799384 0.08773758 0.113941394 0.11172008 -0.02584168
-0.038422085 -0.12916179 -0.1503513 -0.027495045 -0.05730623 -0.09412269 -0.14945506 -0.12245344
-0.051870394 0.09318023 -0.14552376 0.15805842 0.12909603 -0.032569528 -0.076917775 -0.05717362
-0.09180454 -0.12371338 0.057092953 0.14285624 -0.056003667 0.0846527 0.087980576 0.042182595
0.029572867 0.15230922 0.048482027 -0.020681836 0.026655799 -0.1679784 -0.026869789 0.109669894
-0.03246459 -0.061382364 0.10015675 0.084464364 -0.021675497 0.1211484 0.022370987 0.08261122
-0.08010901 0.024018954 -0.10773285 0.024007302 -0.051113177 0.041551802 0.034682408 0.1360388
-0.015246687 -0.059520602 0.15933003 -0.018858312 0.12689707 0.03475447 -0.09878305 -0.12355969
0.014219517 -0.065538555 -0.018644009 -0.023352519 0.112258464 -0.07515716 0.1055292 -0.048571844
00000000: 33d2 5c3d 0c4a 543d b05e babc 1dac 34bc
00000010: 49ea 15be 1044 39be 7e25 f53d 594d 52be
00000020: b505 ccbd 9d29 e33d f937 29be 5214 4a3d
00000030: 51d9 513d ba28 8b3c abe9 0ebe a9a7 98bd
00000040: 5981 d93d 67f3 553d ab89 42bd 5920 15be
00000050: 9112 f4bd 148d 14be b613 093e bf34 95bd
00000060: 4b50 02be 2447 07be 48d2 f83d 196e c43c
00000070: ea00 bfbc dae5 04be 91ab 1abe 621f ba3d
00000080: dca6 4e3d 8daf 65bd 4622 b43d c035 a1bd
00000090: 09da 57be 2f0b e13d b082 f2bd a245 e9bd
000000a0: 40f4 ab3d 4102 f8bc d974 a0bd 70ea 623d
000000b0: 68a0 6ebd 42cc a0bd 8e75 6f3d c0d6 c43c
000000c0: c157 31bd 692f e7bd a00d 8d3b 7332 1fbd
000000d0: dfd0 0cbe 2390 5abd a6d2 b33d 000c 5a3c
000000e0: d9a5 14be d0ac babc 9224 323d db99 493e
000000f0: 0e51 0a3c a822 d8bd 5544 abbd 7439 bbbd
00000100: 1257 7c3d 62bc 853d e626 90bd 99a4 8ebd
00000110: 31a6 d2bd d995 8fbd ccb1 e33c f07d 39bc
00000120: 6630 cfbd f30f 703b a48b 0b3e 1a7e 343c
00000130: 63ff 923c 6b37 b63d a0b8 dcbd ad32 40bd
00000140: b758 10be af8c 413e 4fbe bd3d fee5 2abd
00000150: 3fb7 6cbe e56f a83d 0aa5 0dbe 7bf1 e3bd
00000160: 12a7 a23d e10b 9dbd 2b62 c33d b7b3 10bd
00000170: 5a7e d83d cac7 ab3d 2766 f3bd 715e a33c
00000180: 6e9a 5bbe 01d4 1bbd 422e c23c aa53 b43d
00000190: 7af8 29be f06e 00bd c9d2 113d 0c6f ba3d
000001a0: 3ada e4bd 2456 04bb 3492 6a3d aa2b 50bd
000001b0: 1252 003e ab14 0bbc 0934 83bb a6d0 61bb
000001c0: c9ad 2c3e 9a23 a73d 0806 c8bc 9882 043d
000001d0: 8acb d0bd 6436 87bc db71 e2bb fc2e b5bd
000001e0: 6429 f6bd b646 d4bd 55a2 d13d 77f1 2339
000001f0: 7509 37be cda9 63be 86de 13bc b77f 2abd
00000200: 403b 963c 5901 05be be2f 473e 7f85 0cbe
00000210: ecb5 143e 617d 463e f034 2abc 889d 343e
00000220: 8c1f 09bd c92a e3bd f57a 42bc 204d d2bd
00000230: 6183 543e 4a2a f13d 776d c6bd bacf 7ebc
00000240: a3bc 1b3d 4059 2b3e 439c 72bc f708 563d
00000250: 92c6 aebd 36ea 233e b931 1f3e 086f e03d
00000260: b33b 1b3e acc7 0a3e 7348 cbbd b091 ddbc
00000270: eb41 953a bd44 353d d193 9ebd f8ae 07be
00000280: d1bd e43d c27e ed3d f224 91bd 29bf 8bbd
00000290: 6f71 2a3e 9d93 6abc fa92 373e 103c 01be
000002a0: 121e d33d 7530 e63d 3359 183e 44cd e43d
000002b0: 7464 5e3d 06eb 07bd 2797 ddbd 43ae 9cbd
000002c0: 0b7b 973d de34 123e 9979 e93c d68d 0f3e
000002d0: ae50 cdbc 9d74 8abd f535 1fbc 6757 7ebd
000002e0: 2081 593e dedd 813d 8e30 0b3e beb6 a3bd
000002f0: c3af b33d 1b5a e93d 7fcd e43d eeb1 d3bc
00000300: 7a60 1dbd fd42 04be b1f5 19be 4a3d e1bc
00000310: f0b9 6abd 66c3 c0bd bf0a 19be dfc8 fabd
00000320: 0d76 54bd 47d5 be3d 2e04 15be 11da 213e
00000330: c031 043e a067 05bd 1187 9dbd e32e 6abd
00000340: 0504 bcbd 715d fdbd 4dda 693d e848 123e
00000350: 1a64 65bd 655e ad3d 292f b43d a8c7 2c3d
00000360: cc42 f23c f3f6 1b3e 1795 463d f46c a9bc
00000370: 435d da3c 8802 2cbe 081e dcbc 9c9a e03d
00000380: 97f9 04bd 136c 7bbd fb1e cd3d a7fb ac3d
00000390: d090 b1bc a71c f83d 5c43 b73c 1230 a93d
000003a0: 3110 a4bd 66c3 c43c 0aa3 dcbd f6aa c43c
000003b0: 0d5c 51bd 3932 2a3d 240f 0e3d c14d 0b3e
000003c0: 3ecd 79bc e0cb 73bd 6927 233e bf7c 9abc
000003d0: 4ef1 013e b45a 0e3d c54e cabd dd0c fdbd
000003e0: faf8 683c 1439 86bd 52bb 98bc c84d bfbc
000003f0: c4e7 e53d ffeb 99bd b11f d83d 45f3 46bd

feature_network.3.bias f4 [128]
0.00883454 -0.026190551 -0.0044441484 0.009044251 -0.01933645 -0.053886946 0.014658489 -0.04209317
-0.022092285 0.0053601987 -0.0065095946 -0.017746927 -0.0045571406 -0.024240796 0.011323876 0.014803906
0.000389884 -0.022501487 -0.04890987 -0.015297867 -0.0019231215 0.018323323 -0.01130251 -0.0034320513
-0.02068862 -0.019158807 -0.029507603 0.030641802 0.013111613 -0.008194508 0.045751262 -0.022914821
-0.020430055 0.00750008 -0.030179018 0.01343235 0.036752008 -0.024402317 -0.037486073 0.009888441
0.009211744 -0.01244597 -0.022898002 -0.0077355765 -0.033365488 -0.023203973 -0.022862224 0.030719386
-0.0042959135 -0.034246325 -0.020073697 0.0069119935 -0.03258291 -0.014138292 -0.025580805 0.011593432
0.02274772 0.009673403 -0.012342823 0.06547854 0.014016524 -0.026831774 -0.019823924 0.0035012672
-0.016551431 -0.011740159 -0.005220434 -0.0101839965 0.029683426 0.055584606 -0.06344897 0.022228537
-0.009709049 0.028314939 0.029379092 -0.026953958 0.020210972 -0.019768925 -0.045440752 -0.06139044
-0.051332675 0.010320873 0.029158898 0.04987072 -0.023594415 -0.0230802 0.007520265 -0.023045763
-0.018616986 0.01988586 -0.017168619 -0.01981996 -0.026380716 -0.03330433 0.009223501 0.01321823
0.021246517 0.024281342 -0.031225318 0.011252464 -0.02281532 -0.0013619298 -0.014582629 -0.0069064344
0.042302515 0.01947884 0.004906265 -0.026670886 0.008226609 -0.0056335246 0.050816894 0.007950289
-0.011443865 -0.021073932 -0.0045362245 -0.041765068 0.028487746 0.008379788 -0.042895466 0.0073678675
0.030667594 -0.04532382 -0.022020621 0.0010160682 0.0070292726 -0.02859928 0.021473361 -0.0061265114
00000000: bfbe 103c 918d d6bc 38a0 91bb 572e 143c
00000010: 7a67 9ebc 8fb8 5cbd 292a 703c e369 2cbd
00000020: e1fa b4bc 9ba4 af3b 704e d5bb 0162 91bc
00000030: 1154 95bb a294 c6bc c787 393c 158c 723c
00000040: 5869 cc39 0a55 b8bc b755 48bd e8a3 7abc
00000050: 4011 fcba cb1a 963c 2a2e 39bc 44ec 60bb
00000060: 2e7b a9bc eef2 9cbc eeb9 f1bc 8404 fb3c
00000070: 17d2 563c 4242 06bc ad65 3b3d ddb7 bbbc
00000080: ee5c a7bc 3bc3 f53b fd39 f7bc 5c13 5c3c
00000090: 4689 163d 5ee7 c7bc ff8a 19bd 2103 223c
000000a0: dbec 163c 2fea 4bbc 9794 bbbc b87a fdbb
000000b0: 40aa 08bd 4216 bebc 8f49 bbbc 39a7 fb3c
000000c0: bcc4 8cbb e045 0cbd 9871 a4bc 017e e23b
000000d0: a875 05bd 4ba4 67bc d68e d1bc 61f2 3d3c
000000e0: 6d59 ba3c 317d 1e3c 8d39 4abc 9d19 863d
000000f0: 90a5 653c 4fce dbbc c865 a2bc 8475 653b
00000100: de96 87bc cc59 40bc 2d10 abbb c7da 26bc
00000110: a82a f33c afac 633d 89f1 81bd 9f18 b63c
00000120: b412 1fbc bbf4 e73c 6cac f03c 8cce dcbc
00000130: 7b91 a53c 71f2 a1bc 1520 3abd 8b74 7bbd
00000140: 3642 52bd e118 293c a4de ee3c 3d45 4c3d
00000150: 1349 c1bc b012 bdbc 8e6c f63b 78ca bcbc
00000160: a682 98bc ace7 a23c 34a5 8cbc 785d a2bc
00000170: 5f1c d8bc 1f6a 08bd 2b1e 173c 4691 583c
00000180: 2d0d ae3c aae9 c63c 3dcc ffbc 415c 383c
00000190: 32e7 babc c882 b2ba fbeb 6ebc 5f4f e2bb
000001a0: 6745 2d3d 1792 9f3c bcc4 a03b e77c dabc
000001b0: e6c8 063c 6e99 b8bb 6025 503d ee41 023c
000001c0: 0c7f 3bbc 3da3 acbc 9ca4 94bb d911 2bbd
000001d0: 225f e93c 614b 093c 28b3 2fbd 276e f13b
000001e0: 9b3a fb3c 78a5 39bd 9764 b4bc 972d 853a
000001f0: d055 e63b 0a49 eabc e7e8 af3c e7c0 c8bb
