training_results/dqn_mr_x_1753787472.pth (torch, 410259 bytes, 28 tensors)

feature_network.0.weight f4 [64, 239]
0	0xbe8baed6	-0.27281827
1	0xbbba5f60	-0.005687639
2	0xbe8235d2	-0.25431687
3	0xbea44d2c	-0.32090127
4	0x3e155315	0.14582475
5	0x3debb83c	0.11509749
6	0x3ca02ab0	0.019551605
7	0x3ec0d4c3	0.37662324
8	0x3db14598	0.08655852
9	0xbdd23a60	-0.102650404
10	0xbce40dd0	-0.027838618
11	0x3db99ce6	0.09063129
12	0xbd972929	-0.073808976
13	0xbea0ae85	-0.31383148
14	0x3eff895c	0.49909484
15	0x3e840647	0.2578604
16	0x3e606fca	0.21917644
17	0x3e84c0cd	0.25928345
18	0x3e85c3ff	0.26126096
19	0x3d886186	0.06659226
20	0xbe67264c	-0.22573203
21	0x3dbbe8dc	0.09175274
22	0xbe0598c0	-0.13046551
23	0xbda08db9	-0.078395315
24	0x3ea5851f	0.32328126
25	0x3db0bf3c	0.08630225
26	0x3da48878	0.08033842
27	0x3ef877f0	0.48529005
28	0xbe971bb9	-0.29513338
29	0x3dbde888	0.092728674
30	0x3ee7bb1b	0.45259938
31	0xbde61fea	-0.11236556
32	0xbd443c5a	-0.04790912
33	0xbeac6dba	-0.33677465
34	0xbe8d8b18	-0.27645183
35	0xbc436227	-0.011925257
36	0xbd6647da	-0.056220867
37	0x3df46648	0.11933571
38	0x3f053d65	0.52046806
39	0xbdb1c56e	-0.08680235
40	0x3e944882	0.2896157
41	0xbebed89c	-0.37274635
42	0xbe222315	-0.15833695
43	0x3edebcbb	0.43503365
44	0x3d03bdc4	0.032163396
45	0xbdc4f520	-0.096170664
46	0xbe19ea9a	-0.150309
47	0xbe97845e	-0.29593176
48	0xbde69358	-0.11258572
49	0x3e0c3310	0.13691354
50	0x3e4aed46	0.19817075
51	0xbe8948cf	-0.2681336
52	0x3e8b44b5	0.27200857
53	0xbea6d962	-0.32587725
54	0x3e0bb1d6	0.13642058
55	0xbdc74258	-0.09729451
56	0x3eabc78d	0.33550683
57	0x3ed3f504	0.4139787
58	0xbde86fd5	-0.11349455
59	0x3e14775e	0.1449866
60	0xbe120cca	-0.14262691
61	0xbdbc994d	-0.09208927
62	0xbe0d0972	-0.13773134
63	0xbe81bc4c	-0.25338972
64	0x3eab3f50	0.3344674
65	0xbe0c57df	-0.13705395
66	0xbbbd69c0	-0.0057804286
67	0xbe0348f5	-0.128208
68	0xbe5af77f	-0.21383475
69	0x3ec68609	0.38774136
70	0xbab67a80	-0.0013922006
71	0x3e83c8d5	0.2573916
72	0x3ed5d9a2	0.41767603
73	0x3e6a42ee	0.22877094
74	0xbd202248	-0.039095193
75	0xbeb8d719	-0.36101606
76	0xbe0f2238	-0.13977897
77	0xbf03a6e4	-0.5142653
78	0xbd8e9e48	-0.069637835
79	0xbd17dba0	-0.037074685
80	0x3cb6a658	0.022296116
81	0xbdef4798	-0.11683577
82	0x3c8c2720	0.0171085
83	0x3ef9df5b	0.4880322
84	0xbdc06eef	-0.09396159
85	0x3e0c6aa2	0.13712552
86	0x3e0f5b3b	0.13999645
87	0x3eca5ef0	0.39525557
88	0x3f045aec	0.51701236
89	0x3dcb61e2	0.09930779
90	0x3e2909c4	0.16507632
91	0x3e66e615	0.22548707
92	0x3d5b7ecc	0.05358772
93	0xbe33021c	-0.17481273
94	0xbe4e4692	-0.20144108
95	0xbd6c91ee	-0.057756357
96	0xbd393e1a	-0.04522524
97	0x3eff8171	0.49903443
98	0xbceab060	-0.028648555
99	0xbdcb74b0	-0.09934366
100	0x3de288d8	0.11061257
101	0x3ed49a95	0.41524187
102	0x3ecac7ac	0.39605463
103	0x3e52d161	0.20587684
104	0x3ed73738	0.42034316
105	0x3e99cf38	0.30040908
106	0x3ebbc1d7	0.36671326
107	0x3e8c0154	0.27344763
108	0xbe1450c6	-0.14483938
109	0x3eb2a9fb	0.3489531
110	0xbecbad22	-0.39780527
111	0x3eb75da5	0.35813633
112	0x3ec25e2c	0.37962472
113	0x3ef1e2e2	0.4724341
114	0x3d1bb810	0.038017333
115	0x3ecf2e91	0.40465215
116	0x3e6462be	0.22303292
117	0x3ef5aa43	0.47981462
118	0x3e37807d	0.17920108
119	0xbe2b95bf	-0.16756342
120	0x3e682a5a	0.22672406
121	0x3d7f4980	0.062325954
122	0xbdea1ae4	-0.1143091
123	0xbe0e0d9c	-0.13872379
124	0x3ec39346	0.38198298
125	0x3e94986f	0.29022548
126	0x3d64f120	0.055894017
127	0x3ea5f990	0.32416964
128	0xbd915e4a	-0.07098062
129	0x3efda5bd	0.4954051
130	0x3ec1f02e	0.37878555
131	0x3f0ae26c	0.5425174
132	0x3dbfb428	0.09360534
133	0x3ea1eed7	0.31627533
134	0x3dece4e6	0.115670964
135	0x3e91c200	0.28468323
136	0xbe76bb47	-0.24094878
137	0x3ed10ecb	0.408316
138	0xbc89285c	-0.016742878
139	0x3eb942c6	0.36183757
140	0x3e71e81b	0.23623697
141	0xbe3c84b4	-0.18409997
142	0xbe1a9444	-0.15095621
143	0x3e9951b7	0.29945156
144	0xbd9bf6fd	-0.07615469
145	0x3c388410	0.011261955
146	0x3b925500	0.004465699
147	0xbe0178e1	-0.12643768
148	0x3cf3d4b8	0.029764518
149	0x3ded3944	0.11583188
150	0x3e9c83f3	0.3056942
151	0x3dfe8c0d	0.12429056
152	0xbe9f4c72	-0.3111301
153	0xbec758e6	-0.38935012
154	0x3ed98556	0.4248454
155	0x3e3f03df	0.1865382
156	0x3ee530be	0.4476375
157	0x3ed1bb40	0.40963173
158	0xbe387ec7	-0.18017112
159	0x3d977008	0.07394415
160	0x3e98b1fd	0.29823294
161	0x3ecf8ff5	0.40539518
162	0x3ec84098	0.3911178
163	0x3ede34f4	0.43399775
164	0x3eebc63c	0.46049678
165	0xbd5a6a0c	-0.05332379
166	0x3e4b843b	0.1987466
167	0xbdb29a8e	-0.08720885
168	0xbeb6664d	-0.35624924
169	0xbe9944ff	-0.29935452
170	0xbdad6695	-0.084668316
171	0x3c5db4c0	0.013531864
172	0x3f04fe31	0.51950365
173	0x3ecc7093	0.39929637
174	0x3e439e72	0.19103411
175	0x3ef3d737	0.47625133
176	0x3f1e107f	0.6174392
177	0xbea305f2	-0.31840473
178	0x3de7762c	0.11301836
179	0x3d776838	0.060402125
180	0x3cbccaf0	0.023045987
181	0xbe232be2	-0.15934709
182	0x3eb39b91	0.35079625
183	0xbd5bf88c	-0.05370383
184	0x3de6f380	0.11276913
185	0x3eb486a1	0.35258964
186	0x3e4c39fc	0.19943994
187	0xbd78c114	-0.06073101
188	0xbe811db5	-0.25217977
189	0x3e186bd5	0.14884885
190	0x3e7fc280	0.2497654
191	0xbed3a0fe	-0.41333765
192	0x3e9b433d	0.30324736
193	0x3f134aab	0.5753581
194	0x3f014a60	0.5050411
195	0xbdc79b80	-0.09746456
196	0x3ecdd865	0.40204158
197	0xbd5553b6	-0.052081786
198	0x3eaa1ede	0.33226675
199	0x3e99aa01	0.30012515
200	0x3d7456e9	0.059653196
201	0xbe84baa2	-0.2592364
202	0xbed64b82	-0.41854483
203	0xbea62678	-0.32451224
204	0xbe9c397c	-0.30512607
205	0xbe7f3d8f	-0.24925826
206	0xbe99005c	-0.29883087
207	0xbe8614e1	-0.26187804
208	0xbe83f828	-0.25775266
209	0xbf0420aa	-0.5161234
210	0xbe3b3667	-0.18282472
211	0xbe137bd4	-0.14402705
212	0xbed5e37a	-0.41775113
213	0xbe04a344	-0.12952906
214	0xbec25761	-0.3795729
215	0xbeb6d8ff	-0.3571243
216	0xbe9b1725	-0.30291095
217	0xbe26d6f5	-0.16292937
218	0xbe99f6d9	-0.30071142
219	0xbe8114d8	-0.25211215
220	0xbe526416	-0.20545992
221	0xbe1f336d	-0.15546961
222	0xbeb53539	-0.35392168
223	0xbf039ae7	-0.5140824
224	0xbeb26382	-0.34841543
225	0xbec51292	-0.3849073
226	0xbeb11166	-0.34583586
227	0x3d9e2278	0.07721418
228	0x3d534a1c	0.051584348
229	0xbe24d096	-0.16095194
230	0xbc075470	-0.008259878
231	0xbce64a30	-0.028111547
232	0xbf135024	-0.5754416
233	0x3d530bec	0.05152504
234	0x3d50437e	0.050845616
235	0xbe9a4bec	-0.3013605
236	0xbe837429	-0.2567456
237	0xbe8c1e3f	-0.27366826
238	0xbf1417a6	-0.57848585
239	0xbe870d97	-0.26377556
240	0xbd7c469a	-0.06159077
241	0xbec8403c	-0.39111507
242	0xbe4c8c38	-0.19975364
243	0x3e5952c5	0.2122298
244	0x3e0e3088	0.138857
245	0x3d5744a4	0.052555695
246	0x3e4ae3f2	0.19813517
247	0x3cf0a568	0.029375747
248	0xbd31d8ca	-0.043419637
249	0xbe0c8755	-0.137235
250	0xbdd1b490	-0.10239518
251	0xbd8654e6	-0.06559162
252	0x3d88713c	0.06662223
253	0x3f011701	0.50425726
254	0x3ecc085e	0.39850134
255	0x3e3f067c	0.18654817

feature_network.0.bias f4 [64]
0	0xbe94554b	-0.28971323
1	0xbe8fc481	-0.28079608
2	0xbe99bd4a	-0.3002723
3	0xbda03ecf	-0.0782448
4	0xbef5c223	-0.47999677
5	0xbe99baf7	-0.30025455
6	0xbe99bd7d	-0.3002738
7	0xbdbdb8e3	-0.0926378
8	0x3d46f590	0.04857403
9	0xbea796d4	-0.3273226
10	0xbe99bd97	-0.30027458
11	0xbe82de9c	-0.25560462
12	0xbed02af0	-0.4065776
13	0xbe78b71c	-0.242886
14	0xbe85ad5f	-0.26108834
15	0xbe99bd32	-0.30027157
16	0x3dd88e07	0.105739646
17	0xbed68d48	-0.41904664
18	0xbe99bd98	-0.3002746
19	0x00000000	0.0
20	0xbefeb312	-0.49745995
21	0xbe5ba2d9	-0.2144884
22	0xbe2c0151	-0.16797377
23	0xbe99bd90	-0.30027437
24	0x00000000	0.0
25	0xbe99b446	-0.3002035
26	0xbda951f4	-0.082675844
27	0x00000000	0.0
28	0xbe99bd70	-0.30027342
29	0xbe2bc9f2	-0.16776255
30	0x00000000	0.0
31	0x3cbb390e	0.022854354
32	0xbe99bc1d	-0.30026332
33	0xbe461fb3	-0.1934803
34	0x3da5fed2	0.08105244
35	0xbe99bc74	-0.3002659
36	0xbe99bd1c	-0.30027092
37	0xbe0663d1	-0.13124014
38	0xbe668926	-0.22513255
39	0xbe99bc56	-0.300265
40	0xbe5255f9	-0.20540608
41	0xbebe9a8d	-0.37227288
42	0xbefc52de	-0.49281973
43	0xbe35f071	-0.17767502
44	0xbe99bd7a	-0.30027372
45	0xbe99bd37	-0.30027172
46	0xbe99bb27	-0.30025598
47	0xbe99bd2d	-0.30027142
48	0xbe980563	-0.2969161
49	0xbea3a983	-0.31965265
50	0xbe54e8ba	-0.20791903
51	0xbe7df8f7	-0.24802004
52	0x3d7b9266	0.061418913
53	0xbe99ba0f	-0.30024764
54	0xbe99bd8e	-0.3002743
55	0xbe99bd7c	-0.30027378
56	0xbeaa7d41	-0.33298686
57	0xbe8d4cb7	-0.2759759
58	0x00000000	0.0
59	0xbe99bd9d	-0.30027476
60	0xbd20594d	-0.039147664
61	0xbdf70f11	-0.120634206
62	0xbe2c83d2	-0.1684716
63	0xbe99bab4	-0.30025256

feature_network.3.weight f4 [64, 64]
0	0xbecb632d	-0.39724103
1	0xbdb1c191	-0.08679498
2	0x3efc1365	0.49233547
3	0xbe765f77	-0.24059854
4	0x3e2c1a71	0.16806962
5	0xbe4b36ec	-0.1984517
6	0x3e02f719	0.12789573
7	0xbde4b318	-0.11166972
8	0xbee7745b	-0.4520596
9	0xbeae6012	-0.3405767
10	0xbda39ed6	-0.0798928
11	0xbea7e823	-0.32794294
12	0xbe51f85a	-0.20504895
13	0xbe88af32	-0.26696163
14	0xbeba0e16	-0.36338872
15	0x3e8b9ffa	0.2727049
16	0xbec08f19	-0.37609175
17	0x3c066d20	0.008204728
18	0x3ee8f810	0.45501757
19	0x3e172a41	0.14762212
20	0x3dca9ca2	0.098931566
21	0xbe63fcc3	-0.2226439
22	0xbf07aa26	-0.52994
23	0xbe4a2eb1	-0.19744374
24	0xbe28165e	-0.16414782
25	0xbe3f4d20	-0.18681765
26	0xbed4eaee	-0.41585487
27	0xbdfe4b02	-0.1241665
28	0x3e6cea5a	0.23136273
29	0xbe58c521	-0.21168949
30	0xbe2a2118	-0.16614187
31	0xbe683c78	-0.22679317
32	0x3ee9bf23	0.45653638
33	0xbe211b85	-0.15733154
34	0xbdbeb610	-0.093120694
35	0x3d611e7c	0.054960713
36	0x3e471989	0.19443335
37	0xbe4d9b41	-0.20078756
38	0xbdeff192	-0.11715998
39	0x3e039487	0.12849627
40	0xbea6ba60	-0.32564068
41	0xbee2bce7	-0.44284746
42	0x3e563ceb	0.20921676
43	0xbed3c13e	-0.4135837
44	0xbe3a27ae	-0.18179199
45	0x3e1b6529	0.15175308
46	0xbe33e376	-0.17567238
47	0x3f02fbdf	0.51165575
48	0xbea3a6cc	-0.31963193
49	0xbd322281	-0.043489937
50	0xbeb8866f	-0.36040065
51	0xbea898e0	-0.32929134
52	0xbec0bbf4	-0.37643397
53	0xbddbfd9e	-0.10741733
54	0x3eb6bb34	0.356897
55	0x3e2aadd1	0.16667868
56	0xbe63aa7e	-0.22233006
57	0xbe63c8e4	-0.22244602
58	0xbd934112	-0.071901456
59	0xbdc752e8	-0.0973261
60	0xbe9a47bf	-0.30132863
61	0xbe70b3df	-0.23506115
62	0xbeff4d67	-0.4986374
63	0xbd280920	-0.041024327
64	0xbedb60ec	-0.42847383
65	0xbdc81fc1	-0.097716816
66	0x3cb3d9e8	0.021954492
67	0xbed57459	-0.4169033
68	0xbe36d486	-0.17854509
69	0x3db65bee	0.08904253
70	0x3df7091a	0.12062283
71	0xbeffa54c	-0.499308
72	0xbe88ca6b	-0.26716933
73	0x3d4f7c9c	0.050655946
74	0x3ed8cbb1	0.42342904
75	0x3ec637c8	0.38714433
76	0x3e9da3cd	0.30789033
77	0xbc1270c1	-0.008938015
78	0xbe66713b	-0.22504131
79	0x3e9fbbc6	0.31197947
80	0xbeba28f9	-0.36359385
81	0x3e10256d	0.14076777
82	0x3e04b865	0.12960966
83	0x3d06ff40	0.03295827
84	0x3e521fbd	0.2051992
85	0xbde772dc	-0.113012046
86	0xbe9c835c	-0.3056897
87	0xbe3eed79	-0.18645276
88	0xbd832c42	-0.06404926
89	0xbe022271	-0.12708451
90	0xbc9dbccc	-0.019255064
91	0x3e414dcb	0.18877332
92	0x3dc15d6d	0.09441648
93	0xbeabd81c	-0.33563316
94	0x3cef3558	0.029200241
95	0xbe8d1244	-0.27552998
96	0x3d5dbb34	0.05413361
97	0xbe8ff574	-0.28116953
98	0xbe3412da	-0.17585316
99	0x3d961d06	0.073297545
100	0x3e57e1bd	0.21082206
101	0xbebb5168	-0.36585546
102	0xbe8c673a	-0.27422506
103	0xbe3a4a12	-0.18192318
104	0xbe92721b	-0.2860268
105	0xbeefb562	-0.46818072
106	0x3e07ca9f	0.13260888
107	0xbecf459c	-0.40482795
108	0x3ea516d4	0.3224398
109	0x3e09d34d	0.13459511
110	0xbbef3c40	-0.0073008835
111	0x3d8c57f2	0.06852712
112	0xbecf3f93	-0.4047819
113	0xbdeec420	-0.116585016
114	0xbddc49ad	-0.1075624
115	0xbd79addb	-0.060956817
116	0xbe9991cd	-0.2999405
117	0x3e07c4bd	0.13258643
118	0x3ef2c0aa	0.47412616
119	0x3e7f89c1	0.24954893
120	0xbc31f76b	-0.010862212
121	0xbea7b874	-0.32757914
122	0xbe54bda7	-0.20775472
123	0xbdef30e1	-0.11679245
124	0xbe694a1a	-0.22782174
125	0xbeea8ecb	-0.45812067
126	0xbe0bdbbe	-0.13658044
127	0xbdd4460d	-0.103649236
128	0x3c88ff22	0.01672322
129	0xbee61d38	-0.44944167
130	0xbe340f51	-0.17583968
131	0xbdb5adc6	-0.08871035
132	0xbe37bd0e	-0.17943212
133	0x3e9b6992	0.3035398
134	0x3eab2421	0.33426002
135	0xbe104b1e	-0.14091155
136	0xbee08e0d	-0.43858376
137	0x3eb9976f	0.36248347
138	0x3e8f4610	0.2798314
139	0x3e79c919	0.24393119
140	0x3e84eacf	0.25960395
141	0xbd7fbd3c	-0.062436327
142	0xbbc88193	-0.006118962
143	0x3ea73223	0.3265544
144	0xbf004aa1	-0.50113875
145	0xbdaa47b6	-0.08314459
146	0x3ea4e6f5	0.32207456
147	0xbe5b9696	-0.21444163
148	0x3de8e022	0.11370875
149	0xbd80ba2c	-0.062855095
150	0xbe288200	-0.16455841
151	0x3ea13030	0.31482077
152	0xbd90aeba	-0.070645764
153	0x3e347bb1	0.1762531
154	0xbeb25803	-0.34832773
155	0xbe10a6a0	-0.14126062
156	0x3e44840d	0.19190998
157	0xbe716de8	-0.23577082
158	0x3d84f85a	0.06492682
159	0xbe96362f	-0.29338214
160	0x3e70c567	0.23512803
161	0xbe2bd4e0	-0.16780424
162	0xbea23e69	-0.3168824
163	0x3cc1ce18	0.023657843
164	0xbee389a5	-0.44440952
165	0xbeedfe04	-0.4648286
166	0xbebdee5d	-0.3709592
167	0x3e8fe3a3	0.2810336
168	0xbeeecf17	-0.46642372
169	0x3e15ac94	0.14616615
170	0xbccfc090	-0.025360376
171	0xbe9f4b6e	-0.31112236
172	0x3e524106	0.20532617
173	0x3e8f5df4	0.28001368
174	0x3d4c484c	0.049873635
175	0x3e682497	0.22670208
176	0x3e07c55f	0.13258885
177	0x3cf5771c	0.029964022
178	0xbea4aa93	-0.32161388
179	0xbeaa3833	-0.33246002
180	0xbe9da9e9	-0.30793694
181	0x3c7b7b60	0.015349239
182	0x3e936f72	0.28795964
183	0x3ef4cc3d	0.4781207
184	0x3edc8fdd	0.4307851
185	0xbe74ad14	-0.23894149
186	0x3b23c080	0.0024986565
187	0x3efb40db	0.49072918
188	0xbeae0112	-0.33985192
189	0xbeb31f72	-0.34984928
190	0x3c94c07b	0.018158188
191	0xbc590f20	-0.013248235
192	0xbe351986	-0.17685518
193	0xbce45080	-0.027870417
194	0xbec787e1	-0.38970855
195	0xbe90eacc	-0.28304136
196	0xbe3462aa	-0.17615762
197	0x3d638e8c	0.055555865
198	0xbd8ecc76	-0.069725916
199	0xbe07bdf0	-0.13256049
200	0xbe8f2a5b	-0.27962002
201	0xbeda4160	-0.42628002
202	0xbe3d0c56	-0.18461737
203	0xbeb2a6b8	-0.3489282
204	0xbe5058f3	-0.20346431
205	0xbea56ec1	-0.3231106
206	0xbe920d62	-0.28525835
207	0xbe7247fc	-0.23660272
208	0xbe12ae10	-0.14324212
209	0xbc31ba60	-0.010847658
210	0xbe894774	-0.26812327
211	0xbe12ff92	-0.14355305
212	0xbc9a3980	-0.018826246
213	0xbece6728	-0.40313077
214	0xbe1cd709	-0.15316404
215	0xbc4c83d0	-0.012482598
216	0x3e498429	0.19679321
217	0x3e4f696f	0.20255063
218	0xbe991a5f	-0.29902932
219	0x3cacba10	0.021084815
220	0xbdad9fd1	-0.08477748
221	0xbef01a02	-0.46894842
222	0xbcccc258	-0.024995014
223	0xbe066564	-0.13124615
224	0xbe97ff15	-0.296868
225	0xbe30b732	-0.17257383
226	0xbefb0e31	-0.49034265
227	0x3d34be1c	0.044126615
228	0xbefeb648	-0.49748445
229	0x3deb7efa	0.11498828
230	0x3c96a1b0	0.018387645
231	0x3df411c6	0.119174525
232	0x3cbaba70	0.022793978
233	0xbd3a3860	-0.04546392
234	0x3e0ade27	0.13561307
235	0xbf00b3d6	-0.5027441
236	0xbe462a25	-0.19352014
237	0x3dbc5a7a	0.091969445
238	0xbe34ebb2	-0.17668036
239	0xbedf950d	-0.43668404
240	0xbdf31c25	-0.118706025
241	0xbe751026	-0.23931941
242	0x3dccf7ea	0.10008223
243	0xbe59980a	-0.21249405
244	0xbea8953b	-0.32926354
245	0xbe2fba63	-0.17160945
246	0xbe5e0946	-0.21683225
247	0xbe5cf0b7	-0.215762
248	0xbddcd1b7	-0.107821874
249	0xbd7a8a38	-0.061166972
250	0xbe3eb601	-0.18624116
251	0x3e3d0539	0.18459024
252	0xbe4e065f	-0.20119618
253	0xbe96369b	-0.29338536
254	0xbe1b3106	-0.1515542
255	0x3ca56440	0.020189404

feature_network.3.bias f4 [64]
0	0xbe8b779c	-0.27239692
1	0xbe0ba0e4	-0.13635594
2	0xbe73a663	-0.2379394
3	0xbe99b2c1	-0.3001919
4	0xbe308f79	-0.1724223
5	0xbeaa4796	-0.3325774
6	0xbea15eb1	-0.31517556
7	0xbed5254f	-0.41630027
8	0xbe99b536	-0.30021065
9	0xbe554ca7	-0.20830022
10	0xbe99bda4	-0.30027497
11	0xbe99b96e	-0.30024284
12	0xbef2acc8	-0.47397447
13	0xbecf601d	-0.40503016
14	0xbe8e4e1b	-0.27793965
15	0xbe267831	-0.16256787
16	0xbea3b8f2	-0.3197704
17	0xbec0f369	-0.37685707
18	0x3dfbaf9f	0.122893564
19	0xbec824c3	-0.39090547
20	0x3d838358	0.06421536
21	0xbe99b63c	-0.30021846
22	0x3e0fcb1d	0.14042325
23	0xbe777c2e	-0.24168465
24	0xbe99bd9f	-0.30027482
25	0xbbcb6b64	-0.0062078703
26	0xbe9c6fa7	-0.30553934
27	0xbe715635	-0.23568042
28	0xbd8c8568	-0.06861383
29	0xbdc055fc	-0.093914
30	0xbeaddeb8	-0.33958983
31	0xbe5fc48d	-0.21852322
32	0xbe1c47f7	-0.15261827
33	0xbe5eebb7	-0.21769606
34	0xbea51c78	-0.32248282
35	0xbe730a93	-0.23734502
36	0xbf0fc91b	-0.5616624
37	0xbe8efc6c	-0.27926958
38	0xbe33fc5f	-0.1757674
39	0xbeff3152	-0.49842316
40	0x3e407c78	0.18797481
41	0xbea7d724	-0.32781327
42	0xbdad8d0d	-0.08474169
43	0xbeca7a9b	-0.39546666
44	0x3de6d786	0.112715766
45	0xbe2642f4	-0.16236478
46	0xbee4bbe9	-0.44674614
47	0xbe30dccd	-0.17271729
48	0xbe859298	-0.26088405
49	0xbef2ca76	-0.4742009
50	0xbeee2a08	-0.46516442
51	0xbe99bd95	-0.30027452
52	0xbe9ab454	-0.30215704
53	0xbecb2f38	-0.39684463
54	0xbebae0d9	-0.3649967
55	0xbe99bd61	-0.30027297
56	0xbe0c3bd3	-0.13694696
57	0xbcccb047	-0.0249864
58	0x3ed5dadb	0.41768536
59	0xbe8e4e76	-0.27794236
60	0xbeb1793e	-0.34662813
61	0xbc49f5d8	-0.01232668
62	0xbe99bd82	-0.30027395
63	0xbe6facbd	-0.23405738

feature_network.6.weight f4 [64, 64]
0	0x3d841049	0.06448419
1	0xbe1d5ebf	-0.15368174
2	0x3e9eeea9	0.31041458
3	0xbe1dcf9a	-0.15411225
4	0x3e258544	0.16164118
5	0x3e586b99	0.21134795
6	0xbd9053bc	-0.07047221
7	0x3e7f9568	0.24959338
8	0x3d4d33c4	0.050098196
9	0xbd8e8ab3	-0.069600485
10	0x3e85b136	0.26111764
11	0x3ef5ea26	0.48030204
12	0xbdefc48a	-0.11707409
13	0x3e91d3d5	0.28481928
14	0x3e65577f	0.22396658
15	0x3e5eab41	0.21745016
16	0xbf03b4ac	-0.5144756
17	0xbe14630a	-0.14490905
18	0xbcff0bea	-0.03113361
19	0xbec33551	-0.38126615
20	0xbcde0716	-0.027102988
21	0xbd757764	-0.059928313
22	0xbe90aab2	-0.2825523
23	0x3e9576ce	0.29192203
24	0x3e5b035b	0.21387999
25	0x3ea312d9	0.31850317
26	0x3e1abe1b	0.15111582
27	0x3eac2c85	0.33627716
28	0x3e1fe6c8	0.1561538
29	0x3eafc6a3	0.34331235
30	0x3f04f1e4	0.51931596
31	0x3d398aff	0.045298573
32	0x3da4b34b	0.0804201
33	0x3da421b9	0.080142446
34	0xbd0c9f0c	-0.034331366
35	0x3ec237c2	0.37933165
36	0xbe2c552e	-0.16829368
37	0x3e6c05fb	0.23049156
38	0x3ebfb201	0.37440494
39	0xbf0ee091	-0.5581141
40	0xbd33c948	-0.04389313
41	0x3e940e22	0.28917032
42	0x3e951e4a	0.2912467
43	0x3e6c289c	0.23062366
44	0xbe71ea27	-0.23624478
45	0x3d5c5ce7	0.053799536
46	0x3e87b2f7	0.26503727
47	0xbb3f48ba	-0.0029187636
48	0x3f55e552	0.8355304
49	0x3c4a92bb	0.012364085
50	0xbdf81590	-0.12113488
51	0xbedd72d5	-0.43251672
52	0x3e9bf39a	0.3045929
53	0x3e29eff6	0.16595444
54	0x3eae34ee	0.34024757
55	0xbe30f374	-0.1728037
56	0x3d8c2acb	0.068440996
57	0xbe16dfec	-0.14733857
58	0xbcad79a1	-0.021176161
59	0x3e79e40a	0.24403396
60	0xbe11244f	-0.14174007
61	0x3e78ec16	0.2430881
62	0xbecf8a04	-0.40534985
63	0x3d5bc7f0	0.053657472
64	0xbee160e7	-0.44019243
65	0xbded2a44	-0.11580327
66	0xbdac18d7	-0.08403175
67	0xbdc1cf41	-0.09463359
68	0xbca5b4ee	-0.020227876
69	0xbe6f6f7d	-0.23382373
70	0xbecbeda6	-0.3982975
71	0xbe974dc8	-0.2955153
72	0xbe11e762	-0.14248422
73	0xbe6e38a6	-0.23263797
74	0xbe1abf38	-0.15112007
75	0x3e217a0f	0.15769218
76	0x3dc97582	0.09836866
77	0xbeb66ffe	-0.35632318
78	0xbcd42068	-0.025894359
79	0xbec51a2f	-0.3849654
80	0x3e8a7591	0.2704282
81	0x3deeeecb	0.1166664
82	0xbec0d7a6	-0.37664527
83	0x3d96f28e	0.073704824
84	0xbeb483b0	-0.3525672
85	0x3e17e959	0.14835109
86	0x3edcba47	0.43110868
87	0xbec2fbff	-0.38082883
88	0xbe97846b	-0.29593214
89	0xbe6fb20e	-0.23407766
90	0xbe4d3a9c	-0.20041889
91	0x3e08a94d	0.13345833
92	0xbed6cdb3	-0.4195381
93	0x3ef13db5	0.4711739
94	0xbccec5a8	-0.025240734
95	0xbdef754a	-0.11692293
96	0xbdcc3484	-0.09970954
97	0x3ec1d1ea	0.37855464
98	0xbe98d24c	-0.29847944
99	0xbedde45e	-0.43338293
100	0xbdf3981d	-0.11894248
101	0x3e7d35b5	0.24727519
102	0x3d082dc1	0.03324676
103	0xbec2b815	-0.38031068
104	0xbe1d9bf0	-0.15391517
105	0xbe635ae8	-0.22202647
106	0x3cd4a0b0	0.025955528
107	0xbeae402e	-0.3403334
108	0xbeff6bb9	-0.49886873
109	0xbefd2573	-0.49442634
110	0x3e3a5b3b	0.18198864
111	0xbe87bea3	-0.26512632
112	0x3eeaa980	0.45832443
113	0x3d0f1af4	0.034937814
114	0x3ef69635	0.48161474
115	0xbf0339a4	-0.5125983
116	0xbe99c5dd	-0.3003377
117	0xbeba5bd5	-0.36398187
118	0xbf00c8f5	-0.50306636
119	0xbe69f2ed	-0.22846575
120	0x3e498cd8	0.19682634
121	0xbe8d76b1	-0.27629617
122	0xbf4386c5	-0.76377517
123	0xbc7f5870	-0.01558505
124	0xbd854af2	-0.06508435
125	0xbf33acc5	-0.701855
126	0xbe9edc11	-0.31027272
127	0x3d375d24	0.04476656
128	0xbc890f68	-0.01673098
129	0x3d8da226	0.06915693
130	0xbeb79ecc	-0.3586334
131	0x3e00099d	0.12503667
132	0xbedb36fc	-0.42815387
133	0x3edcd8ae	0.43134063
134	0xbe0b0616	-0.1357654
135	0xbe93beca	-0.28856498
136	0xbe40e1e8	-0.18836176
137	0xbe05d441	-0.1306925
138	0xbef8eed6	-0.48619717
139	0x3e8e4f7c	0.27795017
140	0xbedf43db	-0.43606457
141	0x3e3bb321	0.18330051
142	0xbe3aec08	-0.18254101
143	0xbe883cd9	-0.26608923
144	0x3f01c8c9	0.50697
145	0x3ec2f4b6	0.38077325
146	0xbeceeb2b	-0.40413794
147	0x3eedd012	0.46447808
148	0x3e3764be	0.17909524
149	0xbe8bd2dd	-0.27309313
150	0xbe84796c	-0.25873888
151	0xbed5c807	-0.4175417
152	0xbe961e25	-0.29319873
153	0xbef3445e	-0.47513098
154	0x3ec7bfa7	0.39013407
155	0xbef8b275	-0.48573652
156	0xbe2f1ab2	-0.17100027
157	0x3ec8e4db	0.39237103
158	0xbe0d454c	-0.13795966
159	0xbee22e9c	-0.44176185
160	0xbee1eaea	-0.44124538
161	0xbe8ae4d1	-0.27127698
162	0xbeb393a3	-0.35073575
163	0xbee1422f	-0.43995807
164	0xbe4f59d4	-0.2024911
165	0xbe81afd7	-0.25329468
166	0xbe598abb	-0.21244328
167	0xbe8f38e7	-0.279731
168	0xbefa86ce	-0.48930973
169	0xbe4e5e90	-0.2015326
170	0xbdd6fcf8	-0.10497469
171	0xbdbbfae9	-0.09178717
172	0xbc85d8b8	-0.016338691
173	0xbeaa8242	-0.33302504
174	0xbe58176c	-0.21102685
175	0xbeb0d324	-0.34536088
176	0xbed94245	-0.42433372
177	0xbc417080	-0.011806607
178	0x3e36331e	0.17792937
179	0xbea1ee84	-0.31627285
180	0xbe84dd0f	-0.25949904
181	0xbe0280f0	-0.12744498
182	0xbe4f058e	-0.20216963
183	0xbe5ed2c7	-0.21760093
184	0x3ef6f67d	0.4823493
185	0xbea95367	-0.33071443
186	0xbe954343	-0.2915288
187	0xbe165516	-0.14680895
188	0x3dca371a	0.09873791
189	0xbe5ea1e4	-0.21741444
190	0xbea44c43	-0.32089433
191	0x3df030a6	0.11728029
192	0x3b5fd040	0.0034151226
193	0xbeef2f2c	-0.46715677
194	0x3e9aabe8	0.3020928
195	0x3d86705a	0.06564398
196	0xbdbb43db	-0.09143802
197	0x3e364e7b	0.17803375
198	0x3e4295c0	0.19002438
199	0x3e90d02f	0.2828383
200	0x3e2b70c5	0.16742237
201	0x3e4069a1	0.18790294
202	0x3e4fa281	0.20276834
203	0x396b0400	0.00022412837
204	0xbe32bea3	-0.17455535
205	0x3df7bb32	0.120962515
206	0xbdd8ce94	-0.10586277
207	0xbe9016dd	-0.28142443
208	0xbee0f3b7	-0.4393594
209	0x3d02ac16	0.031902395
210	0xbeb94977	-0.36188862
211	0xbe94296c	-0.28937852
212	0xbe0c39fc	-0.13693994
213	0x3eecedfb	0.46275315
214	0xbec991eb	-0.3936914
215	0x3e23b4e3	0.15986972
216	0x3e3800eb	0.179691
217	0x3dc2903a	0.09500165
218	0x3d05a8c0	0.032631636
219	0xbec940a2	-0.39307123
220	0xbee1facc	-0.44136655
221	0x3ed93ecd	0.42430726
222	0xbeae7796	-0.34075612
223	0xbe15d856	-0.14633307
224	0xbe584578	-0.2112025
225	0xbedc474f	-0.43023154
226	0xbdda3944	-0.10655454
227	0x3e17c654	0.1482175
228	0xbecfc2d7	-0.40578339
229	0xbf132d34	-0.5749085
230	0x3e854f9e	0.26037306
231	0x3ccd9362	0.025094692
232	0xbf1a76de	-0.60337627
233	0x3e1d72d3	0.15375833
234	0x3d8fe9b2	0.07026996
235	0x3eb23b4e	0.3481087
236	0xbe53ece8	-0.20695841
237	0xbf16daa0	-0.58927345
238	0xbdb4b959	-0.08824415
239	0xbe80d326	-0.25161093
240	0xbdf53729	-0.119734116
241	0xbccd33c0	-0.02504909
242	0x3e2a15ff	0.16609953
243	0x3e9fba6a	0.3119691
244	0xbee84151	-0.45362332
245	0x3edbe3cf	0.42947242
246	0xbecf4fbf	-0.4049053
247	0xbe592c94	-0.21208411
248	0xbeb66964	-0.35627282
249	0xbeb961dd	-0.36207476
250	0xbf179cdd	-0.5922373
251	0xbd867ab0	-0.065663695
252	0xbe312999	-0.17301024
253	0xbed9dfe5	-0.4255363
254	0xbce778c0	-0.02825582
255	0xbe144c38	-0.144822

feature_network.6.bias f4 [64]
0	0xbda8f521	-0.0824988
1	0xbef93b0f	-0.4867787
2	0xbe99bd96	-0.30027455
3	0xbe747562	-0.23872903
4	0xbe849cc3	-0.2590085
5	0x3c3d54d6	0.011555871
6	0xbedfca10	-0.4370885
7	0xbecf36aa	-0.40471393
8	0xbed447ac	-0.4146093
9	0xbe96c10c	-0.29444158
10	0xbe4ce8e1	-0.20010711
11	0xbee08c3f	-0.43857
12	0xbeac0723	-0.33599195
13	0xbf302756	-0.6881002
14	0xbeef34af	-0.46719882
15	0xbe7ffc04	-0.2499848
16	0xbea00240	-0.31251717
17	0x3df7f1ac	0.12106642
18	0xbe389f8f	-0.18029617
19	0xbe0a6c11	-0.13517787
20	0xbe99c434	-0.30032504
21	0xbe973cc8	-0.2953856
22	0xbe9a069c	-0.30083168
23	0xbf1358ab	-0.5755717
24	0xbcea0f16	-0.028571647
25	0x3eaccd88	0.33750558
26	0xbec05c5c	-0.37570465
27	0xbe52ad15	-0.20573838
28	0xbe419dbc	-0.18907827
29	0xbe99bd9b	-0.3002747
30	0xbe625aca	-0.22104946
31	0xbe99bd75	-0.30027357
32	0xbe8551f7	-0.26039097
33	0xbdfc8b0b	-0.12331208
34	0xbeb92a79	-0.36165217
35	0xbdf7796f	-0.120837085
36	0xbe7bf1ec	-0.24604005
37	0xbe38a194	-0.18030387
38	0xbdd6e759	-0.10493345
39	0xbeac7d91	-0.3368955
40	0xbe19eea7	-0.15032445
41	0xbe3ff31c	-0.18745083
42	0xbeb88702	-0.36040503
43	0xbeb4b5bb	-0.352949
44	0xbec2a681	-0.38017657
45	0xbe9fdb2a	-0.31221896
46	0xbebb9b11	-0.36641744
47	0xbec184d5	-0.37796655
48	0xbed907ef	-0.42388865
49	0xbe8283f0	-0.25491285
50	0xbe5601cf	-0.20899127
51	0x3b62a7c8	0.0034584869
52	0xbed81ce3	-0.4220954
53	0xbe69236f	-0.22767423
54	0xbecc5e60	-0.39915752
55	0xbccbea21	-0.024891915
56	0xbe99bd93	-0.30027446
57	0xbee7e26a	-0.45289928
58	0x3e18a44b	0.14906423
59	0xbe544217	-0.20728336
60	0x3e2e1792	0.17001179
61	0xbec5e8fe	-0.3865432
62	0xbe97c2d5	-0.29640833
63	0xbde52e8f	-0.11190521

q_network.weight f4 [1, 64]
0	0x3ce34623	0.027743405
1	0xbe030fea	-0.1279904
2	0x3e44c3ff	0.19215392
3	0xbe5daa5a	-0.21647015
4	0x3d551e18	0.052030653
5	0xbddf72a7	-0.1091054
6	0xbe759a59	-0.2398466
7	0x3de76892	0.11299242
8	0x3de7b79c	0.113143176
9	0xbd220368	-0.03955403
10	0xbd997e7f	-0.0749483
11	0x3d0eb2a1	0.034838323
12	0x3e3b4a50	0.18290067
13	0xbe386395	-0.18006738
14	0x3e7e286f	0.24820112
15	0xbd6bfedf	-0.05761611
16	0x3ce79fd8	0.028274462
17	0xbd510d18	-0.051037878
18	0xbe1fd527	-0.15608655
19	0x3df84c79	0.12123961
20	0xbe3d6e55	-0.1849912
21	0x3c3feb7b	0.011713858
22	0x3d4046ae	0.046942405
23	0x3e111393	0.14167623
24	0xbdc603eb	-0.09668716
25	0xbe3c2e1b	-0.18376963
26	0xbe1134b9	-0.14180268
27	0xbd1869cc	-0.03721027
28	0xbe170cc3	-0.14750962
29	0x3c9b60f6	0.018967133
30	0xbd3dfdc5	-0.04638459
31	0x3dbdccda	0.09267588
32	0x3e15e182	0.14636806
33	0x3d090ca2	0.033459313
34	0x3d8e76cd	0.06956253
35	0xbd3b402f	-0.045715507
36	0x3ceab6d9	0.028651642
37	0x3d2c3c69	0.0420498
38	0x3d75c0aa	0.059998192
39	0x3d0c3520	0.03423035
40	0x3d21e3fa	0.039524056
41	0x3d747ecf	0.059691247
42	0x3e8ac3f3	0.27102622
43	0x3e0bfe62	0.13671258
44	0xbe0301bf	-0.12793635
45	0x3d457f8c	0.04821734
46	0xbe18d62f	-0.14925455
47	0x3dee398c	0.1163207
48	0x3e001ae2	0.12510255
49	0xbb531e49	-0.0032214096
50	0xbe4610e3	-0.1934238
51	0x3b6c7fcb	0.0036086913
52	0xbe6d131e	-0.23151824
53	0x3e4a3aef	0.19749044
54	0x3e197e9d	0.14989705
55	0x3e1b9942	0.15195182
56	0x3e422dbe	0.18962762
57	0x3e413029	0.18866028
58	0xbd584136	-0.052796565
59	0xbdb3ee88	-0.087857306
60	0x3d8b6c40	0.068077564
61	0x3e80cdf7	0.2515714
62	0xbd784381	-0.06061125
63	0xbe34fbd9	-0.17674197

feature_network.0.weight f4 [64, 239]
0	0xbe8baa25	-0.27278247
1	0xbbba5f60	-0.005687639
2	0xbe8231bf	-0.25428578
3	0xbea449c0	-0.32087517
4	0x3e154c38	0.14579856
5	0x3debb83c	0.11509749
6	0x3ca02ab0	0.019551605
7	0x3ec0d157	0.37659714
8	0x3db14598	0.08655852
9	0xbdd23a60	-0.102650404
10	0xbce40dd0	-0.027838618
11	0x3db99ce6	0.09063129
12	0xbd972929	-0.073808976
13	0xbea0abae	-0.3138098
14	0x3eff83d6	0.4990527
15	0x3e840143	0.25782213
16	0x3e60697e	0.21915242
17	0x3e84bd00	0.25925446
18	0x3e85c0e7	0.26123735
19	0x3d886186	0.06659226
20	0xbe671f6f	-0.22570585
21	0x3dbbe6a9	0.09174854
22	0xbe0598c0	-0.13046551
23	0xbda08db9	-0.078395315
24	0x3ea58110	0.3232503
25	0x3db0b1f3	0.08627691
26	0x3da48878	0.08033842
27	0x3ef8730a	0.48525268
28	0xbe97184d	-0.29510728
29	0x3dbde888	0.092728674
30	0x3ee7b527	0.45255396
31	0xbde61fea	-0.11236556
32	0xbd443c5a	-0.04790912
33	0xbeac68d0	-0.33673716
34	0xbe8d874b	-0.27642283
35	0xbc435899	-0.011922979
36	0xbd6647da	-0.056220867
37	0x3df46648	0.11933571
38	0x3f053aee	0.52043045
39	0xbdb1bbef	-0.086784236
40	0x3e944516	0.28958958
41	0xbebed4cf	-0.37271735
42	0xbe221b99	-0.1583084
43	0x3edeb7d3	0.43499622
44	0x3d03bdc4	0.032163396
45	0xbdc4f520	-0.096170664
46	0xbe19e2f8	-0.15027988
47	0xbe97829f	-0.29591843
48	0xbde69358	-0.11258572
49	0x3e0c3310	0.13691354
50	0x3e4ae5a8	0.1981417
51	0xbe894503	-0.26810464
52	0x3e8b4049	0.27197483
53	0xbea6d595	-0.32584825
54	0x3e0bb1d6	0.13642058
55	0xbdc74258	-0.09729451
56	0x3eabc2bf	0.33547017
57	0x3ed3f198	0.4139526
58	0xbde86fd5	-0.11349455
59	0x3e1472d3	0.14496927
60	0xbe1207d3	-0.14260797
61	0xbdbc994d	-0.09208927
62	0xbe0d0972	-0.13773134
63	0xbe81b8e0	-0.2533636
64	0x3eab3a71	0.33443025
65	0xbe0c57df	-0.13705395
66	0xbbbd69c0	-0.0057804286
67	0xbe0348f5	-0.128208
68	0xbe5af20b	-0.21381395
69	0x3ec6829d	0.38771525
70	0xbab67a80	-0.0013922006
71	0x3e83c462	0.25735766
72	0x3ed5d636	0.41764992
73	0x3e6a3b4c	0.22874182
74	0xbd202248	-0.039095193
75	0xbeb8d27f	-0.36098096
76	0xbe0f2238	-0.13977897
77	0xbf03a45d	-0.51422673
78	0xbd8e9bb8	-0.06963295
79	0xbd17dba0	-0.037074685
80	0x3cb6a658	0.022296116
81	0xbdef4798	-0.11683577
82	0x3c8c2720	0.0171085
83	0x3ef9da3b	0.4879931
84	0xbdc06eef	-0.09396159
85	0x3e0c64ed	0.13710375
86	0x3e0f55b2	0.13997534
87	0x3eca5a27	0.39521906
88	0x3f0458d8	0.51698065
89	0x3dcb61e2	0.09930779
90	0x3e2904c3	0.16505723
91	0x3e66de77	0.22545801
92	0x3d5b6f96	0.053573214
93	0xbe32fb3f	-0.17478655
94	0xbe4e3ef0	-0.20141196
95	0xbd6c8b10	-0.057749808
96	0xbd393e1a	-0.04522524
97	0x3eff7c55	0.49899545
98	0xbceab060	-0.028648555
99	0xbdcb74b0	-0.09934366
100	0x3de288d8	0.11061257
101	0x3ed49657	0.4152095
102	0x3ecac3c1	0.39602473
103	0x3e52c93c	0.20584577
104	0x3ed7325c	0.4203061
105	0x3e99cbcc	0.30038297
106	0x3ebbbc5f	0.36667153
107	0x3e8bfde8	0.27342153
108	0xbe1452ae	-0.14484665
109	0x3eb2a578	0.34891868
110	0xbecbaa0a	-0.39778167
111	0x3eb75a39	0.35811022
112	0x3ec25a25	0.379594
113	0x3ef1de91	0.47240117
114	0x3d1bb810	0.038017333
115	0x3ecf28f1	0.40460923
116	0x3e645c0e	0.22300741
117	0x3ef5a67f	0.4797859
118	0x3e377a54	0.17917758
119	0xbe2b8fec	-0.1675412
120	0x3e6822b9	0.22669496
121	0x3d7f4980	0.062325954
122	0xbdea1ae4	-0.1143091
123	0xbe0e0d9c	-0.13872379
124	0x3ec38fda	0.38195688
125	0x3e9495bc	0.29020488
126	0x3d64f120	0.055894017
127	0x3ea5f4a8	0.3241322
128	0xbd91636b	-0.070990406
129	0x3efda0cf	0.4953675
130	0x3ec1eb95	0.37875047
131	0x3f0adf8c	0.54247355
132	0x3dbfb428	0.09360534
133	0x3ea1ebbf	0.31625172
134	0x3decd768	0.11564523
135	0x3e91be1e	0.2846536
136	0xbe76b3ad	-0.24091978
137	0x3ed10ae7	0.4082863
138	0xbc89285c	-0.016742878
139	0x3eb93d84	0.36179745
140	0x3e71e07b	0.23620789
141	0xbe3c80eb	-0.18408553
142	0xbe1a9526	-0.15095958
143	0x3e994cd8	0.2994144
144	0xbd9bf6fd	-0.07615469
145	0x3c388410	0.011261955
146	0x3b925500	0.004465699
147	0xbe0178e1	-0.12643768
148	0x3cf3d4b8	0.029764518
149	0x3ded3944	0.11583188
150	0x3e9c800f	0.3056645
151	0x3dfe8465	0.12427596
152	0xbe9f4a17	-0.31111214
153	0xbec7551c	-0.3893212
154	0x3ed98027	0.42480585
155	0x3e3efb68	0.18650591
156	0x3ee52bff	0.4476013
157	0x3ed1b69a	0.40959626
158	0xbe3878cc	-0.1801483
159	0x3d977008	0.07394415
160	0x3e98ada7	0.29819986
161	0x3ecf8c89	0.40536907
162	0x3ec83b78	0.3910787
163	0x3ede2fb5	0.43395773
164	0x3eebc14e	0.46045917
165	0xbd5a6a0c	-0.05332379
166	0x3e4b8185	0.19873627
167	0xbdb29a8e	-0.08720885
168	0xbeb66277	-0.35621998
169	0xbe994193	-0.29932842
170	0xbdad6695	-0.084668316
171	0x3c5db4c0	0.013531864
172	0x3f04fbaa	0.5194651
173	0x3ecc6d27	0.39927027
174	0x3e439795	0.19100793
175	0x3ef3d36e	0.47622246
176	0x3f1e0dc1	0.61739737
177	0xbea30286	-0.31837863
178	0x3de7762c	0.11301836
179	0x3d776838	0.060402125
180	0x3cbccaf0	0.023045987
181	0xbe232a16	-0.15934023
182	0x3eb396dd	0.35076037
183	0xbd5bf88c	-0.05370383
184	0x3de6f380	0.11276913
185	0x3eb48372	0.35256535
186	0x3e4c33c4	0.19941622
187	0xbd78c114	-0.06073101
188	0xbe811c85	-0.2521707
189	0x3e18651d	0.14882322
190	0x3e7fbcb5	0.2497433
191	0xbed39dcc	-0.41331327
192	0x3e9b3e84	0.30321133
193	0x3f1347c9	0.5753141
194	0x3f0147c1	0.5050011
195	0xbdc79b80	-0.09746456
196	0x3ecdd435	0.40200964
197	0xbd5553b6	-0.052081786
198	0x3eaa19f3	0.33222923
199	0x3e99a635	0.30009618
200	0x3d743de1	0.059629325
201	0xbe84b63d	-0.25920287
202	0xbed6469c	-0.41850746
203	0xbea62254	-0.32448065
204	0xbe9c3520	-0.3050928
205	0xbe7f36c5	-0.24923237
206	0xbe98fc09	-0.29879788
207	0xbe86100c	-0.26184118
208	0xbe83f34a	-0.25771552
209	0xbf041df9	-0.51608235
210	0xbe3b2fa7	-0.18279897
211	0xbe1373e9	-0.14399685
212	0xbed5de9e	-0.41771406
213	0xbe049b86	-0.12949952
214	0xbec2529c	-0.3795365
215	0xbeb6d535	-0.3570954
216	0xbe9b1280	-0.30287552
217	0xbe26cea1	-0.1628976
218	0xbe99f23d	-0.30067626
219	0xbe81108b	-0.25207934
220	0xbe525bc8	-0.20542824
221	0xbe1f2b1c	-0.15543789
222	0xbeb530d1	-0.35388806
223	0xbf03984d	-0.5140427
224	0xbeb25f9a	-0.34838563
225	0xbec50e51	-0.38487485
226	0xbeb10c5a	-0.34579736
227	0x3d9e2278	0.07721418
228	0x3d534a1c	0.051584348
229	0xbe24c7b1	-0.16091801
230	0xbc075470	-0.008259878
231	0xbce64a30	-0.028111547
232	0xbf134d7d	-0.5754011
233	0x3d530bec	0.05152504
234	0x3d504dc8	0.050855428
235	0xbe9a4778	-0.3013265
236	0xbe836f5e	-0.25670904
237	0xbe8c1a81	-0.2736397
238	0xbf1414ed	-0.5784443
239	0xbe870a09	-0.26374844
240	0xbd7c469a	-0.06159077
241	0xbec83cd0	-0.39108896
242	0xbe4c855c	-0.19972748
243	0x3e594bee	0.21220371
244	0x3e0e3088	0.138857
245	0x3d5744a4	0.052555695
246	0x3e4add15	0.19810899
247	0x3cf0a568	0.029375747
248	0xbd31d8ca	-0.043419637
249	0xbe0c8755	-0.137235
250	0xbdd1b490	-0.10239518
251	0xbd8654e6	-0.06559162
252	0x3d88713c	0.06662223
253	0x3f01147a	0.5042187
254	0x3ecc04f2	0.39847523
255	0x3e3effa0	0.186522

feature_network.0.bias f4 [64]
0	0xbe9450d7	-0.28967926
1	0xbe8fc051	-0.28076413
2	0xbe99ba32	-0.30024868
3	0xbd92887c	-0.071549386
4	0x00000000	0.0
5	0xbe99b7df	-0.30023095
6	0xbe99ba65	-0.3002502
7	0xbdbdb2d7	-0.092626266
8	0x3d8b15a3	0.06791236
9	0xbea79368	-0.3272965
10	0xbe99ba7f	-0.30025098
11	0xbe82dc14	-0.2555853
12	0xbed02688	-0.40654397
13	0xbe78afc2	-0.24285796
14	0xbe85a974	-0.26105845
15	0xbe99ba1a	-0.30024797
16	0x3dac0a09	0.084003516
17	0x00000000	0.0
18	0xbe99ba80	-0.300251
19	0x00000000	0.0
20	0x00000000	0.0
21	0xbe5b98ad	-0.2144496
22	0xbe2bf8ef	-0.1679418
23	0xbe99ba78	-0.30025077
24	0x00000000	0.0
25	0xbe99b12f	-0.30017993
26	0xbda941c4	-0.08264497
27	0x00000000	0.0
28	0xbe99ba58	-0.30024981
29	0xbe2bc500	-0.16774368
30	0x00000000	0.0
31	0xbbc0883c	-0.0058756154
32	0xbe99b905	-0.3002397
33	0xbe46193c	-0.19345564
34	0x3d8d8110	0.06909382
35	0xbe99b95c	-0.3002423
36	0xbe99ba04	-0.3002473
37	0xbe065f72	-0.13122347
38	0xbe6680d2	-0.22510079
39	0xbe99b93e	-0.3002414
40	0xbe524fad	-0.20538206
41	0xbebe9697	-0.37224266
42	0x00000000	0.0
43	0xbe35eafb	-0.17765419
44	0xbe99ba62	-0.3002501
45	0xbe99ba1f	-0.30024812
46	0xbe99b80f	-0.30023238
47	0xbe99ba15	-0.30024782
48	0xbe9800c1	-0.29688075
49	0xbea3a4c3	-0.3196164
50	0xbe54e1c0	-0.20789242
51	0xbe7defff	-0.24798582
52	0x3d5a48b4	0.05329199
53	0xbe99b6f7	-0.30022404
54	0xbe99ba76	-0.3002507
55	0xbe99ba64	-0.30025017
56	0xbeaa7959	-0.33295706
57	0xbe8d4873	-0.27594337
58	0x00000000	0.0
59	0xbe99ba85	-0.30025116
60	0xba9f4ea0	-0.0012154169
61	0xbdf706e7	-0.120618634
62	0xbe2c7fe4	-0.16845661
63	0xbe99b79c	-0.30022895

feature_network.3.weight f4 [64, 64]
0	0xbecb5fb4	-0.39721453
1	0xbdb1b396	-0.086768314
2	0x3efc10c8	0.49231553
3	0xbe7655d0	-0.24056172
4	0x3e2c1a71	0.16806962
5	0xbe4b36ec	-0.1984517
6	0x3e02f719	0.12789573
7	0xbde4a024	-0.11163357
8	0xbee77085	-0.45203033
9	0xbeae5cac	-0.34055078
10	0xbda39ed6	-0.0798928
11	0xbea7e4d8	-0.3279178
12	0xbe51f17d	-0.20502277
13	0xbe88abc6	-0.26693553
14	0xbeba0a93	-0.36336192
15	0x3e8b9d03	0.27268228
16	0xbec08b7f	-0.37606427
17	0x3c066d20	0.008204728
18	0x3ee8f50d	0.4549946
19	0x3e172a41	0.14762212
20	0x3dca9ca2	0.098931566
21	0xbe63f3bc	-0.22260946
22	0xbf07a7d6	-0.5299047
23	0xbe4a2eb1	-0.19744374
24	0xbe28165e	-0.16414782
25	0xbe3f4d20	-0.18681765
26	0xbed4e6d3	-0.41582355
27	0xbdfe4b02	-0.1241665
28	0x3e6ce441	0.23133947
29	0xbe58bd26	-0.21165904
30	0xbe2a2118	-0.16614187
31	0xbe683423	-0.22676139
32	0x3ee9bc29	0.45651367
33	0xbe21142a	-0.15730348
34	0xbdbea580	-0.0930891
35	0x3d611e7c	0.054960713
36	0x3e471370	0.19441009
37	0xbe4d940b	-0.20076005
38	0xbdeff192	-0.11715998
39	0x3e039487	0.12849627
40	0xbea6b6f4	-0.32561457
41	0xbee2b97b	-0.44282135
42	0x3e563ceb	0.20921676
43	0xbed3bdc5	-0.4135572
44	0xbe3a27ae	-0.18179199
45	0x3e1b6529	0.15175308
46	0xbe33e376	-0.17567238
47	0x3f02fa5c	0.5116327
48	0xbea3a303	-0.31960306
49	0xbd320640	-0.04346299
50	0xbeb8823a	-0.36036855
51	0xbea894e1	-0.32926086
52	0xbec0b6f7	-0.3763959
53	0xbddbfd9e	-0.10741733
54	0x3eb6b824	0.35687363
55	0x3e2aa7ad	0.16665526
56	0xbe63a2e2	-0.22230104
57	0xbe63c176	-0.22241768
58	0xbd934112	-0.071901456
59	0xbdc752e8	-0.0973261
60	0xbe9a43aa	-0.3012975
61	0xbe70ac25	-0.23503168
62	0xbeff48f3	-0.49860343
63	0xbd280920	-0.041024327
64	0xbedb5d1f	-0.42844483
65	0xbdc81082	-0.097687736
66	0x3cb3d9e8	0.021954492
67	0xbed57154	-0.41688025
68	0xbe36d486	-0.17854509
69	0x3db65bee	0.08904253
70	0x3df6fce7	0.12059956
71	0xbeffa136	-0.49927682
72	0xbe88c734	-0.2671448
73	0x3d4f7c9c	0.050655946
74	0x3ed8c89f	0.42340562
75	0x3ec634b2	0.38712078
76	0x3e9da0b7	0.30786678
77	0xbc123c2c	-0.008925479
78	0xbe666b11	-0.2250178
79	0x3e9fb8b3	0.31195602
80	0xbeba2515	-0.36356416
81	0x3e10256d	0.14076777
82	0x3e04b241	0.12958623
83	0x3d06ff40	0.03295827
84	0x3e521fbd	0.2051992
85	0xbde765eb	-0.11298736
86	0xbe9c8027	-0.30566522
87	0xbe3eed79	-0.18645276
88	0xbd832c42	-0.06404926
89	0xbe022271	-0.12708451
90	0xbc9d8a4a	-0.01923098
91	0x3e414dcb	0.18877332
92	0x3dc15119	0.09439296
93	0xbeabd436	-0.33560342
94	0x3cef3558	0.029200241
95	0xbe8d0ec6	-0.27550334
96	0x3d5dbb34	0.05413361
97	0xbe8ff1c4	-0.2811414
98	0xbe340b5e	-0.17582461
99	0x3d961d06	0.073297545
100	0x3e57e1bd	0.21082206
101	0xbebb4db5	-0.36582723
102	0xbe8c62bd	-0.2741908
103	0xbe3a4a12	-0.18192318
104	0xbe926e51	-0.2859979
105	0xbeefb195	-0.46815172
106	0x3e07ca9f	0.13260888
107	0xbecf41cf	-0.40479895
108	0x3ea513c1	0.32241634
109	0x3e09cd34	0.13457185
110	0xbbef3c40	-0.0073008835
111	0x3d8c57f2	0.06852712
112	0xbecf3bc6	-0.4047529
113	0xbdeeb4dc	-0.1165559
114	0xbddc39bb	-0.10753199
115	0xbd7995ba	-0.060933806
116	0xbe998e01	-0.29991153
117	0x3e07c4bd	0.13258643
118	0x3ef2bd94	0.47410262
119	0x3e7f8399	0.24952544
120	0xbc317fc5	-0.010833685
121	0xbea7b4b2	-0.32755047
122	0xbe54bda7	-0.20775472
123	0xbdef30e1	-0.11679245
124	0xbe6942c4	-0.22779375
125	0xbeea8ad5	-0.45809045
126	0xbe0bd406	-0.136551
127	0xbdd4460d	-0.103649236
128	0x3c892846	0.016742837
129	0xbee61a3e	-0.44941896
130	0xbe34092a	-0.17581621
131	0xbdb59948	-0.08867127
132	0xbe37bd0e	-0.17943212
133	0x3e9b667a	0.3035162
134	0x3eab210a	0.33423644
135	0xbe1048f9	-0.14090337
136	0xbee0889b	-0.43854222
137	0x3eb99457	0.36245987
138	0x3e8f42f8	0.2798078
139	0x3e79c2eb	0.24390762
140	0x3e84e962	0.25959307
141	0xbd7fa90b	-0.06241707
142	0xbbc8350a	-0.0061098384
143	0x3ea72fab	0.32653555
144	0xbf0047d6	-0.5010961
145	0xbdaa47b6	-0.08314459
146	0x3ea4e3dd	0.32205096
147	0xbe5b9696	-0.21444163
148	0x3de8e022	0.11370875
149	0xbd80a750	-0.06281912
150	0xbe28791f	-0.16452454
151	0x3ea12d18	0.31479716
152	0xbd90aeba	-0.070645764
153	0x3e347bb1	0.1762531
154	0xbeb25318	-0.3482902
155	0xbe10a6a0	-0.14126062
156	0x3e447ddf	0.19188641
157	0xbe716b4d	-0.23576088
158	0x3d84f85a	0.06492682
159	0xbe96318a	-0.2933467
160	0x3e70bf3e	0.23510453
161	0xbe2bd072	-0.16778734
162	0xbea23a13	-0.31684932
163	0x3cc1ce18	0.023657843
164	0xbee38693	-0.4443861
165	0xbeedfa96	-0.46480244
166	0xbebdea24	-0.37092698
167	0x3e8fe08c	0.28101003
168	0xbeeecc01	-0.46640018
169	0x3e15ae39	0.14617242
170	0xbccfc090	-0.025360376
171	0xbe9f48bd	-0.31110182
172	0x3e523ad8	0.2053026
173	0x3e8f5adc	0.27999008
174	0x3d4c484c	0.049873635
175	0x3e681e6e	0.22667858
176	0x3e07c659	0.13259257
177	0x3cf5a135	0.029984096
178	0xbea4a741	-0.32158855
179	0xbeaa341f	-0.3324289
180	0xbe9da646	-0.3079092
181	0x3c7b7b60	0.015349239
182	0x3e936c5a	0.28793603
183	0x3ef4c925	0.4780971
184	0x3edc8b2c	0.4307493
185	0xbe74a94c	-0.23892707
186	0x3b23c080	0.0024986565
187	0x3efb3dc3	0.49070558
188	0xbeadfbbb	-0.33981118
189	0xbeb31b4a	-0.34981757
190	0x3c94f0a0	0.018181145
191	0xbc590f20	-0.013248235
192	0xbe35135f	-0.1768317
193	0xbce45080	-0.027870417
194	0xbec784e7	-0.38968584
195	0xbe90e7b7	-0.28301784
196	0xbe3462aa	-0.17615762
197	0x3d638e8c	0.055555865
198	0xbd8ecc76	-0.069725916
199	0xbe07b7c8	-0.132537
200	0xbe8f2745	-0.27959648
201	0xbeda3f19	-0.42626265
202	0xbe3d0c56	-0.18461737
203	0xbeb2a3a6	-0.3489048
204	0xbe5058f3	-0.20346431
205	0xbea56bbe	-0.32308763
206	0xbe920a4c	-0.2852348
207	0xbe7241de	-0.23657939
208	0xbe12ae10	-0.14324212
209	0xbc31ba60	-0.010847658
210	0xbe894461	-0.2680998
211	0xbe12ff92	-0.14355305
212	0xbc9a3980	-0.018826246
213	0xbece6416	-0.40310735
214	0xbe1cd121	-0.15314151
215	0xbc4c83d0	-0.012482598
216	0x3e498429	0.19679321
217	0x3e4f696f	0.20255063
218	0xbe99175b	-0.2990063
219	0x3cacba10	0.021084815
220	0xbdad9377	-0.08475392
221	0xbef016ec	-0.46892488
222	0xbcccc258	-0.024995014
223	0xbe066564	-0.13124615
224	0xbe97fc06	-0.29684466
225	0xbe30b732	-0.17257383
226	0xbefb0b1c	-0.49031913
227	0x3d34be1c	0.044126615
228	0xbefeb334	-0.49746096
229	0x3deb7efa	0.11498828
230	0x3c96a1b0	0.018387645
231	0x3df411c6	0.119174525
232	0x3cbaba70	0.022793978
233	0xbd3a3860	-0.04546392
234	0x3e0ade27	0.13561307
235	0xbf00b25a	-0.5027214
236	0xbe462a25	-0.19352014
237	0x3dbc5a7a	0.091969445
238	0xbe34ebb2	-0.17668036
239	0xbedf91f9	-0.43666056
240	0xbdf31c25	-0.118706025
241	0xbe7509fd	-0.23929591
242	0x3dccf7ea	0.10008223
243	0xbe59980a	-0.21249405
244	0xbea89227	-0.32924005
245	0xbe2fba63	-0.17160945
246	0xbe5e031d	-0.21680875
247	0xbe5cea8e	-0.2157385
248	0xbddcc578	-0.10779852
249	0xbd7a8a38	-0.061166972
250	0xbe3eb601	-0.18624116
251	0x3e3d0539	0.18459024
252	0xbe4e006d	-0.2011735
253	0xbe963388	-0.2933619
254	0xbe1b3106	-0.1515542
255	0x3ca56440	0.020189404

feature_network.3.bias f4 [64]
0	0xbe8b7394	-0.27236617
1	0xbe0b9acb	-0.13633268
2	0xbe739c7e	-0.23790166
3	0xbe99afaa	-0.30016834
4	0xbe3085d9	-0.17238559
5	0xbeaa32fe	-0.3324203
6	0xbea156b1	-0.31511453
7	0xbed520cc	-0.41626585
8	0xbe99b21f	-0.30018708
9	0xbe5c8d56	-0.2153829
10	0xbe99ba8c	-0.30025136
11	0xbe99b656	-0.30021924
12	0xbef27794	-0.47356856
13	0xbecb2138	-0.3967378
14	0xbe8e4aaf	-0.27791354
15	0xbe2670cb	-0.16253965
16	0xbea3b597	-0.3197448
17	0xbeb8eb5c	-0.36117065
18	0x3d476945	0.048684377
19	0xbe9fcd8e	-0.31211513
20	0x3d83de1c	0.064388484
21	0xbe99b325	-0.3001949
22	0x3d7352bf	0.059405085
23	0xbe766c8b	-0.24064843
24	0xbe99ba87	-0.30025122
25	0xbbcb4afe	-0.006204008
26	0xbe9c6b42	-0.3055058
27	0xbe714d57	-0.23564659
28	0xbd8c7db0	-0.068599105
29	0xbdc0445f	-0.09388041
30	0xbeadd4ea	-0.33951503
31	0xbe5c8a71	-0.21537186
32	0xbe1c42f9	-0.15259923
33	0xbe5ee2f7	-0.21766268
34	0xbea5191f	-0.32245728
35	0xbe73036f	-0.23731779
36	0xbf0fc5c6	-0.56161153
37	0xbe8ef820	-0.2792368
38	0xbe33f543	-0.17574029
39	0xbed57191	-0.41688207
40	0x3db0e50b	0.086374365
41	0xbea7d3c9	-0.32778767
42	0xbda4e702	-0.08051874
43	0xbeca75ea	-0.39543086
44	0x3da2e908	0.079546034
45	0xbe26371d	-0.16231962
46	0xbee4b6db	-0.44670758
47	0xbe2cd6cf	-0.16878818
48	0xbe84e9ad	-0.2595953
49	0xbee96b07	-0.45589468
50	0xbeee1b3f	-0.46505162
51	0xbe99ba7d	-0.30025092
52	0xbe9aaf33	-0.3021179
53	0xbecb2a82	-0.39680868
54	0xbebadcf5	-0.36496702
55	0xbe99ba49	-0.30024937
56	0xbe0c3503	-0.13692097
57	0x3cf738b0	0.030178398
58	0x3eece3ea	0.46267635
59	0xbe8e4b0a	-0.27791625
60	0xbeb17425	-0.34658924
61	0xbd2ee558	-0.042699188
62	0xbe99ba6a	-0.30025035
63	0xbe6fa408	-0.23402417

feature_network.6.weight f4 [64, 64]
0	0x3d84056b	0.06446346
1	0xbe1d5856	-0.15365729
2	0x3e9ee967	0.31037447
3	0xbe1dc9c7	-0.15409003
4	0x3e258206	0.16162881
5	0x3e58a768	0.2115761
6	0xbd920997	-0.07130735
7	0x3e7f8e7c	0.24956697
8	0x3d4d33c4	0.050098196
9	0xbd8e7d5d	-0.06957505
10	0x3e85ae31	0.2610946
11	0x3ef5e717	0.4802787
12	0xbdef6f9b	-0.11691209
13	0x3e917046	0.2840597
14	0x3e6550a3	0.22394042
15	0x3e5ea20a	0.217415
16	0xbf03b2a9	-0.5144449
17	0xbe1457d0	-0.14486623
18	0xbcfec5fd	-0.031100268
19	0xbec328f3	-0.3811718
20	0xbcdd9616	-0.027049106
21	0xbd757764	-0.059928313
22	0xbe90a735	-0.2825257
23	0x3e9580f9	0.2919996
24	0x3e5afd42	0.21385673
25	0x3ea30f1e	0.3184747
26	0x3e1abe1b	0.15111582
27	0x3eac27de	0.33624166
28	0x3e1fe684	0.15615278
29	0x3eafc1e4	0.34327614
30	0x3f04efff	0.51928705
31	0x3d39a6ce	0.045325093
32	0x3da4a590	0.08039391
33	0x3da41c0e	0.080131635
34	0xbd0cb2ed	-0.034350324
35	0x3ec23493	0.37930736
36	0xbe2c52f5	-0.1682852
37	0x3e6c0687	0.23049365
38	0x3ebfae7e	0.37437814
39	0xbf0eda4d	-0.5580185
40	0xbd4860f7	-0.048920598
41	0x3e940abf	0.2891445
42	0x3ea11f28	0.31469083
43	0x3e6c203e	0.23059174
44	0xbe71ec57	-0.23625313
45	0x3d5c72a5	0.05382027
46	0x3e87b0ce	0.2650208
47	0xbb3efce2	-0.002914243
48	0x3f56a8d8	0.83851385
49	0x3c48431a	0.0122230295
50	0xbdf7f068	-0.12106401
51	0xbedd706b	-0.4324983
52	0x3e9bf2e2	0.30458742
53	0x3e29e7cd	0.16592331
54	0x3eae3133	0.3402191
55	0xbe30f374	-0.1728037
56	0x3d8c347c	0.06845948
57	0xbe151540	-0.14558887
58	0xbc8e65a7	-0.017382456
59	0x3e79dd2d	0.24400778
60	0xbe111e4f	-0.14171718
61	0x3e76fa4a	0.24118915
62	0xbecf8714	-0.40532744
63	0x3d5ba024	0.05361952
64	0xbee15ded	-0.44016972
65	0xbded2a44	-0.11580327
66	0xbdac075a	-0.0839984
67	0xbdc1c35a	-0.094610885
68	0xbca5b125	-0.02022607
69	0xbe6f69b7	-0.23380171
70	0xbecbea8f	-0.39827392
71	0xbe974ab0	-0.2954917
72	0xbe11e762	-0.14248422
73	0xbe6e327a	-0.23261443
74	0xbe1ab90f	-0.15109657
75	0x3e2173e7	0.1576687
76	0x3dc96923	0.09834506
77	0xbeb658a4	-0.35614502
78	0xbcd42068	-0.025894359
79	0xbec5157e	-0.3849296
80	0x3e8a7279	0.2704046
81	0x3deee26c	0.1166428
82	0xbec0d495	-0.37662187
83	0x3d97463d	0.07386444
84	0xbeb47eff	-0.3525314
85	0x3e17e959	0.14835109
86	0x3edcb66e	0.43107933
87	0xbec2f8e7	-0.38080522
88	0xbe978153	-0.29590854
89	0xbe6fabe2	-0.23405412
90	0xbe4d3a9c	-0.20041889
91	0x3e08a31f	0.13343476
92	0xbed6c76d	-0.41949025
93	0x3ef13af8	0.47115302
94	0xbccdca62	-0.025120918
95	0xbdef3a17	-0.11681002
96	0xbdcc2825	-0.099685945
97	0x3ec1ced2	0.37853104
98	0xbe98cf34	-0.29845583
99	0xbedde15f	-0.43336007
100	0xbdf38bbe	-0.11891888
101	0x3e7d2f89	0.24725164
102	0x3d084954	0.033273056
103	0xbec2a336	-0.38015145
104	0xbe1d7aa5	-0.15378816
105	0xbe6354ba	-0.2220029
106	0x3cd4a0b0	0.025955528
107	0xbeae3d16	-0.3403098
108	0xbeff5566	-0.4986984
109	0xbefd22b6	-0.49440545
110	0x3e3a5512	0.18196514
111	0xbe87bb93	-0.26510295
112	0x3eeaa668	0.45830083
113	0x3d0f1af4	0.034937814
114	0x3ef69322	0.48159128
115	0xbf03381b	-0.51257485
116	0xbe99c2c5	-0.3003141
117	0xbeba58bd	-0.36395827
118	0xbf00c76c	-0.50304294
119	0xbe69ecc4	-0.22844225
120	0x3e498861	0.1968093
121	0xbe8d67fb	-0.27618393
122	0xbf437c95	-0.7636197
123	0xbc7f5870	-0.01558505
124	0xbd854af2	-0.06508435
125	0xbf33a1d5	-0.7016881
126	0xbe9ed916	-0.31024998
127	0x3d375d24	0.04476656
128	0xbc890f68	-0.01673098
129	0x3d8da226	0.06915693
130	0xbeb79bb4	-0.3586098
131	0x3e00099d	0.12503667
132	0xbedb33e4	-0.42813027
133	0x3edcd596	0.43131703
134	0xbe0affe8	-0.13574183
135	0xbe93bbb2	-0.28854138
136	0xbe40dbc0	-0.18833828
137	0xbe05ce17	-0.13066898
138	0xbef8ebbe	-0.48617357
139	0x3e8e4c66	0.27792662
140	0xbedf40e4	-0.43604195
141	0x3e3bb321	0.18330051
142	0xbe3aec08	-0.18254101
143	0xbe8839c2	-0.26606566
144	0x3f01c740	0.50694656
145	0x3ec2f19e	0.38074964
146	0xbecee819	-0.4041145
147	0x3eedccfa	0.46445447
148	0x3e375e94	0.17907172
149	0xbe8bcfce	-0.2730698
150	0xbe847654	-0.25871527
151	0xbed5c4ef	-0.4175181
152	0xbe961b0d	-0.29317513
153	0xbef34146	-0.47510737
154	0x3ec7bc90	0.3901105
155	0xbef8af5d	-0.48571292
156	0xbe2f1484	-0.1709767
157	0x3ec8e1c3	0.39234743
158	0xbe0d3f1e	-0.13793609
159	0xbee22b84	-0.44173825
160	0xbee1e7d2	-0.44122177
161	0xbe8ae1b9	-0.27125338
162	0xbeb3908b	-0.35071215
163	0xbee13f18	-0.4399345
164	0xbe4f53a6	-0.20246753
165	0xbe81acbf	-0.25327107
166	0xbe59848d	-0.2124197
167	0xbe8f35cf	-0.2797074
168	0xbefa83b6	-0.48928612
169	0xbe4e5862	-0.20150903
170	0xbdd6fcf8	-0.10497469
171	0xbdbbee8a	-0.09176357
172	0xbc85d8b8	-0.016338691
173	0xbeaa7f2a	-0.33300143
174	0xbe58113e	-0.21100327
175	0xbeb0d00c	-0.34533727
176	0xbed93f2d	-0.42431012
177	0xbc417080	-0.011806607
178	0x3e362d00	0.17790604
179	0xbea1eb6c	-0.31624925
180	0xbe84d9f7	-0.25947544
181	0xbe027ac2	-0.12742141
182	0xbe4eff60	-0.20214605
183	0xbe5ecc99	-0.21757735
184	0x3ef6f3e3	0.48232946
185	0xbea9504f	-0.33069083
186	0xbe95402b	-0.2915052
187	0xbe165516	-0.14680895
188	0x3dca371a	0.09873791
189	0xbe5e9bb6	-0.21739087
190	0xbea4492b	-0.32087073
191	0x3df030a6	0.11728029
192	0x3b5fd040	0.0034151226
193	0xbeef2b60	-0.4671278
194	0x3e9aa8f8	0.30207038
195	0x3d86705a	0.06564398
196	0xbdbb4a5a	-0.09145041
197	0x3e364868	0.17801058
198	0x3e428f9c	0.19000095
199	0x3e90cd1d	0.2828149
200	0x3e2b70c5	0.16742237
201	0x3e406968	0.1879021
202	0x3e4fa281	0.20276834
203	0x396b0400	0.00022412837
204	0xbe32b87e	-0.1745319
205	0x3df7a648	0.120922625
206	0xbdd8ce94	-0.10586277
207	0xbe901311	-0.28139547
208	0xbee0f0a5	-0.43933597
209	0x3d02d588	0.03194192
210	0xbeb94325	-0.3618404
211	0xbe94265a	-0.2893551
212	0xbe0c3851	-0.13693358
213	0x3eeceb2d	0.46273175
214	0xbec98a46	-0.39363307
215	0x3e23ade5	0.15984304
216	0x3e37fae7	0.17966805
217	0x3dc2903a	0.09500165
218	0x3d05a8c0	0.032631636
219	0xbec93d8b	-0.39304766
220	0xbee1f45a	-0.44131738
221	0x3ed93bc9	0.42428425
222	0xbeae7480	-0.34073257
223	0xbe15c891	-0.14627291
224	0xbe584578	-0.2112025
225	0xbedc4356	-0.43020123
226	0xbdda2cfd	-0.10653112
227	0x3e17c03b	0.14819424
228	0xbecfbe20	-0.4057474
229	0xbf132ac7	-0.5748715
230	0x3e854b51	0.26034024
231	0x3ccdf8e8	0.025143102
232	0xbf1a7320	-0.60331917
233	0x3e1d6caa	0.15373483
234	0x3d8fe9b2	0.07026996
235	0x3eb23630	0.34806967
236	0xbe53dcd4	-0.20689708
237	0xbf16d5db	-0.5892007
238	0xbdb4af3b	-0.08822485
239	0xbe80cdf6	-0.25157136
240	0xbdf52acb	-0.11971053
241	0xbccd33c0	-0.02504909
242	0x3e2a15ff	0.16609953
243	0x3e9fb764	0.31194603
244	0xbee83e41	-0.45359996
245	0x3edbe0e9	0.4294503
246	0xbecf4cb0	-0.40488195
247	0xbe592c94	-0.21208411
248	0xbeb66597	-0.35624382
249	0xbeb95e88	-0.36204934
250	0xbf179942	-0.5921823
251	0xbd867ab0	-0.065663695
252	0xbe3121fa	-0.17298117
253	0xbed9d973	-0.42548713
254	0xbce778c0	-0.02825582
255	0xbe144499	-0.14479293
