training_results/dqn_detectives_1753806919.pth (torch, 916711 bytes, 28 tensors)

feature_network.0.weight f4 [32, 239]
000000 22 ad a9 3d 28 95 f6 bd 64 86 6d bd b4 58 bb bd
       0.082849756 -0.12040168 -0.057989493 -0.09147778
000010 e8 ce 35 bd 6c 52 b1 3d 75 c4 7c 3c 0a 45 09 bd
       -0.044386774 0.08658299 0.015427698 -0.033513106
000020 8c a1 a7 3c 73 dd c9 bc a4 ea e2 3d 0c 32 19 3c
       0.020462774 -0.024641728 0.110799104 0.009350311
000030 87 62 74 bd b8 ef 3e 3d 3f 1a 56 3d a1 1a 75 bd
       -0.059664275 0.046615332 0.052271124 -0.05983985
000040 c1 ed 2f bd f7 86 48 bd 53 9f f5 bb 86 a2 af bc
       -0.04295135 -0.048956838 -0.0074957996 -0.021439802
000050 25 86 bd bd 2b 16 35 bd 26 b2 f1 3b 45 14 8a bd
       -0.09254102 -0.044210594 0.0073759733 -0.06742147
000060 44 07 7b 3d be 64 65 3d 6c cf 9d bc cb a2 19 bd
       0.061286226 0.05600428 -0.019263946 -0.037508767
000070 f8 05 59 3c 2d b8 bc bc 5a 60 91 3d 45 31 83 3d
       0.013246052 -0.02303704 0.07098456 0.06405882
000080 4d e3 c0 bc 69 db a2 3b fe e8 ec bd 13 0a 27 3d
       -0.023545885 0.0049700034 -0.11567877 0.040781092
000090 7b 1a e1 bd 27 20 93 3c aa a2 4a 3d 57 fa c3 bd
       -0.10991379 0.017959667 0.049471535 -0.09569233
0000a0 53 ff 22 bd 65 07 fb 3b 7a b8 52 bd 73 8e 5f 3d
       -0.039794277 0.0076607936 -0.05144546 0.05457921
0000b0 41 9d 0d be 56 02 7c bd 5f d3 2e 3d d4 d5 1d 3d
       -0.13829519 -0.061525665 0.042682048 0.038534
0000c0 52 f7 77 bd fe 3f bd 3c 05 d4 9d bd aa ed d0 bc
       -0.060538597 0.023101803 -0.07706455 -0.025503952
0000d0 33 6c 62 bd 3c 99 5f bc 31 4c 63 3c 1d b8 88 3d
       -0.055278968 -0.013647374 0.013873146 0.06675742
0000e0 f0 68 02 3d 50 4e 34 3d 26 e2 0c bd ad e0 37 3c
       0.031838357 0.044019997 -0.03439536 0.0112230005
0000f0 56 d5 1e 3d 08 6c df bd 7b 49 09 3c 05 f2 0c bd
       0.03877767 -0.10909277 0.0083793355 -0.034410495
000100 36 25 b9 bd dd e2 2e bd 80 0d d6 bd 69 a0 02 be
       -0.090403005 -0.042696822 -0.10451794 -0.12756504
000110 e7 28 a2 bc 7a 37 dc bc 2d 56 ab 3d 81 ca 42 3d
       -0.019794894 -0.026881922 0.08366046 0.047556404
000120 cb 3b 8c bd 5f bb d6 bb fe 81 bb bd 19 3f 07 3e
       -0.06847342 -0.006553098 -0.091556534 0.13207664
000130 cd 0e 88 bd 65 c8 37 3d a9 19 8d 3d 46 52 13 be
       -0.06643448 0.044868845 0.0688966 -0.14386854
000140 ac aa 47 bd ab 2b 92 bd d1 70 ab 3c 41 89 72 bc
       -0.04874675 -0.07137235 0.020927818 -0.014803232
000150 b0 ba b5 bd a2 22 b5 bd 6c 4d b9 3d eb 63 f7 3c
       -0.088734984 -0.08844496 0.0904797 0.030199012
000160 03 40 85 3d a0 e5 e3 3d d7 88 85 3d 86 42 4f bb
       0.0650635 0.11127782 0.06520241 -0.0031625344
000170 bf 37 01 bd 08 19 bc bd ef 5a d2 3b 69 c0 9f 3d
       -0.031547304 -0.09184462 0.0064195315 0.07800371
000180 4b 6f ce 3c db a5 ee 3d 1d 3b 5e 3d c4 e7 1a 3d
       0.025199553 0.11652728 0.054255594 0.037818685
000190 d6 ec 9f bb d6 37 5f 3c da 35 8f 3d ab 2c 45 3d
       -0.004880528 0.013624152 0.06992693 0.0481383
0001a0 86 b7 46 bd cc 17 56 bc ea a8 9e 3d 3a 6a 84 3d
       -0.048514865 -0.013067197 0.077470616 0.064655736
0001b0 fd 24 f5 3c 0b 89 98 bc 9a af b4 3d 7a 9e 64 bd
       0.029924864 -0.018620035 0.08822556 -0.055815198
0001c0 83 66 a1 bb f5 d2 11 be 2f b5 1c 3d 73 6f 96 3c
       -0.0049255504 -0.1424063 0.038258728 0.01836369
0001d0 0f f2 2d 3d bb 30 86 bc c8 12 10 bc d1 bb 8f 3c
       0.042467173 -0.016380658 -0.00879354 0.017545613
0001e0 bd cb 8d bc e7 43 cd 3b c9 53 10 be c2 20 38 bd
       -0.017309064 0.006264198 -0.14094462 -0.044953115
0001f0 0d c9 76 3d 33 43 58 3d 1e ee 8f bd f8 b5 0c be
       0.06025033 0.05279846 -0.07027839 -0.1374129
000200 0a 97 85 3c 33 28 c9 3d 24 08 0a 3d 21 d3 02 3e
       0.016307373 0.098221205 0.03369917 0.12775852
000210 02 12 4d bb e1 ec a6 3d 52 a2 2a 3d 42 46 9b bb
       -0.003129125 0.0815065 0.041658707 -0.0047386
000220 79 79 57 3d f3 36 26 bc 55 7f ce bd 63 cc 83 3d
       0.05260608 -0.010144937 -0.100828804 0.06435468
000230 95 96 01 3d a8 a3 b4 bc 3c 04 99 3d dd ff ed bc
       0.031637747 -0.022050694 0.07471511 -0.02905267
000240 98 e7 76 bd 0c 4d 73 bd a4 30 9c 3c 2c 51 b0 3d
       -0.06027946 -0.05939965 0.019066162 0.08609232
000250 ee 84 24 3d 40 cb 5d bd 39 6a ba 3b c7 52 04 be
       0.040165834 -0.054148912 0.0056889323 -0.12922202
000260 85 bd 07 3e ba 67 11 be 71 28 af 3d ee f6 b9 bc
       0.1325589 -0.14199725 0.085526355 -0.022700753
000270 b8 5e 25 bd f9 56 0a bd 09 06 b5 bd 37 8e b4 3b
       -0.040373534 -0.03377435 -0.08839042 0.0055101174
000280 7d 6a 98 bc 0d 5a 1c bc 41 62 67 3c f9 75 1f bd
       -0.018605465 -0.009542954 0.014122547 -0.038930867
000290 35 7e 9b bd 9e c4 2d 3d b3 ec a2 bd 9c b9 33 3a
       -0.075924315 0.042423837 -0.07955303 0.0006855966
0002a0 27 e7 0f bc 5b 9c 99 3d 4f 0e 92 3c 2b 8c e6 3c
       -0.008783138 0.075005256 0.017829088 0.02814301
0002b0 1e eb 0a be da ba ee bd 67 4a 3a bd f3 95 a5 3d
       -0.13566253 -0.11656733 -0.04548111 0.08085241
0002c0 b7 5a d9 bd 5a 4d a7 3d ac f2 db 3d 1e 50 04 3e
       -0.106130056 0.081690505 0.10739645 0.12921187
0002d0 2b bd 76 3d 91 90 9c bd 7c d6 9c 3b d5 db b7 ba
       0.060239 -0.07644761 0.0047863107 -0.0014027307
0002e0 82 05 eb bc 71 c1 5c 3c 7b 91 81 bd c6 c6 ae 3d
       -0.02868915 0.013473854 -0.06326576 0.08534007
0002f0 d3 69 83 bc ce 4e 31 bb df 81 62 3d fb 4e 8b 3d
       -0.016041672 -0.0027055028 0.055299636 0.06802174
000300 cd 3b 75 bd 77 09 7a 3d 2b 68 0e bc 61 b9 ee bd
       -0.059871484 0.061044183 -0.008691828 -0.11656452
000310 13 28 b0 3d ad 76 75 3d fd 4c e4 bc 3d 5c 80 3d
       0.086013936 0.05992763 -0.027868742 0.06267593
000320 b4 1a da 3c 4a c2 e6 bd 48 cc 0c be 86 3a 38 3d
       0.026624061 -0.112675264 -0.13749802 0.044977687
000330 8b 99 c5 3d ef 8d 78 bc 93 02 17 bd d9 ce 98 bd
       0.096484266 -0.015170558 -0.03686769 -0.07461328
000340 8d fe a1 3d ee ce dd bd 90 7e ff bd 21 aa 01 3e
       0.0790988 -0.10830484 -0.12475312 0.12662555
000350 a5 0d e9 bd a1 f0 5d 3d d0 84 17 be 12 69 66 3d
       -0.113795556 0.05418456 -0.14796758 0.056252547
000360 e1 31 ac 3d 8c 65 96 bc a4 f2 de 3d f8 12 d2 3d
       0.08407951 -0.018358968 0.10886124 0.10257524
000370 35 64 80 bd c4 bf b5 3c ec 63 b4 bc 36 b1 a2 3d
       -0.06269113 0.022186168 -0.022020303 0.079439566
000380 aa c4 0a bb c7 07 13 bc 01 a9 0e be 02 d7 17 3e
       -0.002117435 -0.008974022 -0.13931657 0.14828113
000390 c0 1f 1e bb 13 98 00 3e 14 91 fd 3d c0 87 e6 bd
       -0.0024127811 0.12558012 0.12381187 -0.11256361
0003a0 04 d8 02 be 08 86 03 3e bb 3f 42 bd 86 7f f5 3d
       -0.12777716 0.12844098 -0.04742406 0.11987214
0003b0 ea e0 af bd a2 c5 14 be b1 97 09 be cc c4 7f 3d
       -0.08587821 -0.14528516 -0.13436772 0.06244354
0003c0 04 98 e4 3d af a1 47 bd 97 fa 45 bd af 8c 40 3c
       0.11161807 -0.048738178 -0.048334684 0.011752292
0003d0 44 df 9c 3d de 35 d6 bd d4 7a 42 be 0e 09 38 be
       0.07659772 -0.10459493 -0.18992168 -0.17972204
0003e0 eb 36 db 3d 20 00 f8 3d 7f c7 ca 3d f4 90 02 bd
       0.10703834 0.12109399 0.09901332 -0.03187652
0003f0 34 f7 b4 3d f1 18 c9 3d f2 c3 a3 bd 93 05 21 be
       0.08836213 0.0981921 -0.07996358 -0.15724783

feature_network.0.bias f4 [32]
000000 03 2d 8c bc 5e 1f ce bc 84 91 ee bb 55 ab e5 bc
       -0.017111307 -0.025161441 -0.0072805304 -0.028035799
000010 32 d5 c3 3c 56 a4 fc bb 00 00 00 00 c7 c3 5c bc
       0.02390537 -0.00771002 0.0 -0.013474411
000020 e9 56 1f bc 57 86 60 bc 89 a0 9f bc 52 3c e7 bc
       -0.009725311 -0.013703904 -0.019485729 -0.028227005
000030 b2 59 75 bc 0d 9d 5c bb 00 00 00 00 98 f6 37 3c
       -0.014974998 -0.0033662945 0.0 0.011228226
000040 1d 83 a4 bc cb d7 8c bc c9 d8 d9 ba db 63 f9 bb
       -0.020082051 -0.017192742 -0.0016620393 -0.0076107807
000050 51 d6 0a bc 72 f5 e9 bc 8f b6 10 bd 34 fa 05 bc
       -0.008473949 -0.02855942 -0.03533035 -0.008177329
000060 da d1 86 bc 85 ff 03 3d ed 5f 8b bc 5a 3f 66 bc
       -0.016457487 0.032226104 -0.017013514 -0.01405319
000070 ae e0 eb bc 7c 27 0e bd fb c0 d6 bc a4 f4 09 bc
       -0.028793659 -0.034705624 -0.026215067 -0.008420143

feature_network.3.weight f4 [32, 32]
000000 6f 1a 3a bd 65 5c 4d 3e 53 a3 30 3d 37 c8 d7 bd
       -0.045435365 0.20054777 0.043124508 -0.10536235
000010 33 00 df 3d 10 d9 3e be 1c e0 fe 3d 33 fa 83 3e
       0.1088871 -0.1863749 0.12445089 0.25776824
000020 e9 2d eb bc 02 9d b3 3d 83 28 8d 3e dc e2 8f 3e
       -0.028708415 0.08770181 0.2756997 0.28102767
000030 d6 a0 a8 bd 82 78 82 3e f6 4f 41 3e 13 4f e9 3c
       -0.08233802 0.25482565 0.18878159 0.028480088
000040 a2 9c 87 be 9f 5c b4 bc 9e 34 9b 3e ff 0a d6 3b
       -0.2648669 -0.022016821 0.3031358 0.0065320726
000050 99 7a 71 be c3 ea 64 be 78 d6 80 bd 25 f8 84 be
       -0.23581924 -0.2235518 -0.06290907 -0.2597057
000060 76 ab 1c be 81 73 31 be e7 c3 0a 3e 49 08 a1 3e
       -0.15299782 -0.17329217 0.13551293 0.31451634
000070 0c 30 3c be 65 38 75 be 80 ce 0c 3e 1f a2 da 3d
       -0.18377703 -0.23947294 0.13750648 0.106754534
000080 da 30 17 be d8 76 ff bd d4 91 a0 3a f6 ca 81 3e
       -0.14764729 -0.124738395 0.0012250491 0.2535016
000090 ea ca c0 bd 43 89 76 bb 10 ae b9 bc 03 94 fd 3d
       -0.09413703 -0.0037618435 -0.022666007 0.123817466
0000a0 56 db 46 be 90 19 8c be 6c c0 02 3e ea c7 7c 3e
       -0.19419608 -0.27363253 0.12768716 0.24685636
0000b0 dd 34 90 be 83 25 57 3e 80 cc aa bb f7 4d b1 3c
       -0.2816533 0.21010403 -0.0052123666 0.021643622
0000c0 15 ad 09 be 42 04 ce 3d 90 f9 11 be c8 14 4c 3d
       -0.13444932 0.10059406 -0.14255357 0.049824506
0000d0 e6 b1 12 be 78 fa 91 3e a6 8f 53 be de cd 22 be
       -0.14325675 0.28511405 -0.20660266 -0.15898845
0000e0 38 a1 94 3e d7 c6 76 be 7f fe 09 be 77 ca 6a 3d
       0.2902925 -0.24099289 -0.13475989 0.05732199
0000f0 8f 9e 2f 3e c2 fd 41 be 7d 77 ea bd 08 fd 2f 3e
       0.17150329 -0.18944457 -0.11448572 0.17186368
000100 7c ff be 3c 95 de 49 bd 9e 48 72 be 8d 7a 91 be
       0.023315184 -0.049284536 -0.23660514 -0.2841381
000110 0d 8e 24 be 44 e5 90 3e 82 80 90 be cd e7 9e be
       -0.16069813 0.28299916 -0.28223044 -0.31036225
000120 5f 77 4d 3e 4a 0e da 3d d3 42 a0 3c 9e 8e a9 3d
       0.20065068 0.10647257 0.019563114 0.08279155
000130 14 a6 15 3e 7a 1e 57 3d 6e b4 40 3e f7 69 08 3d
       0.14614135 0.0525193 0.18818828 0.03330418
000140 41 59 d5 3d c4 49 53 bd c3 cc 84 3e 90 e8 36 be
       0.104174145 -0.05158402 0.2593747 -0.17862153
000150 50 5d 90 bd ef b1 98 3e 03 7c 3a 3e e1 8e 78 3e
       -0.07049048 0.29823253 0.18211369 0.24273254
000160 3f 01 01 3e 22 f4 7d 3e 7b aa ca bc 63 59 3f be
       0.12598132 0.2480016 -0.024739495 -0.18686442
000170 7a f1 3e 3d 9e 6b cc 3c 54 c6 a6 3d 72 d9 84 3e
       0.04661701 0.02495366 0.08143297 0.25947148
000180 59 d5 be 3c 1c 82 7c 3e 03 69 8c 3d 8a cd be 3d
       0.023295091 0.24659008 0.06855967 0.09316547
000190 39 1e bb be 54 d4 37 38 96 e4 53 3e 4c ea 3a 3e
       -0.36546496 4.3828346e-05 0.20692667 0.1825344
0001a0 28 7f 8c 3d b0 99 8b 3e 58 86 73 bc c7 43 43 be
       0.06860191 0.27265692 -0.014863573 -0.19068824
0001b0 af 73 6d be cd 45 7d 3e 40 d6 b2 bb 6f 98 45 bc
       -0.23188661 0.24733658 -0.0054576695 -0.012060269
0001c0 92 80 35 be 57 f2 23 be e2 7e 26 3e d8 b4 d6 bd
       -0.17724827 -0.16010414 0.1625934 -0.10483712
0001d0 74 5c 02 be 03 ea 27 3d d2 ef 8f bd ff ca 4b 3e
       -0.1273058 0.040994655 -0.07028164 0.19901656
0001e0 16 64 6f 3e 89 37 32 bc 82 ec 20 bd 92 a2 23 be
       0.23378024 -0.010877498 -0.03928805 -0.15979984
0001f0 10 79 0a bd 67 37 e3 3d 64 30 7c bc 2e cf 0e 3e
       -0.03380686 0.110945515 -0.015392397 0.1394622
000200 7b 78 17 3e a0 8f 41 3c ce e0 61 be dd ba 52 3e
       0.14792053 0.011814028 -0.22058412 0.20579095
000210 3c cc bf bd c0 d0 50 3c 28 a6 01 bd ea bd 90 be
       -0.093651265 0.012745082 -0.0316526 -0.28269893
000220 91 5c b8 3d 87 5a 79 be 3c 8c 11 3e 51 7c e8 3d
       0.09002031 -0.2435094 0.14213651 0.113518365
000230 40 65 cd 3b 5e f2 6a bd 05 1a 1f be 19 b1 2b be
       0.0062681735 -0.057360046 -0.1553727 -0.16766776
000240 48 86 78 3e a5 4c 02 be a1 57 9c be 08 83 9b be
       0.24269974 -0.1272455 -0.30535606 -0.30373406
000250 ea a7 95 bd 16 9f 51 3e fc 2a f8 3d 67 19 7a 3e
       -0.07307418 0.20470843 0.121175736 0.24423753
000260 ab 01 91 3e 62 90 95 bd 08 99 07 3d 58 4a 8d be
       0.28321585 -0.073029295 0.033104926 -0.27595782
000270 12 00 3c be 54 84 b7 3d 92 9d 82 be 37 d8 4b be
       -0.18359402 0.089607865 -0.25510842 -0.19906698
000280 60 4d b1 bb 93 ae 63 3e 43 d0 6c bd f6 c2 1c bd
       -0.005410835 0.22234564 -0.0578158 -0.038271867
000290 b7 b2 08 be 24 aa 68 be 34 09 46 3e ad fb 2f bd
       -0.13349424 -0.22721153 0.19339448 -0.042964626
0002a0 9e bb 16 3e 4b dc a0 be 67 d6 ec bc 62 07 08 3d
       0.14720008 -0.3141807 -0.028910829 0.033210166
0002b0 ae c2 73 bd 19 0d 89 be e4 ba 00 3e dd dd 45 bd
       -0.059511833 -0.26767805 0.12571293 -0.04830729
0002c0 b7 a0 27 be e4 2a 45 3d 7c 18 7c 3e 33 2c 6f 3e
       -0.16369902 0.048136607 0.24618715 0.23356704
0002d0 09 06 87 be 4f 96 5c be 89 7a 7d 3c e8 37 31 be
       -0.26371792 -0.21541713 0.015471109 -0.17306483
0002e0 24 6e 5a 3e 2e 3a 85 be f9 ac 74 3e 62 df 46 3e
       0.21331078 -0.2602095 0.23894109 0.19421151
0002f0 09 04 8a 3e 8f 32 94 3e b4 50 d7 bc e0 d2 ce bd
       0.26956204 0.28944823 -0.0262836 -0.10098815
000300 23 b3 10 be 52 d0 f3 3d b0 53 ee 3d d8 a6 8d 3e
       -0.14130835 0.11904968 0.11637056 0.27666354
000310 10 bf 78 3e e4 56 9a 3e 98 c5 fd 3d 9d 1c 7e be
       0.24291635 0.30144417 0.12391204 -0.24815603
000320 16 2a 3f be 36 5d 58 be ae 27 96 bd 8d 21 99 bd
       -0.18668398 -0.21129307 -0.07331787 -0.074771024
000330 1c 28 da bd 4a 85 29 bc d6 ae 53 3e f5 4a 5f 3e
       -0.106521815 -0.01034672 0.20672163 0.21805938
000340 1b 9e 41 be e3 50 6b 3e 5d 0b b7 b9 0b df b5 bd
       -0.18907969 0.22980075 -0.00034912946 -0.08880433
000350 f4 17 73 3e f4 07 25 be 92 68 c7 3d 29 2c 6f bd
       0.23739606 -0.16116315 0.09736742 -0.058391724
000360 29 05 59 3e d5 ff 2b 3d 5b 8b 41 be e1 f9 8a 3e
       0.21193375 0.041992027 -0.18900816 0.27143767
000370 6d a8 59 bd 0d 14 8b be 99 30 aa 3e 26 2e 6d be
       -0.05313914 -0.27163735 0.33240202 -0.23162135
000380 23 77 95 bd 3b f3 86 3e 0c 52 94 3e 3e 76 2f bb
       -0.07298114 0.26357445 0.28968847 -0.0026773359
000390 ad 98 ca bd 44 fc 65 be bb 7b 93 3e 9e d2 fe 3d
       -0.09892402 -0.22459513 0.28805336 0.12442516
0003a0 e4 0c 79 be de 6e f3 3d ad 16 50 be eb ac 8d be
       -0.24321324 0.118863806 -0.2032115 -0.27670988
0003b0 05 c0 8b bd 41 08 47 3d b2 57 4c be 5b 88 14 3e
       -0.06823734 0.048591856 -0.19955328 0.1450514
0003c0 ca ce 40 3e f7 43 55 3e d0 df 75 3e b6 ac be bc
       0.18828884 0.20826708 0.24011159 -0.023275714
0003d0 16 43 32 3e 59 f7 00 3e 76 c3 2f be 05 a9 82 3e
       0.17408404 0.12594356 -0.17164406 0.25519577
0003e0 5c c2 7f bd 4a 7d c8 3d 9d 7a 39 3e 8e a9 25 bd
       -0.062441215 0.09789522 0.1811318 -0.040444903
0003f0 e8 c8 67 be bf dd 83 3e 88 2f 0b 3e b5 fb 79 3d
       -0.22635233 0.25755116 0.1359235 0.061031062

feature_network.3.bias f4 [32]
000000 62 80 d0 bc 47 6f 19 bc 97 ac 6b 39 73 08 4b bd
       -0.025451843 -0.0093649095 0.00022475641 -0.049568605
000010 52 06 35 bc 74 c3 b8 3b 0a 4a 9a 3b a1 12 63 3c
       -0.01104887 0.005638534 0.004708533 0.013859422
000020 63 ad 5b 3b 1c 54 bb bb 19 3f fe bc 52 d0 2b 3c
       0.0033520095 -0.0057168137 -0.031035947 0.010486679
000030 7d b9 80 3c 11 97 f8 b9 85 13 c6 bc f9 b0 59 bd
       0.015713448 -0.000474148 -0.02417923 -0.05314729
000040 97 09 1d bc 80 7e 64 3c f0 0c 1e bd 97 f3 5d b9
       -0.009584806 0.013946176 -0.038586557 -0.00021166947
000050 d6 93 c8 bb 91 b0 ba 3b 39 d8 a0 bc 6f fd 50 bc
       -0.006121139 0.005697318 -0.019634353 -0.012755736
000060 7a 5a 58 bc 9c 0f c9 ba 76 ab 60 bb 9b 30 ac ba
       -0.013205165 -0.0015339735 -0.0034281886 -0.0013137044
000070 9d 2d a1 bc 63 2c f3 3b 92 e7 80 3c f8 08 5b bb
       -0.01967507 0.007421063 0.015735421 -0.0033422094

feature_network.6.weight f4 [32, 32]
000000 f0 da 02 3d 34 b6 15 3e 3e df c1 bd e0 17 62 be
       0.031947076 0.14620286 -0.09466408 -0.2207942
000010 49 6e 5a be c9 7e ce 3d 78 ec aa 3d 6a 3c e5 bd
       -0.21331133 0.10082776 0.08345884 -0.11193164
000020 d7 79 80 3e df cb 6b 3e aa 86 6c 3e 67 cf 87 bc
       0.25092956 0.2302699 0.23098245 -0.01657839
000030 b6 e2 49 bc 31 50 a6 bd 3d 46 92 3e bf d0 35 3c
       -0.0123221185 -0.08120764 0.28569213 0.011097132
000040 94 93 b7 3d 29 c3 66 bd 8f 61 fc 3d 37 a0 84 3e
       0.08963695 -0.056338463 0.12323295 0.25903484
000050 07 86 99 be b2 f4 5c be e7 49 61 3e 35 0d 53 3e
       -0.29985067 -0.21577719 0.22000848 0.20610507
000060 25 bc 21 3e 56 21 b6 bd d6 fe 1e be c3 52 e0 3d
       0.15794428 -0.08893077 -0.155269 0.109532855
000070 e4 81 68 be 51 4a 98 3e c6 f9 94 be e2 e3 b3 bd
       -0.227058 0.297442 -0.29096812 -0.087836996
000080 18 41 98 be a9 8e 7b 3d 2a 83 94 3d b4 47 31 be
       -0.29737163 0.06141535 0.0725158 -0.17312509
000090 9d f4 79 3e 34 28 8d 3e e4 e2 09 bd 24 16 12 be
       0.24409719 0.27569735 -0.033663645 -0.14266258
0000a0 5e 25 84 3e d2 30 b5 bd 0c 22 5a be d0 ca 5d 3e
       0.2580976 -0.08847202 -0.2130205 0.21659398
0000b0 22 da 6a bd c4 27 d9 3b 77 aa 22 be f1 94 2c 3e
       -0.057336934 0.006627055 -0.1588534 0.16853692
0000c0 c1 eb cb bd d5 74 8b 3e 2d 33 25 3e 89 b3 37 be
       -0.09957076 0.27237573 0.16132803 -0.17939581
0000d0 12 66 3f 3e c9 b0 c1 3d ba 12 8d be 13 be 1f bd
       0.1869128 0.09457547 -0.2755335 -0.03899963
0000e0 83 41 85 be 23 4e 95 3e 44 7a b3 bd 55 c1 d5 bd
       -0.26026544 0.29161176 -0.08763555 -0.10437266
0000f0 ab 7b c5 bd 13 63 61 be 87 85 34 3e 18 e8 cf 3c
       -0.096427284 -0.2201045 0.17629062 0.025379226
000100 a2 31 a7 bd b4 e8 6c be c3 10 f2 3d f1 1e 42 be
       -0.081637636 -0.23135644 0.11819603 -0.18957116
000110 f9 07 24 be 69 e0 83 3e e7 91 7f be ed eb 00 be
       -0.16018666 0.2575715 -0.24958001 -0.12589999
000120 57 01 30 3e 93 c3 4e 3d 29 8e 83 3e 16 c7 85 3e
       0.17188011 0.050479483 0.25694397 0.26128453
000130 44 db b5 bd 75 73 87 be 9e 02 1c be 26 3d be 3e
       -0.08879712 -0.26455274 -0.15235373 0.37156028
000140 f5 ed ef bd a3 31 2c 3e 10 2d ba bd 5c b5 42 3d
       -0.117153086 0.1681581 -0.09090626 0.04753624
000150 37 1a 3e 3e 4b 4c a7 bd 97 d8 5d 3c e3 81 33 3e
       0.18564688 -0.081688486 0.013540409 0.17530017
000160 c9 30 86 3d f5 01 51 3e 75 ad 6b be 80 05 bf bd
       0.06552274 0.20410903 -0.23015387 -0.09327221
000170 73 90 23 be aa 54 75 bd e3 28 12 3d 8a b2 84 3e
       -0.15973072 -0.059895195 0.035683524 0.25917464
000180 a8 5b 71 3d 31 04 1e 3e 0d 7d 2f be 6a e3 62 be
       0.0589253 0.15431286 -0.17137547 -0.22157064
000190 20 3f fe 3c d0 ac 87 3d 7b 58 7f 3e 82 24 84 be
       0.03103596 0.06624758 0.24936096 -0.25809103
0001a0 59 11 6a 3c 04 83 06 3d 00 27 85 3a 58 eb 4c bd
       0.014286363 0.03283979 0.0010158718 -0.05002913
0001b0 1b 08 62 3e f1 ba 0e be 1b 7f 5e be ea ee 7b be
       0.22073404 -0.139385 -0.21728174 -0.24602857
0001c0 68 db 36 be fd d3 07 be 31 bd 35 3d 07 78 d9 bd
       -0.17857134 -0.13264461 0.04436988 -0.106185965
0001d0 5d 20 79 be b2 61 7e be 0b a5 80 be c2 13 66 3e
       -0.24328752 -0.24841955 -0.25125918 0.22468475
0001e0 36 a4 c4 bd ff 27 84 3e 60 6c 5b bd ea 3d 89 be
       -0.09601633 0.25811765 -0.05357015 -0.2680505
0001f0 44 4e f4 3d 29 fd 42 3e 88 ca 18 3e 4d d6 ac 3d
       0.119289905 0.19041885 0.1492101 0.08439312
000200 e0 53 cb 3d aa 0c 25 3c 76 8d f5 bd 08 42 a4 be
       0.09928107 0.01007382 -0.11989872 -0.32081628
000210 b8 5b 27 bd 75 ac 12 3e 60 2e 20 3e f3 77 89 3d
       -0.040858954 0.143236 0.1564269 0.067123316
000220 b2 1d 67 be b4 66 f5 3d 50 56 8f 3d cd 41 9e 3e
       -0.22569922 0.1198248 0.06998885 0.30909577
000230 65 96 2e 3e da fc 3b bd 20 d9 ef 3d 9f 9f 72 3e
       0.17049558 -0.045895435 0.11711335 0.23693703
000240 8f 4e 06 3e d5 1a 33 be 2a 3d 48 3d 18 a7 97 bd
       0.13115905 -0.17490704 0.048886456 -0.074049175
000250 0a 3d 34 be e9 c3 15 3e 17 b3 86 3e 14 40 3a be
       -0.1760141 0.14625515 0.2630851 -0.18188506
000260 1a 82 0f be 89 ca b7 bd b2 8b 8d be f4 7a 1f be
       -0.14014474 -0.089741774 -0.27645642 -0.15574247
000270 fb 54 18 be 67 ee ee bc ce 49 86 3e 3c bc f8 3d
       -0.14876167 -0.029166413 0.26228184 0.12145278
000280 51 92 68 3e 0e 7a 06 bd e0 93 55 bd b4 6c 21 3e
       0.22712065 -0.032831244 -0.052142978 0.15764123
000290 55 ba 82 3e 10 3e 0a be 32 c5 81 be 40 a4 1f be
       0.25532785 -0.13500237 -0.2534576 -0.1559
0002a0 1a 3f 77 be f5 ff 28 bd ea 2a 0a 3e 50 7a 23 3e
       -0.24145165 -0.041259725 0.13492933 0.15964627
0002b0 39 35 a1 bd 4f 1c 5c 3d 65 25 8a be ec ab 19 be
       -0.078714795 0.053737935 -0.26981655 -0.15006989
0002c0 f6 ad 6a be c0 73 a5 bd 39 b8 21 3e 32 5f 90 3d
       -0.22917923 -0.08078718 0.15792932 0.07049407
0002d0 a7 0e b8 3d c7 fa 36 3d 08 b9 3e be 71 4b 35 be
       0.0898717 0.044672754 -0.18625271 -0.1770456
0002e0 95 ee 60 be 1a cb bc 3d 7b 76 55 be 6b 88 45 3e
       -0.21966012 0.09218426 -0.20845978 0.1929032
0002f0 21 c4 81 3e 29 a0 85 3e 03 3b b6 bd f9 9b 56 bd
       0.25344947 0.26098755 -0.08897974 -0.05239484
000300 e0 a7 af bd cf f7 29 be e8 c6 c8 3d ff b3 ec bc
       -0.085769415 -0.16598438 0.09803563 -0.028894423
000310 b7 d2 4a bd 73 65 3e 3e b9 18 e6 3c 6d c9 0f be
       -0.04951736 0.18593387 0.02808796 -0.14041682
000320 2d 5a 27 be b9 df 0d be 08 8b 76 3d d0 3b ab 3d
       -0.16342993 -0.13854875 0.060191184 0.08361018
000330 e6 21 65 3e cd ff 10 be fa e1 f8 3c 11 f6 c7 bd
       0.22376212 -0.1416008 0.030381192 -0.0976373
000340 82 47 44 3e c3 84 39 3e 97 8a 79 bd 91 8b 30 3d
       0.19167903 0.18117051 -0.060923185 0.04310185
000350 b4 5f 31 3e 8f 0f f9 bd 0e a3 82 be 78 35 7b 3e
       0.17321664 -0.12161171 -0.25515026 0.24532115
000360 e7 58 7b 3e 6f eb db 3d 53 49 eb bc 75 c1 91 3e
       0.24545632 0.10738265 -0.028721487 0.28467909
000370 9a e8 1a be 59 f9 06 be e6 34 77 3e 00 7a 25 be
       -0.15127793 -0.13181056 0.24141273 -0.1615982
000380 1c 1c 82 3e 43 36 12 3e 51 34 37 be 69 8a 1d 3e
       0.2541207 0.14278512 -0.17891051 0.1538483
000390 46 53 18 be 1d b4 82 3e 42 e5 41 be 07 4f 75 be
       -0.14875516 0.2552804 -0.18935111 -0.23955928
0003a0 15 df 91 3a 76 35 02 be d5 9f fa 3c 27 9e 9f 3e
       0.0011129106 -0.12715706 0.030593792 0.31175348
0003b0 1c 09 d6 bd 03 f0 6f bd 60 bb 8d be 04 7d 8e bd
       -0.10450956 -0.058578502 -0.27682018 -0.069574386
0003c0 c6 d6 78 3e a4 7c d4 bd bf 75 0d 3d 0b 74 b8 3d
       0.2430068 -0.10375336 0.03453612 0.090065084
0003d0 33 25 84 3e 41 ac 84 3e 67 84 60 3e 8b e8 99 3e
       0.2580963 0.2591267 0.21925507 0.3006023
0003e0 7f a5 47 3e e3 eb 7c 3e df c5 96 be 37 fd 48 3e
       0.19496725 0.24699359 -0.2944784 0.19627844
0003f0 b9 36 87 be 4d df 45 3e 07 41 44 be 6b 07 5d be
       -0.26408938 0.19323464 -0.19165431 -0.21584861

feature_network.6.bias f4 [32]
000000 e5 42 91 bc 7b 2c a9 3a 48 53 d5 3b 1a c7 5e 3a
       -0.017732093 0.0012906933 0.006510172 0.00084982964
000010 ba 03 da bc e2 4b 87 bc cb cf ca 3a 5c 03 ec b9
       -0.026613105 -0.016515676 0.0015473304 -0.0004501593
000020 2a 72 0c bd 73 80 b0 bc 87 8b 4c bb bb 39 cb bc
       -0.034288563 -0.021545624 -0.0031211094 -0.024807801
000030 7b d0 8f 3b ab 9d de 3b a7 95 e2 bc fe df ed 3a
       0.0043888665 0.006793698 -0.02765925 0.001814842
000040 74 46 d4 3a 5b 1e b3 3c 84 ee 93 bb 48 e2 c0 bb
       0.0016195313 0.02186506 -0.0045145173 -0.00588635
000050 46 db 46 3c ec df c3 bc 85 e7 05 bb d2 54 20 bc
       0.01213724 -0.023910485 -0.0020432186 -0.009785848
000060 f9 dd ef 3b 69 23 97 bb ec 18 03 bd 48 e4 9f 3b
       0.0073201624 -0.0046123755 -0.03200619 0.004879508
000070 14 23 09 bd 47 ae 8b bc b6 3d 99 3a 00 00 00 00
       -0.03348072 -0.017050875 0.0011691365 0.0

q_network.0.weight f4 [1, 32]
000000 56 62 59 bd 63 3f a3 be f7 86 46 3c 1f bd 8f bd
       -0.053072296 -0.31884298 0.012117139 -0.07018494
000010 9f ba 0a be 35 da c0 bd 7b 21 5e 3e 37 46 2d 3e
       -0.13547753 -0.0941662 0.2169246 0.16921316
000020 97 e9 19 ba 59 db 97 bd e6 56 ab be cd 7d 88 be
       -0.00058712944 -0.07414884 -0.33464736 -0.26658478
000030 68 8e 43 3e 2c 13 b0 3e 1c ea b2 be 83 12 bf 3e
       0.19097292 0.34389627 -0.34944236 0.3731881
000040 dd 68 f7 3d 85 0d bc ba 2c 18 3f be 32 ee 64 bd
       0.12080548 -0.0014347291 -0.18661565 -0.055891223
000050 10 1d 81 3e b5 01 29 be ab b9 44 3d 4c e7 1c 3e
       0.25217485 -0.16504557 0.04802863 0.15322608
000060 fc a9 ec 3b e2 7a 23 be d4 e7 0c be a2 39 6c be
       0.007222412 -0.15964845 -0.1376031 -0.2306886
000070 56 50 85 3e c7 44 7c 3e b2 ac 4f 3d 28 b6 d8 be
       0.26037854 0.24635611 0.050701804 -0.42326474

feature_network.0.weight f4 [32, 239]
000000 22 ad a9 3d 28 95 f6 bd 64 86 6d bd b4 58 bb bd
       0.082849756 -0.12040168 -0.057989493 -0.09147778
000010 e8 ce 35 bd 6c 52 b1 3d 75 c4 7c 3c 0a 45 09 bd
       -0.044386774 0.08658299 0.015427698 -0.033513106
000020 8c a1 a7 3c 73 dd c9 bc a4 ea e2 3d 0c 32 19 3c
       0.020462774 -0.024641728 0.110799104 0.009350311
000030 87 62 74 bd b8 ef 3e 3d 3f 1a 56 3d a1 1a 75 bd
       -0.059664275 0.046615332 0.052271124 -0.05983985
000040 c1 ed 2f bd f7 86 48 bd 53 9f f5 bb 86 a2 af bc
       -0.04295135 -0.048956838 -0.0074957996 -0.021439802
000050 25 86 bd bd 2b 16 35 bd 26 b2 f1 3b 45 14 8a bd
       -0.09254102 -0.044210594 0.0073759733 -0.06742147
000060 44 07 7b 3d be 64 65 3d 6c cf 9d bc cb a2 19 bd
       0.061286226 0.05600428 -0.019263946 -0.037508767
000070 f8 05 59 3c 2d b8 bc bc 5a 60 91 3d 45 31 83 3d
       0.013246052 -0.02303704 0.07098456 0.06405882
000080 4d e3 c0 bc 69 db a2 3b fe e8 ec bd 13 0a 27 3d
       -0.023545885 0.0049700034 -0.11567877 0.040781092
000090 7b 1a e1 bd 27 20 93 3c aa a2 4a 3d 57 fa c3 bd
       -0.10991379 0.017959667 0.049471535 -0.09569233
0000a0 53 ff 22 bd 65 07 fb 3b 7a b8 52 bd 73 8e 5f 3d
       -0.039794277 0.0076607936 -0.05144546 0.05457921
0000b0 41 9d 0d be 56 02 7c bd 5f d3 2e 3d d4 d5 1d 3d
       -0.13829519 -0.061525665 0.042682048 0.038534
0000c0 52 f7 77 bd fe 3f bd 3c 05 d4 9d bd aa ed d0 bc
       -0.060538597 0.023101803 -0.07706455 -0.025503952
0000d0 33 6c 62 bd 3c 99 5f bc 31 4c 63 3c 1d b8 88 3d
       -0.055278968 -0.013647374 0.013873146 0.06675742
0000e0 f0 68 02 3d 50 4e 34 3d 26 e2 0c bd ad e0 37 3c
       0.031838357 0.044019997 -0.03439536 0.0112230005
0000f0 56 d5 1e 3d 08 6c df bd 7b 49 09 3c 05 f2 0c bd
       0.03877767 -0.10909277 0.0083793355 -0.034410495
000100 36 25 b9 bd dd e2 2e bd 80 0d d6 bd 69 a0 02 be
       -0.090403005 -0.042696822 -0.10451794 -0.12756504
000110 e7 28 a2 bc 7a 37 dc bc 2d 56 ab 3d 81 ca 42 3d
       -0.019794894 -0.026881922 0.08366046 0.047556404
000120 cb 3b 8c bd 5f bb d6 bb fe 81 bb bd 19 3f 07 3e
       -0.06847342 -0.006553098 -0.091556534 0.13207664
000130 cd 0e 88 bd 65 c8 37 3d a9 19 8d 3d 46 52 13 be
       -0.06643448 0.044868845 0.0688966 -0.14386854
000140 ac aa 47 bd ab 2b 92 bd d1 70 ab 3c 41 89 72 bc
       -0.04874675 -0.07137235 0.020927818 -0.014803232
000150 b0 ba b5 bd a2 22 b5 bd 6c 4d b9 3d eb 63 f7 3c
       -0.088734984 -0.08844496 0.0904797 0.030199012
000160 03 40 85 3d a0 e5 e3 3d d7 88 85 3d 86 42 4f bb
       0.0650635 0.11127782 0.06520241 -0.0031625344
000170 bf 37 01 bd 08 19 bc bd ef 5a d2 3b 69 c0 9f 3d
       -0.031547304 -0.09184462 0.0064195315 0.07800371
000180 4b 6f ce 3c db a5 ee 3d 1d 3b 5e 3d c4 e7 1a 3d
       0.025199553 0.11652728 0.054255594 0.037818685
000190 d6 ec 9f bb d6 37 5f 3c da 35 8f 3d ab 2c 45 3d
       -0.004880528 0.013624152 0.06992693 0.0481383
0001a0 86 b7 46 bd cc 17 56 bc ea a8 9e 3d 3a 6a 84 3d
       -0.048514865 -0.013067197 0.077470616 0.064655736
0001b0 fd 24 f5 3c 0b 89 98 bc 9a af b4 3d 7a 9e 64 bd
       0.029924864 -0.018620035 0.08822556 -0.055815198
0001c0 83 66 a1 bb f5 d2 11 be 2f b5 1c 3d 73 6f 96 3c
       -0.0049255504 -0.1424063 0.038258728 0.01836369
0001d0 0f f2 2d 3d bb 30 86 bc c8 12 10 bc d1 bb 8f 3c
       0.042467173 -0.016380658 -0.00879354 0.017545613
0001e0 bd cb 8d bc e7 43 cd 3b c9 53 10 be c2 20 38 bd
       -0.017309064 0.006264198 -0.14094462 -0.044953115
0001f0 0d c9 76 3d 33 43 58 3d 1e ee 8f bd f8 b5 0c be
       0.06025033 0.05279846 -0.07027839 -0.1374129
000200 0a 97 85 3c 33 28 c9 3d 24 08 0a 3d 21 d3 02 3e
       0.016307373 0.098221205 0.03369917 0.12775852
000210 02 12 4d bb e1 ec a6 3d 52 a2 2a 3d 42 46 9b bb
       -0.003129125 0.0815065 0.041658707 -0.0047386
000220 79 79 57 3d f3 36 26 bc 55 7f ce bd 63 cc 83 3d
       0.05260608 -0.010144937 -0.100828804 0.06435468
000230 95 96 01 3d a8 a3 b4 bc 3c 04 99 3d dd ff ed bc
       0.031637747 -0.022050694 0.07471511 -0.02905267
000240 98 e7 76 bd 0c 4d 73 bd a4 30 9c 3c 2c 51 b0 3d
       -0.06027946 -0.05939965 0.019066162 0.08609232
000250 ee 84 24 3d 40 cb 5d bd 39 6a ba 3b c7 52 04 be
       0.040165834 -0.054148912 0.0056889323 -0.12922202
000260 85 bd 07 3e ba 67 11 be 71 28 af 3d ee f6 b9 bc
       0.1325589 -0.14199725 0.085526355 -0.022700753
000270 b8 5e 25 bd f9 56 0a bd 09 06 b5 bd 37 8e b4 3b
       -0.040373534 -0.03377435 -0.08839042 0.0055101174
000280 7d 6a 98 bc 0d 5a 1c bc 41 62 67 3c f9 75 1f bd
       -0.018605465 -0.009542954 0.014122547 -0.038930867
000290 35 7e 9b bd 9e c4 2d 3d b3 ec a2 bd 9c b9 33 3a
       -0.075924315 0.042423837 -0.07955303 0.0006855966
0002a0 27 e7 0f bc 5b 9c 99 3d 4f 0e 92 3c 2b 8c e6 3c
       -0.008783138 0.075005256 0.017829088 0.02814301
0002b0 1e eb 0a be da ba ee bd 67 4a 3a bd f3 95 a5 3d
       -0.13566253 -0.11656733 -0.04548111 0.08085241
0002c0 b7 5a d9 bd 5a 4d a7 3d ac f2 db 3d 1e 50 04 3e
       -0.106130056 0.081690505 0.10739645 0.12921187
0002d0 2b bd 76 3d 91 90 9c bd 7c d6 9c 3b d5 db b7 ba
       0.060239 -0.07644761 0.0047863107 -0.0014027307
0002e0 82 05 eb bc 71 c1 5c 3c 7b 91 81 bd c6 c6 ae 3d
       -0.02868915 0.013473854 -0.06326576 0.08534007
0002f0 d3 69 83 bc ce 4e 31 bb df 81 62 3d fb 4e 8b 3d
       -0.016041672 -0.0027055028 0.055299636 0.06802174
000300 cd 3b 75 bd 77 09 7a 3d 2b 68 0e bc 61 b9 ee bd
       -0.059871484 0.061044183 -0.008691828 -0.11656452
000310 13 28 b0 3d ad 76 75 3d fd 4c e4 bc 3d 5c 80 3d
       0.086013936 0.05992763 -0.027868742 0.06267593
000320 b4 1a da 3c 4a c2 e6 bd 48 cc 0c be 86 3a 38 3d
       0.026624061 -0.112675264 -0.13749802 0.044977687
000330 8b 99 c5 3d ef 8d 78 bc 93 02 17 bd d9 ce 98 bd
       0.096484266 -0.015170558 -0.03686769 -0.07461328
000340 8d fe a1 3d ee ce dd bd 90 7e ff bd 21 aa 01 3e
       0.0790988 -0.10830484 -0.12475312 0.12662555
000350 a5 0d e9 bd a1 f0 5d 3d d0 84 17 be 12 69 66 3d
       -0.113795556 0.05418456 -0.14796758 0.056252547
000360 e1 31 ac 3d 8c 65 96 bc a4 f2 de 3d f8 12 d2 3d
       0.08407951 -0.018358968 0.10886124 0.10257524
000370 35 64 80 bd c4 bf b5 3c ec 63 b4 bc 36 b1 a2 3d
       -0.06269113 0.022186168 -0.022020303 0.079439566
000380 aa c4 0a bb c7 07 13 bc 01 a9 0e be 02 d7 17 3e
       -0.002117435 -0.008974022 -0.13931657 0.14828113
000390 c0 1f 1e bb 13 98 00 3e 14 91 fd 3d c0 87 e6 bd
       -0.0024127811 0.12558012 0.12381187 -0.11256361
0003a0 04 d8 02 be 08 86 03 3e bb 3f 42 bd 86 7f f5 3d
       -0.12777716 0.12844098 -0.04742406 0.11987214
0003b0 ea e0 af bd a2 c5 14 be b1 97 09 be cc c4 7f 3d
       -0.08587821 -0.14528516 -0.13436772 0.06244354
0003c0 04 98 e4 3d af a1 47 bd 97 fa 45 bd af 8c 40 3c
       0.11161807 -0.048738178 -0.048334684 0.011752292
0003d0 44 df 9c 3d de 35 d6 bd d4 7a 42 be 0e 09 38 be
       0.07659772 -0.10459493 -0.18992168 -0.17972204
0003e0 eb 36 db 3d 20 00 f8 3d 7f c7 ca 3d f4 90 02 bd
       0.10703834 0.12109399 0.09901332 -0.03187652
0003f0 34 f7 b4 3d f1 18 c9 3d f2 c3 a3 bd 93 05 21 be
       0.08836213 0.0981921 -0.07996358 -0.15724783

feature_network.0.bias f4 [32]
000000 03 2d 8c bc 5e 1f ce bc 84 91 ee bb 55 ab e5 bc
       -0.017111307 -0.025161441 -0.0072805304 -0.028035799
000010 32 d5 c3 3c 56 a4 fc bb 00 00 00 00 c7 c3 5c bc
       0.02390537 -0.00771002 0.0 -0.013474411
000020 e9 56 1f bc 57 86 60 bc 89 a0 9f bc 52 3c e7 bc
       -0.009725311 -0.013703904 -0.019485729 -0.028227005
000030 b2 59 75 bc 0d 9d 5c bb 00 00 00 00 98 f6 37 3c
       -0.014974998 -0.0033662945 0.0 0.011228226
000040 1d 83 a4 bc cb d7 8c bc c9 d8 d9 ba db 63 f9 bb
       -0.020082051 -0.017192742 -0.0016620393 -0.0076107807
000050 51 d6 0a bc 72 f5 e9 bc 8f b6 10 bd 34 fa 05 bc
       -0.008473949 -0.02855942 -0.03533035 -0.008177329
000060 da d1 86 bc 85 ff 03 3d ed 5f 8b bc 5a 3f 66 bc
       -0.016457487 0.032226104 -0.017013514 -0.01405319
000070 ae e0 eb bc 7c 27 0e bd fb c0 d6 bc a4 f4 09 bc
       -0.028793659 -0.034705624 -0.026215067 -0.008420143

feature_network.3.weight f4 [32, 32]
000000 6f 1a 3a bd 65 5c 4d 3e 53 a3 30 3d 37 c8 d7 bd
       -0.045435365 0.20054777 0.043124508 -0.10536235
000010 33 00 df 3d 10 d9 3e be 1c e0 fe 3d 33 fa 83 3e
       0.1088871 -0.1863749 0.12445089 0.25776824
000020 e9 2d eb bc 02 9d b3 3d 83 28 8d 3e dc e2 8f 3e
       -0.028708415 0.08770181 0.2756997 0.28102767
000030 d6 a0 a8 bd 82 78 82 3e f6 4f 41 3e 13 4f e9 3c
       -0.08233802 0.25482565 0.18878159 0.028480088
000040 a2 9c 87 be 9f 5c b4 bc 9e 34 9b 3e ff 0a d6 3b
       -0.2648669 -0.022016821 0.3031358 0.0065320726
000050 99 7a 71 be c3 ea 64 be 78 d6 80 bd 25 f8 84 be
       -0.23581924 -0.2235518 -0.06290907 -0.2597057
000060 76 ab 1c be 81 73 31 be e7 c3 0a 3e 49 08 a1 3e
       -0.15299782 -0.17329217 0.13551293 0.31451634
000070 0c 30 3c be 65 38 75 be 80 ce 0c 3e 1f a2 da 3d
       -0.18377703 -0.23947294 0.13750648 0.106754534
000080 da 30 17 be d8 76 ff bd d4 91 a0 3a f6 ca 81 3e
       -0.14764729 -0.124738395 0.0012250491 0.2535016
000090 ea ca c0 bd 43 89 76 bb 10 ae b9 bc 03 94 fd 3d
       -0.09413703 -0.0037618435 -0.022666007 0.123817466
0000a0 56 db 46 be 90 19 8c be 6c c0 02 3e ea c7 7c 3e
       -0.19419608 -0.27363253 0.12768716 0.24685636
0000b0 dd 34 90 be 83 25 57 3e 80 cc aa bb f7 4d b1 3c
       -0.2816533 0.21010403 -0.0052123666 0.021643622
0000c0 15 ad 09 be 42 04 ce 3d 90 f9 11 be c8 14 4c 3d
       -0.13444932 0.10059406 -0.14255357 0.049824506
0000d0 e6 b1 12 be 78 fa 91 3e a6 8f 53 be de cd 22 be
       -0.14325675 0.28511405 -0.20660266 -0.15898845
0000e0 38 a1 94 3e d7 c6 76 be 7f fe 09 be 77 ca 6a 3d
       0.2902925 -0.24099289 -0.13475989 0.05732199
0000f0 8f 9e 2f 3e c2 fd 41 be 7d 77 ea bd 08 fd 2f 3e
       0.17150329 -0.18944457 -0.11448572 0.17186368
000100 7c ff be 3c 95 de 49 bd 9e 48 72 be 8d 7a 91 be
       0.023315184 -0.049284536 -0.23660514 -0.2841381
000110 0d 8e 24 be 44 e5 90 3e 82 80 90 be cd e7 9e be
       -0.16069813 0.28299916 -0.28223044 -0.31036225
000120 5f 77 4d 3e 4a 0e da 3d d3 42 a0 3c 9e 8e a9 3d
       0.20065068 0.10647257 0.019563114 0.08279155
000130 14 a6 15 3e 7a 1e 57 3d 6e b4 40 3e f7 69 08 3d
       0.14614135 0.0525193 0.18818828 0.03330418
000140 41 59 d5 3d c4 49 53 bd c3 cc 84 3e 90 e8 36 be
       0.104174145 -0.05158402 0.2593747 -0.17862153
000150 50 5d 90 bd ef b1 98 3e 03 7c 3a 3e e1 8e 78 3e
       -0.07049048 0.29823253 0.18211369 0.24273254
000160 3f 01 01 3e 22 f4 7d 3e 7b aa ca bc 63 59 3f be
       0.12598132 0.2480016 -0.024739495 -0.18686442
000170 7a f1 3e 3d 9e 6b cc 3c 54 c6 a6 3d 72 d9 84 3e
       0.04661701 0.02495366 0.08143297 0.25947148
000180 59 d5 be 3c 1c 82 7c 3e 03 69 8c 3d 8a cd be 3d
       0.023295091 0.24659008 0.06855967 0.09316547
000190 39 1e bb be 54 d4 37 38 96 e4 53 3e 4c ea 3a 3e
       -0.36546496 4.3828346e-05 0.20692667 0.1825344
0001a0 28 7f 8c 3d b0 99 8b 3e 58 86 73 bc c7 43 43 be
       0.06860191 0.27265692 -0.014863573 -0.19068824
0001b0 af 73 6d be cd 45 7d 3e 40 d6 b2 bb 6f 98 45 bc
       -0.23188661 0.24733658 -0.0054576695 -0.012060269
0001c0 92 80 35 be 57 f2 23 be e2 7e 26 3e d8 b4 d6 bd
       -0.17724827 -0.16010414 0.1625934 -0.10483712
0001d0 74 5c 02 be 03 ea 27 3d d2 ef 8f bd ff ca 4b 3e
       -0.1273058 0.040994655 -0.07028164 0.19901656
0001e0 16 64 6f 3e 89 37 32 bc 82 ec 20 bd 92 a2 23 be
       0.23378024 -0.010877498 -0.03928805 -0.15979984
0001f0 10 79 0a bd 67 37 e3 3d 64 30 7c bc 2e cf 0e 3e
       -0.03380686 0.110945515 -0.015392397 0.1394622
000200 7b 78 17 3e a0 8f 41 3c ce e0 61 be dd ba 52 3e
       0.14792053 0.011814028 -0.22058412 0.20579095
000210 3c cc bf bd c0 d0 50 3c 28 a6 01 bd ea bd 90 be
       -0.093651265 0.012745082 -0.0316526 -0.28269893
000220 91 5c b8 3d 87 5a 79 be 3c 8c 11 3e 51 7c e8 3d
       0.09002031 -0.2435094 0.14213651 0.113518365
000230 40 65 cd 3b 5e f2 6a bd 05 1a 1f be 19 b1 2b be
       0.0062681735 -0.057360046 -0.1553727 -0.16766776
000240 48 86 78 3e a5 4c 02 be a1 57 9c be 08 83 9b be
       0.24269974 -0.1272455 -0.30535606 -0.30373406
000250 ea a7 95 bd 16 9f 51 3e fc 2a f8 3d 67 19 7a 3e
       -0.07307418 0.20470843 0.121175736 0.24423753
000260 ab 01 91 3e 62 90 95 bd 08 99 07 3d 58 4a 8d be
       0.28321585 -0.073029295 0.033104926 -0.27595782
000270 12 00 3c be 54 84 b7 3d 92 9d 82 be 37 d8 4b be
       -0.18359402 0.089607865 -0.25510842 -0.19906698
000280 60 4d b1 bb 93 ae 63 3e 43 d0 6c bd f6 c2 1c bd
       -0.005410835 0.22234564 -0.0578158 -0.038271867
000290 b7 b2 08 be 24 aa 68 be 34 09 46 3e ad fb 2f bd
       -0.13349424 -0.22721153 0.19339448 -0.042964626
0002a0 9e bb 16 3e 4b dc a0 be 67 d6 ec bc 62 07 08 3d
       0.14720008 -0.3141807 -0.028910829 0.033210166
0002b0 ae c2 73 bd 19 0d 89 be e4 ba 00 3e dd dd 45 bd
       -0.059511833 -0.26767805 0.12571293 -0.04830729
0002c0 b7 a0 27 be e4 2a 45 3d 7c 18 7c 3e 33 2c 6f 3e
       -0.16369902 0.048136607 0.24618715 0.23356704
0002d0 09 06 87 be 4f 96 5c be 89 7a 7d 3c e8 37 31 be
       -0.26371792 -0.21541713 0.015471109 -0.17306483
0002e0 24 6e 5a 3e 2e 3a 85 be f9 ac 74 3e 62 df 46 3e
       0.21331078 -0.2602095 0.23894109 0.19421151
0002f0 09 04 8a 3e 8f 32 94 3e b4 50 d7 bc e0 d2 ce bd
       0.26956204 0.28944823 -0.0262836 -0.10098815
000300 23 b3 10 be 52 d0 f3 3d b0 53 ee 3d d8 a6 8d 3e
       -0.14130835 0.11904968 0.11637056 0.27666354
000310 10 bf 78 3e e4 56 9a 3e 98 c5 fd 3d 9d 1c 7e be
       0.24291635 0.30144417 0.12391204 -0.24815603
000320 16 2a 3f be 36 5d 58 be ae 27 96 bd 8d 21 99 bd
       -0.18668398 -0.21129307 -0.07331787 -0.074771024
000330 1c 28 da bd 4a 85 29 bc d6 ae 53 3e f5 4a 5f 3e
       -0.106521815 -0.01034672 0.20672163 0.21805938
000340 1b 9e 41 be e3 50 6b 3e 5d 0b b7 b9 0b df b5 bd
       -0.18907969 0.22980075 -0.00034912946 -0.08880433
000350 f4 17 73 3e f4 07 25 be 92 68 c7 3d 29 2c 6f bd
       0.23739606 -0.16116315 0.09736742 -0.058391724
000360 29 05 59 3e d5 ff 2b 3d 5b 8b 41 be e1 f9 8a 3e
       0.21193375 0.041992027 -0.18900816 0.27143767
000370 6d a8 59 bd 0d 14 8b be 99 30 aa 3e 26 2e 6d be
       -0.05313914 -0.27163735 0.33240202 -0.23162135
000380 23 77 95 bd 3b f3 86 3e 0c 52 94 3e 3e 76 2f bb
       -0.07298114 0.26357445 0.28968847 -0.0026773359
000390 ad 98 ca bd 44 fc 65 be bb 7b 93 3e 9e d2 fe 3d
       -0.09892402 -0.22459513 0.28805336 0.12442516
0003a0 e4 0c 79 be de 6e f3 3d ad 16 50 be eb ac 8d be
       -0.24321324 0.118863806 -0.2032115 -0.27670988
0003b0 05 c0 8b bd 41 08 47 3d b2 57 4c be 5b 88 14 3e
       -0.06823734 0.048591856 -0.19955328 0.1450514
0003c0 ca ce 40 3e f7 43 55 3e d0 df 75 3e b6 ac be bc
       0.18828884 0.20826708 0.24011159 -0.023275714
0003d0 16 43 32 3e 59 f7 00 3e 76 c3 2f be 05 a9 82 3e
       0.17408404 0.12594356 -0.17164406 0.25519577
0003e0 5c c2 7f bd 4a 7d c8 3d 9d 7a 39 3e 8e a9 25 bd
       -0.062441215 0.09789522 0.1811318 -0.040444903
0003f0 e8 c8 67 be bf dd 83 3e 88 2f 0b 3e b5 fb 79 3d
       -0.22635233 0.25755116 0.1359235 0.061031062

feature_network.3.bias f4 [32]
000000 62 80 d0 bc 47 6f 19 bc 97 ac 6b 39 73 08 4b bd
       -0.025451843 -0.0093649095 0.00022475641 -0.049568605
000010 52 06 35 bc 74 c3 b8 3b 0a 4a 9a 3b a1 12 63 3c
       -0.01104887 0.005638534 0.004708533 0.013859422
000020 63 ad 5b 3b 1c 54 bb bb 19 3f fe bc 52 d0 2b 3c
       0.0033520095 -0.0057168137 -0.031035947 0.010486679
000030 7d b9 80 3c 11 97 f8 b9 85 13 c6 bc f9 b0 59 bd
       0.015713448 -0.000474148 -0.02417923 -0.05314729
000040 97 09 1d bc 80 7e 64 3c f0 0c 1e bd 97 f3 5d b9
       -0.009584806 0.013946176 -0.038586557 -0.00021166947
000050 d6 93 c8 bb 91 b0 ba 3b 39 d8 a0 bc 6f fd 50 bc
       -0.006121139 0.005697318 -0.019634353 -0.012755736
000060 7a 5a 58 bc 9c 0f c9 ba 76 ab 60 bb 9b 30 ac ba
       -0.013205165 -0.0015339735 -0.0034281886 -0.0013137044
000070 9d 2d a1 bc 63 2c f3 3b 92 e7 80 3c f8 08 5b bb
       -0.01967507 0.007421063 0.015735421 -0.0033422094

feature_network.6.weight f4 [32, 32]
000000 f0 da 02 3d 34 b6 15 3e 3e df c1 bd e0 17 62 be
       0.031947076 0.14620286 -0.09466408 -0.2207942
000010 49 6e 5a be c9 7e ce 3d 78 ec aa 3d 6a 3c e5 bd
       -0.21331133 0.10082776 0.08345884 -0.11193164
000020 d7 79 80 3e df cb 6b 3e aa 86 6c 3e 67 cf 87 bc
       0.25092956 0.2302699 0.23098245 -0.01657839
000030 b6 e2 49 bc 31 50 a6 bd 3d 46 92 3e bf d0 35 3c
       -0.0123221185 -0.08120764 0.28569213 0.011097132
000040 94 93 b7 3d 29 c3 66 bd 8f 61 fc 3d 37 a0 84 3e
       0.08963695 -0.056338463 0.12323295 0.25903484
000050 07 86 99 be b2 f4 5c be e7 49 61 3e 35 0d 53 3e
       -0.29985067 -0.21577719 0.22000848 0.20610507
000060 25 bc 21 3e 56 21 b6 bd d6 fe 1e be c3 52 e0 3d
       0.15794428 -0.08893077 -0.155269 0.109532855
000070 e4 81 68 be 51 4a 98 3e c6 f9 94 be e2 e3 b3 bd
       -0.227058 0.297442 -0.29096812 -0.087836996
000080 18 41 98 be a9 8e 7b 3d 2a 83 94 3d b4 47 31 be
       -0.29737163 0.06141535 0.0725158 -0.17312509
000090 9d f4 79 3e 34 28 8d 3e e4 e2 09 bd 24 16 12 be
       0.24409719 0.27569735 -0.033663645 -0.14266258
0000a0 5e 25 84 3e d2 30 b5 bd 0c 22 5a be d0 ca 5d 3e
       0.2580976 -0.08847202 -0.2130205 0.21659398
0000b0 22 da 6a bd c4 27 d9 3b 77 aa 22 be f1 94 2c 3e
       -0.057336934 0.006627055 -0.1588534 0.16853692
0000c0 c1 eb cb bd d5 74 8b 3e 2d 33 25 3e 89 b3 37 be
       -0.09957076 0.27237573 0.16132803 -0.17939581
0000d0 12 66 3f 3e c9 b0 c1 3d ba 12 8d be 13 be 1f bd
       0.1869128 0.09457547 -0.2755335 -0.03899963
0000e0 83 41 85 be 23 4e 95 3e 44 7a b3 bd 55 c1 d5 bd
       -0.26026544 0.29161176 -0.08763555 -0.10437266
0000f0 ab 7b c5 bd 13 63 61 be 87 85 34 3e 18 e8 cf 3c
       -0.096427284 -0.2201045 0.17629062 0.025379226
000100 a2 31 a7 bd b4 e8 6c be c3 10 f2 3d f1 1e 42 be
       -0.081637636 -0.23135644 0.11819603 -0.18957116
000110 f9 07 24 be 69 e0 83 3e e7 91 7f be ed eb 00 be
       -0.16018666 0.2575715 -0.24958001 -0.12589999
000120 57 01 30 3e 93 c3 4e 3d 29 8e 83 3e 16 c7 85 3e
       0.17188011 0.050479483 0.25694397 0.26128453
000130 44 db b5 bd 75 73 87 be 9e 02 1c be 26 3d be 3e
       -0.08879712 -0.26455274 -0.15235373 0.37156028
000140 f5 ed ef bd a3 31 2c 3e 10 2d ba bd 5c b5 42 3d
       -0.117153086 0.1681581 -0.09090626 0.04753624
000150 37 1a 3e 3e 4b 4c a7 bd 97 d8 5d 3c e3 81 33 3e
       0.18564688 -0.081688486 0.013540409 0.17530017
000160 c9 30 86 3d f5 01 51 3e 75 ad 6b be 80 05 bf bd
       0.06552274 0.20410903 -0.23015387 -0.09327221
000170 73 90 23 be aa 54 75 bd e3 28 12 3d 8a b2 84 3e
       -0.15973072 -0.059895195 0.035683524 0.25917464
000180 a8 5b 71 3d 31 04 1e 3e 0d 7d 2f be 6a e3 62 be
       0.0589253 0.15431286 -0.17137547 -0.22157064
000190 20 3f fe 3c d0 ac 87 3d 7b 58 7f 3e 82 24 84 be
       0.03103596 0.06624758 0.24936096 -0.25809103
0001a0 59 11 6a 3c 04 83 06 3d 00 27 85 3a 58 eb 4c bd
       0.014286363 0.03283979 0.0010158718 -0.05002913
0001b0 1b 08 62 3e f1 ba 0e be 1b 7f 5e be ea ee 7b be
       0.22073404 -0.139385 -0.21728174 -0.24602857
0001c0 68 db 36 be fd d3 07 be 31 bd 35 3d 07 78 d9 bd
       -0.17857134 -0.13264461 0.04436988 -0.106185965
0001d0 5d 20 79 be b2 61 7e be 0b a5 80 be c2 13 66 3e
       -0.24328752 -0.24841955 -0.25125918 0.22468475
0001e0 36 a4 c4 bd ff 27 84 3e 60 6c 5b bd ea 3d 89 be
       -0.09601633 0.25811765 -0.05357015 -0.2680505
0001f0 44 4e f4 3d 29 fd 42 3e 88 ca 18 3e 4d d6 ac 3d
       0.119289905 0.19041885 0.1492101 0.08439312
000200 e0 53 cb 3d aa 0c 25 3c 76 8d f5 bd 08 42 a4 be
       0.09928107 0.01007382 -0.11989872 -0.32081628
000210 b8 5b 27 bd 75 ac 12 3e 60 2e 20 3e f3 77 89 3d
       -0.040858954 0.143236 0.1564269 0.067123316
000220 b2 1d 67 be b4 66 f5 3d 50 56 8f 3d cd 41 9e 3e
       -0.22569922 0.1198248 0.06998885 0.30909577
000230 65 96 2e 3e da fc 3b bd 20 d9 ef 3d 9f 9f 72 3e
       0.17049558 -0.045895435 0.11711335 0.23693703
000240 8f 4e 06 3e d5 1a 33 be 2a 3d 48 3d 18 a7 97 bd
       0.13115905 -0.17490704 0.048886456 -0.074049175
000250 0a 3d 34 be e9 c3 15 3e 17 b3 86 3e 14 40 3a be
       -0.1760141 0.14625515 0.2630851 -0.18188506
000260 1a 82 0f be 89 ca b7 bd b2 8b 8d be f4 7a 1f be
       -0.14014474 -0.089741774 -0.27645642 -0.15574247
000270 fb 54 18 be 67 ee ee bc ce 49 86 3e 3c bc f8 3d
       -0.14876167 -0.029166413 0.26228184 0.12145278
000280 51 92 68 3e 0e 7a 06 bd e0 93 55 bd b4 6c 21 3e
       0.22712065 -0.032831244 -0.052142978 0.15764123
000290 55 ba 82 3e 10 3e 0a be 32 c5 81 be 40 a4 1f be
       0.25532785 -0.13500237 -0.2534576 -0.1559
0002a0 1a 3f 77 be f5 ff 28 bd ea 2a 0a 3e 50 7a 23 3e
       -0.24145165 -0.041259725 0.13492933 0.15964627
0002b0 39 35 a1 bd 4f 1c 5c 3d 65 25 8a be ec ab 19 be
       -0.078714795 0.053737935 -0.26981655 -0.15006989
0002c0 f6 ad 6a be c0 73 a5 bd 39 b8 21 3e 32 5f 90 3d
       -0.22917923 -0.08078718 0.15792932 0.07049407
0002d0 a7 0e b8 3d c7 fa 36 3d 08 b9 3e be 71 4b 35 be
       0.0898717 0.044672754 -0.18625271 -0.1770456
0002e0 95 ee 60 be 1a cb bc 3d 7b 76 55 be 6b 88 45 3e
       -0.21966012 0.09218426 -0.20845978 0.1929032
0002f0 21 c4 81 3e 29 a0 85 3e 03 3b b6 bd f9 9b 56 bd
       0.25344947 0.26098755 -0.08897974 -0.05239484
000300 e0 a7 af bd cf f7 29 be e8 c6 c8 3d ff b3 ec bc
       -0.085769415 -0.16598438 0.09803563 -0.028894423
000310 b7 d2 4a bd 73 65 3e 3e b9 18 e6 3c 6d c9 0f be
       -0.04951736 0.18593387 0.02808796 -0.14041682
000320 2d 5a 27 be b9 df 0d be 08 8b 76 3d d0 3b ab 3d
       -0.16342993 -0.13854875 0.060191184 0.08361018
000330 e6 21 65 3e cd ff 10 be fa e1 f8 3c 11 f6 c7 bd
       0.22376212 -0.1416008 0.030381192 -0.0976373
000340 82 47 44 3e c3 84 39 3e 97 8a 79 bd 91 8b 30 3d
       0.19167903 0.18117051 -0.060923185 0.04310185
000350 b4 5f 31 3e 8f 0f f9 bd 0e a3 82 be 78 35 7b 3e
       0.17321664 -0.12161171 -0.25515026 0.24532115
000360 e7 58 7b 3e 6f eb db 3d 53 49 eb bc 75 c1 91 3e
       0.24545632 0.10738265 -0.028721487 0.28467909
000370 9a e8 1a be 59 f9 06 be e6 34 77 3e 00 7a 25 be
       -0.15127793 -0.13181056 0.24141273 -0.1615982
000380 1c 1c 82 3e 43 36 12 3e 51 34 37 be 69 8a 1d 3e
       0.2541207 0.14278512 -0.17891051 0.1538483
000390 46 53 18 be 1d b4 82 3e 42 e5 41 be 07 4f 75 be
       -0.14875516 0.2552804 -0.18935111 -0.23955928
0003a0 15 df 91 3a 76 35 02 be d5 9f fa 3c 27 9e 9f 3e
       0.0011129106 -0.12715706 0.030593792 0.31175348
0003b0 1c 09 d6 bd 03 f0 6f bd 60 bb 8d be 04 7d 8e bd
       -0.10450956 -0.058578502 -0.27682018 -0.069574386
0003c0 c6 d6 78 3e a4 7c d4 bd bf 75 0d 3d 0b 74 b8 3d
       0.2430068 -0.10375336 0.03453612 0.090065084
0003d0 33 25 84 3e 41 ac 84 3e 67 84 60 3e 8b e8 99 3e
       0.2580963 0.2591267 0.21925507 0.3006023
0003e0 7f a5 47 3e e3 eb 7c 3e df c5 96 be 37 fd 48 3e
       0.19496725 0.24699359 -0.2944784 0.19627844
0003f0 b9 36 87 be 4d df 45 3e 07 41 44 be 6b 07 5d be
       -0.26408938 0.19323464 -0.19165431 -0.21584861

feature_network.6.bias f4 [32]
000000 e5 42 91 bc 7b 2c a9 3a 48 53 d5 3b 1a c7 5e 3a
       -0.017732093 0.0012906933 0.006510172 0.00084982964
000010 ba 03 da bc e2 4b 87 bc cb cf ca 3a 5c 03 ec b9
       -0.026613105 -0.016515676 0.0015473304 -0.0004501593
000020 2a 72 0c bd 73 80 b0 bc 87 8b 4c bb bb 39 cb bc
       -0.034288563 -0.021545624 -0.0031211094 -0.024807801
000030 7b d0 8f 3b ab 9d de 3b a7 95 e2 bc fe df ed 3a
       0.0043888665 0.006793698 -0.02765925 0.001814842
000040 74 46 d4 3a 5b 1e b3 3c 84 ee 93 bb 48 e2 c0 bb
       0.0016195313 0.02186506 -0.0045145173 -0.00588635
000050 46 db 46 3c ec df c3 bc 85 e7 05 bb d2 54 20 bc
       0.01213724 -0.023910485 -0.0020432186 -0.009785848
000060 f9 dd ef 3b 69 23 97 bb ec 18 03 bd 48 e4 9f 3b
       0.0073201624 -0.0046123755 -0.03200619 0.004879508
000070 14 23 09 bd 47 ae 8b bc b6 3d 99 3a 00 00 00 00
       -0.03348072 -0.017050875 0.0011691365 0.0

q_network.0.weight f4 [1, 32]
000000 56 62 59 bd 63 3f a3 be f7 86 46 3c 1f bd 8f bd
       -0.053072296 -0.31884298 0.012117139 -0.07018494
000010 9f ba 0a be 35 da c0 bd 7b 21 5e 3e 37 46 2d 3e
       -0.13547753 -0.0941662 0.2169246 0.16921316
000020 97 e9 19 ba 59 db 97 bd e6 56 ab be cd 7d 88 be
       -0.00058712944 -0.07414884 -0.33464736 -0.26658478
000030 68 8e 43 3e 2c 13 b0 3e 1c ea b2 be 83 12 bf 3e
       0.19097292 0.34389627 -0.34944236 0.3731881
000040 dd 68 f7 3d 85 0d bc ba 2c 18 3f be 32 ee 64 bd
       0.12080548 -0.0014347291 -0.18661565 -0.055891223
000050 10 1d 81 3e b5 01 29 be ab b9 44 3d 4c e7 1c 3e
       0.25217485 -0.16504557 0.04802863 0.15322608
000060 fc a9 ec 3b e2 7a 23 be d4 e7 0c be a2 39 6c be
       0.007222412 -0.15964845 -0.1376031 -0.2306886
000070 56 50 85 3e c7 44 7c 3e b2 ac 4f 3d 28 b6 d8 be
       0.26037854 0.24635611 0.050701804 -0.42326474
