training_results/dqn_detectives_1753804475.pth (torch, 366609 bytes, 20 tensors)

feature_network.0.weight f4 [64, 239]
000000 d4 cf 02 3e 44 ca a2 bd c0 41 0b 3c 28 58 0d 3d
       0.12774593 -0.07948735 0.008499563 0.0345079
000010 5d 15 f9 bd c0 47 0e be 2a f2 7e bd b0 c0 dc bd
       -0.12162278 -0.13894558 -0.062242664 -0.1077894
000020 72 88 09 3e 80 e6 c5 3b 2e d7 a3 3d b4 3b 38 3d
       0.13430956 0.0060394406 0.08000027 0.044978812
000030 14 ce 66 bd e5 c7 d4 bd 48 54 2f 3d 62 fe a0 bd
       -0.056348875 -0.10389689 0.042804986 -0.0786102
000040 24 65 d9 bd 97 9b b6 bd 70 09 19 3d 4e ed 09 3e
       -0.10614994 -0.08916395 0.037362516 0.13469431
000050 00 fb be bb 5e b3 1c bd 3c 4a c0 3d ec ef 26 3d
       -0.0058282614 -0.038256995 0.09389159 0.04075615
000060 a8 f6 61 bd c8 12 20 3d 7a 38 d7 bd ae 67 cb bd
       -0.05516687 0.03908041 -0.10508819 -0.09931885
000070 f9 be 8e bd 90 56 1e bc 0c 06 e1 3d d0 cb 46 bc
       -0.06970019 -0.009664193 0.109874815 -0.012133554
000080 b0 ae 69 3d c0 b0 f4 3c 30 e5 b2 3c 70 6e ae 3d
       0.05705136 0.029869437 0.0218378 0.08517158
000090 a3 39 c9 bd 30 4b aa bc 12 80 aa bd 00 0c 19 bb
       -0.098254465 -0.020787805 -0.08325209 -0.00233531
0000a0 d0 93 a0 3c 58 1f a5 3c 5e 8c 00 be a2 a3 3a bd
       0.019601732 0.020156547 -0.12553546 -0.04556621
0000b0 2b 81 04 be fe 0d 0e 3e 24 f1 b6 bd 54 ab bd bc
       -0.12939899 0.13872525 -0.08932713 -0.023152985
0000c0 80 5f af 3c 86 3a 01 3e 08 09 08 3e 76 c3 01 be
       0.021407843 0.12619981 0.13284695 -0.12672219
0000d0 76 54 0c be f6 86 ab 3d de df 29 bd c9 c8 07 be
       -0.13704094 0.08375351 -0.041473262 -0.13260187
0000e0 0c ae ac 3d 78 54 ee bd 42 49 59 bd 52 42 0b 3e
       0.08431634 -0.11637205 -0.05304838 0.13599518
0000f0 e6 f7 be 3d 66 68 df 3d 1a 74 ae 3d bc c1 d0 bd
       0.093246266 0.10908584 0.08518238 -0.10193202
000100 48 42 e9 bc e8 b4 b7 3c 7c f5 dc 3d 50 75 6f bc
       -0.028473988 0.02242513 0.1078901 -0.014615372
000110 16 04 72 bd b0 9d 37 3c 7e aa 8b 3d 52 25 61 bd
       -0.059085928 0.011207029 0.06819628 -0.054967232
000120 26 e4 d1 3d b0 1e ae 3d b8 0d 08 be 8e 41 0b 3e
       0.10248594 0.08501947 -0.13286483 0.13599226
000130 fa 53 b0 bd ac 26 5d 3d 90 66 54 bc f0 c3 24 3c
       -0.08609767 0.05399196 -0.012963906 0.010056481
000140 56 f9 e7 bd 48 58 21 3d e0 5e 74 bd ae d2 44 bd
       -0.11326854 0.039390832 -0.059660792 -0.048052482
000150 58 b6 31 3d 34 96 86 3d c1 ba 84 bd 28 dd 04 bd
       0.043386787 0.06571618 -0.06480933 -0.032437474
000160 0b 64 05 be 90 f0 36 bc 80 a7 98 3d 10 66 21 3c
       -0.13026445 -0.011165753 0.07453823 0.009850994
000170 e8 cf 93 3c e0 ba ef 3b be 55 a4 3d e4 09 9a 3d
       0.018043473 0.0073159784 0.080241665 0.07521418
000180 64 91 b4 bd 44 c7 b4 bd 6a 1d 38 bd 50 b0 83 bc
       -0.088167936 -0.088270694 -0.044949926 -0.016075283
000190 68 53 86 bc e4 9a 35 3d 4a e8 12 bd 3c ba b8 bc
       -0.016397193 0.04433717 -0.03586606 -0.022549741
0001a0 60 79 dd 3b d0 84 ed 3c 90 bf b8 bd 90 77 5f bd
       0.006758854 0.028993994 -0.09020913 -0.054557383
0001b0 a4 2a e1 bd 12 cd 07 bd 30 dd d8 3c fc cd a2 bc
       -0.10994461 -0.033154555 0.026472658 -0.019873612
0001c0 58 9f 0a be 64 81 eb bd 80 37 dc 3b c0 4f 97 3c
       -0.13537347 -0.11499289 0.0067204833 0.018470645
0001d0 34 55 12 3d 70 42 0e bd e0 35 af 3b a6 08 f3 bd
       0.035725787 -0.03473133 0.0053469986 -0.11866884
0001e0 e6 53 88 bd 18 fa 17 bd c2 2d e2 bd a0 b4 2e bc
       -0.06656627 -0.037103742 -0.11043884 -0.010663182
0001f0 ec 64 0a be c8 7f 99 3c 1f a3 f7 bd 60 70 a2 3d
       -0.13515061 0.018737689 -0.1209166 0.0793159
000200 a4 00 19 3d 58 11 10 3d 24 16 f1 3d 00 c4 b7 3d
       0.037354127 0.03517279 0.11771801 0.08972931
000210 98 d8 b8 3c 3c e6 ea 3d 5f 16 0c be 74 4a fb 3d
       0.022564217 0.11469695 -0.13680409 0.1227006
000220 b4 23 c7 bd c9 17 be bd 20 9c cd bb 40 36 1d bc
       -0.09723607 -0.092818804 -0.006274715 -0.009595454
000230 c8 50 0c be 76 ed 9b bd d0 d6 31 bc 88 7f ec 3c
       -0.1370269 -0.076136515 -0.010854438 0.028869405
000240 00 c9 60 bc ea 93 48 bd 68 8b 2a bd e8 9a 23 3d
       -0.013719797 -0.048969187 -0.041636854 0.039942652
000250 bf a2 94 bd 9a d7 a1 3d 41 bd f3 bd 20 c4 c1 bc
       -0.07257604 0.07902451 -0.11901332 -0.02365309
000260 96 c1 81 3d c4 9e 05 3e a6 a7 e9 bd d0 87 1f 3d
       0.06335752 0.13048846 -0.114089295 0.03894788
000270 b8 61 08 bd 71 c7 ff bd 16 ae 0e 3e 92 b9 96 3d
       -0.033296317 -0.12489212 0.13933596 0.073596135
000280 68 8a c6 bd 62 12 da 3d d8 20 c9 bd 70 9f b3 3c
       -0.09694368 0.106480375 -0.098207176 0.021926612
000290 d6 88 ae 3d bc 52 11 3d d2 9a 97 3d 00 cc 3f bc
       0.08522193 0.035479292 0.074025765 -0.011706352
0002a0 d5 38 e9 bd 2e 7e 30 bd 24 04 0b 3d f4 91 f4 3d
       -0.11387793 -0.043089084 0.033939496 0.11941901
0002b0 d0 19 16 3d 04 e3 ea 3d 90 c4 3a 3d 10 3d 1b 3c
       0.03664571 0.11469081 0.045597613 0.009475008
0002c0 34 5a 05 be c0 c2 af 3d 32 a8 c8 3d a8 30 3c bd
       -0.13022691 0.085820675 0.09797706 -0.04594484
0002d0 58 00 35 3d be 57 3c bd e4 3e 21 3d c0 55 05 be
       0.04418978 -0.045982115 0.039366618 -0.13020992
0002e0 80 d4 7e bc 2c b1 2f 3d e0 42 0a 3c c0 ff 4a 3d
       -0.015553594 0.042893574 0.008438796 0.04956031
0002f0 0b 3e 91 bd 80 30 8d 3a f2 64 62 bd c4 33 07 be
       -0.07091912 0.00107719 -0.05527205 -0.13203341
000300 48 2d a8 3d f2 56 c7 bd 5c 3d fc 3d 25 2c cd bd
       0.08211762 -0.097333804 0.12316391 -0.100181855
000310 60 f6 0c be f0 4b 3f 3d b4 26 82 bd 0c a5 84 3d
       -0.1376586 0.04670328 -0.06355038 0.06476793
000320 e4 99 fa 3d 3e d5 8c bd dd f9 e7 bd d8 d9 0c 3d
       0.122363836 -0.0687661 -0.113269545 0.03438744
000330 38 ee c7 bc 45 42 d1 bd d5 46 ff bd 63 87 99 bd
       -0.024405584 -0.10217718 -0.12464682 -0.07496526
000340 3f 55 b1 bd 84 df 0d be 88 fd f9 3d 7a 0d 09 3e
       -0.086588375 -0.13854796 0.122065604 0.13384047
000350 b6 18 09 3e 6e f6 87 3d 22 2f a4 3d 10 e1 47 3c
       0.13388333 0.066387996 0.08016802 0.012199655
000360 c8 48 53 3d 1e a6 b5 3d e0 0b 50 bc a0 92 72 3c
       0.05158308 0.08869575 -0.012698144 0.014805466
000370 10 4b 23 bc c0 9a a9 bb 70 c3 3e bc 04 4b f1 bd
       -0.009966627 -0.0051759183 -0.011643276 -0.11781886
000380 c0 f2 03 3d 76 1c 05 be 12 2a c7 3d a0 16 99 3d
       0.032213926 -0.12999138 0.09724821 0.074750185
000390 d0 a8 80 3c d1 b5 ff bd 7f ae 94 bd f0 f8 51 3c
       0.015705496 -0.124858506 -0.07259845 0.012815699
0003a0 c4 5c f0 3d ec de 49 bd 44 6d a6 bd e8 b0 83 bc
       0.11736444 -0.04928486 -0.081263095 -0.016075566
0003b0 6e 78 ca 3d 5c 75 91 3d 00 73 b7 ba 90 65 f8 3d
       0.098862514 0.07102463 -0.0013996065 0.121287465
0003c0 c8 0f fc bd 10 9b 0d 3e ac da d2 3d ce bb 11 bd
       -0.123076975 0.13828683 0.102956146 -0.035579495
0003d0 12 06 aa bd 00 dd d7 3a 83 64 82 bd 50 3b b9 bd
       -0.08301939 0.0016469061 -0.06366827 -0.09044516
0003e0 ec e4 60 bd 4a d2 a7 bd 58 e9 43 3d 56 88 a1 bd
       -0.054905817 -0.08194406 0.047829956 -0.07887332
0003f0 40 5e 06 3d c8 c8 65 bd 00 9f 2e bb e4 2f 6f bd
       0.032804728 -0.056099683 -0.0026645064 -0.05839528

feature_network.0.bias f4 [64]
000000 00 00 00 00 00 00 00 00 9c d3 f7 3b 00 00 00 00
       0.0 0.0 0.0075630676 0.0
000010 b5 10 82 bb 00 00 00 00 80 47 6f bb dc 18 c8 3b
       -0.003969277 0.0 -0.0036511123 0.006106479
000020 24 f0 58 bb ee 57 6f 3b 00 00 00 00 73 7b 37 3b
       -0.003310212 0.0036520916 0.0 0.0027997165
000030 00 00 00 00 bb 58 d3 bb 3c 8d f1 3b 00 00 00 00
       0.0 -0.0064497865 0.007371573 0.0
000040 8b 4f 85 bb 93 e1 84 bb 45 2d 67 bb 00 00 00 00
       -0.00406832 -0.004055211 -0.0035274785 0.0
000050 be 6e f0 bb e7 32 68 3b 3f f2 00 3c 00 00 00 00
       -0.0073374202 0.003543073 0.007870256 0.0
000060 00 00 00 00 7d 38 7b 3b 00 00 00 00 4e 6a e7 bb
       0.0 0.003833323 0.0 -0.007062233
000070 14 e0 98 bb 91 4a 73 3b 3f cf 65 3b 00 00 00 00
       -0.004665384 0.0037123302 0.0035066155 0.0
000080 55 b3 8a 3b 9d 8a f3 bb 8c a6 db 3b 9d 0f 85 3b
       0.004232804 -0.0074322955 0.0067032035 0.004060699
000090 65 9b 7a 3b 00 00 00 00 6a 33 77 3b 00 00 00 00
       0.0038239595 0.0 0.0037719854 0.0
0000a0 86 76 eb bb 00 00 00 00 00 00 00 00 00 00 00 00
       -0.00718576 0.0 0.0 0.0
0000b0 00 00 00 00 43 09 74 3b 00 00 00 00 bc 8f 75 bb
       0.0 0.0037236966 0.0 -0.0037469706
0000c0 00 00 00 00 00 00 00 00 00 00 00 00 cc 84 76 3b
       0.0 0.0 0.0 0.0037615774
0000d0 f6 f9 51 bb 73 cd 08 bc 88 f8 65 bb 00 00 00 00
       -0.0032039857 -0.008349764 -0.0035090763 0.0
0000e0 00 00 00 00 00 00 00 00 00 00 00 00 35 75 91 bb
       0.0 0.0 0.0 -0.004439021
0000f0 73 ff c3 bb 1d 46 a0 bb 35 f6 7f 3b 00 00 00 00
       -0.0059813797 -0.0048911707 0.0039056663 0.0

feature_network.3.weight f4 [32, 64]
000000 34 25 46 be 00 bd 5e 3d c0 8d 46 bd e8 f2 5f be
       -0.1935013 0.054379463 -0.048475027 -0.21870005
000010 d4 9c 25 be d0 99 a0 bc 72 6e 5d be 5a 32 03 3e
       -0.16173106 -0.019604594 -0.21624163 0.12812176
000020 ec 79 ff bd fc ca 96 3d ea 33 63 3e d8 b3 6d 3e
       -0.124744266 0.07362935 0.22187772 0.23213136
000030 88 f7 72 be c6 02 43 be 40 e5 82 3c f0 7b 6e bd
       -0.23727238 -0.19044027 0.015978456 -0.058223665
000040 c6 02 66 3e 3e 9b 6c 3e 40 e1 a0 bc f2 db 3f be
       0.22461995 0.23106095 -0.019638658 -0.18736246
000050 e4 b1 59 be 1c a7 13 3e 20 05 ac bd bc 1c 27 be
       -0.21259266 0.14419216 -0.08399415 -0.16319555
000060 fe 0c 19 be 4c bb 72 be e8 ad a0 bd 46 cc 03 3e
       -0.14946362 -0.2370426 -0.0784567 0.12870893
000070 dc 13 e4 bd 60 bf 5f be 2e f0 5b be d4 09 b0 3d
       -0.111366004 -0.21850348 -0.2147834 0.085956246
000080 a4 54 36 3e ac e1 f2 bd a8 47 44 3e f8 dd 7e 3e
       0.17805725 -0.1185945 0.1916796 0.24889362
000090 10 6a 65 3d 28 15 67 bd 3c e8 df bd 20 c7 d3 3d
       0.056009352 -0.05641666 -0.10932967 0.103407145
0000a0 74 d0 c6 bd c0 13 03 3c 6c 22 79 3e 64 b4 4b 3e
       -0.09707728 0.008000314 0.24329537 0.19893032
0000b0 d0 fb bb 3c 7a 42 35 3e e0 41 20 be b6 34 1e 3e
       0.022947222 0.1770114 -0.1565013 0.15449795
0000c0 d4 d4 eb 3d 02 02 10 3e a6 53 2f be 20 94 98 3d
       0.11515203 0.14063266 -0.17121753 0.074501276
0000d0 2c 74 fe 3d 70 8d 97 3d d4 62 23 3e d0 b5 2c 3e
       0.12424502 0.07400024 0.15955669 0.16866231
0000e0 74 f9 6b be ee e0 0d 3e d8 1c 2e 3d d2 02 1d 3e
       -0.23044378 0.13855335 0.042507976 0.15333107
0000f0 94 81 34 3e 28 71 0b bd 4c 9f 4c 3e 76 c5 0e be
       0.17627555 -0.03404346 0.19982642 -0.13942513
000100 00 b5 b6 ba 4c a6 94 bd e8 ce 0d bd 60 43 58 3d
       -0.001393944 -0.07258281 -0.03462115 0.05279863
000110 00 c7 55 bb 14 7a 34 be 14 66 69 be c0 57 a9 bc
       -0.0032619834 -0.17624694 -0.22792846 -0.020671725
000120 9a 99 00 3e 5a 06 4e 3e 3a a9 25 3e 80 fa 23 bd
       0.12558594 0.2011961 0.16177836 -0.040033817
000130 74 db 9c 3d d8 60 02 be 80 6b a7 3d f0 ef 83 3c
       0.07659045 -0.12732255 0.08174801 0.016105622
000140 30 a0 60 be 38 b5 ae bd 80 62 e2 3d 40 95 c4 3d
       -0.21936107 -0.085306585 0.11053944 0.0959878
000150 b8 20 1e be 60 a5 02 bc dc 8d e6 bd 96 6c 64 be
       -0.15442169 -0.007973999 -0.11257526 -0.22307047
000160 3e bc 0f be cc 41 0f 3e c0 53 21 bc 78 be 7d 3e
       -0.14036652 0.13989943 -0.009846628 0.2477969
000170 7e 1d 26 3e 84 e0 6a be 62 1e 31 3e 90 33 d4 bc
       0.16222188 -0.22937208 0.17296746 -0.025903493
000180 9a b8 4c be c8 27 0e bd b6 8f 11 be 80 d2 51 bd
       -0.19992295 -0.034705907 -0.14214978 -0.05122614
000190 e0 71 da bc b0 1a c0 3c 1e 13 3b be 3c 06 b7 bd
       -0.026665628 0.023450226 -0.18269011 -0.08936736
0001a0 6c 18 1f be 18 21 ad bd 40 7d 33 bd 10 9b 16 3e
       -0.1553666 -0.08453578 -0.04382062 0.14707589
0001b0 e8 b3 39 bd 60 1d 7c bd 14 1b 86 3d 58 f9 a0 3d
       -0.045337588 -0.06155145 0.065481335 0.078600585
0001c0 4e 98 6a be 40 06 b9 3b 06 d1 08 be 10 f7 d2 bd
       -0.22909662 0.005646497 -0.13360986 -0.1030103
0001d0 00 88 d5 ba 48 53 7c 3d c4 eb 9c bd b4 8d 4d 3e
       -0.0016291142 0.06160286 -0.07662156 0.20073587
0001e0 f8 6b 03 be 00 af 00 3b 40 76 a6 3d e8 6f e6 bd
       -0.12834156 0.0019635558 0.08128023 -0.11251813
0001f0 58 cf 74 3d d0 d9 af 3c b8 8d 50 3d 86 35 53 3e
       0.05976805 0.021466166 0.050916404 0.20625886
000200 70 bc 30 bd e0 e7 e3 3c 10 1b 21 bd 00 2b 66 3c
       -0.043148458 0.027820528 -0.03933245 0.014048338
000210 ca 4d 21 be fe c9 70 3e 96 f5 6a be 00 f2 f5 3d
       -0.1575233 0.23514554 -0.22945246 0.120090485
000220 5e 32 0a 3e c0 59 30 3d 40 c2 46 3c b0 75 d3 3c
       0.13495776 0.043054342 0.012131274 0.025812954
000230 60 1e 60 be f0 c5 3e 3d b4 0d 4f 3e fc 0e 57 be
       -0.21886587 0.046575487 0.20220071 -0.2100181
000240 50 a9 86 3c dc 90 63 3e 40 37 48 bd 36 33 53 3e
       0.016438156 0.22223228 -0.048880816 0.20625004
000250 50 d0 dd 3c 0a e2 1d 3e 26 31 68 be 60 f3 e9 3c
       0.02707687 0.15418258 -0.22674999 0.028558433
000260 32 32 20 be f0 ec d3 3d 2e 74 0e be 08 8d 0e be
       -0.15644148 0.103479266 -0.13911507 -0.13920987
000270 ec 96 5e be c4 7b 4b 3e 10 d7 f2 3c c0 5c 2a bc
       -0.2173726 0.19871432 0.029643565 -0.01039809
000280 70 18 73 3d 10 74 fe 3d da b4 7e be c4 43 d1 bd
       0.059349477 0.12424481 -0.24873677 -0.102180034
000290 b4 a5 94 3d 40 9c d3 bb 00 c8 4e 3a a0 8b 9d 3c
       0.07258168 -0.0064578354 0.00078880787 0.019231617
0002a0 56 05 5c be 20 3c c5 bc 36 f4 28 be c8 b8 d7 3d
       -0.2148641 -0.024076521 -0.16499409 0.10533291
0002b0 38 52 03 be e0 3c 23 3c 00 f7 e9 bb b0 3b 78 be
       -0.12824333 0.009963244 -0.0071400404 -0.24241519
0002c0 ba c5 7a be 60 aa 5c be 08 d6 5d 3e f2 3b 60 be
       -0.24489489 -0.21549368 0.21663678 -0.21897867
0002d0 0e f9 04 be fc ff fe 3d 5c bb 3a be f0 d2 d6 bd
       -0.12985632 0.12451169 -0.18235534 -0.10489452
0002e0 4c ae ad 3d 80 8f 33 3b d0 2e 33 bd d8 43 0d 3e
       0.0848051 0.0027398765 -0.043745816 0.13795412
0002f0 cc 5f 3c be 16 80 29 3e e8 1d 51 3d ca 6d 11 be
       -0.18395919 0.16552767 0.05105391 -0.14202037
000300 f8 d6 c5 3d 38 ef 2e bd 8e 92 54 3e b0 d1 aa 3c
       0.09660143 -0.042708606 0.20759031 0.02085194
000310 a2 c1 61 3e 0c 8d 4c be cc a2 25 be 68 89 d9 bd
       0.22046521 -0.1997568 -0.16175383 -0.10621911
000320 00 c6 5f 3b bc b3 3e be b2 2c 27 3e e0 4c 9c bc
       0.0034145117 -0.1862325 0.16325644 -0.019079626
000330 f2 db 1f 3e 90 6a 6d be 58 17 7d bd be 25 6e 3e
       0.15611246 -0.23185182 -0.06178984 0.23256585
000340 1c 5e 02 be 80 13 f5 3d fc 08 63 3e 24 15 1a be
       -0.12731212 0.1196661 0.22171396 -0.15047127
000350 00 e0 c5 3b ec 79 4f 3e 72 19 7d 3e b2 05 69 3e
       0.006038666 0.20261353 0.24716738 0.22756079
000360 90 2e 9a 3d 72 9f 16 3e 7c da ba bd 80 58 01 be
       0.07528412 0.14709261 -0.09123704 -0.12631416
000370 00 60 f6 3b 5c 2e 30 be 00 60 38 bd b8 71 bf 3d
       0.0075187683 -0.17205185 -0.045013428 0.09347862
000380 c2 b8 2f be a0 e3 f8 bc 04 ab ad bd f0 2a 2a bd
       -0.17160323 -0.030381978 -0.08479884 -0.041544855
000390 10 d3 6d 3d f0 39 14 3d 98 51 37 3d 10 70 b1 3c
       0.058062613 0.036188066 0.04475555 0.02165988
0003a0 98 40 08 bd ee 4f 7c 3e e0 8b 81 3d d0 a0 0b 3e
       -0.033264726 0.24639866 0.06325507 0.13635564
0003b0 10 19 dd 3d 00 ce df bd 00 95 83 3c 60 ad 47 bc
       0.10795796 -0.10927963 0.01606226 -0.012187332
0003c0 c8 5a 05 be 3e 48 53 3e cc c1 5d 3e fa 6a 0e 3e
       -0.13022912 0.20633027 0.21655959 0.13907996
0003d0 28 e9 66 be 00 46 ac 3a b4 e3 0c be 50 94 ab bc
       -0.2254988 0.001314342 -0.13758737 -0.020944744
0003e0 e2 17 2c 3e 68 84 02 bd c6 3e 3b be c8 6e 8b bd
       0.16805986 -0.031864554 -0.18285665 -0.06808239
0003f0 44 f4 f8 3d 78 1e 64 bd 78 ed b5 3d 22 69 2e be
       0.12155965 -0.05569312 0.08883184 -0.17032292

feature_network.3.bias f4 [32]
000000 00 00 00 00 00 00 00 00 00 00 00 00 00 00 00 00
       0.0 0.0 0.0 0.0
000010 00 00 00 00 00 00 00 00 94 1d 7b bb a7 fd 7a 3b
       0.0 0.0 -0.003831719 0.0038298161
000020 c6 aa 7c bb 00 00 00 00 00 00 00 00 2a c7 c4 bb
       -0.0038553937 0.0 0.0 -0.0060051875
000030 00 00 00 00 00 00 00 00 4a e3 24 3b 00 00 00 00
       0.0 0.0 0.002515989 0.0
000040 00 00 00 00 c3 5b 7b bb 00 00 00 00 00 00 00 00
       0.0 -0.0038354255 0.0 0.0
000050 0e d3 66 3b 00 00 00 00 d4 1a 7a 3b 00 00 00 00
       0.0035221013 0.0 0.0038162963 0.0
000060 00 00 00 00 33 17 7a 3b ad c5 c4 bb 53 24 7b bb
       0.0 0.00381608 -0.00600501 -0.0038321211
000070 b9 19 7b bb ed bc 7b bb 07 fb 7a 3b 00 00 00 00
       -0.0038314892 -0.003841217 0.0038296597 0.0

q_network.0.weight f4 [1, 32]
000000 d4 22 b4 bd 18 6b 91 3e 00 f5 79 bc c6 47 a3 3e
       -0.087957054 0.2840202 -0.015256166 0.31890696
000010 d4 34 45 3e 96 28 d8 3e 3e 75 a8 3e 07 dc bf be
       0.19258434 0.42218465 0.3290195 -0.37472555
000020 3d d4 1c 3c 42 48 84 be b8 a4 85 bd ee 77 b0 be
       0.009572086 -0.25836378 -0.06525558 -0.344665
000030 76 17 83 3e 7c 33 d7 bd bd dd bf be 70 4e 57 3e
       0.25603837 -0.10507867 -0.3747386 0.21026015
000040 74 fe c6 bd cb 4f 8c 3d 80 6c 7f bd b2 3a 8c be
       -0.09716502 0.06851157 -0.062359333 -0.2738853
000050 c8 55 05 be 16 bc 97 3e 05 64 c6 be 44 5e 57 3e
       -0.13021004 0.29635686 -0.38748184 0.21032053
000060 f0 57 1b 3e 87 47 99 be 84 d8 61 be c6 48 6f 3e
       0.15170264 -0.29937384 -0.2205525 0.23367605
000070 e7 18 d2 3e f1 3a cc 3c c5 21 9f be c4 ea d4 3e
       0.41034624 0.02493045 -0.31080452 0.41585362

feature_network.0.weight f4 [64, 239]
000000 d4 cf 02 3e 44 ca a2 bd c0 41 0b 3c 28 58 0d 3d
       0.12774593 -0.07948735 0.008499563 0.0345079
000010 5d 15 f9 bd c0 47 0e be 2a f2 7e bd b0 c0 dc bd
       -0.12162278 -0.13894558 -0.062242664 -0.1077894
000020 72 88 09 3e 80 e6 c5 3b 2e d7 a3 3d b4 3b 38 3d
       0.13430956 0.0060394406 0.08000027 0.044978812
000030 14 ce 66 bd e5 c7 d4 bd 48 54 2f 3d 62 fe a0 bd
       -0.056348875 -0.10389689 0.042804986 -0.0786102
000040 24 65 d9 bd 97 9b b6 bd 70 09 19 3d 4e ed 09 3e
       -0.10614994 -0.08916395 0.037362516 0.13469431
000050 00 fb be bb 5e b3 1c bd 3c 4a c0 3d ec ef 26 3d
       -0.0058282614 -0.038256995 0.09389159 0.04075615
000060 a8 f6 61 bd c8 12 20 3d 7a 38 d7 bd ae 67 cb bd
       -0.05516687 0.03908041 -0.10508819 -0.09931885
000070 f9 be 8e bd 90 56 1e bc 0c 06 e1 3d d0 cb 46 bc
       -0.06970019 -0.009664193 0.109874815 -0.012133554
000080 b0 ae 69 3d c0 b0 f4 3c 30 e5 b2 3c 70 6e ae 3d
       0.05705136 0.029869437 0.0218378 0.08517158
000090 a3 39 c9 bd 30 4b aa bc 12 80 aa bd 00 0c 19 bb
       -0.098254465 -0.020787805 -0.08325209 -0.00233531
0000a0 d0 93 a0 3c 58 1f a5 3c 5e 8c 00 be a2 a3 3a bd
       0.019601732 0.020156547 -0.12553546 -0.04556621
0000b0 2b 81 04 be fe 0d 0e 3e 24 f1 b6 bd 54 ab bd bc
       -0.12939899 0.13872525 -0.08932713 -0.023152985
0000c0 80 5f af 3c 86 3a 01 3e 08 09 08 3e 76 c3 01 be
       0.021407843 0.12619981 0.13284695 -0.12672219
0000d0 76 54 0c be f6 86 ab 3d de df 29 bd c9 c8 07 be
       -0.13704094 0.08375351 -0.041473262 -0.13260187
0000e0 0c ae ac 3d 78 54 ee bd 42 49 59 bd 52 42 0b 3e
       0.08431634 -0.11637205 -0.05304838 0.13599518
0000f0 e6 f7 be 3d 66 68 df 3d 1a 74 ae 3d bc c1 d0 bd
       0.093246266 0.10908584 0.08518238 -0.10193202
000100 48 42 e9 bc e8 b4 b7 3c 7c f5 dc 3d 50 75 6f bc
       -0.028473988 0.02242513 0.1078901 -0.014615372
000110 16 04 72 bd b0 9d 37 3c 7e aa 8b 3d 52 25 61 bd
       -0.059085928 0.011207029 0.06819628 -0.054967232
000120 26 e4 d1 3d b0 1e ae 3d b8 0d 08 be 8e 41 0b 3e
       0.10248594 0.08501947 -0.13286483 0.13599226
000130 fa 53 b0 bd ac 26 5d 3d 90 66 54 bc f0 c3 24 3c
       -0.08609767 0.05399196 -0.012963906 0.010056481
000140 56 f9 e7 bd 48 58 21 3d e0 5e 74 bd ae d2 44 bd
       -0.11326854 0.039390832 -0.059660792 -0.048052482
000150 58 b6 31 3d 34 96 86 3d c1 ba 84 bd 28 dd 04 bd
       0.043386787 0.06571618 -0.06480933 -0.032437474
000160 0b 64 05 be 90 f0 36 bc 80 a7 98 3d 10 66 21 3c
       -0.13026445 -0.011165753 0.07453823 0.009850994
000170 e8 cf 93 3c e0 ba ef 3b be 55 a4 3d e4 09 9a 3d
       0.018043473 0.0073159784 0.080241665 0.07521418
000180 64 91 b4 bd 44 c7 b4 bd 6a 1d 38 bd 50 b0 83 bc
       -0.088167936 -0.088270694 -0.044949926 -0.016075283
000190 68 53 86 bc e4 9a 35 3d 4a e8 12 bd 3c ba b8 bc
       -0.016397193 0.04433717 -0.03586606 -0.022549741
0001a0 60 79 dd 3b d0 84 ed 3c 90 bf b8 bd 90 77 5f bd
       0.006758854 0.028993994 -0.09020913 -0.054557383
0001b0 a4 2a e1 bd 12 cd 07 bd 30 dd d8 3c fc cd a2 bc
       -0.10994461 -0.033154555 0.026472658 -0.019873612
0001c0 58 9f 0a be 64 81 eb bd 80 37 dc 3b c0 4f 97 3c
       -0.13537347 -0.11499289 0.0067204833 0.018470645
0001d0 34 55 12 3d 70 42 0e bd e0 35 af 3b a6 08 f3 bd
       0.035725787 -0.03473133 0.0053469986 -0.11866884
0001e0 e6 53 88 bd 18 fa 17 bd c2 2d e2 bd a0 b4 2e bc
       -0.06656627 -0.037103742 -0.11043884 -0.010663182
0001f0 ec 64 0a be c8 7f 99 3c 1f a3 f7 bd 60 70 a2 3d
       -0.13515061 0.018737689 -0.1209166 0.0793159
000200 a4 00 19 3d 58 11 10 3d 24 16 f1 3d 00 c4 b7 3d
       0.037354127 0.03517279 0.11771801 0.08972931
000210 98 d8 b8 3c 3c e6 ea 3d 5f 16 0c be 74 4a fb 3d
       0.022564217 0.11469695 -0.13680409 0.1227006
000220 b4 23 c7 bd c9 17 be bd 20 9c cd bb 40 36 1d bc
       -0.09723607 -0.092818804 -0.006274715 -0.009595454
000230 c8 50 0c be 76 ed 9b bd d0 d6 31 bc 88 7f ec 3c
       -0.1370269 -0.076136515 -0.010854438 0.028869405
000240 00 c9 60 bc ea 93 48 bd 68 8b 2a bd e8 9a 23 3d
       -0.013719797 -0.048969187 -0.041636854 0.039942652
000250 bf a2 94 bd 9a d7 a1 3d 41 bd f3 bd 20 c4 c1 bc
       -0.07257604 0.07902451 -0.11901332 -0.02365309
000260 96 c1 81 3d c4 9e 05 3e a6 a7 e9 bd d0 87 1f 3d
       0.06335752 0.13048846 -0.114089295 0.03894788
000270 b8 61 08 bd 71 c7 ff bd 16 ae 0e 3e 92 b9 96 3d
       -0.033296317 -0.12489212 0.13933596 0.073596135
000280 68 8a c6 bd 62 12 da 3d d8 20 c9 bd 70 9f b3 3c
       -0.09694368 0.106480375 -0.098207176 0.021926612
000290 d6 88 ae 3d bc 52 11 3d d2 9a 97 3d 00 cc 3f bc
       0.08522193 0.035479292 0.074025765 -0.011706352
0002a0 d5 38 e9 bd 2e 7e 30 bd 24 04 0b 3d f4 91 f4 3d
       -0.11387793 -0.043089084 0.033939496 0.11941901
0002b0 d0 19 16 3d 04 e3 ea 3d 90 c4 3a 3d 10 3d 1b 3c
       0.03664571 0.11469081 0.045597613 0.009475008
0002c0 34 5a 05 be c0 c2 af 3d 32 a8 c8 3d a8 30 3c bd
       -0.13022691 0.085820675 0.09797706 -0.04594484
0002d0 58 00 35 3d be 57 3c bd e4 3e 21 3d c0 55 05 be
       0.04418978 -0.045982115 0.039366618 -0.13020992
0002e0 80 d4 7e bc 2c b1 2f 3d e0 42 0a 3c c0 ff 4a 3d
       -0.015553594 0.042893574 0.008438796 0.04956031
0002f0 0b 3e 91 bd 80 30 8d 3a f2 64 62 bd c4 33 07 be
       -0.07091912 0.00107719 -0.05527205 -0.13203341
000300 48 2d a8 3d f2 56 c7 bd 5c 3d fc 3d 25 2c cd bd
       0.08211762 -0.097333804 0.12316391 -0.100181855
000310 60 f6 0c be f0 4b 3f 3d b4 26 82 bd 0c a5 84 3d
       -0.1376586 0.04670328 -0.06355038 0.06476793
000320 e4 99 fa 3d 3e d5 8c bd dd f9 e7 bd d8 d9 0c 3d
       0.122363836 -0.0687661 -0.113269545 0.03438744
000330 38 ee c7 bc 45 42 d1 bd d5 46 ff bd 63 87 99 bd
       -0.024405584 -0.10217718 -0.12464682 -0.07496526
000340 3f 55 b1 bd 84 df 0d be 88 fd f9 3d 7a 0d 09 3e
       -0.086588375 -0.13854796 0.122065604 0.13384047
000350 b6 18 09 3e 6e f6 87 3d 22 2f a4 3d 10 e1 47 3c
       0.13388333 0.066387996 0.08016802 0.012199655
000360 c8 48 53 3d 1e a6 b5 3d e0 0b 50 bc a0 92 72 3c
       0.05158308 0.08869575 -0.012698144 0.014805466
000370 10 4b 23 bc c0 9a a9 bb 70 c3 3e bc 04 4b f1 bd
       -0.009966627 -0.0051759183 -0.011643276 -0.11781886
000380 c0 f2 03 3d 76 1c 05 be 12 2a c7 3d a0 16 99 3d
       0.032213926 -0.12999138 0.09724821 0.074750185
000390 d0 a8 80 3c d1 b5 ff bd 7f ae 94 bd f0 f8 51 3c
       0.015705496 -0.124858506 -0.07259845 0.012815699
0003a0 c4 5c f0 3d ec de 49 bd 44 6d a6 bd e8 b0 83 bc
       0.11736444 -0.04928486 -0.081263095 -0.016075566
0003b0 6e 78 ca 3d 5c 75 91 3d 00 73 b7 ba 90 65 f8 3d
       0.098862514 0.07102463 -0.0013996065 0.121287465
0003c0 c8 0f fc bd 10 9b 0d 3e ac da d2 3d ce bb 11 bd
       -0.123076975 0.13828683 0.102956146 -0.035579495
0003d0 12 06 aa bd 00 dd d7 3a 83 64 82 bd 50 3b b9 bd
       -0.08301939 0.0016469061 -0.06366827 -0.09044516
0003e0 ec e4 60 bd 4a d2 a7 bd 58 e9 43 3d 56 88 a1 bd
       -0.054905817 -0.08194406 0.047829956 -0.07887332
0003f0 40 5e 06 3d c8 c8 65 bd 00 9f 2e bb e4 2f 6f bd
       0.032804728 -0.056099683 -0.0026645064 -0.05839528

feature_network.0.bias f4 [64]
000000 00 00 00 00 00 00 00 00 9c d3 f7 3b 00 00 00 00
       0.0 0.0 0.0075630676 0.0
000010 b5 10 82 bb 00 00 00 00 80 47 6f bb dc 18 c8 3b
       -0.003969277 0.0 -0.0036511123 0.006106479
000020 24 f0 58 bb ee 57 6f 3b 00 00 00 00 73 7b 37 3b
       -0.003310212 0.0036520916 0.0 0.0027997165
000030 00 00 00 00 bb 58 d3 bb 3c 8d f1 3b 00 00 00 00
       0.0 -0.0064497865 0.007371573 0.0
000040 8b 4f 85 bb 93 e1 84 bb 45 2d 67 bb 00 00 00 00
       -0.00406832 -0.004055211 -0.0035274785 0.0
000050 be 6e f0 bb e7 32 68 3b 3f f2 00 3c 00 00 00 00
       -0.0073374202 0.003543073 0.007870256 0.0
000060 00 00 00 00 7d 38 7b 3b 00 00 00 00 4e 6a e7 bb
       0.0 0.003833323 0.0 -0.007062233
000070 14 e0 98 bb 91 4a 73 3b 3f cf 65 3b 00 00 00 00
       -0.004665384 0.0037123302 0.0035066155 0.0
000080 55 b3 8a 3b 9d 8a f3 bb 8c a6 db 3b 9d 0f 85 3b
       0.004232804 -0.0074322955 0.0067032035 0.004060699
000090 65 9b 7a 3b 00 00 00 00 6a 33 77 3b 00 00 00 00
       0.0038239595 0.0 0.0037719854 0.0
0000a0 86 76 eb bb 00 00 00 00 00 00 00 00 00 00 00 00
       -0.00718576 0.0 0.0 0.0
0000b0 00 00 00 00 43 09 74 3b 00 00 00 00 bc 8f 75 bb
       0.0 0.0037236966 0.0 -0.0037469706
0000c0 00 00 00 00 00 00 00 00 00 00 00 00 cc 84 76 3b
       0.0 0.0 0.0 0.0037615774
0000d0 f6 f9 51 bb 73 cd 08 bc 88 f8 65 bb 00 00 00 00
       -0.0032039857 -0.008349764 -0.0035090763 0.0
0000e0 00 00 00 00 00 00 00 00 00 00 00 00 35 75 91 bb
       0.0 0.0 0.0 -0.004439021
0000f0 73 ff c3 bb 1d 46 a0 bb 35 f6 7f 3b 00 00 00 00
       -0.0059813797 -0.0048911707 0.0039056663 0.0

feature_network.3.weight f4 [32, 64]
000000 34 25 46 be 00 bd 5e 3d c0 8d 46 bd e8 f2 5f be
       -0.1935013 0.054379463 -0.048475027 -0.21870005
000010 d4 9c 25 be d0 99 a0 bc 72 6e 5d be 5a 32 03 3e
       -0.16173106 -0.019604594 -0.21624163 0.12812176
000020 ec 79 ff bd fc ca 96 3d ea 33 63 3e d8 b3 6d 3e
       -0.124744266 0.07362935 0.22187772 0.23213136
000030 88 f7 72 be c6 02 43 be 40 e5 82 3c f0 7b 6e bd
       -0.23727238 -0.19044027 0.015978456 -0.058223665
000040 c6 02 66 3e 3e 9b 6c 3e 40 e1 a0 bc f2 db 3f be
       0.22461995 0.23106095 -0.019638658 -0.18736246
000050 e4 b1 59 be 1c a7 13 3e 20 05 ac bd bc 1c 27 be
       -0.21259266 0.14419216 -0.08399415 -0.16319555
000060 fe 0c 19 be 4c bb 72 be e8 ad a0 bd 46 cc 03 3e
       -0.14946362 -0.2370426 -0.0784567 0.12870893
000070 dc 13 e4 bd 60 bf 5f be 2e f0 5b be d4 09 b0 3d
       -0.111366004 -0.21850348 -0.2147834 0.085956246
000080 a4 54 36 3e ac e1 f2 bd a8 47 44 3e f8 dd 7e 3e
       0.17805725 -0.1185945 0.1916796 0.24889362
000090 10 6a 65 3d 28 15 67 bd 3c e8 df bd 20 c7 d3 3d
       0.056009352 -0.05641666 -0.10932967 0.103407145
0000a0 74 d0 c6 bd c0 13 03 3c 6c 22 79 3e 64 b4 4b 3e
       -0.09707728 0.008000314 0.24329537 0.19893032
0000b0 d0 fb bb 3c 7a 42 35 3e e0 41 20 be b6 34 1e 3e
       0.022947222 0.1770114 -0.1565013 0.15449795
0000c0 d4 d4 eb 3d 02 02 10 3e a6 53 2f be 20 94 98 3d
       0.11515203 0.14063266 -0.17121753 0.074501276
0000d0 2c 74 fe 3d 70 8d 97 3d d4 62 23 3e d0 b5 2c 3e
       0.12424502 0.07400024 0.15955669 0.16866231
0000e0 74 f9 6b be ee e0 0d 3e d8 1c 2e 3d d2 02 1d 3e
       -0.23044378 0.13855335 0.042507976 0.15333107
0000f0 94 81 34 3e 28 71 0b bd 4c 9f 4c 3e 76 c5 0e be
       0.17627555 -0.03404346 0.19982642 -0.13942513
000100 00 b5 b6 ba 4c a6 94 bd e8 ce 0d bd 60 43 58 3d
       -0.001393944 -0.07258281 -0.03462115 0.05279863
000110 00 c7 55 bb 14 7a 34 be 14 66 69 be c0 57 a9 bc
       -0.0032619834 -0.17624694 -0.22792846 -0.020671725
000120 9a 99 00 3e 5a 06 4e 3e 3a a9 25 3e 80 fa 23 bd
       0.12558594 0.2011961 0.16177836 -0.040033817
000130 74 db 9c 3d d8 60 02 be 80 6b a7 3d f0 ef 83 3c
       0.07659045 -0.12732255 0.08174801 0.016105622
000140 30 a0 60 be 38 b5 ae bd 80 62 e2 3d 40 95 c4 3d
       -0.21936107 -0.085306585 0.11053944 0.0959878
000150 b8 20 1e be 60 a5 02 bc dc 8d e6 bd 96 6c 64 be
       -0.15442169 -0.007973999 -0.11257526 -0.22307047
000160 3e bc 0f be cc 41 0f 3e c0 53 21 bc 78 be 7d 3e
       -0.14036652 0.13989943 -0.009846628 0.2477969
000170 7e 1d 26 3e 84 e0 6a be 62 1e 31 3e 90 33 d4 bc
       0.16222188 -0.22937208 0.17296746 -0.025903493
000180 9a b8 4c be c8 27 0e bd b6 8f 11 be 80 d2 51 bd
       -0.19992295 -0.034705907 -0.14214978 -0.05122614
000190 e0 71 da bc b0 1a c0 3c 1e 13 3b be 3c 06 b7 bd
       -0.026665628 0.023450226 -0.18269011 -0.08936736
0001a0 6c 18 1f be 18 21 ad bd 40 7d 33 bd 10 9b 16 3e
       -0.1553666 -0.08453578 -0.04382062 0.14707589
0001b0 e8 b3 39 bd 60 1d 7c bd 14 1b 86 3d 58 f9 a0 3d
       -0.045337588 -0.06155145 0.065481335 0.078600585
0001c0 4e 98 6a be 40 06 b9 3b 06 d1 08 be 10 f7 d2 bd
       -0.22909662 0.005646497 -0.13360986 -0.1030103
0001d0 00 88 d5 ba 48 53 7c 3d c4 eb 9c bd b4 8d 4d 3e
       -0.0016291142 0.06160286 -0.07662156 0.20073587
0001e0 f8 6b 03 be 00 af 00 3b 40 76 a6 3d e8 6f e6 bd
       -0.12834156 0.0019635558 0.08128023 -0.11251813
0001f0 58 cf 74 3d d0 d9 af 3c b8 8d 50 3d 86 35 53 3e
       0.05976805 0.021466166 0.050916404 0.20625886
000200 70 bc 30 bd e0 e7 e3 3c 10 1b 21 bd 00 2b 66 3c
       -0.043148458 0.027820528 -0.03933245 0.014048338
000210 ca 4d 21 be fe c9 70 3e 96 f5 6a be 00 f2 f5 3d
       -0.1575233 0.23514554 -0.22945246 0.120090485
000220 5e 32 0a 3e c0 59 30 3d 40 c2 46 3c b0 75 d3 3c
       0.13495776 0.043054342 0.012131274 0.025812954
000230 60 1e 60 be f0 c5 3e 3d b4 0d 4f 3e fc 0e 57 be
       -0.21886587 0.046575487 0.20220071 -0.2100181
000240 50 a9 86 3c dc 90 63 3e 40 37 48 bd 36 33 53 3e
       0.016438156 0.22223228 -0.048880816 0.20625004
000250 50 d0 dd 3c 0a e2 1d 3e 26 31 68 be 60 f3 e9 3c
       0.02707687 0.15418258 -0.22674999 0.028558433
000260 32 32 20 be f0 ec d3 3d 2e 74 0e be 08 8d 0e be
       -0.15644148 0.103479266 -0.13911507 -0.13920987
000270 ec 96 5e be c4 7b 4b 3e 10 d7 f2 3c c0 5c 2a bc
       -0.2173726 0.19871432 0.029643565 -0.01039809
000280 70 18 73 3d 10 74 fe 3d da b4 7e be c4 43 d1 bd
       0.059349477 0.12424481 -0.24873677 -0.102180034
000290 b4 a5 94 3d 40 9c d3 bb 00 c8 4e 3a a0 8b 9d 3c
       0.07258168 -0.0064578354 0.00078880787 0.019231617
0002a0 56 05 5c be 20 3c c5 bc 36 f4 28 be c8 b8 d7 3d
       -0.2148641 -0.024076521 -0.16499409 0.10533291
0002b0 38 52 03 be e0 3c 23 3c 00 f7 e9 bb b0 3b 78 be
       -0.12824333 0.009963244 -0.0071400404 -0.24241519
0002c0 ba c5 7a be 60 aa 5c be 08 d6 5d 3e f2 3b 60 be
       -0.24489489 -0.21549368 0.21663678 -0.21897867
0002d0 0e f9 04 be fc ff fe 3d 5c bb 3a be f0 d2 d6 bd
       -0.12985632 0.12451169 -0.18235534 -0.10489452
0002e0 4c ae ad 3d 80 8f 33 3b d0 2e 33 bd d8 43 0d 3e
       0.0848051 0.0027398765 -0.043745816 0.13795412
0002f0 cc 5f 3c be 16 80 29 3e e8 1d 51 3d ca 6d 11 be
       -0.18395919 0.16552767 0.05105391 -0.14202037
000300 f8 d6 c5 3d 38 ef 2e bd 8e 92 54 3e b0 d1 aa 3c
       0.09660143 -0.042708606 0.20759031 0.02085194
000310 a2 c1 61 3e 0c 8d 4c be cc a2 25 be 68 89 d9 bd
       0.22046521 -0.1997568 -0.16175383 -0.10621911
000320 00 c6 5f 3b bc b3 3e be b2 2c 27 3e e0 4c 9c bc
       0.0034145117 -0.1862325 0.16325644 -0.019079626
000330 f2 db 1f 3e 90 6a 6d be 58 17 7d bd be 25 6e 3e
       0.15611246 -0.23185182 -0.06178984 0.23256585
000340 1c 5e 02 be 80 13 f5 3d fc 08 63 3e 24 15 1a be
       -0.12731212 0.1196661 0.22171396 -0.15047127
000350 00 e0 c5 3b ec 79 4f 3e 72 19 7d 3e b2 05 69 3e
       0.006038666 0.20261353 0.24716738 0.22756079
000360 90 2e 9a 3d 72 9f 16 3e 7c da ba bd 80 58 01 be
       0.07528412 0.14709261 -0.09123704 -0.12631416
000370 00 60 f6 3b 5c 2e 30 be 00 60 38 bd b8 71 bf 3d
       0.0075187683 -0.17205185 -0.045013428 0.09347862
000380 c2 b8 2f be a0 e3 f8 bc 04 ab ad bd f0 2a 2a bd
       -0.17160323 -0.030381978 -0.08479884 -0.041544855
000390 10 d3 6d 3d f0 39 14 3d 98 51 37 3d 10 70 b1 3c
       0.058062613 0.036188066 0.04475555 0.02165988
0003a0 98 40 08 bd ee 4f 7c 3e e0 8b 81 3d d0 a0 0b 3e
       -0.033264726 0.24639866 0.06325507 0.13635564
0003b0 10 19 dd 3d 00 ce df bd 00 95 83 3c 60 ad 47 bc
       0.10795796 -0.10927963 0.01606226 -0.012187332
0003c0 c8 5a 05 be 3e 48 53 3e cc c1 5d 3e fa 6a 0e 3e
       -0.13022912 0.20633027 0.21655959 0.13907996
0003d0 28 e9 66 be 00 46 ac 3a b4 e3 0c be 50 94 ab bc
       -0.2254988 0.001314342 -0.13758737 -0.020944744
0003e0 e2 17 2c 3e 68 84 02 bd c6 3e 3b be c8 6e 8b bd
       0.16805986 -0.031864554 -0.18285665 -0.06808239
0003f0 44 f4 f8 3d 78 1e 64 bd 78 ed b5 3d 22 69 2e be
       0.12155965 -0.05569312 0.08883184 -0.17032292

feature_network.3.bias f4 [32]
000000 00 00 00 00 00 00 00 00 00 00 00 00 00 00 00 00
       0.0 0.0 0.0 0.0
000010 00 00 00 00 00 00 00 00 94 1d 7b bb a7 fd 7a 3b
       0.0 0.0 -0.003831719 0.0038298161
000020 c6 aa 7c bb 00 00 00 00 00 00 00 00 2a c7 c4 bb
       -0.0038553937 0.0 0.0 -0.0060051875
000030 00 00 00 00 00 00 00 00 4a e3 24 3b 00 00 00 00
       0.0 0.0 0.002515989 0.0
000040 00 00 00 00 c3 5b 7b bb 00 00 00 00 00 00 00 00
       0.0 -0.0038354255 0.0 0.0
000050 0e d3 66 3b 00 00 00 00 d4 1a 7a 3b 00 00 00 00
       0.0035221013 0.0 0.0038162963 0.0
000060 00 00 00 00 33 17 7a 3b ad c5 c4 bb 53 24 7b bb
       0.0 0.00381608 -0.00600501 -0.0038321211
000070 b9 19 7b bb ed bc 7b bb 07 fb 7a 3b 00 00 00 00
       -0.0038314892 -0.003841217 0.0038296597 0.0

q_network.0.weight f4 [1, 32]
000000 d4 22 b4 bd 18 6b 91 3e 00 f5 79 bc c6 47 a3 3e
       -0.087957054 0.2840202 -0.015256166 0.31890696
000010 d4 34 45 3e 96 28 d8 3e 3e 75 a8 3e 07 dc bf be
       0.19258434 0.42218465 0.3290195 -0.37472555
000020 3d d4 1c 3c 42 48 84 be b8 a4 85 bd ee 77 b0 be
       0.009572086 -0.25836378 -0.06525558 -0.344665
000030 76 17 83 3e 7c 33 d7 bd bd dd bf be 70 4e 57 3e
       0.25603837 -0.10507867 -0.3747386 0.21026015
000040 74 fe c6 bd cb 4f 8c 3d 80 6c 7f bd b2 3a 8c be
       -0.09716502 0.06851157 -0.062359333 -0.2738853
000050 c8 55 05 be 16 bc 97 3e 05 64 c6 be 44 5e 57 3e
       -0.13021004 0.29635686 -0.38748184 0.21032053
000060 f0 57 1b 3e 87 47 99 be 84 d8 61 be c6 48 6f 3e
       0.15170264 -0.29937384 -0.2205525 0.23367605
000070 e7 18 d2 3e f1 3a cc 3c c5 21 9f be c4 ea d4 3e
       0.41034624 0.02493045 -0.31080452 0.41585362

exp_avg f4 [64, 239]
000000 00 00 00 00 00 00 00 00 00 00 00 00 00 00 00 00
       0.0 0.0 0.0 0.0
000010 00 00 00 00 00 00 00 00 00 00 00 00 00 00 00 00
       0.0 0.0 0.0 0.0
000020 00 00 00 00 00 00 00 00 00 00 00 00 00 00 00 00
       0.0 0.0 0.0 0.0
000030 00 00 00 00 00 00 00 00 00 00 00 00 00 00 00 00
       0.0 0.0 0.0 0.0
000040 00 00 00 00 00 00 00 00 00 00 00 00 00 00 00 00
       0.0 0.0 0.0 0.0
000050 00 00 00 00 00 00 00 00 00 00 00 00 00 00 00 00
       0.0 0.0 0.0 0.0
000060 00 00 00 00 00 00 00 00 00 00 00 00 00 00 00 00
       0.0 0.0 0.0 0.0
000070 00 00 00 00 00 00 00 00 00 00 00 00 00 00 00 00
       0.0 0.0 0.0 0.0
000080 00 00 00 00 00 00 00 00 00 00 00 00 00 00 00 00
       0.0 0.0 0.0 0.0
000090 00 00 00 00 00 00 00 00 00 00 00 00 00 00 00 00
       0.0 0.0 0.0 0.0
0000a0 00 00 00 00 00 00 00 00 00 00 00 00 00 00 00 00
       0.0 0.0 0.0 0.0
0000b0 00 00 00 00 00 00 00 00 00 00 00 00 00 00 00 00
       0.0 0.0 0.0 0.0
0000c0 00 00 00 00 00 00 00 00 00 00 00 00 00 00 00 00
       0.0 0.0 0.0 0.0
0000d0 00 00 00 00 00 00 00 00 00 00 00 00 00 00 00 00
       0.0 0.0 0.0 0.0
0000e0 00 00 00 00 00 00 00 00 00 00 00 00 00 00 00 00
       0.0 0.0 0.0 0.0
0000f0 00 00 00 00 00 00 00 00 00 00 00 00 00 00 00 00
       0.0 0.0 0.0 0.0
000100 00 00 00 00 00 00 00 00 00 00 00 00 00 00 00 00
       0.0 0.0 0.0 0.0
000110 00 00 00 00 00 00 00 00 00 00 00 00 00 00 00 00
       0.0 0.0 0.0 0.0
000120 00 00 00 00 00 00 00 00 00 00 00 00 00 00 00 00
       0.0 0.0 0.0 0.0
000130 00 00 00 00 00 00 00 00 00 00 00 00 00 00 00 00
       0.0 0.0 0.0 0.0
000140 00 00 00 00 00 00 00 00 00 00 00 00 00 00 00 00
       0.0 0.0 0.0 0.0
000150 00 00 00 00 00 00 00 00 00 00 00 00 00 00 00 00
       0.0 0.0 0.0 0.0
000160 00 00 00 00 00 00 00 00 00 00 00 00 00 00 00 00
       0.0 0.0 0.0 0.0
000170 00 00 00 00 00 00 00 00 00 00 00 00 00 00 00 00
       0.0 0.0 0.0 0.0
000180 00 00 00 00 00 00 00 00 00 00 00 00 00 00 00 00
       0.0 0.0 0.0 0.0
000190 00 00 00 00 00 00 00 00 00 00 00 00 00 00 00 00
       0.0 0.0 0.0 0.0
0001a0 00 00 00 00 00 00 00 00 00 00 00 00 00 00 00 00
       0.0 0.0 0.0 0.0
0001b0 00 00 00 00 00 00 00 00 00 00 00 00 00 00 00 00
       0.0 0.0 0.0 0.0
0001c0 00 00 00 00 00 00 00 00 00 00 00 00 00 00 00 00
       0.0 0.0 0.0 0.0
0001d0 00 00 00 00 00 00 00 00 00 00 00 00 00 00 00 00
       0.0 0.0 0.0 0.0
0001e0 00 00 00 00 00 00 00 00 00 00 00 00 00 00 00 00
       0.0 0.0 0.0 0.0
0001f0 00 00 00 00 00 00 00 00 00 00 00 00 00 00 00 00
       0.0 0.0 0.0 0.0
000200 00 00 00 00 00 00 00 00 00 00 00 00 00 00 00 00
       0.0 0.0 0.0 0.0
000210 00 00 00 00 00 00 00 00 00 00 00 00 00 00 00 00
       0.0 0.0 0.0 0.0
000220 00 00 00 00 00 00 00 00 00 00 00 00 00 00 00 00
       0.0 0.0 0.0 0.0
000230 00 00 00 00 00 00 00 00 00 00 00 00 00 00 00 00
       0.0 0.0 0.0 0.0
000240 00 00 00 00 00 00 00 00 00 00 00 00 00 00 00 00
       0.0 0.0 0.0 0.0
000250 00 00 00 00 00 00 00 00 00 00 00 00 00 00 00 00
       0.0 0.0 0.0 0.0
000260 00 00 00 00 00 00 00 00 00 00 00 00 00 00 00 00
       0.0 0.0 0.0 0.0
000270 00 00 00 00 00 00 00 00 00 00 00 00 00 00 00 00
       0.0 0.0 0.0 0.0
000280 00 00 00 00 00 00 00 00 00 00 00 00 00 00 00 00
       0.0 0.0 0.0 0.0
000290 00 00 00 00 00 00 00 00 00 00 00 00 00 00 00 00
       0.0 0.0 0.0 0.0
0002a0 00 00 00 00 00 00 00 00 00 00 00 00 00 00 00 00
       0.0 0.0 0.0 0.0
0002b0 00 00 00 00 00 00 00 00 00 00 00 00 00 00 00 00
       0.0 0.0 0.0 0.0
0002c0 00 00 00 00 00 00 00 00 00 00 00 00 00 00 00 00
       0.0 0.0 0.0 0.0
0002d0 00 00 00 00 00 00 00 00 00 00 00 00 00 00 00 00
       0.0 0.0 0.0 0.0
0002e0 00 00 00 00 00 00 00 00 00 00 00 00 00 00 00 00
       0.0 0.0 0.0 0.0
0002f0 00 00 00 00 00 00 00 00 00 00 00 00 00 00 00 00
       0.0 0.0 0.0 0.0
000300 00 00 00 00 00 00 00 00 00 00 00 00 00 00 00 00
       0.0 0.0 0.0 0.0
000310 00 00 00 00 00 00 00 00 00 00 00 00 00 00 00 00
       0.0 0.0 0.0 0.0
000320 00 00 00 00 00 00 00 00 00 00 00 00 00 00 00 00
       0.0 0.0 0.0 0.0
000330 00 00 00 00 00 00 00 00 00 00 00 00 00 00 00 00
       0.0 0.0 0.0 0.0
000340 00 00 00 00 00 00 00 00 00 00 00 00 00 00 00 00
       0.0 0.0 0.0 0.0
000350 00 00 00 00 00 00 00 00 00 00 00 00 00 00 00 00
       0.0 0.0 0.0 0.0
000360 00 00 00 00 00 00 00 00 00 00 00 00 00 00 00 00
       0.0 0.0 0.0 0.0
000370 00 00 00 00 00 00 00 00 00 00 00 00 00 00 00 00
       0.0 0.0 0.0 0.0
000380 00 00 00 00 00 00 00 00 00 00 00 00 00 00 00 00
       0.0 0.0 0.0 0.0
000390 00 00 00 00 00 00 00 00 00 00 00 00 00 00 00 00
       0.0 0.0 0.0 0.0
0003a0 00 00 00 00 00 00 00 00 00 00 00 00 00 00 00 00
       0.0 0.0 0.0 0.0
0003b0 00 00 00 00 00 00 00 00 00 00 00 00 00 00 00 00
       0.0 0.0 0.0 0.0
0003c0 00 00 00 00 00 00 00 00 00 00 00 00 00 00 00 00
       0.0 0.0 0.0 0.0
0003d0 00 00 00 00 00 00 00 00 00 00 00 00 00 00 00 00
       0.0 0.0 0.0 0.0
0003e0 00 00 00 00 00 00 00 00 00 00 00 00 00 00 00 00
       0.0 0.0 0.0 0.0
0003f0 00 00 00 00 00 00 00 00 00 00 00 00 00 00 00 00
       0.0 0.0 0.0 0.0

exp_avg_sq f4 [64, 239]
000000 00 00 00 00 00 00 00 00 00 00 00 00 00 00 00 00
       0.0 0.0 0.0 0.0
000010 00 00 00 00 00 00 00 00 00 00 00 00 00 00 00 00
       0.0 0.0 0.0 0.0
000020 00 00 00 00 00 00 00 00 00 00 00 00 00 00 00 00
       0.0 0.0 0.0 0.0
000030 00 00 00 00 00 00 00 00 00 00 00 00 00 00 00 00
       0.0 0.0 0.0 0.0
000040 00 00 00 00 00 00 00 00 00 00 00 00 00 00 00 00
       0.0 0.0 0.0 0.0
000050 00 00 00 00 00 00 00 00 00 00 00 00 00 00 00 00
       0.0 0.0 0.0 0.0
000060 00 00 00 00 00 00 00 00 00 00 00 00 00 00 00 00
       0.0 0.0 0.0 0.0
000070 00 00 00 00 00 00 00 00 00 00 00 00 00 00 00 00
       0.0 0.0 0.0 0.0
000080 00 00 00 00 00 00 00 00 00 00 00 00 00 00 00 00
       0.0 0.0 0.0 0.0
000090 00 00 00 00 00 00 00 00 00 00 00 00 00 00 00 00
       0.0 0.0 0.0 0.0
0000a0 00 00 00 00 00 00 00 00 00 00 00 00 00 00 00 00
       0.0 0.0 0.0 0.0
0000b0 00 00 00 00 00 00 00 00 00 00 00 00 00 00 00 00
       0.0 0.0 0.0 0.0
0000c0 00 00 00 00 00 00 00 00 00 00 00 00 00 00 00 00
       0.0 0.0 0.0 0.0
0000d0 00 00 00 00 00 00 00 00 00 00 00 00 00 00 00 00
       0.0 0.0 0.0 0.0
0000e0 00 00 00 00 00 00 00 00 00 00 00 00 00 00 00 00
       0.0 0.0 0.0 0.0
0000f0 00 00 00 00 00 00 00 00 00 00 00 00 00 00 00 00
       0.0 0.0 0.0 0.0
000100 00 00 00 00 00 00 00 00 00 00 00 00 00 00 00 00
       0.0 0.0 0.0 0.0
000110 00 00 00 00 00 00 00 00 00 00 00 00 00 00 00 00
       0.0 0.0 0.0 0.0
000120 00 00 00 00 00 00 00 00 00 00 00 00 00 00 00 00
       0.0 0.0 0.0 0.0
000130 00 00 00 00 00 00 00 00 00 00 00 00 00 00 00 00
       0.0 0.0 0.0 0.0
000140 00 00 00 00 00 00 00 00 00 00 00 00 00 00 00 00
       0.0 0.0 0.0 0.0
000150 00 00 00 00 00 00 00 00 00 00 00 00 00 00 00 00
       0.0 0.0 0.0 0.0
000160 00 00 00 00 00 00 00 00 00 00 00 00 00 00 00 00
       0.0 0.0 0.0 0.0
000170 00 00 00 00 00 00 00 00 00 00 00 00 00 00 00 00
       0.0 0.0 0.0 0.0
000180 00 00 00 00 00 00 00 00 00 00 00 00 00 00 00 00
       0.0 0.0 0.0 0.0
000190 00 00 00 00 00 00 00 00 00 00 00 00 00 00 00 00
       0.0 0.0 0.0 0.0
0001a0 00 00 00 00 00 00 00 00 00 00 00 00 00 00 00 00
       0.0 0.0 0.0 0.0
0001b0 00 00 00 00 00 00 00 00 00 00 00 00 00 00 00 00
       0.0 0.0 0.0 0.0
0001c0 00 00 00 00 00 00 00 00 00 00 00 00 00 00 00 00
       0.0 0.0 0.0 0.0
0001d0 00 00 00 00 00 00 00 00 00 00 00 00 00 00 00 00
       0.0 0.0 0.0 0.0
0001e0 00 00 00 00 00 00 00 00 00 00 00 00 00 00 00 00
       0.0 0.0 0.0 0.0
0001f0 00 00 00 00 00 00 00 00 00 00 00 00 00 00 00 00
       0.0 0.0 0.0 0.0
000200 00 00 00 00 00 00 00 00 00 00 00 00 00 00 00 00
       0.0 0.0 0.0 0.0
000210 00 00 00 00 00 00 00 00 00 00 00 00 00 00 00 00
       0.0 0.0 0.0 0.0
000220 00 00 00 00 00 00 00 00 00 00 00 00 00 00 00 00
       0.0 0.0 0.0 0.0
000230 00 00 00 00 00 00 00 00 00 00 00 00 00 00 00 00
       0.0 0.0 0.0 0.0
000240 00 00 00 00 00 00 00 00 00 00 00 00 00 00 00 00
       0.0 0.0 0.0 0.0
000250 00 00 00 00 00 00 00 00 00 00 00 00 00 00 00 00
       0.0 0.0 0.0 0.0
000260 00 00 00 00 00 00 00 00 00 00 00 00 00 00 00 00
       0.0 0.0 0.0 0.0
000270 00 00 00 00 00 00 00 00 00 00 00 00 00 00 00 00
       0.0 0.0 0.0 0.0
000280 00 00 00 00 00 00 00 00 00 00 00 00 00 00 00 00
       0.0 0.0 0.0 0.0
000290 00 00 00 00 00 00 00 00 00 00 00 00 00 00 00 00
       0.0 0.0 0.0 0.0
0002a0 00 00 00 00 00 00 00 00 00 00 00 00 00 00 00 00
       0.0 0.0 0.0 0.0
0002b0 00 00 00 00 00 00 00 00 00 00 00 00 00 00 00 00
       0.0 0.0 0.0 0.0
0002c0 00 00 00 00 00 00 00 00 00 00 00 00 00 00 00 00
       0.0 0.0 0.0 0.0
0002d0 00 00 00 00 00 00 00 00 00 00 00 00 00 00 00 00
       0.0 0.0 0.0 0.0
0002e0 00 00 00 00 00 00 00 00 00 00 00 00 00 00 00 00
       0.0 0.0 0.0 0.0
0002f0 00 00 00 00 00 00 00 00 00 00 00 00 00 00 00 00
       0.0 0.0 0.0 0.0
000300 00 00 00 00 00 00 00 00 00 00 00 00 00 00 00 00
       0.0 0.0 0.0 0.0
000310 00 00 00 00 00 00 00 00 00 00 00 00 00 00 00 00
       0.0 0.0 0.0 0.0
000320 00 00 00 00 00 00 00 00 00 00 00 00 00 00 00 00
       0.0 0.0 0.0 0.0
000330 00 00 00 00 00 00 00 00 00 00 00 00 00 00 00 00
       0.0 0.0 0.0 0.0
000340 00 00 00 00 00 00 00 00 00 00 00 00 00 00 00 00
       0.0 0.0 0.0 0.0
000350 00 00 00 00 00 00 00 00 00 00 00 00 00 00 00 00
       0.0 0.0 0.0 0.0
000360 00 00 00 00 00 00 00 00 00 00 00 00 00 00 00 00
       0.0 0.0 0.0 0.0
000370 00 00 00 00 00 00 00 00 00 00 00 00 00 00 00 00
       0.0 0.0 0.0 0.0
000380 00 00 00 00 00 00 00 00 00 00 00 00 00 00 00 00
       0.0 0.0 0.0 0.0
000390 00 00 00 00 00 00 00 00 00 00 00 00 00 00 00 00
       0.0 0.0 0.0 0.0
0003a0 00 00 00 00 00 00 00 00 00 00 00 00 00 00 00 00
       0.0 0.0 0.0 0.0
0003b0 00 00 00 00 00 00 00 00 00 00 00 00 00 00 00 00
       0.0 0.0 0.0 0.0
0003c0 00 00 00 00 00 00 00 00 00 00 00 00 00 00 00 00
       0.0 0.0 0.0 0.0
0003d0 00 00 00 00 00 00 00 00 00 00 00 00 00 00 00 00
       0.0 0.0 0.0 0.0
0003e0 00 00 00 00 00 00 00 00 00 00 00 00 00 00 00 00
       0.0 0.0 0.0 0.0
0003f0 00 00 00 00 00 00 00 00 00 00 00 00 00 00 00 00
       0.0 0.0 0.0 0.0

exp_avg f4 [64]
000000 00 00 00 00 00 00 00 00 04 00 00 80 00 00 00 00
       0.0 0.0 -6e-45 0.0
000010 04 00 00 00 00 00 00 00 04 00 00 00 04 00 00 80
       6e-45 0.0 6e-45 -6e-45
000020 04 00 00 00 04 00 00 80 00 00 00 00 04 00 00 80
       6e-45 -6e-45 0.0 -6e-45
000030 00 00 00 00 04 00 00 00 04 00 00 80 00 00 00 00
       0.0 6e-45 -6e-45 0.0
000040 04 00 00 00 04 00 00 00 04 00 00 00 00 00 00 00
       6e-45 6e-45 6e-45 0.0
000050 04 00 00 00 04 00 00 80 04 00 00 80 00 00 00 00
       6e-45 -6e-45 -6e-45 0.0
000060 00 00 00 00 04 00 00 80 00 00 00 00 04 00 00 00
       0.0 -6e-45 0.0 6e-45
000070 04 00 00 00 04 00 00 80 04 00 00 80 00 00 00 00
       6e-45 -6e-45 -6e-45 0.0
000080 04 00 00 80 04 00 00 00 04 00 00 80 04 00 00 80
       -6e-45 6e-45 -6e-45 -6e-45
000090 04 00 00 80 00 00 00 00 04 00 00 80 00 00 00 00
       -6e-45 0.0 -6e-45 0.0
0000a0 04 00 00 00 00 00 00 00 00 00 00 00 00 00 00 00
       6e-45 0.0 0.0 0.0
0000b0 00 00 00 00 04 00 00 80 00 00 00 00 04 00 00 00
       0.0 -6e-45 0.0 6e-45
0000c0 00 00 00 00 00 00 00 00 00 00 00 00 04 00 00 80
       0.0 0.0 0.0 -6e-45
0000d0 04 00 00 00 04 00 00 00 04 00 00 00 00 00 00 00
       6e-45 6e-45 6e-45 0.0
0000e0 00 00 00 00 00 00 00 00 00 00 00 00 04 00 00 00
       0.0 0.0 0.0 6e-45
0000f0 04 00 00 00 04 00 00 00 04 00 00 80 00 00 00 00
       6e-45 6e-45 -6e-45 0.0

exp_avg_sq f4 [64]
000000 00 00 00 00 00 00 00 00 4a 87 cf 2f 00 00 00 00
       0.0 0.0 3.774921e-10 0.0
000010 94 00 62 32 00 00 00 00 21 3b 81 32 9e 84 51 30
       1.3155063e-08 0.0 1.5044465e-08 7.622222e-10
000020 6e c2 3a 31 ea cf b6 32 00 00 00 00 23 74 6b 2f
       2.7177083e-09 2.1282137e-08 0.0 2.1414386e-10
000030 00 00 00 00 5e 79 2c 31 ac 4f 8a 31 00 00 00 00
       0.0 2.5098283e-09 4.0253862e-09 0.0
000040 e1 00 05 32 cb ba 34 32 74 85 11 32 00 00 00 00
       7.741819e-09 1.0519851e-08 8.470455e-09 0.0
000050 fd ea 3c 32 02 2c ea 31 41 70 d8 2f 00 00 00 00
       1.099647e-08 6.8152994e-09 3.9369932e-10 0.0
000060 00 00 00 00 3a a7 9a 32 00 00 00 00 7f e7 8b 2f
       0.0 1.8004005e-08 0.0 2.544844e-10
000070 e6 a8 30 32 d2 e9 c0 32 ab 14 cc 31 00 00 00 00
       1.0282951e-08 2.2458071e-08 5.939531e-09 0.0
000080 8f 7a 51 32 6e 5e 14 30 5d c1 66 30 df bd 9e 32
       1.2193268e-08 5.397628e-10 8.39483e-10 1.8479964e-08
000090 5d 2f f4 32 00 00 00 00 bd 76 a6 33 00 00 00 00
       2.8426877e-08 0.0 7.751576e-08 0.0
0000a0 c9 dc ad 30 00 00 00 00 00 00 00 00 00 00 00 00
       1.2650158e-09 0.0 0.0 0.0
0000b0 00 00 00 00 2d 8e 47 33 00 00 00 00 f5 be 97 32
       0.0 4.6462606e-08 0.0 1.766555e-08
0000c0 00 00 00 00 00 00 00 00 00 00 00 00 e8 7b a3 32
       0.0 0.0 0.0 1.9032043e-08
0000d0 97 f1 36 30 6c 8b 99 2d 0e ca 03 32 00 00 00 00
       6.6554534e-10 1.7456002e-11 7.6711455e-09 0.0
0000e0 00 00 00 00 00 00 00 00 00 00 00 00 a0 e1 ea 32
       0.0 0.0 0.0 2.7343788e-08
0000f0 fc 56 91 28 f1 39 46 33 a1 f8 ce 32 00 00 00 00
       1.6135957e-14 4.6153165e-08 2.409462e-08 0.0
