training_results/dqn_mr_x_1753787618.pth (torch, 410323 bytes, 28 tensors)

feature_network.0.weight f4 [64, 239]
000000 2b eb 24 be 60 51 98 3c e8 76 32 be af c3 91 3e
       -0.16105334 0.01859349 -0.17428172 0.28469607
000010 aa 9e 0e be a8 d0 ba bc ac bd 9d 3d ca a7 44 bd
       -0.13927713 -0.022804573 0.07702193 -0.04801158
000020 15 18 d0 3e ae 4e a2 3d e8 36 a1 3c cc 63 33 3e
       0.40643373 0.07925163 0.019679502 0.17518538
000030 5c 4f 91 3e f3 21 bd 3e 62 08 b0 3e fb ad c9 be
       0.2838086 0.36939964 0.34381396 -0.3939055
000040 b5 75 ce 3e f6 26 81 bd 47 6e b5 3e 23 c6 05 be
       0.40324178 -0.06306259 0.35435697 -0.13063864
000050 f8 03 9c 3d d4 02 0f 3d cc ac 6e bd e4 d6 a2 3e
       0.076179445 0.034914806 -0.05827026 0.31804574
000060 b2 45 90 be a0 b3 c7 be 62 0d 7f be 2b a6 d8 3e
       -0.28178173 -0.3900423 -0.24907449 0.42314276
000070 97 47 b3 3e 10 e9 1a be 17 f8 de 3e ca 39 9f 3e
       0.35015556 -0.15127969 0.43548653 0.31098777
000080 98 ca 5c bd 28 11 77 bd ac 19 e3 3d c2 64 b9 3e
       -0.053904146 -0.060319096 0.11088881 0.36209685
000090 76 10 0d 3e e5 cf 0c be 0c 90 9e be 0b 48 73 be
       0.1377581 -0.1375118 -0.30969274 -0.23757951
0000a0 47 cd bb 3e 43 2a d4 be c4 b9 f9 3e 7a 56 4c bd
       0.36680052 -0.41438493 0.4877454 -0.049887158
0000b0 08 53 ec 3d 24 08 12 bd f4 28 3f 3d 71 cf c2 3e
       0.115392745 -0.035652295 0.046669915 0.3804889
0000c0 c0 af 5c bd e0 43 ec 3d 55 48 46 be 72 15 b5 bd
       -0.053878546 0.11536384 -0.1936353 -0.08841981
0000d0 75 c2 ae be b4 80 f2 bd 74 0a ce bc 62 83 ef be
       -0.34132734 -0.118409544 -0.025151469 -0.46779925
0000e0 55 1a 02 3f f5 c7 1d be fa 02 e3 3e 0a 46 40 3e
       0.5082143 -0.15408309 0.44338208 0.18776718
0000f0 dc 75 e0 bd 00 10 43 3b 55 14 e4 3d b4 fa 36 3e
       -0.1095998 0.0029764175 0.111366905 0.17869073
000100 d4 3c b2 3e 2c cd f7 3d 7f c7 16 be 78 15 2d 3e
       0.34812033 0.1209968 -0.14724539 0.16902721
000110 a1 c3 d0 3e 22 2c 0e 3e 25 51 7b 3e bc cb bf bd
       0.40774253 0.13884023 0.24542673 -0.09365031
000120 22 83 12 bd aa 6f be be 45 65 7f 3e cb 49 02 3e
       -0.03576959 -0.37194568 0.24940975 0.12723462
000130 60 1c 7f 3d ec 2d 0d be a2 24 f2 3e 78 99 79 be
       0.06228292 -0.13787049 0.47293574 -0.2437495
000140 97 0e bc 3e 1b a2 b3 bd fa 8a de 3d 4e 5d b8 3e
       0.3672988 -0.087711535 0.108663514 0.36008686
000150 00 62 00 3b b0 73 7f 3c e0 6f 89 bb bf 73 e4 3e
       0.0019589663 0.015591547 -0.0041942447 0.44619557
000160 ef 5a 47 be f3 31 8b 3e 4e 84 8e 3e 4e 82 b1 bd
       -0.19468282 0.27186546 0.27835315 -0.08667432
000170 42 97 bb 3e b2 b2 48 bd 27 2f 45 3e c3 be 01 be
       0.36638838 -0.048998542 0.19256268 -0.12670426
000180 c9 37 7d 3e 20 ea dc bb e8 62 fe 3d e1 d6 b3 3e
       0.24728312 -0.006741777 0.124212086 0.35124877
000190 f0 5b be bd 46 a3 02 bd b6 15 af bd f0 36 c9 3c
       -0.092948794 -0.03189399 -0.08549063 0.024562329
0001a0 c7 86 1f 3e 83 88 ae be 2c 09 0f 3e 79 98 6a 3e
       0.15578757 -0.34088525 0.13968343 0.22909726
0001b0 46 2c 42 3e 58 33 5f 3e e6 b5 9e be e0 07 b0 3d
       0.18962201 0.2179693 -0.30998152 0.08595252
0001c0 0e f0 08 3e 84 a1 97 3e 93 53 82 bd b8 e8 26 3e
       0.13372824 0.29615414 -0.06363597 0.16299713
0001d0 c6 b0 d2 3d 54 b0 6c 3e 5c e0 a0 3e b8 2c ac 3e
       0.10287623 0.23114139 0.31421173 0.33627868
0001e0 10 26 5a 3c 4a 5f d2 3d e0 f1 da bb ba e0 4d be
       0.013314739 0.10272081 -0.006681666 -0.20105258
0001f0 a0 19 89 3e 1a b3 9a 3d 00 92 3e be 72 9d 46 3e
       0.26777363 0.07553692 -0.18610382 0.19395998
000200 02 a2 5e 3e 20 5e f7 3c e3 31 53 3b 1c 40 08 3d
       0.21741489 0.03019625 0.003222578 0.033264264
000210 1f c0 d0 be 29 27 c0 be 05 b1 b5 3e fa 25 ba 3e
       -0.40771577 -0.37529877 0.35486618 0.363571
000220 76 83 18 3e a2 a4 92 3e 30 43 20 3d 13 08 90 3e
       0.14893898 0.2864123 0.039126575 0.2813116
000230 88 5c 89 3c 03 26 b7 be 2f d9 c4 3e 97 31 fb 3e
       0.016767755 -0.35771188 0.38446948 0.49061272
000240 81 10 43 be 26 34 83 3d 88 76 16 bd 70 dd db 3c
       -0.19049264 0.06406431 -0.036734134 0.026838988
000250 88 64 e1 3d 14 4b bf 3e c8 72 9e 3e c4 d5 be 3d
       0.11005503 0.37361968 0.30946946 0.09318116
000260 91 09 dd 3e f4 10 8e 3e f6 5f 8f 3e 18 a8 e1 3e
       0.4317136 0.2774731 0.280029 0.44073558
000270 6c a8 ce be 8a a5 dc 3e 9c 44 96 3e ec f1 a7 bd
       -0.4036287 0.43095046 0.2934922 -0.0820044
000280 b4 bb 93 be f5 ba c3 be af 51 c6 3e f2 46 b8 bd
       -0.28854144 -0.38228574 0.38734195 -0.08997907
000290 24 1c a6 3e 71 95 a4 bd a1 11 7b 3e 46 8b 05 be
       0.32443345 -0.08036316 0.24518444 -0.1304141
0002a0 ec 71 b4 3e 5e c6 0f bf b6 cd b6 3e d0 67 90 bd
       0.35243165 -0.5616206 0.3570382 -0.07051051
0002b0 de a0 03 3f 46 88 b9 be a8 88 07 3d 7e fb d8 3e
       0.5141734 -0.3623678 0.03308931 0.42379373
0002c0 0c 6c ca bd 60 fc 0f 3e ac 20 5d 3d 5a ed a3 3d
       -0.098838896 0.14061117 0.053986236 0.080042556
0002d0 00 5a 8b 3d bd 01 37 3e 25 78 06 3e 75 1d 05 be
       0.068042755 0.17871757 0.13131769 -0.12999518
0002e0 00 bd ed bb 83 f5 13 be a2 0f 0d 3f 80 75 a6 3e
       -0.0072551966 -0.14449124 0.5510198 0.3251152
0002f0 25 39 b5 3d ec 4c 25 3d 5c ac 6f bd 1b 65 88 be
       0.0884879 0.04035656 -0.058513984 -0.26639637
000300 48 e1 ba 3d 69 5e aa bd d0 a5 99 3e e7 cf 2a 3e
       0.09125 -0.083187886 0.30009317 0.16680871
000310 d8 51 2e 3e bc 0d 37 3d fa 7f a0 3d 74 63 dd 3e
       0.17023408 0.044690832 0.078369096 0.4323994
000320 16 24 ac 3d 2d 4c 1c be e5 0d 8b bd 0c 27 69 be
       0.0840532 -0.15263434 -0.067897595 -0.22768801
000330 76 24 ad be 21 77 81 be 81 c5 82 be 86 4c 06 be
       -0.3381688 -0.252862 -0.2554131 -0.13115129
000340 be f6 7a be a7 36 f9 be 3d 4a ad be d3 1d 98 be
       -0.24508187 -0.4867451 -0.33845702 -0.29710254
000350 c9 30 71 be 4d f0 a9 be 02 4b bf be 59 8c 36 be
       -0.23553766 -0.33191147 -0.37361914 -0.17826976
000360 63 54 c2 be 3c 4e a4 be e1 57 92 be de 41 67 be
       -0.37955007 -0.32090938 -0.2858267 -0.2258372
000370 c4 c7 d9 be 97 9a 87 be 29 96 09 be 29 60 c9 be
       -0.42535222 -0.2648513 -0.13436188 -0.39331177
000380 80 12 6f be 93 42 5b be 95 3a 6a be 5c 2f 11 3d
       -0.23346901 -0.21412115 -0.2287391 0.035445556
000390 ce 54 e8 bd da 88 d4 bd a4 6e 12 bd a9 6f ee bd
       -0.113443 -0.10377665 -0.035750046 -0.11642391
0003a0 73 3d ba be 29 b5 88 bd 44 61 8a be e5 9a 74 be
       -0.36375007 -0.066751786 -0.27027333 -0.23887213
0003b0 f4 11 78 be 39 ba 8b be 39 88 a9 be f4 84 84 be
       -0.24225599 -0.27290514 -0.33111742 -0.25882685
0003c0 e0 77 cf bd 7f 13 b6 be bc b1 d2 3e c7 50 a1 be
       -0.10130286 -0.3556175 0.41151226 -0.3150694
0003d0 30 42 af bd 00 1e c4 bd 48 a0 9f 3d cd c1 ad 3e
       -0.08557546 -0.095760345 0.07794243 0.3393692
0003e0 cc 05 69 bd c0 8f 7f 3d b4 95 c6 3e b9 f2 81 3e
       -0.056890294 0.06239295 0.3878609 0.25380495
0003f0 22 9b 50 be 71 c4 ac 3e 48 28 c6 be 96 1d 97 3e
       -0.20371678 0.33743623 -0.38702607 0.2951476

feature_network.0.bias f4 [64]
000000 37 20 74 be fb 42 68 be 97 61 92 be 9a bd 99 be
       -0.23840414 -0.22681801 -0.2859008 -0.30027467
000010 2c 17 33 be 83 bd 99 be 09 76 ad be 33 ca 8d be
       -0.17489308 -0.30027398 -0.33879116 -0.27693328
000020 f7 a8 53 be 83 9a 87 be 7b bd 99 be 8b bd 99 be
       -0.20669924 -0.2648507 -0.30027375 -0.30027422
000030 21 02 d3 be 97 31 cf be 6a da 85 be a9 fe d2 bd
       -0.41212562 -0.40467522 -0.261432 -0.10302479
000040 20 1b 15 be 04 bc 99 be 8d bd 99 be e6 73 99 bd
       -0.14561129 -0.30026257 -0.30027428 -0.07492809
000050 81 bd 99 be a3 04 c2 3d 62 7d 95 be 2f 24 68 be
       -0.30027393 0.09473541 -0.29197222 -0.22670053
000060 55 bc 99 be f4 9c 52 be 7f 6b 6f be 3b f9 93 be
       -0.30026498 -0.20567685 -0.2338085 -0.28901085
000070 97 bd 99 be 91 bd 99 be d1 ed 8a be 15 69 88 be
       -0.30027458 -0.3002744 -0.27134565 -0.2664267
000080 97 10 b3 be c2 57 3e be 9d bd 99 be 00 00 00 00
       -0.34973595 -0.18588164 -0.30027476 0.0
000090 9d bd 99 be 74 bd 99 be f9 60 04 be fc be b4 be
       -0.30027476 -0.30027354 -0.12927617 -0.3530196
0000a0 b2 a6 7c be 4c 1c b4 3d 07 3c 87 bd 88 6a 6f be
       -0.24672964 0.0879446 -0.06603246 -0.23380482
0000b0 ec 17 b7 be ca 8f 2e be 00 00 00 00 6b bb 07 be
       -0.35760438 -0.17047039 0.0 -0.13255088
0000c0 a2 e5 d7 be 90 bd 99 be 5f b8 b8 be 00 00 00 00
       -0.42167383 -0.30027437 -0.36078164 0.0
0000d0 bd c8 b2 bd 54 b4 a9 be 54 7a a1 be 44 ff c5 be
       -0.08729694 -0.33145392 -0.3153864 -0.38671315
0000e0 97 bd 99 be 18 5a 90 be 37 2d 9b be 7e bd 99 be
       -0.30027458 -0.28193736 -0.30307934 -0.30027384
0000f0 99 f7 bd be 00 00 00 00 5c bd 99 be 76 bd 99 be
       -0.37102965 0.0 -0.30027282 -0.3002736

feature_network.3.weight f4 [64, 64]
000000 e1 9d a2 bd f3 20 f9 be 3e 54 ff bc 47 6a 9e be
       -0.07940269 -0.4865795 -0.0311681 -0.30940458
000010 17 62 5c be 1d 8a ef be ea cd 80 be f2 b0 45 3e
       -0.21521793 -0.4678506 -0.251571 0.1930578
000020 12 0a 97 be 5a ba 52 be 22 25 0e be cc a6 89 be
       -0.2949987 -0.205789 -0.13881353 -0.26885068
000030 2f fc a4 be f0 b5 c4 be cf b9 38 be f2 8f bb 3d
       -0.3222365 -0.38420057 -0.1803963 0.09158315
000040 44 3e dc be 65 12 c9 3e 2a cb 76 be fc 59 86 be
       -0.43016255 0.39271846 -0.24100938 -0.26240528
000050 cc ae fc be a8 10 0f bf 28 e5 47 be 08 e0 fe be
       -0.4935211 -0.5588479 -0.1952101 -0.49780297
000060 e1 84 9a 3e 82 3f aa be 32 9a a7 be d7 a3 99 3e
       0.30179504 -0.33251578 -0.3273483 0.30007812
000070 07 b5 0e be 68 ee 34 be ed e3 66 be e2 a8 07 be
       -0.13936244 -0.1766907 -0.22547884 -0.13248017
000080 2a 82 81 be 52 c7 a7 be 9b 97 ff be ad 3d 3b 3e
       -0.2529462 -0.32769257 -0.49920353 0.18285246
000090 9c a0 b8 bd 26 f7 e7 be 8c 94 74 be 1a 1b 77 be
       -0.09015009 -0.45305747 -0.23884791 -0.24131432
0000a0 c9 fc b3 bc 24 fb a6 be b7 87 de be cc f3 1e bd
       -0.021971123 -0.3261348 -0.43462917 -0.03880672
0000b0 70 05 c3 bd 21 6e 88 3e 89 3f 1e 3e 62 55 15 be
       -0.095225215 0.26646522 0.15453924 -0.14583352
0000c0 39 6f bd be d1 0e b4 be 5f de 6b be 8c e0 67 bd
       -0.3699892 -0.35167554 -0.23034047 -0.05661063
0000d0 c4 e0 d0 be db 29 a2 be 03 f7 8f 3d ed b5 03 be
       -0.40796483 -0.31672558 0.070295356 -0.12862368
0000e0 d5 f1 00 bf f4 a6 98 3d 5a f5 92 be bc 9f 74 3d
       -0.50369006 0.07453719 -0.28702813 0.059722647
0000f0 91 fb 47 3e 78 71 38 bd c9 9f c6 bd 07 26 bd be
       0.19529559 -0.045030087 -0.09698445 -0.36943075
000100 df 99 ac 3d 27 ba 8e be 0b 11 e4 be 79 0f 21 be
       0.08427786 -0.27876398 -0.44544253 -0.15728559
000110 f1 ed 14 be 0a e9 c0 be 9e 5a dc bd bb a5 80 3e
       -0.14543892 -0.37677795 -0.10759471 0.25126442
000120 8e 80 d5 3d 22 f6 b2 3d 0f dc c6 be a8 e3 d4 3d
       0.104249105 0.08738352 -0.38839766 0.103949845
000130 98 2a af 3e 67 15 90 be 38 4e 98 bd 68 56 79 bd
       0.34212184 -0.2814133 -0.07436794 -0.06087342
000140 da 36 f7 3e 84 62 9c bd f8 ec 5c be 3b 72 0b be
       0.48284036 -0.07635978 -0.21574771 -0.13617794
000150 09 35 8c be 5a aa e6 be f0 9a 5d bc 45 8b 2e be
       -0.27384213 -0.45051843 -0.0135257095 -0.17045315
000160 96 19 c6 3d 88 9e fd bc b0 5a 98 3e 80 2a 1e bd
       0.09672849 -0.030959383 0.2975669 -0.03861475
000170 64 a7 c0 bd ab f7 62 3e 64 9f 04 be 81 17 cd be
       -0.09406927 0.2216479 -0.12951428 -0.40056995
000180 b6 52 09 be c7 a4 82 be 18 48 cc 3d 95 c2 31 be
       -0.13410458 -0.2551634 0.09974688 -0.17359383
000190 81 a4 eb 3e d8 27 b3 be 61 3d e4 be c3 a1 e1 be
       0.46023944 -0.34991336 -0.44578078 -0.44068727
0001a0 af 56 42 be 7d 9f da be 4f fc ba be 7a 86 31 be
       -0.1897838 -0.42699805 -0.3652062 -0.17336455
0001b0 cb 8d 07 be 76 16 8d 3d 1f d2 19 be 1d 7a d6 bd
       -0.13237683 0.0688905 -0.15021561 -0.1047251
0001c0 87 9a 9b be f4 11 f5 be 7b 78 87 3e 94 45 e6 bd
       -0.30391333 -0.4786526 0.26459107 -0.1124374
0001d0 67 71 eb be 87 ff aa be 38 4a ba bd 78 9c da be
       -0.45984957 -0.33398077 -0.09096187 -0.426975
0001e0 82 44 76 be 75 a8 d7 be 36 00 6b 3e a1 51 be 3e
       -0.24049571 -0.4212071 0.22949299 0.37171653
0001f0 25 10 b0 be ee 96 db 3d f9 95 5b be 12 53 c6 be
       -0.34387317 0.10722147 -0.21443929 -0.38735253
000200 91 ee 50 bd ab dc 8f 3d 4c 9e a4 be 1b 2a 96 3e
       -0.051008765 0.07024511 -0.3215202 0.29329
000210 77 f5 e1 be 94 d3 e5 3d ea c2 2c be be 3b fc bd
       -0.44132587 0.11221996 -0.16871229 -0.123160824
000220 42 6c 05 3d b6 1b ab 3d 0e 03 03 be 16 59 8c 3e
       0.032573946 0.08354895 -0.12794134 0.27411717
000230 1e e5 c2 3e 72 0e 9e bd 5c a7 0f 3d 9c cc 12 bf
       0.38065428 -0.07717599 0.035071716 -0.5734346
000240 3e ab 29 3e ce ca 80 bd 2b a6 2e 3e 78 3f 45 be
       0.1656923 -0.06288682 0.17055576 -0.19262493
000250 37 91 e9 3e e2 ff 7b be 84 92 d6 bd e8 19 04 bf
       0.45618603 -0.2460933 -0.104771644 -0.5160203
000260 67 1a 17 3e 7b 02 8c be ca a3 11 be eb d1 99 be
       0.14756165 -0.27345642 -0.14222637 -0.30042967
000270 a2 84 8e 3e ce de ad 3e 51 96 3f be da 4b 2a bf
       0.27835566 0.3395905 -0.18709685 -0.6652199
000280 38 e2 04 bf 20 a2 56 be a4 f7 bc 3e d1 ea 45 be
       -0.5190768 -0.20960283 0.36907685 -0.19327857
000290 1f 14 8e 3e ab 84 75 3e 49 05 0a bf 9b 1c 48 3e
       0.27749726 0.2397639 -0.53914315 0.19542162
0002a0 0a f1 f8 be 5f d1 09 be 89 6e d3 be 2f 16 71 be
       -0.48621398 -0.13458775 -0.4129527 -0.23543619
0002b0 3b 93 97 be 19 c0 a1 be 79 d6 2d be 7c 95 0d bf
       -0.29604515 -0.3159187 -0.16976346 -0.5530622
0002c0 53 d2 9b 3e fa 62 2e 3e 90 1d bc 3e 91 cf 0d 3e
       0.30433902 0.17029944 0.36741304 0.13848712
0002d0 2d 4d 6d bd 74 fb ba be c1 4b 00 be 7d ee 06 be
       -0.05793493 -0.36519969 -0.12528898 -0.13176914
0002e0 57 0e 0b 3e 56 f6 e5 bc 65 77 3c 3e 84 fd 6c bd
       0.13579689 -0.028071564 0.1840492 -0.05785896
0002f0 68 01 17 3c e2 21 f1 3d 5f ad ee 3e b1 f5 10 3e
       0.009216644 0.11774041 0.46616647 0.14156224
000300 7f 2e 18 3e 75 2b 5d be 7f 3f ad be 11 5d d4 3d
       0.14861487 -0.21598609 -0.33837506 0.103693135
000310 61 d7 1a be 09 8f cf 3e 67 98 01 bf 58 13 f6 3e
       -0.15121223 0.40538815 -0.5062317 0.48061633
000320 89 3f 9d be aa 7d 2f be 67 02 fc 3e 61 57 8f 3e
       -0.30712536 -0.17137781 0.49220583 0.27996352
000330 33 e6 fa be db 06 ba be 6c 9e 00 3d 66 d6 fe be
       -0.49003753 -0.36333355 0.031401083 -0.49772948
000340 8f e2 74 3e 58 29 d8 3c 40 1b 1d be 21 23 bc be
       0.2391455 0.026386902 -0.15342426 -0.3674555
000350 ae 70 82 3e 51 72 d9 be 02 a4 34 be 89 c5 e9 3e
       0.25476593 -0.4247003 -0.17640689 0.4565852
000360 c8 16 37 be 9a d5 72 be c7 4b 5d 3d 10 52 02 bf
       -0.17879784 -0.23714295 0.054027345 -0.5090647
000370 1b 83 8f 3e 7f 60 cb 3e 60 14 a9 be 02 15 d7 be
       0.28029713 0.39722058 -0.33023357 -0.42008215
000380 1b f9 d0 bd bc 0c 99 be 3d 0d f3 3d 07 1a 44 3e
       -0.10203763 -0.29892528 0.118677594 0.19150554
000390 a5 03 36 3e e8 10 a0 be ad df c6 be 72 b1 1b be
       0.17774828 -0.31262898 -0.38842526 -0.15204409
0003a0 5c 13 f7 be 2f 7d d9 bd c2 8b 04 bf 2c 3e de be
       -0.48256958 -0.1061958 -0.51775753 -0.43406808
0003b0 c5 1f 0f bf e0 0b 5b bd 2b a5 5d 3e be 4a ae be
       -0.5590785 -0.05347812 0.21645038 -0.340414
0003c0 37 c8 af 3e 85 90 ce be ac a2 f6 3e 28 51 eb 3c
       0.3433244 -0.40344635 0.48170984 0.028725222
0003d0 da e5 58 be 21 c5 66 3d 03 09 46 be fe e7 6e be
       -0.21181431 0.05634034 -0.19339375 -0.23330685
0003e0 9c 2c ea bd c4 cf b3 be 95 77 87 3e 9f 5c c2 bd
       -0.1143429 -0.3511945 0.2645842 -0.09490322
0003f0 bb 3b 13 bf a0 86 e6 3b 2b d4 90 3e 5a 14 d2 be
       -0.57513016 0.0070350915 0.2828687 -0.41031152

feature_network.3.bias f4 [64]
000000 70 01 d5 be 73 bd 99 be f9 4f 44 be 90 11 0f bf
       -0.4160266 -0.3002735 -0.19171132 -0.55886173
000010 69 07 d5 be 49 c6 bd be 7b 39 c0 bc 0d a8 57 be
       -0.41607216 -0.37065342 -0.023464909 -0.210602
000020 bc 45 00 bf b3 ef 85 bd 4b 55 54 be aa 54 0a bd
       -0.50106406 -0.065398596 -0.20735662 -0.03377215
000030 e0 26 df 3c 9c c3 13 be c0 07 d5 be a7 d8 d9 be
       0.027240217 -0.14430088 -0.41607475 -0.42548105
000040 5e 87 c4 be fa 4c 8e be ff bc 99 be c8 55 f9 bd
       -0.38384527 -0.27793103 -0.30027005 -0.121745646
000050 14 14 95 be f6 c3 d5 be 56 61 4b 3e 3d 15 93 3e
       -0.2911688 -0.4175107 0.1986135 0.2872714
000060 a5 bd 99 be a1 d2 46 be 39 0b be be 2a 11 30 be
       -0.300275 -0.19416286 -0.37117937 -0.17194048
000070 3f da 18 be 44 1b ca be 1c db ba be 37 fe ad be
       -0.14927004 -0.39473927 -0.36495292 -0.33983013
000080 21 2b 80 be 8a bc 99 be 5d f2 95 be 20 3f 70 be
       -0.25032905 -0.30026656 -0.2928647 -0.2346158
000090 9a bd 99 be 61 29 07 be 1d cf 03 bf 9f 14 80 be
       -0.30027467 -0.13199379 -0.51487905 -0.25015733
0000a0 60 7f f0 be f0 20 04 bf 65 bd 99 be 2b 03 c1 bc
       -0.4697218 -0.5161276 -0.3002731 -0.02356108
0000b0 f1 c9 b0 be e1 bc 99 be 15 57 db be aa 4f e4 be
       -0.3452907 -0.30026916 -0.42839876 -0.4459203
0000c0 6d c1 64 be 58 60 93 be 31 ab d7 be aa 75 a3 be
       -0.22339411 -0.28784442 -0.42122796 -0.31925708
0000d0 55 0d d8 be 3e 67 b9 bd 65 d7 1a bf 10 3e a3 3e
       -0.42197672 -0.09052895 -0.60484916 0.31883287
0000e0 b3 bb a9 3c ef 79 e6 bc 26 1e d9 be 86 67 a6 bd
       0.020719385 -0.028134314 -0.42405814 -0.08125214
0000f0 fc 1e d8 be 77 fa cf bd 94 bd 99 be 35 eb d6 bd
       -0.4221114 -0.10155194 -0.3002745 -0.10494081

feature_network.6.weight f4 [64, 64]
000000 17 bd b7 3e 51 c9 eb be fa 59 4d bd 01 f4 3d be
       0.35886452 -0.4605203 -0.050134636 -0.18550111
000010 65 c5 64 3e 33 14 71 be 24 e6 1b 3e d6 87 01 be
       0.22340925 -0.23542862 0.1522451 -0.12649474
000020 d0 4a d6 3e 1d 53 ad be 38 7e 7e be b4 eb 56 3e
       0.41853952 -0.33852473 -0.24852836 0.20988351
000030 f9 fc 92 bd 25 51 d1 bd 5b e3 f1 3e 6a f8 a3 be
       -0.07177157 -0.10220555 0.4724377 -0.32025462
000040 4d c8 1b 3e b7 66 c3 bd d6 af d0 bd 1d 0c 14 be
       0.15213127 -0.09541076 -0.10189788 -0.14457746
000050 df 27 03 be 8f 16 dc 3e 76 19 ec be 3e fb 02 bf
       -0.12808178 0.4298596 -0.46113175 -0.51164615
000060 04 ed 0c 3e 06 0c c1 be c5 98 9b 3e 8f 5a 4d be
       0.1376229 -0.37704486 0.3038999 -0.20054077
000070 50 06 d4 bd cb 65 c6 3e ec c4 c8 bd 4b 3a a2 3e
       -0.103527665 0.38749537 -0.09803185 0.316851
000080 e5 07 68 be 1d f8 bf 3e 58 22 c2 3e 2a 2a 85 3e
       -0.22659262 0.37493983 0.37916827 0.2600873
000090 73 9d 89 be f2 6f 85 bd 35 a6 e1 bb fd 5e fb be
       -0.26877937 -0.065154925 -0.0068862685 -0.49095908
0000a0 fe 20 9f be 5d 24 86 3e 51 19 c8 be af 92 3a be
       -0.3107986 0.26199618 -0.39081815 -0.18220018
0000b0 83 45 a9 be 36 2c f3 be 8a c3 2c be fc df d9 3d
       -0.33060846 -0.47494668 -0.16871467 0.10638425
0000c0 ac ef 0c be 0c 12 35 bd 67 d9 1c bf e6 c7 50 be
       -0.13763303 -0.044206664 -0.6126923 -0.20388755
0000d0 13 6c 27 3e 8b 4e e1 3b c5 2f 51 3e 12 41 15 bf
       0.16349821 0.006875818 0.20428379 -0.58302414
0000e0 75 51 b9 bd c7 18 4a 3d 94 da 26 3e ac 97 93 be
       -0.0904874 0.049340036 0.16294318 -0.28826654
0000f0 80 d1 0b 3e 1a 22 50 3e 3d 6d cc 3e 78 28 0f bf
       0.13654137 0.20325509 0.39927092 -0.55921125
000100 30 1a b5 3d fd e6 45 be 4c 60 0f be f0 ee 4b be
       0.088428855 -0.19326396 -0.14001578 -0.19915366
000110 ca 71 d8 be a2 a9 36 3e 86 fa 62 be b3 b0 01 be
       -0.42274314 0.17838147 -0.2216588 -0.12665062
000120 d9 ab 22 3e b5 72 a5 be a6 f4 9e be 24 77 e2 3e
       0.15885867 -0.32314077 -0.31046027 0.44231522
000130 41 68 f8 be e1 d0 df be 8f 3a cf be d5 42 bb bd
       -0.4851704 -0.4371405 -0.40474364 -0.091436066
000140 f0 be 8c 3e 96 e6 14 be ac e2 5d 3d f4 ab 18 be
       0.27489424 -0.14541087 0.05417125 -0.14909345
000150 d8 56 2a 3e 7b 28 a2 be e7 42 f5 be 6a eb 8c be
       0.16634691 -0.3167151 -0.47902605 -0.27523357
000160 cd 86 26 3e 5f a0 fe 3e 4b 4a 12 be df e1 45 be
       0.1626236 0.49731728 -0.14286153 -0.19324444
000170 f9 97 09 be 6a 0d de 3d a6 a0 bc 3d ba 4a 3f be
       -0.13436879 0.10842402 0.09210329 -0.1868085
000180 9a 23 02 bf 99 5c 02 bf a5 87 a8 be f5 8d c1 3e
       -0.50835574 -0.5092254 -0.3291599 0.37803617
000190 31 99 f5 be 1b ee 29 3e 8b 5c 33 be fb 8f de be
       -0.47968438 0.16594736 -0.17515771 -0.43469223
0001a0 16 21 b4 be 82 66 d3 3e 10 62 37 be cf 07 22 bf
       -0.35181493 0.41289145 -0.17908502 -0.63293165
0001b0 3d ed 1c be 12 7d c0 3d 35 6e 59 be 31 fc ed 3e
       -0.15324874 0.09398855 -0.21233447 0.4648147
0001c0 3a c9 8c be 10 c3 56 be ab 62 3d 3e 5c 5f 03 bf
       -0.27497274 -0.20972848 0.1849467 -0.5131738
0001d0 93 20 f4 be 01 3d e1 be 20 24 c0 bd 70 ae 79 be
       -0.47681102 -0.43991855 -0.0938189 -0.24382949
0001e0 b2 e0 21 bf 40 da 5d bd e8 ad 5a be ba ba b4 be
       -0.6323348 -0.054163218 -0.21355402 -0.3529871
0001f0 66 7e a2 be bd b1 6a 3e d4 d3 29 3e e0 c6 73 be
       -0.3173706 0.22919364 0.16584712 -0.23806334
000200 1f 41 b1 be a2 2c ed 3d a8 06 23 be b0 3e 04 3e
       -0.34619996 0.11580779 -0.15920508 0.12914538
000210 c6 3a 5d be 79 e1 80 3e 21 5f 26 bf d2 d5 58 be
       -0.21604452 0.25172022 -0.64988905 -0.21175316
000220 61 08 81 be 90 60 d4 be 9c 52 f3 be e0 a4 41 be
       -0.25201705 -0.4147992 -0.47523963 -0.18910551
000230 65 47 a9 be 78 35 bc be 73 fe 02 bf ee 6c ca 3e
       -0.33062282 -0.36759543 -0.5116951 0.39536232
000240 32 27 05 be 56 e7 c6 3d d2 29 74 3e 58 74 f8 bc
       -0.13003233 0.097120926 0.23844078 -0.030328915
000250 90 a4 41 bd 6a bf 05 bf 29 ca ce be c0 01 db bc
       -0.04727608 -0.522452 -0.4038861 -0.026734233
000260 84 aa b0 be 83 15 ff bd c3 35 a4 be 0f 16 0e 3b
       -0.34505093 -0.12455275 -0.32072267 0.0021680628
000270 ee fd e9 be 77 8b 98 be b4 a7 f2 be 48 99 09 be
       -0.45701545 -0.29793903 -0.47393572 -0.13437378
000280 64 d0 62 3e 76 e4 02 3f a4 25 09 bf 13 fc 07 bf
       0.22149807 0.51129854 -0.5357306 -0.5311901
000290 13 fc 9f 3e b2 86 62 be 00 81 75 3c aa ea fe bd
       0.31247005 -0.22121695 0.014984369 -0.12447102
0002a0 5c 50 a8 3e 57 12 3c be e3 9c 01 3f ad bc 90 be
       0.3287381 -0.18366371 0.50630015 -0.28268948
0002b0 e3 a4 52 3e d5 04 eb 3e fc af a6 be 95 0f 60 be
       0.20570712 0.45902124 -0.3255614 -0.21880944
0002c0 ac be 00 3e 0e e5 9b be 3b af 94 be c3 4d cc be
       0.12572736 -0.30448192 -0.2903994 -0.39903077
0002d0 a5 e8 b5 be 92 ab 52 be 79 7d d1 bd 96 46 b5 be
       -0.35529056 -0.20573261 -0.1022901 -0.35405415
0002e0 ed 28 a1 be 2c 22 c2 be a3 67 8a 3c c6 03 25 be
       -0.31476536 -0.37916696 0.016895121 -0.1611472
0002f0 95 b4 9e be 79 c5 0f be 7d 67 5b be 32 25 4d be
       -0.30997148 -0.14040174 -0.21426196 -0.2003372
000300 91 ac 32 3e 0a ab cb 3d f2 6f 11 be 2f dd a4 be
       0.17448641 0.099447325 -0.1420286 -0.322
000310 4e 9b 68 be b3 dd e3 be 2a ef 35 be 5c 52 bd be
       -0.22715494 -0.4450508 -0.17767015 -0.36976898
000320 3d 5e c0 be 5a 5c a3 3d 1d de d1 be f1 6c ae be
       -0.37571898 0.07976599 -0.4098977 -0.3406749
000330 86 af bc be 6e 10 94 be e9 23 db be e2 c6 90 be
       -0.36852664 -0.28918785 -0.42800835 -0.28276736
000340 0b d2 8b be 78 d4 f3 3c 1d 50 38 be 5c 0a 4a be
       -0.27308688 0.029764399 -0.17999311 -0.19730514
000350 c2 15 90 3d 39 09 8b be 1e 44 3e be aa ff 38 be
       0.070354 -0.27155474 -0.18580672 -0.18066278
000360 d1 94 fe bd e8 3c 4f be c5 26 ea be 7f a3 a4 be
       -0.12430728 -0.20238078 -0.45732704 -0.32155988
000370 05 d7 bb bd db 5f 38 be bd 99 2b 3e 5e d2 9b 3d
       -0.09171871 -0.18005316 0.16757865 0.07608484
000380 80 26 87 be 62 1b bb bd 6a 6f f8 be 64 9c eb be
       -0.2639656 -0.09136082 -0.48522502 -0.46017754
000390 e3 dd 2b be b8 20 dd bc 3f fb 58 be 5b fc b4 be
       -0.16783862 -0.02699314 -0.21189593 -0.35348782
0003a0 67 72 5b be bf ff f3 be 0e 26 04 bf e5 a8 1d 3e
       -0.2143036 -0.47656056 -0.51620567 0.1539646
0003b0 89 e9 ed bd 44 a2 12 3d 40 dc 48 be e5 68 4e be
       -0.11616809 0.03579928 -0.19615269 -0.20157202
0003c0 e4 a5 1e 3d e2 99 cd be 6a 4f 40 be a7 7d 7f be
       0.038732424 -0.40156466 -0.18780294 -0.24950276
0003d0 94 75 e8 be 81 e4 5c be 5c eb 4d be d0 e5 1b be
       -0.45402205 -0.21571542 -0.20109314 -0.15224385
0003e0 3d 46 c0 be 74 00 25 3d 60 c3 a7 be f7 96 60 be
       -0.37553588 0.040283635 -0.32766247 -0.21932589
0003f0 39 40 2a be d3 c8 f4 bd 4e 6d ef be db ab cb bd
       -0.16626061 -0.11952367 -0.4676308 -0.09944888

feature_network.6.bias f4 [64]
000000 7b 08 57 3e 08 6b 1f bf e7 d2 04 bf fe bc 99 be
       0.20999329 -0.6227269 -0.5188431 -0.30027002
000010 4b 44 a1 be ce b1 3b be 97 e5 b9 3e a7 f2 08 be
       -0.31497416 -0.18329546 0.36307976 -0.13373815
000020 10 04 e5 3d 5c bd 99 be cc a2 ab be 76 4b f3 be
       0.111824155 -0.30027282 -0.33522642 -0.4751851
000030 3e 97 43 be 45 a0 3c bd 0c 62 ff be 53 b0 ea be
       -0.19100663 -0.046051282 -0.4987949 -0.4583765
000040 d7 c8 04 bf fe f4 3f be d9 eb 05 bf d4 93 7f be
       -0.5186896 -0.18745801 -0.52313 -0.24958736
000050 a3 47 6c be 34 34 9a be 4d 2c 9f be 83 76 02 bf
       -0.23074202 -0.30117953 -0.31088486 -0.50962085
000060 f0 ae 74 bc 02 55 b7 be 8b 2d 8b be 07 7c 4d be
       -0.0149342865 -0.35807043 -0.27183184 -0.20066844
000070 08 cc c4 be eb 07 67 be fe 68 2c be 5c d3 af be
       -0.38436913 -0.22561614 -0.16836926 -0.34340942
000080 cb c6 fb bd 51 12 e0 be ed 0a 4d be fb d2 cc be
       -0.12293776 -0.43763974 -0.20023699 -0.40004715
000090 90 c1 b2 be fa 36 b5 be ec 16 e3 be 43 e2 af be
       -0.349133 -0.35393506 -0.44353426 -0.34352311
0000a0 90 49 54 be 11 db 9e be b6 39 b8 be 8c 29 86 be
       -0.20731187 -0.3102651 -0.3598153 -0.26203573
0000b0 3f ee 85 be a1 bd 99 be a9 68 f7 be 1d 9b a0 be
       -0.2615833 -0.30027488 -0.48322037 -0.31368342
0000c0 f7 3d 1b be 4c f6 eb be 24 06 c5 be 91 23 c1 be
       -0.15160356 -0.46086347 -0.38481247 -0.37722448
0000d0 db 11 c8 be f0 43 0c be 2d 34 0a be 10 08 f5 be
       -0.39076123 -0.13697791 -0.13496466 -0.47857714
0000e0 1c 99 c4 be ed 66 f1 be d0 da c0 be f3 f3 f1 3c
       -0.38398063 -0.4714884 -0.3766694 0.02953527
0000f0 f3 b2 07 be 01 e0 bf be 08 00 a6 bd 5e 25 ee be
       -0.13251857 -0.3747559 -0.08105475 -0.46512884

q_network.weight f4 [1, 64]
000000 b0 99 36 be a8 09 42 be 92 06 f1 bc 0f 65 8d be
       -0.17832065 -0.18948996 -0.029422078 -0.27616164
000010 f2 08 44 3e ef db 2b 3c 97 be 91 be 40 80 21 bd
       0.19144037 0.010489448 -0.2846572 -0.03942895
000020 20 b7 60 3d 82 6f 8b be c4 1a 95 bc 65 9c 6b be
       0.05486214 -0.2723351 -0.01820124 -0.23008879
000030 e9 f5 e5 3c 8f 10 8a 3c 4d 20 98 3e 69 cb fe bc
       0.02807136 0.016853599 0.29712144 -0.031102853
000040 cc 55 15 be 45 88 46 bc 6d ae b4 bd 14 54 8e bb
       -0.1458351 -0.01211745 -0.088223316 -0.004343519
000050 e5 d9 7d 3d 86 c1 bd bd f6 0d 62 bd df 3f e6 3d
       0.06197538 -0.09265427 -0.055189095 0.11242651
000060 20 f2 4e 3d db 9a 14 3e 3a f2 b4 ba fa 6f 2e 3e
       0.050523877 0.14512198 -0.0013805099 0.17034903
000070 d8 0f dd bd 70 d8 92 be 1b ed c0 bd 69 5b 2d be
       -0.107940376 -0.28680754 -0.09420224 -0.16929401
000080 3e bf 80 bd d7 7e 8f be 3b b3 c8 bd db 5d a7 bd
       -0.062864766 -0.2802646 -0.097998105 -0.081721984
000090 c7 9e 56 be a1 e8 c5 3d e6 22 41 3e 3a 02 0f be
       -0.20959006 0.09663511 0.18860969 -0.13965693
0000a0 8a 5b 1c 3e 7c a7 7d bd d1 d6 37 3e 96 57 00 3e
       0.15269294 -0.061927304 0.1795304 0.12533411
0000b0 78 29 0a 3e b5 b1 1b 3d b5 71 86 3e e6 57 c1 3e
       0.13492382 0.03801127 0.26258627 0.37762374
0000c0 f3 cd cf 3c 9e a9 96 be e4 f7 03 bc d3 06 b3 3e
       0.025366759 -0.29426283 -0.008054707 0.34966144
0000d0 7e d8 d6 3d 9b 59 52 bb 66 82 1c bd 59 8c 25 3c
       0.10490511 -0.0032096866 -0.038210295 0.010104262
0000e0 a9 57 9b bd 9e 91 72 be 04 87 2b 3d e9 fd 74 bd
       -0.07585079 -0.23688361 0.041876808 -0.05981246
0000f0 5c 00 49 3d c3 fa 0f 3e 39 08 b9 3c c1 4c 95 be
       0.04907261 0.14060502 0.022586929 -0.2916012

feature_network.0.weight f4 [64, 239]
000000 be e4 24 be 60 51 98 3c 03 70 32 be 5e c0 91 3e
       -0.16102883 0.01859349 -0.17425542 0.28467077
000010 aa 9e 0e be a8 d0 ba bc ac bd 9d 3d ca a7 44 bd
       -0.13927713 -0.022804573 0.07702193 -0.04801158
000020 02 14 d0 3e ae 4e a2 3d e8 36 a1 3c e2 5c 33 3e
       0.40640265 0.07925163 0.019679502 0.175159
000030 8a 4b 91 3e 51 1f bd 3e 4a 05 b0 3e 8c aa c9 be
       0.28377944 0.36937955 0.34379035 -0.3938793
000040 9d 72 ce 3e f6 26 81 bd d8 6a b5 3e 23 c6 05 be
       0.40321818 -0.06306259 0.35433078 -0.13063864
000050 f8 03 9c 3d d4 02 0f 3d cc ac 6e bd 75 d3 a2 3e
       0.076179445 0.034914806 -0.05827026 0.31801954
000060 43 42 90 be 34 b0 c7 be a5 05 7f be 29 a2 d8 3e
       -0.28175554 -0.3900162 -0.24904497 0.42311218
000070 7f 44 b3 3e cf e7 1a be 67 f4 de 3e b2 36 9f 3e
       0.35013196 -0.1512749 0.4354584 0.31096417
000080 98 ca 5c bd 28 11 77 bd ac 19 e3 3d 60 61 b9 3e
       -0.053904146 -0.060319096 0.11088881 0.36207104
000090 54 0d 0d 3e e5 cf 0c be f4 8c 9e be 57 45 73 be
       0.13774616 -0.1375118 -0.30966914 -0.2375692
0000a0 7b ca bb 3e 3a 26 d4 be 8e b5 f9 3e c5 54 4c bd
       0.36677918 -0.41435415 0.48771328 -0.04988553
0000b0 08 53 ec 3d 24 08 12 bd f4 28 3f 3d 02 cc c2 3e
       0.115392745 -0.035652295 0.046669915 0.3804627
0000c0 c0 af 5c bd e0 43 ec 3d f0 40 46 be 72 15 b5 bd
       -0.053878546 0.11536384 -0.19360709 -0.08841981
0000d0 5f c0 ae be 87 7d f2 bd 74 0a ce bc 8c 7f ef be
       -0.34131142 -0.11840349 -0.025151469 -0.46776998
0000e0 e5 17 02 3f b6 c8 1d be 0d fe e2 3e d5 3f 40 3e
       0.5081771 -0.15408596 0.4433445 0.1877435
0000f0 dc 75 e0 bd 00 10 43 3b 14 08 e4 3d 7f f4 36 3e
       -0.1095998 0.0029764175 0.11134353 0.17866705
000100 da 39 b2 3e 2c cd f7 3d 18 c3 16 be b5 0e 2d 3e
       0.34809762 0.1209968 -0.1472286 0.16900142
000110 76 bf d0 3e 22 2c 0e 3e 38 4c 7b 3e bc cb bf bd
       0.40771073 0.13884023 0.24540794 -0.09365031
000120 22 83 12 bd 3e 6c be be e5 5d 7f 3e 77 45 02 3e
       -0.03576959 -0.37191957 0.24938162 0.12721811
000130 60 1c 7f 3d ec 2d 0d be e6 20 f2 3e bb 91 79 be
       0.06228292 -0.13787049 0.47290725 -0.24371998
000140 ad 09 bc 3e 1b a2 b3 bd fa 8a de 3d d5 5a b8 3e
       0.36726132 -0.087711535 0.108663514 0.360068
000150 00 62 00 3b b0 73 7f 3c e0 6f 89 bb ed 6e e4 3e
       0.0019589663 0.015591547 -0.0041942447 0.4461588
000160 58 55 47 be 20 2f 8b 3e 87 81 8e 3e 4e 82 b1 bd
       -0.1946615 0.2718439 0.27833197 -0.08667432
000170 1a 93 bb 3e b2 b2 48 bd 7d 27 45 3e c3 be 01 be
       0.36635667 -0.048998542 0.19253345 -0.12670426
000180 94 31 7d 3e 20 ea dc bb e8 62 fe 3d 72 d3 b3 3e
       0.24725944 -0.006741777 0.124212086 0.35122257
000190 f0 5b be bd 46 a3 02 bd b6 15 af bd f0 36 c9 3c
       -0.092948794 -0.03189399 -0.08549063 0.024562329
0001a0 e1 81 1f 3e 14 85 ae be dc 02 0f 3e 94 91 6a 3e
       0.15576889 -0.34085906 0.13965935 0.22907096
0001b0 f2 27 42 3e e7 2d 5f 3e 7a b2 9e be e0 07 b0 3d
       0.1896055 0.21794854 -0.30995542 0.08595252
0001c0 0e f0 08 3e 6c 9e 97 3e 93 53 82 bd bf e4 26 3e
       0.13372824 0.29613054 -0.06363597 0.16298197
0001d0 c6 b0 d2 3d 6a ab 6c 3e ef dc a0 3e 7c 28 ac 3e
       0.10287623 0.23112264 0.3141856 0.33624637
0001e0 10 26 5a 3c 4a 5f d2 3d e0 f1 da bb a8 dd 4d be
       0.013314739 0.10272081 -0.006681666 -0.20104086
0001f0 31 16 89 3e 1a b3 9a 3d 56 8a 3e be 4f 97 46 3e
       0.26774743 0.07553692 -0.18607458 0.19393657
000200 cd 9b 5e 3e 26 3e f7 3c 54 55 52 3b 1c 40 08 3d
       0.21739121 0.030181002 0.0032094317 0.033264264
000210 b0 bc d0 be 7f 24 c0 be ed ad b5 3e e2 22 ba 3e
       -0.40768957 -0.37527844 0.35484257 0.36354738
000220 b3 7e 18 3e 33 a1 92 3e 30 43 20 3d b4 04 90 3e
       0.14892082 0.2863861 0.039126575 0.28128588
000230 88 5c 89 3c a1 22 b7 be 66 d5 c4 3e 13 2c fb 3e
       0.016767755 -0.35768607 0.3844406 0.49057063
000240 af 0d 43 be 26 34 83 3d 88 76 16 bd 70 dd db 3c
       -0.19048189 0.06406431 -0.036734134 0.026838988
000250 88 64 e1 3d fc 47 bf 3e f3 6e 9e 3e c4 d5 be 3d
       0.11005503 0.37359607 0.30944023 0.09318116
000260 33 05 dd 3e 85 0d 8e 3e fc 5c 8f 3e 2c a3 e1 3e
       0.4316803 0.2774469 0.2800063 0.44069803
000270 8b a5 ce be 55 a2 dc 3e 84 41 96 3e ec f1 a7 bd
       -0.40360674 0.430926 0.2934686 -0.0820044
000280 45 b8 93 be dd b7 c3 be 75 4e c6 3e f2 46 b8 bd
       -0.28851524 -0.38226214 0.38731733 -0.08997907
000290 58 19 a6 3e 71 95 a4 bd 6c 0b 7b 3e 61 84 05 be
       0.3244121 -0.08036316 0.24516076 -0.1303878
0002a0 20 6f b4 3e bd c3 0f bf ed c9 b6 3e d0 67 90 bd
       0.35241032 -0.5615805 0.35700932 -0.07051051
0002b0 be 9e 03 3f 7c 84 b9 be a8 88 07 3d d4 f7 d8 3e
       0.51414096 -0.3623389 0.03308931 0.42376578
0002c0 0c 6c ca bd 60 fc 0f 3e ac 20 5d 3d 5a ed a3 3d
       -0.098838896 0.14061117 0.053986236 0.080042556
0002d0 00 5a 8b 3d 20 fc 36 3e e3 73 06 3e 63 1a 05 be
       0.068042755 0.17869616 0.13130145 -0.12998347
0002e0 00 bd ed bb 77 f1 13 be 6b 0d 0d 3f 68 72 a6 3e
       -0.0072551966 -0.1444758 0.550986 0.3250916
0002f0 de 32 b5 3d ec 4c 25 3d 5c ac 6f bd 3e 61 88 be
       0.08847593 0.04035656 -0.058513984 -0.2663669
000300 48 e1 ba 3d 69 5e aa bd d6 a2 99 3e d5 cc 2a 3e
       0.09125 -0.083187886 0.30007046 0.166797
000310 f3 4a 2e 3e bc 0d 37 3d fa 7f a0 3d b8 5f dd 3e
       0.17020778 0.044690832 0.078369096 0.4323709
000320 99 18 ac 3d 94 45 1c be 65 01 8b bd 92 1f 69 be
       0.08403129 -0.15260917 -0.06787375 -0.2276595
000330 69 21 ad be 1d 74 81 be 26 c2 82 be ed 44 06 be
       -0.33814552 -0.252839 -0.25538749 -0.1311223
000340 2b f0 7a be 52 33 f9 be 4f 46 ad be 88 1a 98 be
       -0.2450568 -0.48671967 -0.33842704 -0.29707742
000350 34 2a 71 be fb ec a9 be bc 47 bf be 00 86 36 be
       -0.23551255 -0.33188614 -0.37359416 -0.17824554
000360 65 50 c2 be a4 4a a4 be 3b 54 92 be 7d 3a 67 be
       -0.3795196 -0.32088196 -0.28579888 -0.22580905
000370 1f c4 d9 be 29 97 87 be 69 8f 09 be f4 5c c9 be
       -0.4253244 -0.26482514 -0.13433613 -0.3932873
000380 85 0c 6f be 06 3c 5b be 6c 34 6a be 5c 2f 11 3d
       -0.2334462 -0.21409616 -0.2287156 0.035445556
000390 ce 54 e8 bd fb 7a d4 bd a4 6e 12 bd a9 6f ee bd
       -0.113443 -0.10375019 -0.035750046 -0.11642391
0003a0 db 39 ba be 29 b5 88 bd 61 5e 8a be f6 93 74 be
       -0.36372265 -0.066751786 -0.2702513 -0.23884568
0003b0 2d 0a 78 be e0 b7 8b be a4 84 a9 be 00 82 84 be
       -0.24222632 -0.27288723 -0.3310901 -0.25880432
0003c0 e0 77 cf bd 10 10 b6 be a4 ae d2 3e 89 4c a1 be
       -0.10130286 -0.3555913 0.41148865 -0.31503704
0003d0 30 42 af bd 00 1e c4 bd 48 a0 9f 3d 1a be ad 3e
       -0.08557546 -0.095760345 0.07794243 0.33934098
0003e0 cc 05 69 bd c0 8f 7f 3d 3a 91 c6 3e a6 f0 81 3e
       -0.056890294 0.06239295 0.38782674 0.25378913
0003f0 6a 95 50 be 43 c0 ac 3e 0a 24 c6 be 7e 1a 97 3e
       -0.20369497 0.33740434 -0.3869937 0.295124

feature_network.0.bias f4 [64]
000000 48 19 74 be 4f 3c 68 be 9c 5b 92 be ce ba 99 be
       -0.23837769 -0.22679256 -0.28585517 -0.30025333
000010 a0 a1 49 3c b7 ba 99 be 66 71 ad be 75 c6 8d be
       0.012306601 -0.30025265 -0.3387558 -0.27690473
000020 b0 a2 53 be a6 8f 87 be af ba 99 be bf ba 99 be
       -0.20667529 -0.26476783 -0.3002524 -0.30025288
000030 18 fe d2 be c5 2c cf be 98 d6 85 be 40 ed d2 bd
       -0.41209483 -0.40463844 -0.26140285 -0.10299158
000040 e6 16 15 be 38 b9 99 be c1 ba 99 be 02 5e 99 bd
       -0.14559516 -0.30024123 -0.30025294 -0.07488634
000050 b5 ba 99 be 29 c6 57 3d 50 61 95 be 04 1e 68 be
       -0.3002526 0.052679215 -0.29175806 -0.226677
000060 89 b9 99 be 36 97 52 be b4 64 6f be 2c f5 93 be
       -0.30024365 -0.20565495 -0.23378259 -0.2889799
000070 cb ba 99 be c5 ba 99 be 6a e8 8a be cf 62 88 be
       -0.30025324 -0.30025306 -0.27130443 -0.26637885
000080 90 0c b3 be 74 52 3e be d1 ba 99 be 00 00 00 00
       -0.34970522 -0.18586141 -0.30025342 0.0
000090 d1 ba 99 be a8 ba 99 be 33 5b 04 be 30 ba b4 be
       -0.30025342 -0.3002522 -0.12925415 -0.352983
0000a0 ce 9d 7c be dc 41 02 3d f1 4e f8 bb 40 60 6f be
       -0.24669573 0.03180109 -0.00757777 -0.2337656
0000b0 30 12 b7 be f3 8a 2e be 00 00 00 00 82 b4 07 be
       -0.35756063 -0.17045192 0.0 -0.13252452
0000c0 7e e1 d7 be c4 ba 99 be e7 b4 b8 be 00 00 00 00
       -0.42164224 -0.30025303 -0.36075518 0.0
0000d0 54 22 94 3a e0 af a9 be 04 76 a1 be 83 fb c5 be
       0.0011301734 -0.33141994 -0.3153535 -0.3866845
0000e0 cb ba 99 be f7 54 90 be 66 2a 9b be b2 ba 99 be
       -0.30025324 -0.28189823 -0.30305785 -0.3002525
0000f0 77 f2 bd be 00 00 00 00 90 ba 99 be aa ba 99 be
       -0.37099048 0.0 -0.30025148 -0.30025226

feature_network.3.weight f4 [64, 64]
000000 de 93 a2 bd 03 1e f9 be b4 1c ff bc 7b 67 9e be
       -0.0793836 -0.4865571 -0.031141616 -0.30938324
000010 17 62 5c be 51 87 ef be 39 cb 80 be 0e aa 45 3e
       -0.21521793 -0.46782926 -0.25155047 0.19303152
000020 b6 08 97 be 5a ba 52 be 8b 1f 0e be 00 a4 89 be
       -0.29498833 -0.205789 -0.1387922 -0.26882935
000030 63 f9 a4 be 78 b3 c4 be 25 b2 38 be 8a 9e bb 3d
       -0.32221517 -0.38418174 -0.18036707 0.09161098
000040 93 3b dc be 99 0f c9 3e 96 c5 76 be 26 57 86 be
       -0.43014202 0.39269713 -0.2409881 -0.26238364
000050 00 ac fc be 52 0e 0f bf 28 e5 47 be 43 dd fe be
       -0.49349976 -0.55881226 -0.1952101 -0.49778184
000060 15 82 9a 3e 1b 3c aa be 63 98 a7 be 09 9f 99 3e
       0.3017737 -0.33248982 -0.3273345 0.30004147
000070 70 af 0e be d1 e8 34 be 11 dd 66 be ad a1 07 be
       -0.13934112 -0.17666937 -0.22545268 -0.13245268
000080 c7 80 81 be b8 c3 a7 be cf 94 ff be ad 3d 3b 3e
       -0.25293562 -0.3276651 -0.4991822 0.18285246
000090 6c 95 b8 bd 5a f4 e7 be 19 8d 74 be 89 15 77 be
       -0.09012875 -0.45303613 -0.2388195 -0.24129309
0000a0 c2 c4 b3 bc 80 f7 a6 be 9c 84 de be f1 d6 1e bd
       -0.021944407 -0.32610703 -0.43460548 -0.038779203
0000b0 4a f9 c2 bd d6 6a 88 3e 89 3f 1e 3e 16 4e 15 be
       -0.09520204 0.2664401 0.15453924 -0.14580569
0000c0 6d 6c bd be 05 0c b4 be c8 d8 6b be 8c e0 67 bd
       -0.36996785 -0.3516542 -0.23031914 -0.05661063
0000d0 2d dd d0 be 90 26 a2 be f7 eb 8f 3d 56 b0 03 be
       -0.40793744 -0.31670046 0.070274286 -0.12860236
0000e0 72 f0 00 bf ab b4 98 3d 8e f2 92 be bc 9f 74 3d
       -0.5036689 0.07456335 -0.2870068 0.059722647
0000f0 dd f5 47 3e 78 71 38 bd 99 94 c6 bd 3b 23 bd be
       0.19527383 -0.045030087 -0.096963115 -0.3694094
000100 af 8e ac 3d 5f b7 8e be 3f 0e e4 be e2 09 21 be
       0.08425652 -0.27874276 -0.4454212 -0.15726426
000110 f1 ed 14 be 3e e6 c0 be 6e 4f dc bd 73 a3 80 3e
       -0.14543892 -0.3767566 -0.107573375 0.25124702
000120 8e 80 d5 3d 22 f6 b2 3d 43 d9 c6 be 78 d8 d4 3d
       0.104249105 0.08738352 -0.38837633 0.10392851
000130 cc 27 af 3e 9b 12 90 be 38 4e 98 bd 68 56 79 bd
       0.3421005 -0.28139195 -0.07436794 -0.06087342
000140 0e 34 f7 3e 84 62 9c bd 61 e7 5c be 3b 72 0b be
       0.48281902 -0.07635978 -0.21572639 -0.13617794
000150 3d 32 8c be 8e a7 e6 be f0 9a 5d bc d2 85 2e be
       -0.2738208 -0.4504971 -0.0135257095 -0.17043236
000160 96 19 c6 3d 88 9e fd bc e4 57 98 3e 80 2a 1e bd
       0.09672849 -0.030959383 0.29754555 -0.03861475
000170 34 9c c0 bd 27 f2 62 3e 64 9f 04 be b5 14 cd be
       -0.094047934 0.22162686 -0.12951428 -0.4005486
000180 1f 4d 09 be fb a1 82 be e8 3c cc 3d 95 c2 31 be
       -0.13408326 -0.25514206 0.099725544 -0.17359383
000190 b5 a1 eb 3e 0c 25 b3 be 95 3a e4 be f7 9e e1 be
       0.4602181 -0.34989202 -0.44575945 -0.44066593
0001a0 19 51 42 be b1 9c da be 83 f9 ba be 7a 86 31 be
       -0.18976249 -0.4269767 -0.36518487 -0.17336455
0001b0 34 88 07 be 76 16 8d 3d 1f d2 19 be ed 6e d6 bd
       -0.13235551 0.0688905 -0.15021561 -0.10470376
0001c0 bb 97 9b be 30 0f f5 be af 75 87 3e 94 45 e6 bd
       -0.303892 -0.4786315 0.26456973 -0.1124374
0001d0 9c 6e eb be ce fc aa be 38 4a ba bd ac 99 da be
       -0.45982826 -0.33396 -0.09096187 -0.42695367
0001e0 eb 3e 76 be a9 a5 d7 be 9f fa 6a 3e d5 4e be 3e
       -0.24047439 -0.42118576 0.22947167 0.3716952
0001f0 59 0d b0 be ee 96 db 3d 66 90 5b be 46 50 c6 be
       -0.34385183 0.10722147 -0.21441802 -0.3873312
000200 18 e6 50 bd 32 df 8f 3d 49 9b a4 be 4f 27 96 3e
       -0.051000684 0.07024993 -0.32149723 0.29326865
000210 ba c2 e1 be 64 c8 e5 3d 44 c2 2c be 50 2f fc bd
       -0.44093877 0.11219862 -0.16870981 -0.12313712
000220 f7 7f 05 3d b6 1b ab 3d 0e 03 03 be 4a 56 8c 3e
       0.03259274 0.08354895 -0.12794134 0.27409583
000230 7f e2 c2 3e 3f 0d 9e bd 5c a7 0f 3d 2f c9 12 bf
       0.38063428 -0.0771737 0.035071716 -0.5733823
000240 18 ab 29 3e ce ca 80 bd 2b a6 2e 3e d5 33 45 be
       0.16569173 -0.06288682 0.17055576 -0.19258054
000250 6b 8e e9 3e 6c b1 79 be 84 92 d6 bd 5e 18 04 bf
       0.4561647 -0.24384087 -0.104771644 -0.5159968
000260 67 1a 17 3e 63 ff 8b be 76 a2 11 be d3 ce 99 be
       0.14756165 -0.27343282 -0.1422213 -0.30040607
000270 d6 81 8e 3e 02 dc ad 3e 78 90 3f be c2 48 2a bf
       0.27833432 0.33956915 -0.18707454 -0.6651727
000280 ca e0 04 bf dd 9b 56 be d8 f4 bc 3e d1 ea 45 be
       -0.519055 -0.20957895 0.3690555 -0.19327857
000290 53 11 8e 3e 16 7f 75 3e bc 03 0a bf 71 1c 48 3e
       0.27747592 0.2397426 -0.5391195 0.195421
0002a0 f1 ed f8 be 15 75 08 be 06 fa d2 be 2f 10 71 be
       -0.48619035 -0.13325913 -0.41206378 -0.2354133
0002b0 33 90 97 be 01 bd a1 be 79 d6 2d be 2c 92 0d bf
       -0.29602203 -0.3158951 -0.16976346 -0.55301166
0002c0 a4 cf 9b 3e 63 5d 2e 3e eb 1a bc 3e 91 cf 0d 3e
       0.30431855 0.17027812 0.36739287 0.13848712
0002d0 bf ae 53 bd 5c f8 ba be 92 45 00 be a9 e8 06 be
       -0.051680323 -0.36517608 -0.12526539 -0.1317469
0002e0 57 0e 0b 3e 5c cb e5 bc ce 71 3c 3e 84 fd 6c bd
       0.13579689 -0.02805107 0.18402788 -0.05785896
0002f0 fd 02 17 3c e2 21 f1 3d 93 aa ee 3e 1c f0 10 3e
       0.009217021 0.11774041 0.46614513 0.14154094
000300 1c 2e 18 3e e2 26 5d be e7 3b ad be e1 51 d4 3d
       0.1486134 -0.21596864 -0.33834764 0.1036718
000310 e3 cc 1a be 3d 8c cf 3e 7f 96 01 bf 40 10 f6 3e
       -0.1511722 0.4053668 -0.50620264 0.48059273
000320 cc 3c 9d be aa 7d 2f be 9b ff fb 3e 95 54 8f 3e
       -0.30710447 -0.17137781 0.4921845 0.27994218
000330 67 e3 fa be a5 02 ba be 6c 9e 00 3d a7 cf fe be
       -0.4900162 -0.36330143 0.031401083 -0.497678
000340 9e db 74 3e 58 29 d8 3c ae 15 1d be fd 1c bc be
       0.23911902 0.026386902 -0.15340301 -0.36740866
000350 e2 6d 82 3e 63 6b d9 be 02 a4 34 be 71 c2 e9 3e
       0.2547446 -0.42464742 -0.17640689 0.4565616
000360 c8 16 37 be 01 d5 72 be 37 50 5d 3d b3 50 02 bf
       -0.17879784 -0.23714067 0.054031577 -0.5090439
000370 50 80 8f 3e b4 5d cb 3e eb 10 a9 be b6 0e d7 be
       0.28027582 0.39719927 -0.3302072 -0.4200341
000380 04 ee d0 bd e6 09 99 be 0d 02 f3 3d 07 1a 44 3e
       -0.10201648 -0.29890364 0.118656255 0.19150554
000390 0e fe 35 3e 1c 0e a0 be 3a db c6 be d7 a9 1b be
       0.17772695 -0.31260765 -0.38839132 -0.15201508
0003a0 83 0f f7 be 6b 74 d9 bd db 89 04 bf 9c 3a de be
       -0.48254022 -0.10617908 -0.5177285 -0.4340409
0003b0 a4 1d 0f bf e0 0b 5b bd 2b a5 5d 3e fa 44 ae be
       -0.55904603 -0.05347812 0.21645038 -0.34037
0003c0 48 c5 af 3e c8 8d ce be e0 9f f6 3e 28 51 eb 3c
       0.343302 -0.40342546 0.4816885 0.028725222
0003d0 81 d8 58 be 24 cd 66 3d fa 02 46 be 69 e2 6e be
       -0.2117634 0.05634798 -0.19337073 -0.23328556
0003e0 6c 21 ea bd a6 cb b3 be c9 74 87 3e 9f 5c c2 bd
       -0.11432156 -0.3511631 0.26456288 -0.09490322
0003f0 8f 39 13 bf a0 86 e6 3b 65 d1 90 3e 8e 11 d2 be
       -0.575097 0.0070350915 0.28284755 -0.41029018

feature_network.3.bias f4 [64]
000000 f0 fc d4 be a7 ba 99 be 3c da 3a be ec 0d 0f bf
       -0.41599226 -0.30025217 -0.18247312 -0.5588062
000010 55 03 d5 be 73 c2 bd be 88 ae 4d 3e 39 a2 57 be
       -0.41604105 -0.37062415 0.2008611 -0.21057977
000020 c2 42 00 bf 8c 8f 4d be 36 49 54 be 98 49 0a bd
       -0.50101864 -0.2007429 -0.20731053 -0.03376159
000030 df f8 d3 3c 8d b3 13 be 2f 03 d5 be e3 d2 d9 be
       0.025875507 -0.14423962 -0.4160399 -0.42543706
000040 a8 83 c4 be e2 49 8e be 33 ba 99 be be 5d 07 be
       -0.38381696 -0.27790743 -0.3002487 -0.13219354
000050 9e bf 8e be a6 be d5 be f8 b5 61 3e c1 b5 3d 3e
       -0.27880567 -0.41747016 0.22042072 0.18526365
000060 d9 ba 99 be 2f cd 46 be a2 07 be be b5 0b 30 be
       -0.30025366 -0.19414209 -0.37115198 -0.17191966
000070 d7 d5 18 be 6e 17 ca be 53 d8 9f be 3c f7 ad be
       -0.14925323 -0.39471 -0.3121973 -0.33977687
000080 78 1a a5 be be b9 99 be 8a 6c 92 be 64 39 70 be
       -0.32246757 -0.30024523 -0.28598434 -0.23459393
000090 ce ba 99 be 69 25 07 be b9 c3 03 bf 44 92 85 be
       -0.30025333 -0.13197865 -0.51470524 -0.26088154
0000a0 5d 79 f0 be d8 61 ca be 99 ba 99 be a3 b7 e1 bc
       -0.46967593 -0.39527774 -0.30025175 -0.027553385
0000b0 33 e2 ab be 15 ba 99 be 33 34 83 be c2 49 e4 be
       -0.33571014 -0.30024782 -0.25625762 -0.44587523
0000c0 4d bd 64 be 37 5b 93 be 0a a6 d7 be 04 70 a3 be
       -0.22337838 -0.2878053 -0.42118865 -0.319214
0000d0 88 08 d8 be 54 60 b9 bd bb 5f f3 be d9 00 ab 3e
       -0.4219401 -0.09051576 -0.47533974 0.33399084
0000e0 5c 81 dd bc c4 64 e6 bc a8 18 d9 be d2 5a a6 bd
       -0.027039222 -0.02812422 -0.42401624 -0.08122791
0000f0 66 1a d8 be b4 f3 cf bd c8 ba 99 be 8c dc d6 bd
       -0.4220764 -0.101539046 -0.30025315 -0.10491285
