training_results/dqn_mr_x_1754067837.pth (torch, 919187 bytes, 28 tensors)

feature_network.0.weight f4 [128, 229]
-0.09772534 0.095372036 0.078274034 0.014805352 0.032370303 0.012274402 0.008371223 -0.12610254
0.044575028 -0.041724645 -0.08140316 0.04234125 0.10565437 -0.10198194 0.040102746 -0.080566026
0.12535542 -0.14289412 0.055351388 -0.11108249 -0.0099312505 -0.15888885 -0.02150879 -0.09180629
-0.085437834 0.12475075 0.023878401 0.17827033 0.057872895 -0.00583139 0.18939891 0.13536225
-0.021668281 0.14057507 0.088001326 -0.06481891 0.08722524 0.14439574 -0.064556554 0.051453236
0.102896765 0.23339482 -0.078991205 0.065895796 -0.06401155 0.095413335 -0.09776125 0.0770158
-0.0090876175 -0.13785192 0.030648414 -0.036190834 -0.08166225 0.055635255 -0.10547309 -0.0111972615
0.03647157 -0.09977896 -0.022925355 0.079228945 -0.044762436 0.044935346 0.0749176 -0.015231141
-0.09609062 -0.11896009 0.14935708 -0.13045205 0.024106415 -0.06726673 -0.008926736 -0.031453427
-0.1720148 -0.046197604 -0.0063568014 0.0061928225 0.11968221 -0.08408009 -0.045548417 -0.04896074
-0.06530745 0.05337218 0.08406142 -0.042938575 -0.060672108 -0.059778307 -0.030502262 0.14637677
0.0096763605 0.01595564 0.10514582 0.04458437 0.06458303 -0.04309506 -0.050761495 0.05332057
0.08057989 0.09332262 -0.10792443 -0.02990522 -0.023644542 -0.103679195 -0.07410389 0.044559468
0.031610206 0.21488827 -0.03385923 -0.07286445 0.11100737 0.06596171 0.13509928 -0.04584694
-0.14333335 0.07537055 0.03235759 0.20856737 -0.088303454 0.11516845 -0.08953374 -0.13592519
0.04764205 -0.096977174 0.009166833 0.0127142165 -0.03613246 -0.06678145 0.068440646 -0.08943694
0.20048493 0.10185489 -0.10822052 -0.08783722 -0.04582566 -0.03379297 0.16810656 -0.0073290304
0.121786974 -0.016773224 0.0010811172 -0.042065017 -0.005961956 0.17430188 0.054594073 0.03800796
0.19538449 0.12263382 -0.0012817585 -0.09028048 0.071421064 0.013056896 0.010493581 -0.039690066
0.02178386 -0.12529911 0.18249689 0.13768116 0.005055456 0.0067330142 -0.16678874 -0.024369368
-0.040571563 0.075661615 -0.06650632 -0.04795994 0.0085468935 0.052872162 -0.01623906 -0.05910442
0.06794315 0.105344735 -0.16005999 -0.1422159 0.003455727 0.046928797 0.019748889 0.10687232
-0.03901631 -0.17155264 -0.10119292 0.02277158 0.067167714 0.10611582 0.057634134 -0.12129901
-0.053194076 -0.13705933 0.108188264 0.06319572 0.04750205 -0.020673603 0.016467158 -0.13306603
0.07917469 -0.010559805 0.02853453 -0.09777192 -0.0053076 -0.010187109 0.08370945 0.0070329974
0.06424834 0.01914223 -0.14378275 -0.081487305 -0.094407104 -0.23809828 -0.021146936 0.11115496
0.029795332 -0.027533097 0.05718083 -0.027877085 -0.15884686 0.03333035 -0.145124 0.058103483
-0.033395253 0.021823334 0.022733811 -0.101476654 -0.16289291 -0.13490297 0.0015445976 0.07382868
-0.082640685 -0.107985534 0.0017704384 0.07213661 -0.06529474 -0.09485314 -0.024514802 -0.030617384
-0.1434765 -0.07539439 -0.0728259 0.06276399 -0.11586842 0.019639581 0.029062957 -0.08115302
0.027102945 -0.14375506 -0.099289544 0.12794621 -0.01826742 -0.09078022 0.07656157 -0.002240926
0.095675126 -0.040691063 -0.011300102 -0.06465571 -0.00021723055 -0.032202713 -0.052048597 0.07813735
00000000: 3924 c8bd 6a52 c33d 234e a03d 2692 723c
00000010: b996 043d 931a 493c 7427 093c 0621 01be
00000020: 4e94 363d 76e7 2abd b3b6 a6bd 056e 2d3d
00000030: 5161 d83d e8db d0bd c742 243d cdff a4bd
00000040: 2c5d 003e d652 12be 23b8 623d 377f e3bd
00000050: afb6 22bc c2b3 22be 3433 b0bc f004 bcbd
00000060: 08fa aebd 527d ff3d a39c c33c 7f8c 363e
00000070: 210c 6d3d 3f15 bfbb caf1 413e 679c 0a3e
00000080: ae81 b1bc e9f2 0f3e 0a3a b43d c7bf 84bd
00000090: 26a3 b23d 7adc 133e 3a36 84bd a1c0 523d
000000a0: 8abb d23d 0dff 6e3e 24c6 a1bd 60f4 863d
000000b0: 7d18 83bd 1168 c33d 0d37 c8bd 76ba 9d3d
000000c0: 3be4 14bc 0e29 0dbe 6212 fb3c d73c 14bd
000000d0: 8a3e a7bd cbe1 633d 4702 d8bd b874 37bc
000000e0: 3763 153d e958 ccbd f4cd bbbc c942 a23d
000000f0: d158 37bd 200e 383d 666e 993d 098c 79bc
00000100: 29cb c4bd 59a1 f3bd 10f1 183e 3995 05be
00000110: d17a c53c 24c3 89bd 7241 12bc 4fd5 00bd
00000120: a624 30be b339 3dbd b74c d0bb 29ed ca3b
00000130: f21b f53d 2f32 acbd fa90 3abd 0f8b 48bd
00000140: eabf 85bd c99c 5a3d 6528 ac3d 5ce0 2fbd
00000150: 5183 78bd 19da 74bd e1df f9bc cbe3 153e
00000160: 9989 1e3c 67b5 823c b156 d73d 1a9e 363d
00000170: 1c44 843d 7284 30bd 49eb 4fbd ac66 5a3d
00000180: 1207 a53d ee1f bf3d 7c07 ddbd cbfb f4bc
00000190: 33b2 c1bc c255 d4bd c8c3 97bd fd83 363d
000001a0: b479 013d ac0b 5c3e faaf 0abd f539 95bd
000001b0: d557 e33d ef16 873d 7757 0a3e 00ca 3bbd
000001c0: fac5 12be e05b 9a3d 6489 043d af92 553e
000001d0: 71d8 b4bd 70dd eb3d 775d b7bd f92f 0bbe
000001e0: 4f24 433d f89b c6bd 7c30 163c 4a4f 503c
000001f0: a1ff 13bd b6c4 88bd 9c2a 8c3d b72a b7bd
00000200: ec4b 4d3e 4c99 d03d b8a2 ddbd 00e4 b3bd
00000210: b0b3 3bbd 7f6a 0abd 2024 2c3e 5d28 f0bb
00000220: 736b f93d 0068 89bc 46b4 8d3a 5e4c 2cbd
00000230: 835c c3bb 317c 323e 099e 5f3d 3cae 1b3d
00000240: df12 483e 7127 fb3d ae00 a8ba f9e4 b8bd
00000250: 3545 923d 97ec 553c 45ed 2b3c 0d92 22bd
00000260: 1174 b23c 694e 00be 77e0 3a3e 4afc 0c3e
00000270: 3da8 a53b 9ea0 dc3b abca 2abe 45a2 c7bc
00000280: 5e2e 26bd 7af4 9a3d 7734 88bd a471 44bd
00000290: 4508 0c3c 7b90 583d c707 85bc 7a17 72bd
000002a0: c725 8b3d fbbe d73d c4e6 23be 0ba1 11be
000002b0: 7a79 623b 6938 403d 6cc8 a13c e0df da3d
000002c0: 91cf 1fbd 7fab 2fbe 3c3e cfbd 778b ba3c
000002d0: 3a8f 893d 4053 d93d c511 6c3d 9e6b f8bd
000002e0: 08e2 59bd 4859 0cbe cf91 dd3d c26c 813d
000002f0: 8291 423d b05b a9bc 22e6 863c 7642 08be
00000300: 5726 a23d 0803 2dbc 3fc1 e93c a53c c8bd
00000310: 60eb adbb d5e7 26bc dc6f ab3d 0f75 e63b
00000320: a294 833d 2ad0 9c3c c93b 13be d1e2 a6bd
00000330: 8358 c1bd 09d0 73be 573c adbc 36a5 e33d
00000340: 5715 f43c 178d e1bc 7236 6a3d 7c5e e4bc
00000350: c0a8 22be 6885 083d 639b 14be ebfd 6d3d
00000360: 76c9 08bd d9c6 b23c 423c ba3c fed2 cfbd
00000370: 66cd 26be 0124 0abe 1874 ca3a 7e33 973d
00000380: 853f a9bd 8527 ddbd 0e0e e83a 5cbc 933d
00000390: 40b9 85bd 5d42 c2bd 44d3 c8bc 4fd1 fabc
000003a0: 81eb 12be 6068 9abd bf25 95bd 688a 803d
000003b0: 6c4c edbd 30e3 a03c 7015 ee3c 8e33 a6bd
000003c0: ff06 de3c 8734 13be 5158 cbbd 5504 033e
000003d0: 8ea5 95bc fbea b9bd 50cc 9c3d 80dc 12bb
000003e0: 52f1 c33d acab 26bd 1024 39bc 366a 84bd
000003f0: 62c8 63b9 fee6 03bd e930 55bd 7a06 a03d

feature_network.0.bias f4 [128]
-0.041765265 -0.04083308 -0.041805957 -0.021441888 -0.010952473 -0.034819074 -0.013899512 -0.0321827
-0.011770805 -0.0137953935 -0.018774452 -0.029724142 -0.022312017 -0.038450256 0.0 -0.0038666704
-0.00036105796 -0.020603476 -0.0147373015 -0.027933363 -0.05782908 0.0 -0.037095603 -0.0033987432
-0.010185713 -0.019811792 -0.01636039 -0.011023916 0.0 -0.026136905 -0.02049762 -0.027501492
-0.033759087 -0.009166916 -0.015165639 -0.005834399 -0.04791441 -0.017966086 -0.0071598664 -0.018015582
-0.022009512 -0.018016173 -0.026018849 0.0 -0.014736249 -0.021505577 0.013163314 -0.011136258
-0.016957998 -0.02637002 -0.011858343 -0.025023151 -0.018143715 -0.009882924 0.0 -0.0042585493
-0.030597854 -0.01931298 -0.01690185 -0.019715581 -0.021439968 -0.039022695 -0.0139655685 -0.012914091
0.0015003511 -0.022553781 0.004988022 -0.00033235492 -0.010922104 -0.008731403 -0.039512444 -0.0055254106
-0.034114722 -0.025414718 -0.024098424 -0.023069313 -0.03389057 -0.017918512 -0.012470533 -0.015880572
-0.035700206 -0.006147968 -0.044826042 -0.033545986 0.0058100675 -0.012319497 -0.025817344 -0.018015722
-0.006080988 -0.020816106 0.011505128 -0.042152397 -0.033719245 -0.00842477 -0.025148068 -0.04109518
-0.017316021 -0.0005097213 -0.028449712 -0.021834878 -0.010520556 -0.0397741 -0.019214071 -0.017126508
-0.021756573 -0.019160913 -0.011155584 -0.030437281 -0.03733226 -0.042499956 -0.025674712 -0.043067552
0.001930819 -0.029246785 0.0 -0.017628422 -0.025450634 -0.04138028 -0.011914986 -0.01935559
-0.016035393 -0.029772263 -0.022049109 -0.045426287 0.010671147 -0.034873467 0.02044487 -0.031005632
00000000: 0e12 2bbd 9640 27bd b93c 2bbd e6a6 afbc
00000010: 0072 33bc 729e 0ebd c7ba 63bc 02d2 03bd
00000020: 56da 40bc 1306 62bc e1cc 99bc 0b80 f3bc
00000030: b1c7 b6bc 047e 1dbd 0000 0000 f767 7dbb
00000040: 614c bdb9 9fc8 a8bc b974 71bc 82d4 e4bc
00000050: 2fde 6cbd 0000 0000 8ff1 17bd 73bd 5ebb
00000060: fae1 26bc 574c a2bc 3906 86bc a89d 34bc
00000070: 0000 0000 101d d6bc a0ea a7bc cf4a e1bc
00000080: f846 0abd d530 16bc 4d79 78bc 7c2e bfbb
00000090: e641 44bd 9d2d 93bc 509d eabb 6a95 93bc
000000a0: 4b4d b4bc a796 93bc 7b25 d5bc 0000 0000
000000b0: 4f70 71bc 772c b0bc f1aa 573c da74 36bc
000000c0: 80eb 8abc f105 d8bc 7f49 42bc 5afd ccbc
000000d0: 21a2 94bc fdeb 21bc 0000 0000 4d8b 8bbb
000000e0: 5aa8 fabc 4136 9ebc c075 8abc 9282 a1bc
000000f0: dfa2 afbc 43d6 1fbd d7cf 64bc a095 53bc
00000100: 6ea7 c43a b5c2 b8bc 9072 a33b ec3f aeb9
00000110: a0f2 32bc 290e 0fbc cdd7 21bd 810e b5bb
00000120: e1bb 0bbd 8732 d0bc 0f6a c5bc dbfb bcbc
00000130: d7d0 0abd d8c9 92bc 3551 4cbc f917 82bc
00000140: 613a 12bd e574 c9bb 839b 37bd 8467 09bd
00000150: 6162 be3b b7d7 49bc e57e d3bc b595 93bc
00000160: 0643 c7bb 8a86 aabc 0180 3c3c fea7 2cbd
00000170: 311d 0abd 0c08 0abc 5203 cebc 6b53 28bd
00000180: 54da 8dbc d19e 05ba 5f0f e9bc 0fdf b2bc
00000190: 695e 2cbc 2bea 22bd d466 9dbc e44c 8cbc
000001a0: d73a b2bc 59f7 9cbc e9c5 36bc 9b57 f9bc
000001b0: b6e9 18bd 6f14 2ebd c653 d2bc 9a67 30bd
000001c0: 8913 fd3a f496 efbc 0000 0000 7b69 90bc
000001d0: d97d d0bc 5e7e 29bd 1337 43bc 9d8f 9ebc
000001e0: a85c 83bc f6e4 f3bc 55a0 b4bc ea10 3abd
000001f0: 09d6 2e3c 7bd7 0ebd 007c a73c 86ff fdbc

feature_network.3.weight f4 [128, 128]
-0.1460704 0.12787299 0.01796042 -0.099802196 -0.15786776 0.004531488 -0.12122979 -0.17152971
-0.21560857 -0.03241347 -0.0401129 -0.14024863 -0.15053278 -0.02069818 -0.037325352 0.16154723
-0.051291563 -0.12729461 0.10559611 0.11057596 -0.023148526 -0.15254588 0.07835319 0.05236927
-0.014996657 0.0017215826 -0.010408938 0.04774405 -0.09487225 0.048571043 0.11196584 0.006231686
-0.10002993 -0.09451052 0.033788025 0.11589876 0.081951454 0.0038926303 -0.08981464 -0.106174335
-0.13365151 0.14025174 0.041173514 0.14093257 -0.0035459232 -0.080921024 0.08999139 -0.06799623
-0.0017537165 -0.12464426 0.10648978 -0.0027757834 0.020883307 0.06323269 -0.0077363104 0.13337894
0.0043012197 -0.17181362 -0.10806643 -0.13714644 -0.13515182 0.007903093 0.06962159 0.09042793
0.061546028 0.027423486 -0.13088171 0.03307059 -0.0137164965 0.049640063 -0.12114343 -0.03093694
-0.17083237 -0.12869038 -0.13681106 -0.091961354 -0.111621186 -0.12866099 0.10451061 -0.05912354
-0.013780138 0.081350796 -0.17675647 0.007447699 0.21336196 0.06205019 0.0066934074 -0.04774128
-0.20659152 -0.04963097 -0.15641819 -0.055457443 0.10167836 -0.12220897 -0.09160304 0.026500821
0.08443068 -0.12112196 -0.07065434 -0.05771476 -0.11748886 0.0019209901 -0.20225438 0.062814504
-0.09194419 0.06771941 0.057572518 -0.15495273 0.06622612 -0.07593164 -0.053959772 0.105178386
-0.09385933 0.14220344 -0.14670739 -0.20097949 0.08313978 -0.07674648 0.01864402 -0.17429043
-0.13711312 -0.11573671 -0.13657549 0.03691525 0.14188758 -0.08804481 0.14333445 -0.013908143
-0.15169072 -0.15658584 -0.05983365 -0.11077435 0.0653901 0.065867305 0.09421347 -0.055360258
0.04017287 -0.02540063 0.0016498317 -0.018314866 -0.09912301 -0.07763577 0.10176791 0.13264571
0.1470475 -0.05124869 0.04816029 -0.029337853 -0.0017533486 0.083769515 -0.12553793 -0.17106114
0.0456244 -0.12199058 0.016692717 0.04906133 0.13040335 0.019072372 -0.045263655 0.04855111
-0.13542424 0.021048969 -0.030935729 -0.14105003 -0.08189993 0.15294932 -0.0005062226 -0.036481284
0.04277995 -0.0150054395 -0.15563945 0.050382823 0.07310473 -0.061001334 -0.027025629 -0.020523138
-0.09684201 0.057419676 -0.045377273 0.0026812942 -0.08713455 -0.018360777 0.12948884 0.07546907
0.12638307 -0.06050258 0.041196182 0.11528418 -0.053443186 -0.1214523 0.07394418 -0.12865646
-0.067959175 -0.10282014 -0.10052262 -0.07592015 -0.015915379 0.08419178 -0.12510113 -0.037885476
-0.13931303 -0.019834543 -0.054694068 0.019315427 -0.15230626 0.06613629 -0.025979504 -0.055802498
-0.12964399 -0.030309534 0.032249965 0.119560204 -0.12038548 -0.14586274 0.10951549 0.03595361
-0.10805725 -0.14856733 0.0067532826 -0.10280678 0.102479495 -0.1243941 0.075424016 -0.00615702
-0.06101066 0.008123582 -0.08357326 -0.114222914 -0.008872921 0.010748582 -0.102003485 -0.025156647
0.13101447 -0.12740716 -0.08735998 0.059051204 0.07492825 0.056501906 0.03216896 0.124332234
0.12604403 0.05723981 -0.10864836 -0.07550538 0.04744829 0.087497704 -0.105980635 -0.15583779
0.13120721 -0.071734436 -0.13598053 0.035166856 0.06554121 0.0045160353 -0.004356997 0.024301844
00000000: 7b93 15be 23f1 023e bb21 933c 1865 ccbd
00000010: 16a8 21be e07c 943b 5347 f8bd 7ca5 2fbe
00000020: 7ec8 5cbe fdc3 04bd 6d4d 24bd 569d 0fbe
00000030: 4425 1abe 3b8f a9bc 78e2 18bd a36c 253e
00000040: 1a17 52bd 8559 02be c642 d83d a675 e23d
00000050: faa1 bdbc fd34 1cbe a377 a03d 2981 563d
00000060: 8ab4 75bc baa6 e13a 408a 2abc 448f 433d
00000070: 624c c2bd 6ef2 463d 594e e53d 2c33 cc3b
00000080: 7edc ccbd bb8e c1bd 5065 0a3d 545c ed3d
00000090: 2ad6 a73d 801b 7f3b bdf0 b7bd ee71 d9bd
000000a0: f1db 08be 279e 0f3e 8fa5 283d a150 103e
000000b0: b862 68bb ecb9 a5bd 684d b83d 9c41 8bbd
000000c0: f6dc e5ba 7d45 ffbd 5017 da3d ebe9 35bb
000000d0: 7813 ab3c 2480 813d e080 fdbb 7d94 083e
000000e0: 3ff1 8c3b e9ef 2fbe ef51 ddbd 1e70 0cbe
000000f0: 3d65 0abe f97b 013c c495 8e3d 4732 b93d
00000100: b017 7c3d 38a7 e03c db05 06be 0775 073d
00000110: 28bb 60bc 6153 4b3d 0c1a f8bd 776f fdbc
00000120: aeee 2ebe 69c7 03be 3318 0cbe 3c56 bcbd
00000130: a699 e4bd b5bf 03be a909 d63d 862b 72bd
00000140: 17c6 61bc 3f9b a63d a6ff 34be d40b f43b
00000150: 8f7b 5a3e 5728 7e3d 5f54 db3b 5c8c 43bd
00000160: ba8c 53be d849 4bbd 172c 20be 5827 63bd
00000170: be3c d03d b248 fabd 609a bbbd 4018 d93c
00000180: fee9 ac3d ca0e f8bd 39b3 90bd 5066 6cbd
00000190: 009e f0bd bbc9 fb3a c61b 4fbe e4a4 803d
000001a0: 3c4d bcbd 79b0 8a3d 29d1 6b3d eeab 1ebe
000001b0: 8fa1 873d 0c82 9bbd ec04 5dbd c467 d73d
000001c0: 5239 c0bd c79d 113e 763a 16be 91cd 4dbe
000001d0: 3045 aa3d 422d 9dbd 58bb 983c 3179 32be
000001e0: 6267 0cbe 5e07 edbd 72da 0bbe 7234 173d
000001f0: fa4a 113e d650 b4bd 44c6 123e fbde 63bc
00000200: d054 1bbe 0a58 20be 2114 75bd aadd e2bd
00000210: 3feb 853d 70e5 863d fef2 c03d 70c1 62bd
00000220: 4f8c 243d fb14 d0bc 2a3f d83a 0f09 96bc
00000230: 0101 cbbd 81ff 9ebd b26b d03d 47d4 073e
00000240: 9f93 163e 25ea 51bd b943 453d f055 f0bc
00000250: 9ed0 e5ba 5a8f ab3d 048d 00be a72a 2fbe
00000260: a7e0 3a3d 32d6 f9bd 2abf 883c 88f4 483d
00000270: 7588 053e aa3d 9c3c 6266 39bd 87dd 463d
00000280: a7ac 0abe e36e ac3c ed6c fdbc 6b6f 10be
00000290: 27bb a7bd bf9e 1c3e 06b4 04ba 666d 15bd
000002a0: 073a 2f3d 60d9 75bc f35f 1fbe 385e 4e3d
000002b0: efb7 953d 89dc 79bd da64 ddbc 2420 a8bc
000002c0: 1b55 c6bd e530 6b3d 85dd 39bd a7b8 2f3b
000002d0: 9973 b2bd 5769 96bc b998 043e 878f 9a3d
000002e0: 906a 013e 8ed1 77bd 54bd 283d 1d1a ec3d
000002f0: 3ee7 5abd fcbb f8bd 0c70 973d 85be 03be
00000300: 2e2e 8bbd 5e93 d2bd cede cdbd 067c 9bbd
00000310: f860 82bc bd6c ac3d 831a 00be cd2d 1bbd
00000320: 13a8 0ebe 0d7c a2bc e306 60bd 633b 9e3c
00000330: 2cf6 1bbe 7772 873d f8d2 d4bc 2991 64bd
00000340: 65c1 04be b34b f8bc 8a18 043d fbdb f43d
00000350: aa8c f6bd 0b5d 15be a849 e03d 1844 133d
00000360: 1f4d ddbd 0922 18be a44a dd3b 5c8c d2bd
00000370: c5e0 d13d 55c2 febd e877 9a3d d4c0 c9bb
00000380: 50e6 79bd c618 053c 7528 abbd b4ed e9bd
00000390: ba5f 11bc d21a 303c 34e7 d0bd 5015 cebc
000003a0: a828 063e 0677 02be cae9 b2bd addf 713d
000003b0: fb73 993d 8b6e 673d 99c3 033d e6a1 fe3d
000003c0: b011 013e 4a74 6a3d 0883 debd 91a2 9abd
000003d0: 2359 423d ff31 b33d 600c d9bd f193 1fbe
000003e0: 2f5b 063e 81e9 92bd 7b3e 0bbe 1f0b 103d
000003f0: 783a 863d 40fb 933b 24c5 8ebb a914 c73c

feature_network.3.bias f4 [128]
-0.016115725 -0.048076894 0.013046719 -0.0027579204 -0.034138225 -0.020809492 -0.0026378229 -0.04680498
-0.013882369 -0.05466768 -0.009993041 -0.0058966493 -0.0008723028 -0.052333377 -0.060346205 -0.031629026
0.0066856598 -0.03974406 -0.026685787 0.007056919 -0.0044781463 0.019421604 0.008413814 -0.01161994
0.006479703 0.013586448 -0.031439852 -0.043644764 0.027390173 -0.04802208 -0.00017049575 -0.07752967
0.021244178 -0.031701617 0.016297875 0.02191365 -0.019729929 -0.03852599 -0.0199931 -0.021059077
0.0037574454 -0.040534437 -0.0800017 -0.024852665 0.006672016 -0.009746456 -0.0031943817 -0.045729045
-0.0072763464 -0.007855895 -0.011631391 0.0055805366 -0.022944557 -0.037371326 0.012221843 -0.03360982
-0.04096705 -0.04533015 0.0025735397 -0.0016674271 0.04862772 -0.029032933 -0.02361082 0.0026042922
-0.04069653 -0.08208633 0.017397545 -0.008898225 0.01643598 -0.027573725 -0.013127723 -0.054190382
-0.042204402 0.005927736 -0.046022978 -0.012302323 -0.0071223746 -0.027810792 0.023939613 -0.020390349
0.00923936 -0.028392479 -0.006728739 -0.02814086 -0.04616373 -0.06350069 -0.04094043 0.013036464
0.012331194 -0.01057002 -0.019538095 -0.024022471 0.007317226 -0.01994446 0.005205037 -0.024134044
0.0027391207 -0.018127553 0.008296579 -0.014196129 -0.044157404 -0.0094197225 -0.052532613 -0.025532087
-0.025562769 -0.010005091 -0.01976578 -0.017580573 -0.060024202 -0.021815954 -0.055371303 0.049169514
-0.005543507 -0.01035111 -0.034919195 0.026878068 0.004807093 -0.028714914 -0.040891733 -0.022924596
0.016007941 -0.020479403 -0.046904773 0.022641536 -0.045047734 0.0048840586 -0.023364069 0.009535065
00000000: 2005 84bc 47ec 44bd e8c1 553c 3abe 34bb
00000010: 86d4 0bbd ab78 aabc 53df 2cbb 94b6 3fbd
00000020: e072 63bc 38eb 5fbd dab9 23bc ae38 c1bb
00000030: 40ab 64ba 865b 56bd 952d 77bd 708d 01bd
00000040: 6113 db3b abca 22bd 279c dabc ba3d e73b
00000050: 6abd 92bb 0e1a 9f3c 18da 093c 9061 3ebc
00000060: b053 d43b b199 5e3c 13c7 00bd dac4 32bd
00000070: 5b61 e03c cdb2 44bd 1bc7 32b9 e0c7 9ebd
00000080: 4508 ae3c 8ed9 01bd 1f83 853c 4184 b33c
00000090: a9a0 a1bc 6ecd 1dbd 92c8 a3bc 1684 acbc
000000a0: 793f 763b 7007 26bd eed7 a3bd d197 cbbc
000000b0: eda0 da3b 99af 1fbc d558 51bb 614e 3bbd
000000c0: 6b6e eebb 03b6 00bc 9791 3ebc efdc b63b
000000d0: 39f6 bbbc ad12 19bd 203e 483c 73aa 09bd
000000e0: 11cd 27bd 1bac 39bd d5a8 283b 928d daba
000000f0: dc2d 473d 79d6 edbc 7a6b c1bc c6ac 2a3b
00000100: 68b1 26bd e11c a8bd 4c85 8e3c dcc9 11bc
00000110: c0a4 863c 4be2 e1bc a915 57bc bcf6 5dbd
00000120: 86de 2cbd 743d c23b 9782 3cbd af8f 49bc
00000130: cf62 e9bb 75d3 e3bc 021d c43c a909 a7bc
00000140: af60 173c 5897 e8bc c17c dcbb a987 e6bc
00000150: 2e16 3dbd a60c 82bd 27b1 27bd e596 553c
00000160: c708 4a3c e12d 2dbc 5b0e a0bc c6ca c4bc
00000170: 57c5 ef3b 9062 a3bc 048f aa3b c2b4 c5bc
00000180: d282 333b 3c80 94bc 60ee 073c e196 68bc
00000190: 65de 34bd 2e55 1abc 702c 57bd ab28 d1bc
000001a0: 0369 d1bc 65ec 23bc d8eb a1bc 2205 90bc
000001b0: f0db 75bd 5fb7 b2bc 05cd 62bd f965 493d
000001c0: 4fa6 b5bb b497 29bc 6e07 0fbd 652f dc3c
000001d0: d284 9d3b 8a3b ebbc 177e 27bd 5dcc bbbc
000001e0: 1623 833c 6cc4 a7bc 381f 40bd be7a b93c
000001f0: f983 38bd 740a a03b 0166 bfbc f638 1c3c

feature_network.6.weight f4 [64, 128]
-0.09645488 0.034598242 0.08221769 -0.15280074 0.18244311 -0.12798849 -0.04885415 0.08402793
-0.16173086 0.15744287 0.020221598 0.030590018 0.11473329 -0.13058427 0.07528475 -0.14785795
0.15278353 0.06772542 0.077230744 0.13090259 0.07618613 -0.13422467 0.11189963 0.119313285
-0.1546071 -0.08472479 -0.09824159 0.09052558 0.115416 -0.0124242455 -0.12679781 0.01688445
-0.057193298 -0.0014500839 -0.17767836 -0.053493716 0.16721082 0.08312975 0.10541166 -0.06951947
0.06790753 0.09259092 0.032076042 -0.012829445 0.14361776 0.12086953 0.17011747 -0.136029
0.12368817 0.14319864 0.1278409 -0.06363339 0.13036738 -0.12294281 0.14995755 0.03691637
-0.13866577 0.032501835 0.11652067 0.16286656 0.11961535 -0.10519408 0.116357684 -0.081807815
-0.13968152 0.03648746 -0.040841043 0.15723889 -0.08523153 -0.061002254 0.09334745 0.09912001
0.14425316 0.18401615 0.057707436 0.11534758 -0.082664415 0.015147437 -0.031173557 0.026391985
-0.0024931037 0.1241578 0.053617384 0.13908103 0.038447697 -0.07226898 0.13933878 -0.17596337
0.059116356 0.013315603 0.15139619 0.016596023 -0.14203934 -0.003115457 -0.17563947 -0.005250843
0.13109468 0.13475169 0.15568618 -0.17062996 -0.042905305 0.1003275 -0.11061086 -0.13186379
0.030638989 0.00652001 0.113231875 -0.08232837 0.023635017 0.17221579 -0.1376919 0.10398791
0.049056366 0.16109364 0.025907906 0.0838212 -0.120255865 0.051526487 -0.11814434 0.06842237
-0.15340258 0.1226754 0.14041482 -0.020228002 0.101126075 0.08018736 0.047485314 0.06681938
-0.20284016 0.15908605 0.114382476 0.06756896 -0.044782832 0.13486835 0.17234851 0.03378908
0.052270476 0.004486458 0.1382081 0.12960969 -0.021167304 0.112291455 0.042351738 0.017653394
-0.07093423 -0.09856728 0.07339877 0.11946039 -0.091343574 0.14926644 0.06047469 0.073958606
-0.17072493 0.17536095 0.072936475 -0.051497225 0.17043456 -0.1043471 -0.12565958 -0.08962454
0.15021193 0.060913086 0.10643853 0.16357504 -0.020769207 0.07061397 -0.13154507 -0.008959656
-0.11830388 0.047048856 -0.14794475 0.14362867 0.08860178 0.13069342 -0.16198619 0.0076487544
0.08868111 -0.05735351 -0.14295742 0.18592864 -0.15979642 -0.012424331 0.070204906 -0.15688871
0.076106206 0.06686396 -0.03266951 0.17626941 0.038519464 0.001575361 -0.1603584 -0.15919375
-0.009181194 -0.14018688 -0.016870297 0.007315284 0.06595649 -0.057057153 -0.068698 -0.038634118
0.10854998 0.1747711 0.036930256 -0.068078704 -0.034115877 0.09466148 -0.20561431 0.16244707
-0.024189267 -0.08500238 0.12149307 -0.15574348 0.0361003 0.0035955468 0.123485744 0.10121531
0.06129022 -0.0016332598 -0.034176283 0.13283123 0.07686362 0.18216477 0.0988564 0.06635175
-0.10511331 -0.016155535 0.10724232 0.046978004 0.18489325 0.124873966 -0.10422653 0.022660026
0.16046146 -0.19066684 0.01230655 -0.22317402 -0.12537368 0.17625727 -0.085227706 -0.106990285
0.14334264 -0.07520612 0.04886885 -0.009034161 0.064844884 0.08787974 0.006463861 -0.14984918
-0.06878011 0.0452962 0.10670005 -0.06805126 0.14225088 0.11133035 -0.13739914 0.09690531
00000000: 238a c5bd e3b6 0d3d c061 a83d cc77 1cbe
00000010: 5ed2 3a3e 6a0f 03be 4a1b 48bd d616 ac3d
00000020: c69c 25be b438 213e c4a7 a53c eb97 fa3c
00000030: 4af9 ea3d e2b7 05be e42e 9a3d 1368 17be
00000040: 4973 1c3e a0b3 8a3d 272b 9e3d 540b 063e
00000050: 7907 9c3d 3172 09be a22b e53d 865a f43d
00000060: 5351 1ebe 3184 adbd e332 c9bd 7a65 b93d
00000070: 395f ec3d 108f 4bbc 49d7 01be 4251 8a3c
00000080: 8543 6abd be10 beba 51f1 35be 3a1c 5bbd
00000090: 5039 2b3e ee3f aa3d 12e2 d73d 3960 8ebd
000000a0: 1a13 8b3d 4fa0 bd3d 2b62 033d 9832 52bc
000000b0: 8910 133e 728a f73d 4633 2e3e 304b 0bbe
000000c0: 3950 fd3d aaa2 123e bae8 023e 3952 82bd
000000d0: 077f 053e 71c9 fbbd 798e 193e 9f35 173d
000000e0: 66fe 0dbe a520 053d 64a2 ee3d 7ec6 263e
000000f0: e5f8 f43d fe6f d7bd f04c ee3d db8a a7bd
00000100: ac08 0fbe e073 153d f048 27bd 3b03 213e
00000110: de8d aebd 80dd 79bd f32c bf3d 6fff ca3d
00000120: 1ab7 133e bb6e 3c3e a25e 6c3d 5a3b ec3d
00000130: f64b a9bd f52c 783c b05f ffbc 0134 d83c
00000140: 5763 23bb 7246 fe3d e79d 5b3d 426b 0e3e
00000150: 557b 1d3d c201 94bd d3ae 0e3e be2f 34be
00000160: fe23 723d b029 5a3c 9a07 1b3e 62f4 873c
00000170: c372 11be b22c 4cbb d5da 33be 430f acbb
00000180: af3d 063e 59fc 093e 336c 1f3e 9fb9 2ebe
00000190: 79bd 2fbd 8178 cd3d f287 e2bd 4d07 07be
000001a0: 9efe fa3c cfa5 d53b 1de6 e73d c79b a8bd
000001b0: 399e c13c 5659 303e 1bff 0cbe 9df7 d43d
000001c0: 54ef 483d bbf5 243e d13c d43c 73aa ab3d
000001d0: b548 f6bd 700d 533d a9f5 f1bd 0721 8c3d
000001e0: 9115 1dbe 3d3d fb3d e7c8 0f3e 32b5 a5bc
000001f0: 301b cf3d 4539 a43d f67f 423d 99d8 883d
00000200: 55b5 4fbe 74e7 223e 5c41 ea3d 9861 8a3d
00000210: 346e 37bd ee1a 0a3e 217c 303e 6b66 0a3d
00000220: 9119 563d 2303 933b 6d86 0d3e 67b8 043e
00000230: 0e67 adbc 10f9 e53d 0479 2d3d da9d 903c
00000240: f745 91bd a4dd c9bd 1852 963d a6a7 f43d
00000250: 5712 bbbd 4dd9 183e 4fb4 773d 9c77 973d
00000260: 84d2 2ebe d291 333e b85f 953d c1ee 52bd
00000270: 6686 2e3e efb3 d5bd e8ac 00be 128d b7bd
00000280: 28d1 193e 0080 793d 72fc d93d 3780 273e
00000290: 2f24 aabc 0f9e 903d c0b3 06be 85cb 12bc
000002a0: 4e49 f2bd 4db6 403d d47e 17be 6513 133e
000002b0: da74 b53d 7fd4 053e b5df 25be 67a2 fa3b
000002c0: 719e b53d 84eb 6abd 6e63 12be 1464 3e3e
000002d0: aca1 23be 6c8f 4bbc 97c7 8f3d 6fa7 20be
000002e0: 92dd 9b3d f9ef 883d 77d0 05bd f87f 343e
000002f0: 96c6 1d3d 587c ce3a fe34 24be b003 23be
00000300: b86c 16bc 268d 0fbe 9433 8abc 0db5 ef3b
00000310: 3214 873d c3b4 69bd 89b1 8cbd cf3e 1ebd
00000320: 744f de3d 32f7 323e 2e44 173d d96c 8bbd
00000330: 17bd 0bbd e1dd c13d 8f8c 52be 8658 263e
00000340: 9228 c6bc ba15 aebd 5cd1 f83d 387b 1fbe
00000350: e8dd 133d 44a3 6b3b 18e6 fc3d f949 cf3d
00000360: 740b 7b3d 1b13 d6ba 6efc 0bbd e904 083e
00000370: ac6a 9d3d 6789 3a3e 3975 ca3d 6de3 873d
00000380: a645 d7bd 9d58 84bc dda1 db3d 026c 403d
00000390: a854 3d3e ecbd ff3d b874 d5bd 85a1 b93c
000003a0: 0250 243e 2b3e 43be 69a1 493c bb87 64be
000003b0: f561 00be c97c 343e dd8b aebd b91d dbbd
000003c0: 6ac8 123e ab05 9abd b42a 483d 0504 14bc
000003d0: 65cd 843d 4bfa b33d ccce d33b 1072 19be
000003e0: 96dc 8cbd 8288 393d 8e85 da3d 765e 8bbd
000003f0: 37aa 113e 2b01 e43d 5cb2 0cbe 4b76 c63d

feature_network.6.bias f4 [64]
0.028070483 0.029826583 -0.028299365 -0.0034829075 0.0027479979 0.003950844 -0.02164918 0.04138612
-0.024857957 0.011597844 -0.027901331 -0.024168266 -0.034595322 0.046348024 -0.0037724548 0.011233112
-0.024794163 0.0072767707 -0.07708539 -0.032220952 -0.018113 -0.021468269 -0.020079277 -0.017141594
0.007815445 0.022239605 -0.012844595 0.026863536 0.02230013 -0.01857353 -0.041308977 -0.03497386
-0.02961905 -0.04127648 -0.036579404 0.00061889674 0.019704875 -0.051865127 -0.028702043 -0.026547337
0.019290758 -0.030604063 0.029303694 -0.020726513 -0.016717194 0.0053548375 -0.007256416 -0.043594725
-0.026433324 0.046880882 -0.022044472 -0.026886841 -0.025667632 0.020886883 0.008771899 -0.0064407624
0.021278027 0.021470705 -0.03988625 0.00021506216 -0.018216895 0.0152559765 0.03172661 -0.045350958
00000000: 12f4 e53c e156 f43c 12d4 e7bc 7e41 64bb
00000010: c117 343b 1576 813b 9f59 b1bc 7e84 293d
00000020: eaa2 cbbc e204 3e3c 5591 e4bc 87fc c5bc
00000030: d3b3 0dbd 6dd7 3d3d 4a3b 77bb 160b 383c
00000040: 211d cbbc fa71 ee3b f2de 9dbd 1efa 03bd
00000050: b761 94bc 39de afbc 4c7d a4bc 876c 8cbc
00000060: 5a0c 003c d52f b63c 2372 52bc eb10 dc3c
00000070: c3ae b63c 8427 98bc 9a33 29bd c040 0fbd
00000080: a6a3 f2bc 8711 29bd 49d4 15bd 753d 223a
00000090: 1e6c a13c 8770 54bd 8c20 ebbc cd79 d9bc
000000a0: a707 9e3c 5fb5 fabc 4d0e f03c a6ca a9bc
000000b0: 7ff2 88bc a277 af3b 3bc7 edbb 6290 32bd
000000c0: b38a d8bc 2b06 403d 9c96 b4bc cb41 dcbc
000000d0: ed44 d2bc f81a ab3c 03b8 0f3c 080d d3bb
000000e0: 424f ae3c 55e3 af3c c45f 23bd 4f82 6139
000000f0: 993b 95bc 34f4 793c c3f3 013d edc1 39bd

q_network.weight f4 [1, 64]
-0.22067827 -0.25514734 -0.12635155 -0.22955252 -0.24215837 0.1868027 -0.22405238 0.14369398
-0.011071564 -0.23605883 0.019685691 0.15495093 0.23964532 -0.04277992 0.047740895 -0.2085645
-0.21191873 -0.09914962 -0.21469961 0.16166258 0.1773345 -0.013549746 0.07988991 0.100199975
-0.18329129 -0.21397328 0.22607933 -0.24948858 -0.16358611 -0.11315919 -0.2270139 0.21500173
0.14984253 0.10377027 0.0761036 0.09291233 -0.24457678 -0.03153061 -0.048146 0.12860306
-0.06565223 0.114575826 -0.20206307 0.11104314 0.24323751 0.110939205 -0.16220014 -0.25779504
0.20878087 -0.052165724 -0.18643023 0.2121507 -0.002334086 -0.2279996 0.219723 -0.106570534
-0.17896998 -0.15589312 0.07861137 -0.09055439 0.2578255 0.16959128 -0.06373399 -0.20160313
00000000: 7cf9 61be aca2 82be 4d62 01be d10f 6bbe
00000010: 5df8 77be 3549 3f3e fd6d 65be 8424 133e
00000020: 8165 35bc 68b9 71be e343 a13c 75ab 1e3e
00000030: 9565 753e ff39 2fbd f58b 433d ef91 55be
00000040: 3901 59be f50e cbbd 37da 5bbe e08a 253e
00000050: 2d97 353e c1ff 5dbc 529d a33d a535 cd3d
00000060: b6b0 3bbe d01b 5bbe 5781 673e ef79 7fbe
00000070: 1e83 27be 01c0 e7bd 5576 68be 6a29 5c3e
00000080: 5270 193e 8285 d43d 34dc 9b3d d248 be3d
00000090: 5672 7abe 3e26 01bd bd34 45bd 85b0 033e
000000a0: ad74 86bd bba6 ea3d 9fe9 4ebe 966a e33d
000000b0: 4113 793e 1834 e33d cb17 26be b6fd 83be
000000c0: a7ca 553e baab 55bd 91e7 3ebe 083e 593e
000000d0: 77f7 18bb ba78 69be 11ff 603e a741 dabd
000000e0: e843 37be 72a2 1fbe fffe a03d 9474 b9bd
000000f0: b401 843e 56a9 2d3e f786 82bd 0d71 4ebe

feature_network.0.weight f4 [128, 229]
-0.091234185 0.095372036 0.10872693 0.014823936 0.0493487 0.042463206 0.021658566 -0.13579817
0.09158444 -0.028011944 -0.06671524 0.05279826 0.114014715 -0.109626815 0.031397413 -0.06595407
0.13268934 -0.12878281 0.041392267 -0.07760911 0.02373771 -0.13194934 -0.027662817 -0.10870104
-0.1323896 0.12566005 -0.03303745 0.15570708 0.12559189 0.019460786 0.17766872 0.13494079
-0.047467887 0.1824384 0.06834585 -0.044679128 0.058792785 0.13337798 -0.0044539142 0.036432646
0.06970209 0.2132854 -0.10155283 0.05086581 -0.06401155 0.08999448 -0.078454815 0.06730092
-0.012923995 -0.12869531 0.04731689 -0.048596203 -0.09852335 0.03548041 -0.0952845 -0.05419434
0.021261027 -0.074289404 -0.022925355 0.080540575 -0.027670417 0.07458799 0.078717925 0.0012909184
-0.10543563 -0.08955003 0.1250136 -0.08256681 0.0076596015 -0.094046116 -0.035668895 -0.028722962
-0.16630729 -0.036519907 -0.021104116 0.019305283 0.1256243 -0.059720162 -0.10048618 -0.056102455
-0.018317152 0.027983762 0.08546489 -0.0018124904 -0.047632284 -0.047031518 -0.00088559324 0.11990396
-0.019420912 -0.031053908 0.07450914 0.05863836 0.065983325 -0.045986664 -0.053861763 0.03701127
0.060796704 0.09172982 -0.06463422 -0.028598977 -0.043098696 -0.13868481 -0.09617875 0.040776398
0.031181572 0.17340262 -0.02774611 -0.054079734 0.13001998 0.106217705 0.1203752 -0.08853866
-0.13316505 0.07919833 0.0524631 0.15005438 -0.05460175 0.11298559 -0.06991206 -0.10811828
0.043038428 -0.09697236 -0.018015813 -0.024863586 -0.037213225 -0.08621832 0.024286976 -0.061923284
0.17931177 0.08195468 -0.10820032 -0.06204816 -0.06069881 -0.018781265 0.112798005 -0.0074753813
0.12889421 -0.018422646 -0.03575181 -0.02174133 0.015881676 0.12306449 0.06875037 0.065044805
0.12690972 0.10853462 0.027884645 -0.055642392 0.040964514 0.036722977 -0.027447367 -0.07619726
0.036301795 -0.09205963 0.17315784 0.1318192 0.031906042 -0.0070598875 -0.1565484 -0.02436991
-0.03517168 0.09236422 -0.034531202 -0.07672384 0.025584003 0.03648649 -0.064742744 -0.0531837
0.07231021 0.16092215 -0.18551226 -0.15087521 -0.033391226 0.06901473 -0.020416632 0.10752787
-0.04195691 -0.11298128 -0.097817995 0.016570881 0.0843476 0.15199143 0.080066584 -0.12847947
-0.019037997 -0.13895704 0.092341855 0.06681761 0.057491377 -0.051783286 0.0080065755 -0.11949472
0.018286118 -0.013485599 0.028406197 -0.06930073 -0.035964295 -0.0050117634 0.08554683 -0.039501566
0.09456863 0.04966177 -0.10466126 -0.059586428 -0.0565465 -0.1981606 -0.016741533 0.1225265
0.037866004 -0.028362397 0.05513479 -0.01467875 -0.14414331 0.024046287 -0.13591559 0.07524864
-0.019601226 0.04515183 0.021049745 -0.09442837 -0.14469092 -0.13437 0.017547717 0.07903403
-0.07088723 -0.09455621 0.004063637 0.05660023 -0.06904151 -0.09485308 -0.024514802 -0.030617366
-0.1434765 -0.075394444 -0.07282592 0.06276398 -0.11586839 0.019639542 0.029062957 -0.08115302
0.027102906 -0.14375506 -0.099289514 0.12794621 -0.018267391 -0.09078025 0.076561555 -0.002240926
0.095675126 -0.040691063 -0.011300102 -0.06465571 -0.0002171843 -0.032202754 -0.05204854 0.07813735
00000000: fdd8 babd 6a52 c33d 3aac de3d 18e0 723c
00000010: dd21 4a3d e6ed 2d3d 4e6d b13c ad0e 0bbe
00000020: 9f90 bb3d 4e79 e5bc 00a2 88bd fd42 583d
00000030: 8c80 e93d 0684 e0bd 939a 003d ed12 87bd
00000040: b7df 073e a4df 03be f08a 293d 86f1 9ebd
00000050: 9675 c23c ba1d 07be 229d e2bc a79e debd
00000060: 2491 07be 07ad 003e 4752 07bd ad71 1f3e
00000070: 299b 003e 3a6c 9f3c caee 353e eb2d 0a3e
00000080: b06d 42bd 22d1 3a3e e9f8 8b3d 7601 37bd
00000090: b4d0 703d 3d94 083e 24f2 91bb 663a 153d
000000a0: f8bf 8e3d 7d67 5a3e eefa cfbd ab58 503d
000000b0: 7d18 83bd 074f b83d ebac a0bd 11d5 893d
000000c0: 2abf 53bc b4c8 03be 5bcf 413d d00c 47bd
000000d0: 9cc6 c9bd e853 113d 8524 c3bd e2fa 5dbd
000000e0: 9b2b ae3c 0b25 98bd f4cd bbbc 75f2 a43d
000000f0: 12ad e2bc 97c1 983d dd36 a13d 0934 a93a
00000100: a3ee d7bd 0266 b7bd 9103 003e ca18 a9bd
00000110: 65fd fa3b 409b c0bd 8c19 12bd 6b4c ebbc
00000120: 754c 2abe e695 15bd 8ae2 acbc 1d26 9e3c
00000130: a8a3 003e 219d 74bd b3cb cdbd b0cb 65bd
00000140: da0d 96bc 343e e53c 3708 af3d 1691 edba
00000150: 121a 43bd 1fa4 40bd 2827 68ba 3590 f53d
00000160: 9b18 9fbc c464 febc 3f98 983d c72e 703d
00000170: 4422 873d 835c 3cbd 279e 5cbd 2199 173d
00000180: f705 793d d8dc bb3d f25e 84bd 6748 eabc
00000190: 4288 30bd 6403 0ebe 5df9 c4bd 2705 273d
000001a0: 7f70 ff3c 7590 313e cf4b e3bc b682 5dbd
000001b0: f523 053e ab88 d93d 4687 f63d c253 b5bd
000001c0: 6b5c 08be bc32 a23d 8ce3 563d dba7 193e
000001d0: 16a6 5fbd fd64 e73d 0e2e 8fbd 1e6d ddbd
000001e0: 1049 303d 7299 c6bd e695 93bc b8ae cbbc
000001f0: e56c 18bd 3b93 b0bd 7bf5 c63c 45a3 7dbd
00000200: 819d 373e dbd7 a73d 2198 ddbd 3626 7ebd
00000210: 519f 78bd 2bdb 99bc a402 e73d 0bf4 f4bb
00000220: d8fc 033e 17eb 96bc 7d70 12bd e01a b2bc
00000230: 4a1a 823c 3c09 fc3d fecc 8c3d 3636 853d
00000240: 9ff4 013e 6647 de3d 576e e43c 47e9 63bd
00000250: 68ca 273d d56a 163d 4dd9 e0bc 4f0d 9cbd
00000260: 31b1 143d c289 bcbd 4a50 313e 9dfb 063e
00000270: e9af 023d a156 e7bb 394e 20be 68a3 c7bc
00000280: 2e10 10bd 7429 bd3d 9770 0dbd 6321 9dbd
00000290: 8b95 d13c dc72 153d d897 84bd 27d7 59bd
000002a0: 6017 943d c7c8 243e edf6 3dbe 087f 1abe
000002b0: 3dc5 08bd 9857 8d3d c840 a7bc 9237 dc3d
000002c0: 02db 2bbd bb62 e7bd cd54 c8bd a8bf 873c
000002d0: 6fbe ac3d a4a3 1b3e f3f9 a33d 1f90 03be
000002e0: 93f5 9bbc c14a 0ebe ba1d bd3d acd7 883d
000002f0: 147c 6b3d b61a 54bd 032e 033c a6b9 f4bd
00000300: c5cc 953c b4f2 5cbc 1db4 e83c 8bed 8dbd
00000310: 4c4f 13bd b839 a4bb 2d33 af3d 65cc 21bd
00000320: 33ad c13d 246a 4b3d a558 d6bd e610 74bd
00000330: 4e9d 67bd 9dea 4abe 8a25 89bc 2cef fa3d
00000340: 6219 1b3d 4258 e8bc 04d5 613d 247f 70bc
00000350: 4e9a 13be b8fc c43c 752d 0bbe f51b 9a3d
00000360: c092 a0bc 20f1 383d 8470 ac3c a963 c1bd
00000370: db29 14be 4a98 09be 3bc0 8f3c 98dc a13d
00000380: 532d 91bd b0a6 c1bd 4228 853b a5d5 673d
00000390: a365 8dbd 5542 c2bd 44d3 c8bc 45d1 fabc
000003a0: 81eb 12be 6768 9abd c225 95bd 678a 803d
000003b0: 684c edbd 1be3 a03c 7015 ee3c 8e33 a6bd
000003c0: ea06 de3c 8734 13be 4d58 cbbd 5504 033e
000003d0: 7fa5 95bc ffea b9bd 4ecc 9c3d 80dc 12bb
000003e0: 52f1 c33d acab 26bd 1024 39bc 366a 84bd
000003f0: f7bb 63b9 09e7 03bd da30 55bd 7a06 a03d

feature_network.0.bias f4 [128]
-0.032655526 -0.040833 -0.03539049 -0.0214418 -0.009055538 -0.007020575 -0.013899431 -0.024679301
-0.024900358 -0.018823713 -0.00050797465 -0.010476772 -0.021818748 -0.02213953 0.0 0.005038796
-0.00078643236 -0.0232968 -0.011231526 -0.027799204 -0.03225002 0.0 -0.037095502 0.006528306
-0.0060038147 -0.00092998554 -0.008505069 -0.016162002 0.0 -0.013617091 -0.027646856 -0.015874807
-0.016946405 0.0038643153 -0.009156474 -0.02008604 -0.029391684 -0.017966062 -0.013713023 -0.018015558
-0.023954723 -0.018016148 -0.0056458497 0.0 -0.019672602 -0.01820716 0.018819023 -0.0071970597
-0.014400139 -0.0109392805 -0.0048660506 -0.01023596 -0.018143691 0.01095213 0.0 -0.018950442
-0.024758415 -0.011735562 -0.014557361 -0.030014466 -0.004901169 -0.023464177 0.003276741 -0.004446268
0.007755503 -0.01346076 -0.01524275 -0.005279617 -0.0013525405 -0.0020623365 -0.01875878 -0.0135600185
-0.010245439 -0.010328133 -0.017181508 0.0028678696 -0.024709025 -0.025220074 -0.008256146 -0.009464207
-0.03323531 -0.008313161 -0.020824613 -0.021025995 0.008261059 -0.016040372 -0.017431961 -0.018015698
-0.003648243 -0.012930487 0.017044425 -0.03474432 -0.03371889 -0.005421726 -0.016779153 -0.041095097
-0.017315999 -0.009585029 -0.016749002 -0.018936573 -0.023868553 -0.016952995 0.003916318 -0.016049521
-0.019135742 -0.0050507355 -0.007157603 -0.025864474 -0.010005134 -0.03221847 -0.014574402 -0.043067463
-0.0042239493 -0.029246708 0.0 -0.007897738 -0.014527674 -0.02405697 -0.0025990105 -0.0145479785
-0.016035361 -0.0015338446 -0.022049073 -0.024734637 -0.002970709 0.0 0.021335233 -0.010004891
00000000: cdc1 05bd 8140 27bd 9ef5 10bd b7a6 afbc
00000010: ae5d 14bc da0c e6bb 70ba 63bc 3f2c cabc
00000020: d6fb cbbc 3034 9abc 9a29 05ba c4a6 2bbc
00000030: 3bbd b2bc f65d b5bc 0000 0000 7c1c a53b
00000040: 9528 4eba eed8 bebc 6f04 38bc 28bb e3bc
00000050: 9918 04bd 0000 0000 74f1 17bd 66eb d53b
00000060: a6bb c4bb 46ca 73ba d858 0bbc 2d66 84bc
00000070: 0000 0000 381a 5fbc a97b e2bc e20b 82bc
00000080: 30d3 8abc 7440 7d3b 0905 16bc 7b8b a4bc
00000090: d4c6 f0bc 902d 93bc 96ac 60bc 5d95 93bc
000000a0: b23c c4bc 9a96 93bc d200 b9bb 0000 0000
000000b0: 7028 a1bc 2f27 95bc 5a2a 9a3c 50d5 ebbb
000000c0: 90ee 6bbc ab3a 33bc 6473 9fbb bab4 27bc
000000d0: 14a2 94bc 9070 333c 0000 0000 f53d 9bbc
000000e0: 29d2 cabc 8446 40bc ff81 6ebc e6e0 f5bc
000000f0: fc99 a0bb f237 c0bc 97be 563b 00b2 91bb
00000100: e021 fe3b 858a 5cbc babc 79bc a300 adbb
00000110: ba47 b1ba 4428 07bb 03ac 99bc d72a 5ebc
00000120: 7cdc 27bc 5437 29bc 3cc0 8cbc def2 3b3b
00000130: 956a cabc 549a cebc c944 07bc c30f 1bbc
00000140: c021 08bd ed33 08bc 6198 aabc b53e acbc
00000150: 6559 073c 1967 83bc 79cd 8ebc a895 93bc
00000160: 5c17 6fbb 65da 53bc c0a0 8b3c 0f50 0ebd
00000170: d21c 0abd bca8 b1bb 6f74 89bc 5553 28bd
00000180: 48da 8dbc 870a 1dbc 3435 89bc df20 9bbc
00000190: fc87 c3bc 02e1 8abc 7554 803b 497a 83bc
000001a0: 8fc2 9cbc a480 a5bb 538a eabb bce1 d3bc
000001b0: 93ec 23bc 84f7 03bd 79c9 6ebc 8267 30bd
000001c0: 0e69 8abb cb96 efbc 0000 0000 8465 01bc
000001d0: 7b05 6ebc 1f13 c5bc 2954 2abb a55a 6ebc
000001e0: 975c 83bc 490b c9ba 42a0 b4bc 4ba0 cabc
000001f0: 3ab0 42bb 0000 0000 3ac7 ae3c 8eeb 23bc

feature_network.3.weight f4 [128, 128]
-0.10616561 0.12787299 0.054110307 -0.099802196 -0.1401453 0.004531488 -0.12122979 -0.17150484
-0.15630385 -0.08975381 -0.037661247 -0.14174107 -0.14677908 -0.032385 -0.037325352 0.104753815
-0.051291563 -0.11324271 0.0819843 0.11057596 -0.0074227788 -0.15254588 0.07835319 0.011648507
0.056782722 -0.0053328816 -0.052296586 0.06878464 -0.09487225 0.07444573 0.09568176 0.004971529
-0.10576885 -0.10559967 0.005538932 0.122867145 0.08195147 0.0038926303 -0.06902086 -0.106174335
-0.15407307 0.14025174 -0.0016364409 0.14093257 -0.039961178 -0.05786027 0.119952634 -0.052806344
-0.08406894 -0.12462183 0.12846236 0.0151030915 0.020883307 0.09430659 -0.0077363104 0.11838463
-0.0125061665 -0.18087465 -0.07201502 -0.11211187 -0.072947904 0.007903134 0.039163984 0.095088854
0.07540863 0.085770756 -0.12586373 -0.034129314 -0.056264997 0.008619572 -0.08629749 -0.083489455
-0.16448271 -0.13450566 -0.16930863 -0.08149217 -0.14623483 -0.11525078 -0.020637471 -0.026024016
-0.0137801105 0.11335097 -0.17445144 -0.014254188 0.11160338 0.066490225 0.009638944 -0.04774128
-0.16820383 -0.02593386 -0.11560545 -0.030153608 0.10167836 -0.12725976 -0.09160304 0.026500821
0.08443068 -0.125791 -0.084415644 -0.09961539 -0.07100242 0.009230817 -0.1821922 0.0380223
-0.09425548 0.0621592 0.028145377 -0.16845657 0.05061336 -0.07593164 -0.053959772 0.10517839
-0.08189573 0.14220344 -0.14670739 -0.1683228 0.10035754 -0.03649355 0.022551313 -0.14485805
-0.13711312 -0.1257645 -0.13657549 -0.0059683993 0.0022910752 -0.08804481 0.07217778 -0.03440887
-0.14397798 -0.15658584 -0.060320575 -0.11077435 0.0626717 0.05859661 0.09421347 -0.05536037
0.034222364 -0.022724872 -0.005589406 -0.0119644385 -0.09929894 -0.0784691 0.10176791 0.13775735
0.1470475 -0.040854625 0.047328077 -0.029337853 -0.0065180645 0.083769515 -0.12553793 -0.16470353
0.045527466 -0.120393544 0.018542303 0.05880345 0.13040335 0.022348626 -0.036669586 0.055457864
-0.13542424 0.041668676 -0.02528648 -0.14116882 -0.08189993 0.15294932 0.0071774563 -0.036481284
0.05161106 -0.0150054395 -0.15326065 0.050382823 0.064604506 -0.040908445 -0.036000464 -0.01931321
-0.08722147 0.06506687 -0.045338523 -0.0059454986 -0.08713455 -0.00987089 0.12948884 0.08933643
0.13328378 -0.059403278 0.04115474 0.11351795 -0.043265972 -0.12145244 0.066173196 -0.12655985
-0.067278974 -0.10282014 -0.09622565 -0.0751823 -0.0017613395 0.08831859 -0.12926075 -0.024088113
-0.14487761 -0.019769153 -0.027668288 0.016229192 -0.14872992 0.0793818 -0.006584047 -0.047876306
-0.12965116 -0.030309534 0.034296867 0.11997699 -0.10128461 -0.1572906 0.10999192 0.03595361
-0.10749953 -0.14000383 0.013608802 -0.10414764 0.102479495 -0.11668815 0.07310613 -0.006156987
-0.06101064 0.017783303 -0.07976702 -0.115526564 -0.007390679 0.014700327 -0.10372718 -0.01766441
0.08994984 -0.13040353 -0.079359375 0.07990744 0.08233521 0.056501914 0.032168984 0.124332234
0.12975897 0.057239838 -0.10864836 -0.07544378 0.053848714 0.08795883 -0.10624798 -0.15444943
0.13120721 -0.07173148 -0.13598053 0.040882535 0.059695497 0.0045160353 0.029178023 0.033222944
00000000: 5b6d d9bd 23f1 023e c5a2 5d3d 1865 ccbd
00000010: 4082 0fbe e07c 943b 5347 f8bd f79e 2fbe
00000020: 1e0e 20be d8d0 b7bd ae42 1abd 9224 11be
00000030: 414d 16be 22a6 04bd 78e2 18bd 2b89 d63d
00000040: 1a17 52bd cbeb e7bd 62e7 a73d a675 e23d
00000050: c83a f3bb fd34 1cbe a377 a03d 61d9 3e3c
00000060: 0095 683d 74bf aebb f234 56bd f6de 8c3d
00000070: 624c c2bd 0177 983d ccf4 c33d 35e8 a23b
00000080: 579d d8bd a444 d8bd ee7f b53b c5a1 fb3d
00000090: 2cd6 a73d 801b 7f3b cf5a 8dbd ee71 d9bd
000000a0: 55c5 1dbe 279e 0f3e d87d d6ba a150 103e
000000b0: 55ae 23bd e4fe 6cbd baa9 f53d 774b 58bd
000000c0: 562c acbd bb39 ffbd a38b 033e f572 773c
000000d0: 7813 ab3c d023 c13d e080 fdbb a473 f23d
000000e0: aae6 4cbc 3437 39be 9c7c 93bd e89a e5bd
000000f0: b665 95bd 267c 013c 6a6a 203d f2bd c23d
00000100: d76f 9a3d 94a8 af3d 6ce2 00be 2ecb 0bbd
00000110: 2076 66bd 1b39 0d3c bdbc b0bd 85fc aabd
00000120: 286e 28be dabb 09be 3e5f 2dbe 5ee5 a6bd
00000130: 95be 15be 9a08 ecbd ea0f a9bc 5130 d5bc
00000140: f9c5 61bc 8e24 e83d 66a3 32be 668a 69bc
00000150: 5090 e43d 072c 883d a9ec 1d3c 5c8c 43bd
00000160: a03d 2cbe 3f73 d4bc 8dc2 ecbd b304 f7bc
00000170: be3c d03d 6250 02be 609a bbbd 4018 d93c
00000180: fee9 ac3d 5bcf 00be 1ce2 acbd 2703 ccbd
00000190: b769 91bd da3c 173c 9890 3abe 45bd 1b3d
000001a0: 0409 c1bd a59a 7e3d 2291 e63c e17f 2cbe
000001b0: f44f 4f3d 0c82 9bbd ec04 5dbd c567 d73d
000001c0: f3b8 a7bd c79d 113e 763a 16be d05c 2cbe
000001d0: 4188 cd3d 437a 15bd 88bd b83c ab55 14be
000001e0: 6267 0cbe 69c8 00be 72da 0bbe 9092 c3bb
000001f0: dd25 163b d650 b4bd f2d1 933d 51f0 0cbd
00000200: f76e 13be 0a58 20be b512 77bd aadd e2bd
00000210: 055a 803d 0003 703d fef2 c03d 8ec1 62bd
00000220: c02c 0c3d 8329 babc 5627 b7bb 7e06 44bc
00000230: 3e5d cbbd 68b4 a0bd b26b d03d 4310 0d3e
00000240: 9f93 163e 2e57 27bd 16db 413d f055 f0bc
00000250: 7d95 d5bb 5a8f ab3d 048d 00be 0ba8 28be
00000260: 027b 3a3d e490 f6bd 07e6 973c e3db 703d
00000270: 7588 053e 7714 b73c d932 16bd c927 633d
00000280: a7ac 0abe c6ac 2a3d 9825 cfbc 8f8e 10be
00000290: 27bb a7bd bf9e 1c3e de30 eb3b 666d 15bd
000002a0: 1e66 533d 60d9 75bc 5cf0 1cbe 385e 4e3d
000002b0: 5e4f 843d 9d8f 27bd 3975 13bd bd36 9ebc
000002c0: 2ca1 b2bd c741 853d e3b4 39bd 75d2 c2bb
000002d0: 9973 b2bd 83b9 21bc b998 043e 05f6 b63d
000002e0: 8b7b 083e da50 73bd df91 283d 197c e83d
000002f0: a937 31bd 0fbc f8bd d085 873d e898 01be
00000300: 8fc9 89bd 5e93 d2bd f411 c5bd 2df9 99bd
00000310: bfdc e6ba 60e0 b43d ee5c 04be 6f54 c5bc
00000320: cc5a 14be ebf2 a1bc 9ba8 e2bc 15f3 843c
00000330: a84c 18be ed92 a23d fdbe d7bb f219 44bd
00000340: 46c3 04be b34b f8bc df7a 0c3d 7fb6 f53d
00000350: 4e6e cfbd c910 21be 7243 e13d 1844 133d
00000360: b728 dcbd 2a5d 0fbe 74f7 5e3c 5c4b d5bd
00000370: c5e0 d13d 32fa eebd abb8 953d 8dc0 c9bb
00000380: 4be6 79bd 4aae 913c e45c a3bd 3199 ecbd
00000390: 822d f2bb a4d9 703c ea6e d4bd f4b4 90bc
000003a0: 9f37 b83d 8188 05be 2b87 a2bd 83a6 a33d
000003b0: 5d9f a83d 8d6e 673d a0c3 033d e6a1 fe3d
000003c0: 89df 043e 5274 6a3d 0883 debd 4582 9abd
000003d0: 7890 5c3d c223 b43d 8a98 d9bd fe27 1ebe
000003e0: 2f5b 063e f4e7 92bd 7b3e 0bbe 7274 273d
000003f0: 4483 743d 40fb 933b c006 ef3c c814 083d

feature_network.3.bias f4 [128]
-0.041608132 -0.03687781 0.028600594 -0.012462286 -0.027089965 -0.018602533 -0.0009592264 -0.002791346
-0.011781269 -0.0024527821 -0.0019156601 -0.001677487 -0.0029749698 -0.019529518 -0.03750257 -0.018216077
-0.018428031 -0.01666701 -0.04676639 0.0070968918 -0.022799693 0.012887303 0.011544704 -0.018507028
0.0015996635 -0.0019275463 -0.03475707 -0.025644569 0.025757734 -0.032462485 -0.006229055 -0.05611241
0.014407957 -0.025311105 -0.009398961 0.03727587 -0.04838473 -0.028983267 -0.018174035 -0.010967347
-0.04105194 -0.021039665 -0.02380058 -0.011628866 0.002350324 -0.009902105 0.014906668 -0.027051896
-0.023519825 0.012740338 -0.0135158505 0.002588778 -0.0018008162 -0.045408763 0.008143749 -0.01627776
-0.016343106 -0.014832679 -0.008435026 -0.011730339 0.025061017 -0.034751855 -0.022541821 -0.015349461
-0.025925724 -0.046252646 -0.0059288056 -0.014578752 0.0066284603 -0.0013954793 -0.0026052627 -0.047040805
-0.03526265 0.0034915055 -0.029258108 -0.017036015 -0.0052766353 -0.00046184708 0.010139869 -0.015328546
0.009329202 -0.015526204 -0.0014893647 -0.017254677 -0.05926631 -0.07461999 -0.02322728 0.007001811
0.000800177 -0.0029090075 0.00012233114 -0.020164499 -0.03917658 0.004965716 0.009204113 -0.013137457
0.0021141663 -0.0017909277 0.012101888 -0.015997348 -0.02327784 0.004213113 -0.03807667 -0.017264457
-0.018348236 -0.020848464 -0.025736818 -0.02586921 -0.05677024 -0.020373134 -0.038830247 0.020783834
0.009709472 0.01588479 -0.0115281595 0.003134495 -0.007466631 -0.012773719 -0.026883785 -0.0013826163
-0.0055477777 -0.02102271 -0.03040468 -0.006154371 -0.031067088 0.00431858 -0.03511495 0.0028786636
00000000: 4a6d 2abd 300d 17bd cb4b ea3c 9e2e 4cbc
00000010: c6eb ddbc 5764 98bc 9874 7bba 04ef 36bb
00000020: 3906 41bc dbbe 20bb e316 fbba 20df dbba
00000030: b6f7 42bb 5efc 9fbc 4b9c 19bd e239 95bc
00000040: 62f6 96bc 4189 88bc 1d8e 3fbd 0b8d e83b
00000050: 6cc6 babc 4425 533c 0026 3d3c 0d9c 97bc
00000060: cdab d13a b9a5 fcba 6e5d 0ebd 8f14 d2bc
00000070: e201 d33c 62f7 04bd 1a1d ccbb 20d6 65bd
00000080: 5a0f 6c3c 3c59 cfbc 1afe 19bc 95ae 183d
00000090: 112f 46bd 516e edbc b7e1 94bc 63b0 33bc
000000a0: 1426 28bd 605b acbc 6ff9 c2bc 0087 3ebc
000000b0: e507 1a3b 703c 22bc 193b 743c f09b ddbc
000000c0: a6ac c0bc dabc 503c 9671 5dbc 7da8 293b
000000d0: 5d09 ecba 8afe 39bd 5c6d 053c f058 85bc
000000e0: fae1 85bc c404 73bc 1033 0abc 9c30 40bc
000000f0: c34c cd3c f657 0ebd a0a9 b8bc 4e7c 7bbc
00000100: 2f62 d4bc 6a73 3dbd 6d46 c2bb b8db 6ebc
00000110: 8e33 d93b 84e8 b6ba 0ebd 2abb dcad 40bd
00000120: 926f 10bd bed1 643b b3ae efbc 1d8f 8bbc
00000130: a0e7 acbb 1124 f2b9 b121 263c 9524 7bbc
00000140: 82d9 183c 9f61 7ebc c936 c3ba ae59 8dbc
00000150: 3bc1 72bd 5ed2 98bd 2347 bebc 736f e53b
00000160: f8c2 513a 0ca5 3ebb 0446 0039 0530 a5bc
00000170: 9f77 20bd 72b7 a23b d9cc 163c 7d3e 57bc
00000180: d38d 0a3b 90bd eaba ff46 463c df0c 83bc
00000190: 2bb1 bebc 270e 8a3b 48f6 1bbd 316e 8dbc
000001a0: 0a4f 96bc 66ca aabc 05d6 d2bc aaeb d3bc
000001b0: e987 68bd 8fe5 a6bc 770c 1fbd dc42 aa3c
000001c0: 7a14 1f3c d220 823c 9be0 3cbc 1a6c 4d3b
000001d0: a4aa f4bb dc48 51bc 623b dcbc e838 b5ba
000001e0: 22ca b5bb d137 acbc 3c13 f9bc 9baa c9bb
000001f0: 6880 febc e082 8d3b b2d4 0fbd f6a7 3c3b
