training_results/dqn_detectives_1753798409.pth (torch, 851967 bytes, 14 tensors)

feature_network.0.weight f4 [64, 239]
0.058607236 0.046755686 0.13248798 0.048759192 0.11479327 -0.06873319 0.120758176 -0.13537413
0.076151446 -0.042199373 0.10521446 -0.020594724 -0.020217836 0.07391387 0.14035478 -0.11256256
0.10791795 0.037387088 0.08606735 -0.049647287 -0.05130423 -0.1395958 -0.016815782 -0.06992875
-0.01151523 0.045280218 -0.07680519 0.016502276 -0.07823424 0.13071996 -0.008108392 0.025785103
-0.0272298 -0.043466695 0.0491025 0.022412658 0.05976814 0.0063605607 0.001987204 -0.06089665
-0.07639302 -0.09157183 0.05229397 0.034419745 -0.10661177 0.0473122 0.060577407 -0.0986646
0.07745725 0.042376533 0.11326924 -0.10710783 -0.091658354 0.13519102 0.121994436 -0.09558097
0.11758563 0.000651747 -0.12331007 -0.09438346 0.02322495 0.08820678 0.13592625 -0.0657815
-0.025485426 0.12399918 0.01697649 -0.12676474 0.08480513 0.06724277 -0.12366846 0.076221526
0.0047644824 -0.13102312 0.13974187 -0.025230058 -0.06654131 -0.049371786 0.07388611 -0.08553372
0.07050955 0.04379776 0.1258699 -0.12728283 -0.10365471 0.10553613 0.07597762 0.11652407
-0.020383678 -0.093061745 -0.1394404 0.062442437 -0.011638656 -0.073531196 -0.101499155 0.13976055
0.045676336 -0.077114016 -0.11519432 -0.08538446 -0.051703274 -0.12820688 -0.11668286 -0.1378294
0.09846702 0.025246069 -0.08935879 -0.062042423 -0.04556953 -0.06713456 -0.095651105 -0.09432599
-0.06602804 0.06825775 -0.14035712 0.05519077 0.0737223 -0.050191537 0.11352444 0.115077525
0.10624604 0.12120244 -0.0036684722 -0.077301376 0.08414064 -0.07147751 0.05274129 0.1285877
0.07884522 0.02292268 -0.005817741 0.1377841 0.019335851 0.0057648867 -0.11000413 0.13492322
0.004763305 -0.017487273 -0.10482318 -0.112173766 0.04988639 0.029538065 0.10003851 -0.0741172
-0.10957873 -0.053290375 -0.082262404 0.06590924 0.089283705 0.055455565 -0.032810733 0.12389088
0.042008713 0.081003875 0.0030775666 -0.012514442 -0.12619816 -0.13182764 -0.062262677 -0.0006340742
-0.021581352 -0.08764629 0.07700981 0.034659088 0.091701746 -0.06388954 0.07130957 0.048482686
-0.018546298 -0.010393232 -0.0607739 -0.07652075 0.08202566 -0.10739358 0.059847385 0.017041683
-0.05870747 0.042442918 -0.06516185 0.0823586 0.029678896 -0.11087331 0.011567324 -0.03548547
-0.05778034 -0.12311346 0.030476883 -0.010985762 -0.09678532 0.05016105 -0.05893705 -0.04594385
-0.13683689 0.0045915395 -0.120523974 -0.05148124 -0.1281819 -0.036789544 0.11251384 -0.005657643
-0.012093902 0.044708177 -0.059270777 0.13420156 0.054269984 -0.068160325 -0.11737107 -0.06652888
-0.023474768 -0.072964266 0.017278463 0.12406126 0.11058012 0.007996157 0.0770552 0.08969937
-0.019547202 -0.016982965 -0.12349503 0.084384784 0.08432479 -0.038465545 -0.09013984 -0.11818307
0.03417331 -0.00039456785 -0.14016876 0.081049204 0.07810569 -0.12773918 0.03602776 0.08564751
-0.12862346 -0.1020809 -0.07110175 -0.10763299 0.13648167 -0.05465094 0.09495057 -0.057154417
0.025539443 -0.09937973 0.10794209 0.06753956 -0.10000219 0.102617666 -0.025998056 -0.13272445
-0.07530531 -0.099955104 -0.08726247 0.106672585 0.0921734 -0.042499863 -0.038232855 0.017439187
00000000: 240e 703d e482 3f3d eeaa 073e b8b7 473d
00000010: bc18 eb3d fdc3 8cbd 1050 f73d 849f 0abe
00000020: 4af5 9b3d 40d9 2cbd ae7a d73d 44b6 a8bc
00000030: e09f a5bc 2860 973d 2ab9 0f3e 3387 e6bd
00000040: 1604 dd3d 3423 193d 1444 b03d f45a 4bbd
00000050: 6224 52bd 34f2 0ebe 40c1 89bc ce36 8fbd
00000060: 60aa 3cbc c077 393d 0a4c 9dbd c82f 873c
00000070: 4639 a0bd 74db 053e 10d9 04bc 483b d33c
00000080: 0811 dfbc 220a 32bd b41f 493d c09a b73c
00000090: 70cf 743d 406c d03b c03b 023b c46e 79bd
000000a0: f273 9cbd 038a bbbd 3432 563d b8fb 0c3d
000000b0: 4657 dabd 70ca 413d 0420 783d aa10 cabd
000000c0: e8a1 9e3d 0493 2d3d b4f9 e73d 5a5b dbbd
000000d0: 60b7 bbbd 846f 0a3e 38d8 f93d f5bf c3bd
000000e0: bcd0 f03d 00da 2a3a fd89 fcbd 1e4c c1bd
000000f0: 4042 be3c c2a5 b43d 4030 0b3e 73b8 86bd
00000100: d0c6 d0bc 48f3 fd3d 4812 8b3c 9ece 01be
00000110: 50ae ad3d 94b6 893d e445 fdbd 081a 9c3d
00000120: 601f 9c3b ed2a 06be 7e18 0f3e 44af cebc
00000130: cf46 88bd 123a 4abd 9a51 973d 4e2c afbd
00000140: 5067 903d 4865 333d 0ae4 003e 6e56 02be
00000150: ec48 d4bd 5423 d83d 289a 9b3d 2ca4 ee3d
00000160: acfb a6bc 2897 bebd 77c9 0ebe a4c3 7f3d
00000170: 10b0 3ebc 8697 96bd cade cfbd 641d 0f3e
00000180: 1c17 3b3d f4ed 9dbd 00eb ebbd 0cde aebd
00000190: d0c6 53bd aa48 03be 6cf7 eebd 2623 0dbe
000001a0: 14a9 c93d d8d0 ce3c be01 b7bd 3220 7ebd
000001b0: 1ea7 3abd d87d 89bd bae4 c3bd fc2d c1bd
000001c0: b639 87bd b8ca 8b3d c7b9 0fbe b80f 623d
000001d0: b8fb 963d a495 4dbd 807f e83d c4ad eb3d
000001e0: 8697 d93d fc38 f83d c06a 70bb 2f50 9ebd
000001f0: ee51 ac3d cd62 92bd 4007 583d 7eac 033e
00000200: 9a79 a13d 58c8 bb3c c0a2 bebb 4617 0d3e
00000210: 3866 9e3c 60e7 bc3b d849 e1bd 5029 0a3e
00000220: 8015 9c3b 7841 8fbc 89ad d6bd 5cbb e5bd
00000230: ac55 4c3d d0f9 f13c fee0 cc3d c2ca 97bd
00000240: d06a e0bd 0247 5abd 3179 a8bd 6cfb 863d
00000250: 60da b63d 6025 633d 8c64 06bd 80ba fd3d
00000260: 5411 2c3d 5ce5 a53d 00b1 493b 6009 4dbc
00000270: 173a 01be d3fd 06be 2607 7fbd 0038 26ba
00000280: 60cb b0bc e67f b3bd 52b7 9d3d b0f6 0d3d
00000290: 20ce bb3d 85d8 82bd c00a 923d c895 463d
000002a0: 68ee 97bc 6048 2abc 0eee 78bd e9b6 9cbd
000002b0: 12fd a73d 2af1 dbbd 8822 753d 009b 8b3c
000002c0: 3e77 70bd a0d8 2d3d 9373 85bd a0ab a83d
000002d0: 2821 f33c 8c11 e3bd e084 3d3c 3659 11bd
000002e0: 14ab 6cbd e922 fcbd a8aa f93c a0fd 33bc
000002f0: 6237 c6bd ac75 4d3d fa67 71bd 9e2f 3cbd
00000300: f81e 0cbe a074 963b 46d5 f6bd fedd 52bd
00000310: 1e42 03be a2b0 16bd a86d e63d c063 b9bb
00000320: 8025 46bc ec1f 373d eac5 72bd 226c 093e
00000330: 344a 5e3d a497 8bbd 3e60 f0bd 4b40 88bd
00000340: 284e c0bc 4a6e 95bd 908b 8d3c d413 fe3d
00000350: d477 e23d 5002 033c 1ecf 9d3d 4eb4 b73d
00000360: 7421 a0bc dc1f 8bbc f6ea fcbd eed1 ac3d
00000370: 7ab2 ac3d 0c8e 1dbd 3d9b b8bd f709 f2bd
00000380: 50f9 0b3d 00de ceb9 6688 0fbe 20fd a53d
00000390: e0f5 9f3d 0fce 02be d891 133d f667 af3d
000003a0: deb5 03be ca0f d1bd cb9d 91bd af6e dcbd
000003b0: dac1 0b3e aad9 5fbd 7275 c23d c01a 6abd
000003c0: 1838 d13c 9a87 cbbd be10 dd3d 2e52 8a3d
000003d0: f3cd ccbd 3629 d23d e0f9 d4bc ebe8 07be
000003e0: ac39 9abd 43b5 ccbd aab6 b2bd 2877 da3d
000003f0: 68c5 bc3d 5614 2ebd 0e9a 1cbd a0dc 8e3c

feature_network.0.bias f4 [64]
0.0 0.0 0.0 0.0 0.0 0.0 0.0 0.0
0.0 0.0 0.0 0.0 0.0 0.0 0.0 0.0
0.0 0.0 0.0 0.0 0.0 0.0 0.0 0.0
0.0 0.0 0.0 0.0 0.0 0.0 0.0 0.0
0.0 0.0 0.0 0.0 0.0 0.0 0.0 0.0
0.0 0.0 0.0 0.0 0.0 0.0 0.0 0.0
0.0 0.0 0.0 0.0 0.0 0.0 0.0 0.0
0.0 0.0 0.0 0.0 0.0 0.0 0.0 0.0
00000000: 0000 0000 0000 0000 0000 0000 0000 0000
00000010: 0000 0000 0000 0000 0000 0000 0000 0000
00000020: 0000 0000 0000 0000 0000 0000 0000 0000
00000030: 0000 0000 0000 0000 0000 0000 0000 0000
00000040: 0000 0000 0000 0000 0000 0000 0000 0000
00000050: 0000 0000 0000 0000 0000 0000 0000 0000
00000060: 0000 0000 0000 0000 0000 0000 0000 0000
00000070: 0000 0000 0000 0000 0000 0000 0000 0000
00000080: 0000 0000 0000 0000 0000 0000 0000 0000
00000090: 0000 0000 0000 0000 0000 0000 0000 0000
000000a0: 0000 0000 0000 0000 0000 0000 0000 0000
000000b0: 0000 0000 0000 0000 0000 0000 0000 0000
000000c0: 0000 0000 0000 0000 0000 0000 0000 0000
000000d0: 0000 0000 0000 0000 0000 0000 0000 0000
000000e0: 0000 0000 0000 0000 0000 0000 0000 0000
000000f0: 0000 0000 0000 0000 0000 0000 0000 0000

feature_network.3.weight f4 [64, 64]
-0.21062158 -0.023865774 0.057164267 0.03891389 -0.061008558 0.09583016 -0.11522485 -0.005838871
0.039425805 -0.10384952 0.10490416 -0.10714076 0.1393526 -0.08145045 0.06305064 0.03594564
0.07195364 -0.098617814 -0.11305719 0.19023086 0.14614125 -0.08641185 0.18727551 0.17764388
-0.119512446 0.14163099 -0.0462137 0.07112588 -0.19359413 0.104555205 0.1567504 0.19945519
0.07537712 0.15890358 -0.08037828 0.044044927 -0.01819639 -0.15637772 0.055281326 0.0022552162
-0.019849598 -0.130404 0.1561021 0.0600885 0.17585663 0.14980991 -0.15577212 -0.1288161
-0.19965662 0.21428446 -0.12809515 0.106136486 0.15847652 0.08283831 -0.004697025 -0.11687473
0.03130585 -0.21069375 0.060274556 0.043988034 0.0853643 0.0774111 0.13610353 0.0824316
-0.17594865 -0.16010535 -0.079382434 0.15180923 -0.049365386 0.21646385 0.0027033985 -0.13006017
-0.1257566 -0.07892071 0.1467477 0.0815119 -0.01547423 0.123830244 -0.09658051 -0.058818817
0.01437825 -0.12952021 0.15131535 0.10119839 -0.052616805 0.02152428 0.07478137 0.12516482
0.1616983 0.10641174 -0.038027406 -0.21265982 0.012646303 0.14062409 -0.055336952 0.044048324
0.15780406 -0.086741626 0.06718199 -0.03797196 -0.030944586 0.1895767 0.14047448 0.09931351
0.05295892 0.1286106 -0.04032606 -0.088815525 -0.17317867 -0.20078024 0.12417419 -0.18173882
0.04063396 0.081734076 0.16989993 0.18979041 -0.07222289 -0.20177087 0.20036955 -0.0030153245
0.17963414 0.14472397 0.20005871 0.062365755 -0.02955632 0.15347432 -0.028893366 0.17995416
0.11770527 -0.1092656 0.07984625 0.04090886 0.041303083 -0.1357834 0.16161211 -0.13148452
0.13392799 -0.03727591 0.21513788 0.04092951 0.10364626 0.055388317 0.055824414 0.119777426
0.14442225 -0.11780473 -0.12116921 -0.044344604 0.046239838 -0.059709966 0.15201057 0.12169023
-0.16072188 -0.16659503 -0.016764939 -0.16936004 -0.033317417 0.17300479 0.051458463 -0.00400874
0.080004856 0.13409154 0.13845603 -0.14127184 -0.21266843 0.019459382 -0.053456753 -0.031148791
-0.033762917 -0.15204765 -0.04568699 0.21212865 -0.19318372 -0.12945439 0.061540112 0.052044496
-0.19744252 -0.13585395 -0.05757539 -0.05979821 -0.0060514957 -0.014813453 -0.1545071 -0.15246896
-0.10465377 -0.046052784 -0.12466228 -0.20922585 0.18801542 -0.20139617 0.1074983 -0.0556086
0.19106011 -0.1730616 0.034238055 -0.08018635 0.10169028 0.11207865 0.20813711 0.052884772
-0.09670918 0.04951118 0.037274465 0.13739698 0.16375326 -0.16936293 0.1789221 0.06550504
-0.091539055 0.154323 -0.0040450245 0.16748475 -0.17175676 -0.07595818 0.15442322 0.043977365
0.0032754093 0.15288265 -0.1411955 -0.13519888 0.021507263 0.0038618892 0.1366946 0.059139684
-0.10467705 -0.084733605 -0.08750057 -0.1858404 -0.14810684 -0.012871802 0.047785774 -0.06780194
0.14785491 0.20856617 0.053862974 0.054721847 -0.08756809 -0.17798486 0.004145667 -0.20649074
0.1621338 -0.007602468 -0.038473234 0.06369196 -0.16203481 0.13803355 -0.014533937 0.17851989
-0.2115246 -0.07227966 0.21111892 0.12277447 0.022571266 -0.14775604 -0.088868454 -0.08116448
00000000: 2fad 57be 2882 c3bc 1425 6a3d 2c64 1f3d
00000010: 1ce4 79bd 9a42 c43d 02fb ebbd 0054 bfbb
00000020: f47c 213d 0faf d4bd fed7 d63d 9d6c dbbd
00000030: 73b2 0e3e 7ecf a6bd b220 813d bc3b 133d
00000040: 6e5c 933d 23f8 c9bd 878a e7bd e1cb 423e
00000050: 0da6 153e b2f8 b0bd 27c5 3f3e 47e8 353e
00000060: f1c2 f4bd b707 113e 944a 3dbd 72aa 913d
00000070: 8a3d 46be 0a21 d63d 2d83 203e fb3d 4c3e
00000080: 525f 9a3d 9fb7 223e 5e9d a4bd 7468 343d
00000090: 9810 95bc 7b21 20be ac6e 623d 40cc 133b
000000a0: a09b a2bc a088 05be 3bd9 1f3e 5c1f 763d
000000b0: c313 343e c567 193e ba82 1fbe 5ee8 03be
000000c0: c972 4cbe 636d 5b3e 602b 03be 165e d93d
000000d0: ab47 223e 22a7 a93d 80e9 99bb 055c efbd
000000e0: 903a 003d 1ac0 57be 74e2 763d cc2c 343d
000000f0: 7ad3 ae3d b689 9e3d b95e 0b3e e6d1 a83d
00000100: e22b 34be a8f2 23be 4293 a2bd e173 1b3e
00000110: 5c33 4abd b3a8 5d3e 802b 313b 7e2e 05be
00000120: 57c6 00be 2ea1 a1bd 0745 163e b6ef a63d
00000130: a087 7dbc b69a fd3d 01cc c5bd 00ec 70bd
00000140: c092 6b3c f2a0 04be 69f2 1a3e 1a41 cf3d
00000150: b884 57bd b053 b03c fa26 993d 352b 003e
00000160: 3d94 253e 66ee d93d a0c2 1bbd 7fc3 59be
00000170: 7032 4f3c c3ff 0f3e 00a9 62bd 046c 343d
00000180: 6397 213e 98a5 b1bd b696 893d 7c88 1bbd
00000190: 807f fdbc 6520 423e 8bd8 0f3e e264 cb3d
000001a0: 74eb 583d 7fb2 033e f02c 25bd eae4 b5bd
000001b0: c055 31be 5699 4dbe 0a4f fe3d be19 3abe
000001c0: cc6f 263d 3264 a73d 3ffa 2d3e 6b58 423e
000001d0: 98e9 93bd 069d 4ebe ad2d 4d3e c09c 45bb
000001e0: 03f2 373e 8532 143e 31dc 4c3e 3c73 7f3d
000001f0: 1820 f2bc 5f28 1d3e c8b1 ecbc e745 383e
00000200: 760f f13d a5c6 dfbd 6e86 a33d 0c90 273d
00000210: 6c2d 293d ce0a 0bbe a57d 253e e1a3 06be
00000220: 6b24 093e a0ae 18bd 1b4d 5c3e b4a5 273d
00000230: 7e44 d43d dcde 623d 24a8 643d de4d f53d
00000240: 6de3 133e 9b43 f1bd 9027 f8bd b0a2 35bd
00000250: fc65 3d3d 7092 74bd a9a8 1b3e ba38 f93d
00000260: 4794 24be e397 2abe a056 89bc b86c 2dbe
00000270: d877 08bd 2b28 313e 1cc6 523d c05b 83bb
00000280: 96d9 a33d 4b4f 093e 6bc7 0d3e 91a9 10be
00000290: c1c5 59be 4869 9f3c 78f5 5abd c02b ffbc
000002a0: fc4a 0abd 61b2 1bbe 4822 3bbd 4138 593e
000002b0: f4d1 45be b18f 04be 7c11 7c3d 9c2c 553d
000002c0: 5f2e 4abe 4c1d 0bbe 2cd4 6bbd f8ee 74bd
000002d0: a04b c6bb 20b4 72bc 1c37 1ebe d320 1cbe
000002e0: b754 d6bd d8a1 3cbd f04e ffbd 4d3f 56be
000002f0: 1d87 403e cc3a 4ebe 1228 dc3d d8c5 63bd
00000300: 43a5 433e 0f37 31be 343d 0c3d be38 a4bd
00000310: fe42 d03d 7e89 e53d e521 553e b49d 583d
00000320: 760f c6bd 3ccc 4a3d 1cad 183d cbb1 0c3e
00000330: efae 273e 7a6d 2dbe 5b37 373e 8227 863d
00000340: d478 bbbd d906 1e3e 208c 84bb 1f81 2b3e
00000350: 01e1 2fbe f68f 9bbd 1f21 1e3e 9c21 343d
00000360: 40a8 563b 458d 1c3e 8e95 10be 9371 0abe
00000370: 0030 b03c c017 7d3b abf9 0b3e 743c 723d
00000380: ec60 d6bd d088 adbd 8033 b3bd f24c 3ebe
00000390: 52a9 17be 40e4 52bc 04bb 433d bedb 8abd
000003a0: 4767 173e 5f92 553e 6c9f 5c3d 0424 603d
000003b0: e656 b3bd aa41 36be 60d8 873b 4f72 53be
000003c0: 6706 263e 201e f9bb 1c96 1dbd ee70 823d
000003d0: 74ec 25be ab58 0d3e c01f 6ebc ebcd 363e
000003e0: e899 58be 5c07 94bd 8f2f 583e 2e71 fb3d
000003f0: 60e7 b83c 5c4d 17be aa00 b6bd 9039 a6bd

feature_network.3.bias f4 [64]
0.0 0.0 0.0 0.0 0.0 0.0 0.0 0.0
0.0 0.0 0.0 0.0 0.0 0.0 0.0 0.0
0.0 0.0 0.0 0.0 0.0 0.0 0.0 0.0
0.0 0.0 0.0 0.0 0.0 0.0 0.0 0.0
0.0 0.0 0.0 0.0 0.0 0.0 0.0 0.0
0.0 0.0 0.0 0.0 0.0 0.0 0.0 0.0
0.0 0.0 0.0 0.0 0.0 0.0 0.0 0.0
0.0 0.0 0.0 0.0 0.0 0.0 0.0 0.0
00000000: 0000 0000 0000 0000 0000 0000 0000 0000
00000010: 0000 0000 0000 0000 0000 0000 0000 0000
00000020: 0000 0000 0000 0000 0000 0000 0000 0000
00000030: 0000 0000 0000 0000 0000 0000 0000 0000
00000040: 0000 0000 0000 0000 0000 0000 0000 0000
00000050: 0000 0000 0000 0000 0000 0000 0000 0000
00000060: 0000 0000 0000 0000 0000 0000 0000 0000
00000070: 0000 0000 0000 0000 0000 0000 0000 0000
00000080: 0000 0000 0000 0000 0000 0000 0000 0000
00000090: 0000 0000 0000 0000 0000 0000 0000 0000
000000a0: 0000 0000 0000 0000 0000 0000 0000 0000
000000b0: 0000 0000 0000 0000 0000 0000 0000 0000
000000c0: 0000 0000 0000 0000 0000 0000 0000 0000
000000d0: 0000 0000 0000 0000 0000 0000 0000 0000
000000e0: 0000 0000 0000 0000 0000 0000 0000 0000
000000f0: 0000 0000 0000 0000 0000 0000 0000 0000

feature_network.6.weight f4 [64, 64]
-0.14354546 -0.084194705 -0.1245945 0.04835923 0.010013461 0.1450945 -0.09781553 -0.0610283
0.051102296 0.19007637 -0.029792756 0.011118919 -0.0759733 0.16443907 0.20113607 0.1715153
-0.0885182 0.003985673 0.17177673 -0.11846718 0.16090159 -0.18796502 0.14570303 -0.18708089
-0.19678953 -0.057824627 -0.2133523 -0.021337315 0.07191332 -0.19821417 -0.21522273 -0.00511156
0.14330308 -0.10531047 0.07455699 0.13009419 -0.026942194 -0.07518038 0.018769935 0.055684432
-0.088718966 0.162946 0.033836022 -0.110142484 -0.16945148 0.043558434 -0.17319185 0.18012132
-0.13871908 0.08630927 0.012742177 -0.04327266 0.093333915 -0.0154346675 -0.0775408 -0.11026983
-0.19564295 0.20830263 0.07106905 -0.047167495 0.08227761 -0.15400892 0.05363883 0.18661575
0.029058173 0.08183105 -0.16890454 -0.12481269 0.007516086 -0.20022374 -0.002456814 -0.20372853
0.10181637 0.007082507 0.08949025 -0.19105533 -0.20102693 -0.11896456 -0.20900789 0.11180253
0.18748559 -0.07195786 -0.13386713 0.06411983 0.14314951 0.11759873 0.083989665 0.16228627
-0.06716545 0.20115934 0.0851488 0.017536342 -0.11919519 -0.16928068 -0.20113982 -0.06549069
0.12468447 -0.11428812 0.19782124 0.018116564 0.08691256 -0.08207974 -0.13701761 -0.19408116
0.116717204 -0.015893787 -0.1673408 -0.09151778 -0.20132343 0.19082002 0.0947576 0.039994612
0.14540438 -0.13964096 0.18938552 -0.17924419 -0.1797072 -0.09121525 -0.21037139 -0.053578496
-0.15278053 -0.098770194 0.055173382 -0.02139388 0.2137867 -0.07973476 0.15084316 -0.0066082627
0.06785773 0.111346915 0.016898274 -0.08692224 -0.1482323 -0.023534372 0.17599605 -0.15201607
0.16602619 0.18660964 0.16989203 -0.12803175 0.17161758 -0.055299193 -0.0025824755 0.07932295
0.12317647 0.09821068 -0.18090641 -0.14468768 0.11183263 -0.087286696 -0.10067228 0.16779585
0.17600946 0.0780278 0.12004705 0.077556655 -0.0115351975 0.078113094 -0.18433022 -0.20580398
0.061667636 -0.0044362843 0.0037456602 0.074913636 0.18568729 0.06802373 0.042258546 -0.16030091
-0.04700248 0.016582385 -0.124559216 0.17509551 -0.043196157 0.20784162 0.024181291 0.20124118
-0.033036113 0.068772 -0.073265776 -0.057349965 -0.18155503 0.06468083 0.17976518 0.19120209
-0.18854818 -0.009074435 -0.19788314 0.0007674992 -0.00026774406 0.06513427 0.19380854 0.034717605
-0.12141997 -0.18916664 -0.029069006 -0.1935803 -0.024753988 0.16564094 0.1465006 -0.18613623
-0.09378531 0.09933086 -0.04776837 -0.20011953 -0.05912304 0.076111004 -0.15239535 -0.2088749
-0.14717428 -0.06504248 0.11634965 0.11992328 0.110308364 -0.20602226 0.20005108 0.11059086
0.106021896 -0.1296906 0.1932754 0.026715696 0.019664884 -0.1393768 0.18485273 0.14887248
0.07134141 -0.042794615 -0.09988504 0.106062576 -0.19677848 -0.14669362 -0.08350022 -0.17096756
0.06871922 0.1540081 -0.096722335 0.15819095 0.07398035 -0.16616881 0.13280125 -0.20880629
0.069373354 -0.059500083 -0.17683841 0.19450651 0.17498751 -0.04024574 -0.10351575 0.14330105
-0.016197026 -0.17482367 -0.01860486 -0.16174729 0.020908147 0.20374323 -0.087266594 -0.05266966
00000000: 95fd 12be 466e acbd 672b ffbd 5414 463d
00000010: 800f 243c a793 143e 8253 c8bd d0f8 79bd
00000020: a450 513d 61a3 423e f00f f4bc 202c 363c
00000030: e497 9bbd b762 283e 9df6 4d3e b5a1 2f3e
00000040: 0849 b5bd 409a 823b 3de6 2f3e ec9e f2bd
00000050: 63c3 243e e779 40be 2d33 153e 2292 3fbe
00000060: 3283 49be 84d9 6cbd 0679 5abe 98cb aebc
00000070: 4a47 933d a8f8 4abe 5963 5cbe e07e a7bb
00000080: 0bbe 123e 04ad d7bd 56b1 983d 6937 053e
00000090: e0b5 dcbc 2cf8 99bd 68c3 993c 5c15 643d
000000a0: 4ab2 b5bd 51db 263e a497 0a3d 6292 e1bd
000000b0: b084 2dbe 546a 323d 3459 31be b971 383e
000000c0: 600c 0ebe eac2 b03d 90c4 503c ac3e 31bd
000000d0: da25 bf3d b0e1 7cbc b6cd 9ebd 26d5 e1bd
000000e0: a056 48be 494d 553e a68c 913d b432 41bd
000000f0: 2a81 a83d 84b4 1dbe 64b4 5b3d 3318 3f3e
00000100: 680b ee3c 0a97 a73d 50f5 2cbe cc9d ffbd
00000110: 8049 f63b 7407 4dbe 8002 21bb 369e 50be
00000120: 1a85 d03d 6014 e83b aa46 b73d 02a4 43be
00000130: 01da 4dbe b1a3 f3bd 2a06 56be baf8 e43d
00000140: 39fc 3f3e a45e 93bd 7714 09be 4251 833d
00000150: c995 123e 9ad7 f03d c602 ac3d 5f2e 263e
00000160: 0a8e 89bd b7fc 4d3e 7e62 ae3d 60a8 8f3c
00000170: 9c1c f4bd ea57 2dbe 99f7 4dbe fc1f 86bd
00000180: 925a ff3d e40f eabd a791 4a3e 3069 943c
00000190: 36ff b13d 6c19 a8bd 584e 0cbe 36bd 46be
000001a0: 6e09 ef3d b033 82bc 635b 2bbe ad6d bbbd
000001b0: bb27 4ebe 5366 433e 4610 c23d 64d1 233d
000001c0: e3e4 143e 0afe 0ebe 47ee 413e ca8b 37be
000001d0: 2a05 38be 10cf babd 996b 57be 2075 5bbd
000001e0: 8072 1cbe 0748 cabd 7cfd 613d 3842 afbc
000001f0: e7ea 5a3e fa4b a3bd a176 1a3e 208a d8bb
00000200: fef8 8a3d da09 e43d 406e 8a3c 4a04 b2bd
00000210: 35ca 17be 28cb c0bc 4f38 343e 1aaa 1bbe
00000220: c502 2a3e 9916 3f3e 2df8 2d3e c11a 03be
00000230: 85bc 2f3e 6881 62bd c03e 29bb 1274 a23d
00000240: f243 fc3d ae22 c93d 883f 39be 0229 14be
00000250: 8208 e53d 5ec3 b2bd 452d cebd add2 2b3e
00000260: d33b 343e 0acd 9f3d 3adb f53d 06d6 9e3d
00000270: 20fe 3cbc c2f9 9f3d 10c1 3cbe 47be 52be
00000280: 3497 7c3d 405e 91bb c079 753b 526c 993d
00000290: cf24 3e3e 0650 8b3d 4c17 2d3d ec25 24be
000002a0: ac85 40bd c8d7 873c e718 ffbd 3d4c 333e
000002b0: 74ee 30bd 6fd4 543e d817 c63c 2b12 4e3e
000002c0: e050 07bd 56d8 8c3d 5e0c 96bd cce7 6abd
000002d0: 90e9 39be 6277 843d 5d14 383e 7bca 433e
000002e0: c612 41be f0ac 14bc e1a1 4abe 0032 493a
000002f0: 0060 8cb9 1e65 853d bf75 463e 0c34 0e3d
00000300: 09ab f8bd e6b4 41be 2022 eebc ea39 46be
00000310: e0c8 cabc c79d 293e 4104 163e 7f9a 3ebe
00000320: 8312 c0bd fa6d cb3d c4a8 43bd 22ec 4cbe
00000330: 002b 72bd 16e0 9b3d 870d 1cbe 4de3 55be
00000340: dbb4 16be fe34 85bd ba48 ee3d 569a f53d
00000350: 5ae9 e13d 80f7 52be 31da 4c3e 767d e23d
00000360: 0222 d93d 9dcd 04be fde9 453e e0da da3c
00000370: 4018 a13c cbb8 0ebe 094a 3d3e 0772 183e
00000380: 721b 923d 6849 2fbd 8790 ccbd 5637 d93d
00000390: 4c80 49be da36 16be 2a02 abbd 1f12 2fbe
000003a0: aabc 8c3d 4db4 1d3e 5c16 c6bd cffc 213e
000003b0: 0283 973d 2828 2abe 0dfd 073e 51d1 55be
000003c0: 9e13 8e3d 5cb6 73bd 2115 35be b72c 473e
000003d0: ed2f 333e b8d8 24bd 1100 d4bd 83bd 123e
000003e0: a0af 84bc fa04 33be 3869 98bc 15a1 25be
000003f0: 9047 ab3c 11a2 503e d4b8 b2bd 24bc 57bd

feature_network.6.bias f4 [64]
0.0 0.0 0.0 0.0 0.0 0.0 0.0 0.0
0.0 0.0 0.0 0.0 0.0 0.0 0.0 0.0
0.0 0.0 0.0 0.0 0.0 0.0 0.0 0.0
0.0 0.0 0.0 0.0 0.0 0.0 0.0 0.0
0.0 0.0 0.0 0.0 0.0 0.0 0.0 0.0
0.0 0.0 0.0 0.0 0.0 0.0 0.0 0.0
0.0 0.0 0.0 0.0 0.0 0.0 0.0 0.0
0.0 0.0 0.0 0.0 0.0 0.0 0.0 0.0
00000000: 0000 0000 0000 0000 0000 0000 0000 0000
00000010: 0000 0000 0000 0000 0000 0000 0000 0000
00000020: 0000 0000 0000 0000 0000 0000 0000 0000
00000030: 0000 0000 0000 0000 0000 0000 0000 0000
00000040: 0000 0000 0000 0000 0000 0000 0000 0000
00000050: 0000 0000 0000 0000 0000 0000 0000 0000
00000060: 0000 0000 0000 0000 0000 0000 0000 0000
00000070: 0000 0000 0000 0000 0000 0000 0000 0000
00000080: 0000 0000 0000 0000 0000 0000 0000 0000
00000090: 0000 0000 0000 0000 0000 0000 0000 0000
000000a0: 0000 0000 0000 0000 0000 0000 0000 0000
000000b0: 0000 0000 0000 0000 0000 0000 0000 0000
000000c0: 0000 0000 0000 0000 0000 0000 0000 0000
000000d0: 0000 0000 0000 0000 0000 0000 0000 0000
000000e0: 0000 0000 0000 0000 0000 0000 0000 0000
000000f0: 0000 0000 0000 0000 0000 0000 0000 0000

q_network.weight f4 [1, 64]
-0.199565 -0.13243549 -0.09723513 0.18621156 -0.25363845 0.2523017 0.27582967 0.22858906
0.035640508 0.12954077 -0.08732936 -0.23171426 0.09510189 -0.17980786 0.13919622 0.012235761
0.11745435 0.031268775 -0.24842742 0.24928606 -0.27096605 -0.22738105 0.30054373 -0.09420507
-0.061885655 0.15420276 -0.1466567 0.21327984 -0.19207078 -0.12569241 -0.016595274 -0.18657061
-0.098350435 -0.15907776 0.21410394 0.19192186 -0.10825388 0.041072547 0.28388387 -0.19533649
-0.29006106 0.12763014 -0.23077519 -0.22937965 0.057085246 -0.1628197 0.028552294 0.24332374
0.047468543 -0.22762746 0.061380625 0.0092372 0.20883328 0.16824919 -0.16739903 -0.13050261
0.19956505 0.19257322 -0.025358617 -0.23695526 -0.14165027 -0.00997901 -0.073401585 0.09046331
00000000: c45a 4cbe 2b9d 07be 3623 c7bd 3eae 3e3e
00000010: e6dc 81be b02d 813e 8c39 8d3e 4013 6a3e
00000020: c8fb 113d 56a6 043e bcd9 b2bd 8146 6dbe
00000030: c8c4 c23d 8d1f 38be 7489 0e3e 8078 483c
00000040: e88b f03d b013 003d c263 7ebe d844 7f3e
00000050: 10bc 8abe 94d6 68be dee0 993e 96ee c0bd
00000060: d07b 7dbd 54e7 1d3e 2d2d 16be 0866 5a3e
00000070: 34ae 44be 83b5 00be d0f2 87bc 5e0c 3fbe
00000080: f46b c9bd 48e5 22be 103e 5b3e 2a87 443e
00000090: 36b4 ddbd b03b 283d 3a59 913e 4a06 48be
000000a0: e282 94be 7ab1 023e 5550 6cbe 80e2 6abe
000000b0: 38d2 693d 35ba 26be 80e6 e93c dc29 793e
000000c0: 606e 423d 2c17 69be 406a 7b3d a057 173c
000000d0: 64d8 553e 8449 2c3e a76a 2bbe 7aa2 05be
000000e0: c85a 4c3e ea31 453e e0bc cfbc 66a4 72be
000000f0: c50c 11be 007f 23bc 9253 96bd d444 b93d

feature_network.0.weight f4 [64, 239]
0.058607236 0.046755686 0.13248798 0.048759192 0.11479327 -0.06873319 0.120758176 -0.13537413
0.076151446 -0.042199373 0.10521446 -0.020594724 -0.020217836 0.07391387 0.14035478 -0.11256256
0.10791795 0.037387088 0.08606735 -0.049647287 -0.05130423 -0.1395958 -0.016815782 -0.06992875
-0.01151523 0.045280218 -0.07680519 0.016502276 -0.07823424 0.13071996 -0.008108392 0.025785103
-0.0272298 -0.043466695 0.0491025 0.022412658 0.05976814 0.0063605607 0.001987204 -0.06089665
-0.07639302 -0.09157183 0.05229397 0.034419745 -0.10661177 0.0473122 0.060577407 -0.0986646
0.07745725 0.042376533 0.11326924 -0.10710783 -0.091658354 0.13519102 0.121994436 -0.09558097
0.11758563 0.000651747 -0.12331007 -0.09438346 0.02322495 0.08820678 0.13592625 -0.0657815
-0.025485426 0.12399918 0.01697649 -0.12676474 0.08480513 0.06724277 -0.12366846 0.076221526
0.0047644824 -0.13102312 0.13974187 -0.025230058 -0.06654131 -0.049371786 0.07388611 -0.08553372
0.07050955 0.04379776 0.1258699 -0.12728283 -0.10365471 0.10553613 0.07597762 0.11652407
-0.020383678 -0.093061745 -0.1394404 0.062442437 -0.011638656 -0.073531196 -0.101499155 0.13976055
0.045676336 -0.077114016 -0.11519432 -0.08538446 -0.051703274 -0.12820688 -0.11668286 -0.1378294
0.09846702 0.025246069 -0.08935879 -0.062042423 -0.04556953 -0.06713456 -0.095651105 -0.09432599
-0.06602804 0.06825775 -0.14035712 0.05519077 0.0737223 -0.050191537 0.11352444 0.115077525
0.10624604 0.12120244 -0.0036684722 -0.077301376 0.08414064 -0.07147751 0.05274129 0.1285877
0.07884522 0.02292268 -0.005817741 0.1377841 0.019335851 0.0057648867 -0.11000413 0.13492322
0.004763305 -0.017487273 -0.10482318 -0.112173766 0.04988639 0.029538065 0.10003851 -0.0741172
-0.10957873 -0.053290375 -0.082262404 0.06590924 0.089283705 0.055455565 -0.032810733 0.12389088
0.042008713 0.081003875 0.0030775666 -0.012514442 -0.12619816 -0.13182764 -0.062262677 -0.0006340742
-0.021581352 -0.08764629 0.07700981 0.034659088 0.091701746 -0.06388954 0.07130957 0.048482686
-0.018546298 -0.010393232 -0.0607739 -0.07652075 0.08202566 -0.10739358 0.059847385 0.017041683
-0.05870747 0.042442918 -0.06516185 0.0823586 0.029678896 -0.11087331 0.011567324 -0.03548547
-0.05778034 -0.12311346 0.030476883 -0.010985762 -0.09678532 0.05016105 -0.05893705 -0.04594385
-0.13683689 0.0045915395 -0.120523974 -0.05148124 -0.1281819 -0.036789544 0.11251384 -0.005657643
-0.012093902 0.044708177 -0.059270777 0.13420156 0.054269984 -0.068160325 -0.11737107 -0.06652888
-0.023474768 -0.072964266 0.017278463 0.12406126 0.11058012 0.007996157 0.0770552 0.08969937
-0.019547202 -0.016982965 -0.12349503 0.084384784 0.08432479 -0.038465545 -0.09013984 -0.11818307
0.03417331 -0.00039456785 -0.14016876 0.081049204 0.07810569 -0.12773918 0.03602776 0.08564751
-0.12862346 -0.1020809 -0.07110175 -0.10763299 0.13648167 -0.05465094 0.09495057 -0.057154417
0.025539443 -0.09937973 0.10794209 0.06753956 -0.10000219 0.102617666 -0.025998056 -0.13272445
-0.07530531 -0.099955104 -0.08726247 0.106672585 0.0921734 -0.042499863 -0.038232855 0.017439187
00000000: 240e 703d e482 3f3d eeaa 073e b8b7 473d
00000010: bc18 eb3d fdc3 8cbd 1050 f73d 849f 0abe
00000020: 4af5 9b3d 40d9 2cbd ae7a d73d 44b6 a8bc
00000030: e09f a5bc 2860 973d 2ab9 0f3e 3387 e6bd
00000040: 1604 dd3d 3423 193d 1444 b03d f45a 4bbd
00000050: 6224 52bd 34f2 0ebe 40c1 89bc ce36 8fbd
00000060: 60aa 3cbc c077 393d 0a4c 9dbd c82f 873c
00000070: 4639 a0bd 74db 053e 10d9 04bc 483b d33c
00000080: 0811 dfbc 220a 32bd b41f 493d c09a b73c
00000090: 70cf 743d 406c d03b c03b 023b c46e 79bd
000000a0: f273 9cbd 038a bbbd 3432 563d b8fb 0c3d
000000b0: 4657 dabd 70ca 413d 0420 783d aa10 cabd
000000c0: e8a1 9e3d 0493 2d3d b4f9 e73d 5a5b dbbd
000000d0: 60b7 bbbd 846f 0a3e 38d8 f93d f5bf c3bd
000000e0: bcd0 f03d 00da 2a3a fd89 fcbd 1e4c c1bd
000000f0: 4042 be3c c2a5 b43d 4030 0b3e 73b8 86bd
00000100: d0c6 d0bc 48f3 fd3d 4812 8b3c 9ece 01be
00000110: 50ae ad3d 94b6 893d e445 fdbd 081a 9c3d
00000120: 601f 9c3b ed2a 06be 7e18 0f3e 44af cebc
00000130: cf46 88bd 123a 4abd 9a51 973d 4e2c afbd
00000140: 5067 903d 4865 333d 0ae4 003e 6e56 02be
00000150: ec48 d4bd 5423 d83d 289a 9b3d 2ca4 ee3d
00000160: acfb a6bc 2897 bebd 77c9 0ebe a4c3 7f3d
00000170: 10b0 3ebc 8697 96bd cade cfbd 641d 0f3e
00000180: 1c17 3b3d f4ed 9dbd 00eb ebbd 0cde aebd
00000190: d0c6 53bd aa48 03be 6cf7 eebd 2623 0dbe
000001a0: 14a9 c93d d8d0 ce3c be01 b7bd 3220 7ebd
000001b0: 1ea7 3abd d87d 89bd bae4 c3bd fc2d c1bd
000001c0: b639 87bd b8ca 8b3d c7b9 0fbe b80f 623d
000001d0: b8fb 963d a495 4dbd 807f e83d c4ad eb3d
000001e0: 8697 d93d fc38 f83d c06a 70bb 2f50 9ebd
000001f0: ee51 ac3d cd62 92bd 4007 583d 7eac 033e
00000200: 9a79 a13d 58c8 bb3c c0a2 bebb 4617 0d3e
00000210: 3866 9e3c 60e7 bc3b d849 e1bd 5029 0a3e
00000220: 8015 9c3b 7841 8fbc 89ad d6bd 5cbb e5bd
00000230: ac55 4c3d d0f9 f13c fee0 cc3d c2ca 97bd
00000240: d06a e0bd 0247 5abd 3179 a8bd 6cfb 863d
00000250: 60da b63d 6025 633d 8c64 06bd 80ba fd3d
00000260: 5411 2c3d 5ce5 a53d 00b1 493b 6009 4dbc
00000270: 173a 01be d3fd 06be 2607 7fbd 0038 26ba
00000280: 60cb b0bc e67f b3bd 52b7 9d3d b0f6 0d3d
00000290: 20ce bb3d 85d8 82bd c00a 923d c895 463d
000002a0: 68ee 97bc 6048 2abc 0eee 78bd e9b6 9cbd
000002b0: 12fd a73d 2af1 dbbd 8822 753d 009b 8b3c
000002c0: 3e77 70bd a0d8 2d3d 9373 85bd a0ab a83d
000002d0: 2821 f33c 8c11 e3bd e084 3d3c 3659 11bd
000002e0: 14ab 6cbd e922 fcbd a8aa f93c a0fd 33bc
000002f0: 6237 c6bd ac75 4d3d fa67 71bd 9e2f 3cbd
00000300: f81e 0cbe a074 963b 46d5 f6bd fedd 52bd
00000310: 1e42 03be a2b0 16bd a86d e63d c063 b9bb
00000320: 8025 46bc ec1f 373d eac5 72bd 226c 093e
00000330: 344a 5e3d a497 8bbd 3e60 f0bd 4b40 88bd
00000340: 284e c0bc 4a6e 95bd 908b 8d3c d413 fe3d
00000350: d477 e23d 5002 033c 1ecf 9d3d 4eb4 b73d
00000360: 7421 a0bc dc1f 8bbc f6ea fcbd eed1 ac3d
00000370: 7ab2 ac3d 0c8e 1dbd 3d9b b8bd f709 f2bd
00000380: 50f9 0b3d 00de ceb9 6688 0fbe 20fd a53d
00000390: e0f5 9f3d 0fce 02be d891 133d f667 af3d
000003a0: deb5 03be ca0f d1bd cb9d 91bd af6e dcbd
000003b0: dac1 0b3e aad9 5fbd 7275 c23d c01a 6abd
000003c0: 1838 d13c 9a87 cbbd be10 dd3d 2e52 8a3d
000003d0: f3cd ccbd 3629 d23d e0f9 d4bc ebe8 07be
000003e0: ac39 9abd 43b5 ccbd aab6 b2bd 2877 da3d
000003f0: 68c5 bc3d 5614 2ebd 0e9a 1cbd a0dc 8e3c

feature_network.0.bias f4 [64]
0.0 0.0 0.0 0.0 0.0 0.0 0.0 0.0
0.0 0.0 0.0 0.0 0.0 0.0 0.0 0.0
0.0 0.0 0.0 0.0 0.0 0.0 0.0 0.0
0.0 0.0 0.0 0.0 0.0 0.0 0.0 0.0
0.0 0.0 0.0 0.0 0.0 0.0 0.0 0.0
0.0 0.0 0.0 0.0 0.0 0.0 0.0 0.0
0.0 0.0 0.0 0.0 0.0 0.0 0.0 0.0
0.0 0.0 0.0 0.0 0.0 0.0 0.0 0.0
00000000: 0000 0000 0000 0000 0000 0000 0000 0000
00000010: 0000 0000 0000 0000 0000 0000 0000 0000
00000020: 0000 0000 0000 0000 0000 0000 0000 0000
00000030: 0000 0000 0000 0000 0000 0000 0000 0000
00000040: 0000 0000 0000 0000 0000 0000 0000 0000
00000050: 0000 0000 0000 0000 0000 0000 0000 0000
00000060: 0000 0000 0000 0000 0000 0000 0000 0000
00000070: 0000 0000 0000 0000 0000 0000 0000 0000
00000080: 0000 0000 0000 0000 0000 0000 0000 0000
00000090: 0000 0000 0000 0000 0000 0000 0000 0000
000000a0: 0000 0000 0000 0000 0000 0000 0000 0000
000000b0: 0000 0000 0000 0000 0000 0000 0000 0000
000000c0: 0000 0000 0000 0000 0000 0000 0000 0000
000000d0: 0000 0000 0000 0000 0000 0000 0000 0000
000000e0: 0000 0000 0000 0000 0000 0000 0000 0000
000000f0: 0000 0000 0000 0000 0000 0000 0000 0000

feature_network.3.weight f4 [64, 64]
-0.21062158 -0.023865774 0.057164267 0.03891389 -0.061008558 0.09583016 -0.11522485 -0.005838871
0.039425805 -0.10384952 0.10490416 -0.10714076 0.1393526 -0.08145045 0.06305064 0.03594564
0.07195364 -0.098617814 -0.11305719 0.19023086 0.14614125 -0.08641185 0.18727551 0.17764388
-0.119512446 0.14163099 -0.0462137 0.07112588 -0.19359413 0.104555205 0.1567504 0.19945519
0.07537712 0.15890358 -0.08037828 0.044044927 -0.01819639 -0.15637772 0.055281326 0.0022552162
-0.019849598 -0.130404 0.1561021 0.0600885 0.17585663 0.14980991 -0.15577212 -0.1288161
-0.19965662 0.21428446 -0.12809515 0.106136486 0.15847652 0.08283831 -0.004697025 -0.11687473
0.03130585 -0.21069375 0.060274556 0.043988034 0.0853643 0.0774111 0.13610353 0.0824316
-0.17594865 -0.16010535 -0.079382434 0.15180923 -0.049365386 0.21646385 0.0027033985 -0.13006017
-0.1257566 -0.07892071 0.1467477 0.0815119 -0.01547423 0.123830244 -0.09658051 -0.058818817
0.01437825 -0.12952021 0.15131535 0.10119839 -0.052616805 0.02152428 0.07478137 0.12516482
0.1616983 0.10641174 -0.038027406 -0.21265982 0.012646303 0.14062409 -0.055336952 0.044048324
0.15780406 -0.086741626 0.06718199 -0.03797196 -0.030944586 0.1895767 0.14047448 0.09931351
0.05295892 0.1286106 -0.04032606 -0.088815525 -0.17317867 -0.20078024 0.12417419 -0.18173882
0.04063396 0.081734076 0.16989993 0.18979041 -0.07222289 -0.20177087 0.20036955 -0.0030153245
0.17963414 0.14472397 0.20005871 0.062365755 -0.02955632 0.15347432 -0.028893366 0.17995416
0.11770527 -0.1092656 0.07984625 0.04090886 0.041303083 -0.1357834 0.16161211 -0.13148452
0.13392799 -0.03727591 0.21513788 0.04092951 0.10364626 0.055388317 0.055824414 0.119777426
0.14442225 -0.11780473 -0.12116921 -0.044344604 0.046239838 -0.059709966 0.15201057 0.12169023
-0.16072188 -0.16659503 -0.016764939 -0.16936004 -0.033317417 0.17300479 0.051458463 -0.00400874
0.080004856 0.13409154 0.13845603 -0.14127184 -0.21266843 0.019459382 -0.053456753 -0.031148791
-0.033762917 -0.15204765 -0.04568699 0.21212865 -0.19318372 -0.12945439 0.061540112 0.052044496
-0.19744252 -0.13585395 -0.05757539 -0.05979821 -0.0060514957 -0.014813453 -0.1545071 -0.15246896
-0.10465377 -0.046052784 -0.12466228 -0.20922585 0.18801542 -0.20139617 0.1074983 -0.0556086
0.19106011 -0.1730616 0.034238055 -0.08018635 0.10169028 0.11207865 0.20813711 0.052884772
-0.09670918 0.04951118 0.037274465 0.13739698 0.16375326 -0.16936293 0.1789221 0.06550504
-0.091539055 0.154323 -0.0040450245 0.16748475 -0.17175676 -0.07595818 0.15442322 0.043977365
0.0032754093 0.15288265 -0.1411955 -0.13519888 0.021507263 0.0038618892 0.1366946 0.059139684
-0.10467705 -0.084733605 -0.08750057 -0.1858404 -0.14810684 -0.012871802 0.047785774 -0.06780194
0.14785491 0.20856617 0.053862974 0.054721847 -0.08756809 -0.17798486 0.004145667 -0.20649074
0.1621338 -0.007602468 -0.038473234 0.06369196 -0.16203481 0.13803355 -0.014533937 0.17851989
-0.2115246 -0.07227966 0.21111892 0.12277447 0.022571266 -0.14775604 -0.088868454 -0.08116448
00000000: 2fad 57be 2882 c3bc 1425 6a3d 2c64 1f3d
00000010: 1ce4 79bd 9a42 c43d 02fb ebbd 0054 bfbb
00000020: f47c 213d 0faf d4bd fed7 d63d 9d6c dbbd
00000030: 73b2 0e3e 7ecf a6bd b220 813d bc3b 133d
00000040: 6e5c 933d 23f8 c9bd 878a e7bd e1cb 423e
00000050: 0da6 153e b2f8 b0bd 27c5 3f3e 47e8 353e
00000060: f1c2 f4bd b707 113e 944a 3dbd 72aa 913d
00000070: 8a3d 46be 0a21 d63d 2d83 203e fb3d 4c3e
00000080: 525f 9a3d 9fb7 223e 5e9d a4bd 7468 343d
00000090: 9810 95bc 7b21 20be ac6e 623d 40cc 133b
000000a0: a09b a2bc a088 05be 3bd9 1f3e 5c1f 763d
000000b0: c313 343e c567 193e ba82 1fbe 5ee8 03be
000000c0: c972 4cbe 636d 5b3e 602b 03be 165e d93d
000000d0: ab47 223e 22a7 a93d 80e9 99bb 055c efbd
000000e0: 903a 003d 1ac0 57be 74e2 763d cc2c 343d
000000f0: 7ad3 ae3d b689 9e3d b95e 0b3e e6d1 a83d
00000100: e22b 34be a8f2 23be 4293 a2bd e173 1b3e
00000110: 5c33 4abd b3a8 5d3e 802b 313b 7e2e 05be
00000120: 57c6 00be 2ea1 a1bd 0745 163e b6ef a63d
00000130: a087 7dbc b69a fd3d 01cc c5bd 00ec 70bd
00000140: c092 6b3c f2a0 04be 69f2 1a3e 1a41 cf3d
00000150: b884 57bd b053 b03c fa26 993d 352b 003e
00000160: 3d94 253e 66ee d93d a0c2 1bbd 7fc3 59be
00000170: 7032 4f3c c3ff 0f3e 00a9 62bd 046c 343d
00000180: 6397 213e 98a5 b1bd b696 893d 7c88 1bbd
00000190: 807f fdbc 6520 423e 8bd8 0f3e e264 cb3d
000001a0: 74eb 583d 7fb2 033e f02c 25bd eae4 b5bd
000001b0: c055 31be 5699 4dbe 0a4f fe3d be19 3abe
000001c0: cc6f 263d 3264 a73d 3ffa 2d3e 6b58 423e
000001d0: 98e9 93bd 069d 4ebe ad2d 4d3e c09c 45bb
000001e0: 03f2 373e 8532 143e 31dc 4c3e 3c73 7f3d
000001f0: 1820 f2bc 5f28 1d3e c8b1 ecbc e745 383e
00000200: 760f f13d a5c6 dfbd 6e86 a33d 0c90 273d
00000210: 6c2d 293d ce0a 0bbe a57d 253e e1a3 06be
00000220: 6b24 093e a0ae 18bd 1b4d 5c3e b4a5 273d
00000230: 7e44 d43d dcde 623d 24a8 643d de4d f53d
00000240: 6de3 133e 9b43 f1bd 9027 f8bd b0a2 35bd
00000250: fc65 3d3d 7092 74bd a9a8 1b3e ba38 f93d
00000260: 4794 24be e397 2abe a056 89bc b86c 2dbe
00000270: d877 08bd 2b28 313e 1cc6 523d c05b 83bb
00000280: 96d9 a33d 4b4f 093e 6bc7 0d3e 91a9 10be
00000290: c1c5 59be 4869 9f3c 78f5 5abd c02b ffbc
000002a0: fc4a 0abd 61b2 1bbe 4822 3bbd 4138 593e
000002b0: f4d1 45be b18f 04be 7c11 7c3d 9c2c 553d
000002c0: 5f2e 4abe 4c1d 0bbe 2cd4 6bbd f8ee 74bd
000002d0: a04b c6bb 20b4 72bc 1c37 1ebe d320 1cbe
000002e0: b754 d6bd d8a1 3cbd f04e ffbd 4d3f 56be
000002f0: 1d87 403e cc3a 4ebe 1228 dc3d d8c5 63bd
00000300: 43a5 433e 0f37 31be 343d 0c3d be38 a4bd
00000310: fe42 d03d 7e89 e53d e521 553e b49d 583d
00000320: 760f c6bd 3ccc 4a3d 1cad 183d cbb1 0c3e
00000330: efae 273e 7a6d 2dbe 5b37 373e 8227 863d
00000340: d478 bbbd d906 1e3e 208c 84bb 1f81 2b3e
00000350: 01e1 2fbe f68f 9bbd 1f21 1e3e 9c21 343d
00000360: 40a8 563b 458d 1c3e 8e95 10be 9371 0abe
00000370: 0030 b03c c017 7d3b abf9 0b3e 743c 723d
00000380: ec60 d6bd d088 adbd 8033 b3bd f24c 3ebe
00000390: 52a9 17be 40e4 52bc 04bb 433d bedb 8abd
000003a0: 4767 173e 5f92 553e 6c9f 5c3d 0424 603d
000003b0: e656 b3bd aa41 36be 60d8 873b 4f72 53be
000003c0: 6706 263e 201e f9bb 1c96 1dbd ee70 823d
000003d0: 74ec 25be ab58 0d3e c01f 6ebc ebcd 363e
000003e0: e899 58be 5c07 94bd 8f2f 583e 2e71 fb3d
000003f0: 60e7 b83c 5c4d 17be aa00 b6bd 9039 a6bd

feature_network.3.bias f4 [64]
0.0 0.0 0.0 0.0 0.0 0.0 0.0 0.0
0.0 0.0 0.0 0.0 0.0 0.0 0.0 0.0
0.0 0.0 0.0 0.0 0.0 0.0 0.0 0.0
0.0 0.0 0.0 0.0 0.0 0.0 0.0 0.0
0.0 0.0 0.0 0.0 0.0 0.0 0.0 0.0
0.0 0.0 0.0 0.0 0.0 0.0 0.0 0.0
0.0 0.0 0.0 0.0 0.0 0.0 0.0 0.0
0.0 0.0 0.0 0.0 0.0 0.0 0.0 0.0
00000000: 0000 0000 0000 0000 0000 0000 0000 0000
00000010: 0000 0000 0000 0000 0000 0000 0000 0000
00000020: 0000 0000 0000 0000 0000 0000 0000 0000
00000030: 0000 0000 0000 0000 0000 0000 0000 0000
00000040: 0000 0000 0000 0000 0000 0000 0000 0000
00000050: 0000 0000 0000 0000 0000 0000 0000 0000
00000060: 0000 0000 0000 0000 0000 0000 0000 0000
00000070: 0000 0000 0000 0000 0000 0000 0000 0000
00000080: 0000 0000 0000 0000 0000 0000 0000 0000
00000090: 0000 0000 0000 0000 0000 0000 0000 0000
000000a0: 0000 0000 0000 0000 0000 0000 0000 0000
000000b0: 0000 0000 0000 0000 0000 0000 0000 0000
000000c0: 0000 0000 0000 0000 0000 0000 0000 0000
000000d0: 0000 0000 0000 0000 0000 0000 0000 0000
000000e0: 0000 0000 0000 0000 0000 0000 0000 0000
000000f0: 0000 0000 0000 0000 0000 0000 0000 0000

feature_network.6.weight f4 [64, 64]
-0.14354546 -0.084194705 -0.1245945 0.04835923 0.010013461 0.1450945 -0.09781553 -0.0610283
0.051102296 0.19007637 -0.029792756 0.011118919 -0.0759733 0.16443907 0.20113607 0.1715153
-0.0885182 0.003985673 0.17177673 -0.11846718 0.16090159 -0.18796502 0.14570303 -0.18708089
-0.19678953 -0.057824627 -0.2133523 -0.021337315 0.07191332 -0.19821417 -0.21522273 -0.00511156
0.14330308 -0.10531047 0.07455699 0.13009419 -0.026942194 -0.07518038 0.018769935 0.055684432
-0.088718966 0.162946 0.033836022 -0.110142484 -0.16945148 0.043558434 -0.17319185 0.18012132
-0.13871908 0.08630927 0.012742177 -0.04327266 0.093333915 -0.0154346675 -0.0775408 -0.11026983
-0.19564295 0.20830263 0.07106905 -0.047167495 0.08227761 -0.15400892 0.05363883 0.18661575
0.029058173 0.08183105 -0.16890454 -0.12481269 0.007516086 -0.20022374 -0.002456814 -0.20372853
0.10181637 0.007082507 0.08949025 -0.19105533 -0.20102693 -0.11896456 -0.20900789 0.11180253
0.18748559 -0.07195786 -0.13386713 0.06411983 0.14314951 0.11759873 0.083989665 0.16228627
-0.06716545 0.20115934 0.0851488 0.017536342 -0.11919519 -0.16928068 -0.20113982 -0.06549069
0.12468447 -0.11428812 0.19782124 0.018116564 0.08691256 -0.08207974 -0.13701761 -0.19408116
0.116717204 -0.015893787 -0.1673408 -0.09151778 -0.20132343 0.19082002 0.0947576 0.039994612
0.14540438 -0.13964096 0.18938552 -0.17924419 -0.1797072 -0.09121525 -0.21037139 -0.053578496
-0.15278053 -0.098770194 0.055173382 -0.02139388 0.2137867 -0.07973476 0.15084316 -0.0066082627
0.06785773 0.111346915 0.016898274 -0.08692224 -0.1482323 -0.023534372 0.17599605 -0.15201607
0.16602619 0.18660964 0.16989203 -0.12803175 0.17161758 -0.055299193 -0.0025824755 0.07932295
0.12317647 0.09821068 -0.18090641 -0.14468768 0.11183263 -0.087286696 -0.10067228 0.16779585
0.17600946 0.0780278 0.12004705 0.077556655 -0.0115351975 0.078113094 -0.18433022 -0.20580398
0.061667636 -0.0044362843 0.0037456602 0.074913636 0.18568729 0.06802373 0.042258546 -0.16030091
-0.04700248 0.016582385 -0.124559216 0.17509551 -0.043196157 0.20784162 0.024181291 0.20124118
-0.033036113 0.068772 -0.073265776 -0.057349965 -0.18155503 0.06468083 0.17976518 0.19120209
-0.18854818 -0.009074435 -0.19788314 0.0007674992 -0.00026774406 0.06513427 0.19380854 0.034717605
-0.12141997 -0.18916664 -0.029069006 -0.1935803 -0.024753988 0.16564094 0.1465006 -0.18613623
-0.09378531 0.09933086 -0.04776837 -0.20011953 -0.05912304 0.076111004 -0.15239535 -0.2088749
-0.14717428 -0.06504248 0.11634965 0.11992328 0.110308364 -0.20602226 0.20005108 0.11059086
0.106021896 -0.1296906 0.1932754 0.026715696 0.019664884 -0.1393768 0.18485273 0.14887248
0.07134141 -0.042794615 -0.09988504 0.106062576 -0.19677848 -0.14669362 -0.08350022 -0.17096756
0.06871922 0.1540081 -0.096722335 0.15819095 0.07398035 -0.16616881 0.13280125 -0.20880629
0.069373354 -0.059500083 -0.17683841 0.19450651 0.17498751 -0.04024574 -0.10351575 0.14330105
-0.016197026 -0.17482367 -0.01860486 -0.16174729 0.020908147 0.20374323 -0.087266594 -0.05266966
00000000: 95fd 12be 466e acbd 672b ffbd 5414 463d
00000010: 800f 243c a793 143e 8253 c8bd d0f8 79bd
00000020: a450 513d 61a3 423e f00f f4bc 202c 363c
00000030: e497 9bbd b762 283e 9df6 4d3e b5a1 2f3e
00000040: 0849 b5bd 409a 823b 3de6 2f3e ec9e f2bd
00000050: 63c3 243e e779 40be 2d33 153e 2292 3fbe
00000060: 3283 49be 84d9 6cbd 0679 5abe 98cb aebc
00000070: 4a47 933d a8f8 4abe 5963 5cbe e07e a7bb
00000080: 0bbe 123e 04ad d7bd 56b1 983d 6937 053e
00000090: e0b5 dcbc 2cf8 99bd 68c3 993c 5c15 643d
000000a0: 4ab2 b5bd 51db 263e a497 0a3d 6292 e1bd
000000b0: b084 2dbe 546a 323d 3459 31be b971 383e
000000c0: 600c 0ebe eac2 b03d 90c4 503c ac3e 31bd
000000d0: da25 bf3d b0e1 7cbc b6cd 9ebd 26d5 e1bd
000000e0: a056 48be 494d 553e a68c 913d b432 41bd
000000f0: 2a81 a83d 84b4 1dbe 64b4 5b3d 3318 3f3e
00000100: 680b ee3c 0a97 a73d 50f5 2cbe cc9d ffbd
00000110: 8049 f63b 7407 4dbe 8002 21bb 369e 50be
00000120: 1a85 d03d 6014 e83b aa46 b73d 02a4 43be
00000130: 01da 4dbe b1a3 f3bd 2a06 56be baf8 e43d
00000140: 39fc 3f3e a45e 93bd 7714 09be 4251 833d
00000150: c995 123e 9ad7 f03d c602 ac3d 5f2e 263e
00000160: 0a8e 89bd b7fc 4d3e 7e62 ae3d 60a8 8f3c
00000170: 9c1c f4bd ea57 2dbe 99f7 4dbe fc1f 86bd
00000180: 925a ff3d e40f eabd a791 4a3e 3069 943c
00000190: 36ff b13d 6c19 a8bd 584e 0cbe 36bd 46be
000001a0: 6e09 ef3d b033 82bc 635b 2bbe ad6d bbbd
000001b0: bb27 4ebe 5366 433e 4610 c23d 64d1 233d
000001c0: e3e4 143e 0afe 0ebe 47ee 413e ca8b 37be
000001d0: 2a05 38be 10cf babd 996b 57be 2075 5bbd
000001e0: 8072 1cbe 0748 cabd 7cfd 613d 3842 afbc
000001f0: e7ea 5a3e fa4b a3bd a176 1a3e 208a d8bb
00000200: fef8 8a3d da09 e43d 406e 8a3c 4a04 b2bd
00000210: 35ca 17be 28cb c0bc 4f38 343e 1aaa 1bbe
00000220: c502 2a3e 9916 3f3e 2df8 2d3e c11a 03be
00000230: 85bc 2f3e 6881 62bd c03e 29bb 1274 a23d
00000240: f243 fc3d ae22 c93d 883f 39be 0229 14be
00000250: 8208 e53d 5ec3 b2bd 452d cebd add2 2b3e
00000260: d33b 343e 0acd 9f3d 3adb f53d 06d6 9e3d
00000270: 20fe 3cbc c2f9 9f3d 10c1 3cbe 47be 52be
00000280: 3497 7c3d 405e 91bb c079 753b 526c 993d
00000290: cf24 3e3e 0650 8b3d 4c17 2d3d ec25 24be
000002a0: ac85 40bd c8d7 873c e718 ffbd 3d4c 333e
000002b0: 74ee 30bd 6fd4 543e d817 c63c 2b12 4e3e
000002c0: e050 07bd 56d8 8c3d 5e0c 96bd cce7 6abd
000002d0: 90e9 39be 6277 843d 5d14 383e 7bca 433e
000002e0: c612 41be f0ac 14bc e1a1 4abe 0032 493a
000002f0: 0060 8cb9 1e65 853d bf75 463e 0c34 0e3d
00000300: 09ab f8bd e6b4 41be 2022 eebc ea39 46be
00000310: e0c8 cabc c79d 293e 4104 163e 7f9a 3ebe
00000320: 8312 c0bd fa6d cb3d c4a8 43bd 22ec 4cbe
00000330: 002b 72bd 16e0 9b3d 870d 1cbe 4de3 55be
00000340: dbb4 16be fe34 85bd ba48 ee3d 569a f53d
00000350: 5ae9 e13d 80f7 52be 31da 4c3e 767d e23d
00000360: 0222 d93d 9dcd 04be fde9 453e e0da da3c
00000370: 4018 a13c cbb8 0ebe 094a 3d3e 0772 183e
00000380: 721b 923d 6849 2fbd 8790 ccbd 5637 d93d
00000390: 4c80 49be da36 16be 2a02 abbd 1f12 2fbe
000003a0: aabc 8c3d 4db4 1d3e 5c16 c6bd cffc 213e
000003b0: 0283 973d 2828 2abe 0dfd 073e 51d1 55be
000003c0: 9e13 8e3d 5cb6 73bd 2115 35be b72c 473e
000003d0: ed2f 333e b8d8 24bd 1100 d4bd 83bd 123e
000003e0: a0af 84bc fa04 33be 3869 98bc 15a1 25be
000003f0: 9047 ab3c 11a2 503e d4b8 b2bd 24bc 57bd

feature_network.6.bias f4 [64]
0.0 0.0 0.0 0.0 0.0 0.0 0.0 0.0
0.0 0.0 0.0 0.0 0.0 0.0 0.0 0.0
0.0 0.0 0.0 0.0 0.0 0.0 0.0 0.0
0.0 0.0 0.0 0.0 0.0 0.0 0.0 0.0
0.0 0.0 0.0 0.0 0.0 0.0 0.0 0.0
0.0 0.0 0.0 0.0 0.0 0.0 0.0 0.0
0.0 0.0 0.0 0.0 0.0 0.0 0.0 0.0
0.0 0.0 0.0 0.0 0.0 0.0 0.0 0.0
00000000: 0000 0000 0000 0000 0000 0000 0000 0000
00000010: 0000 0000 0000 0000 0000 0000 0000 0000
00000020: 0000 0000 0000 0000 0000 0000 0000 0000
00000030: 0000 0000 0000 0000 0000 0000 0000 0000
00000040: 0000 0000 0000 0000 0000 0000 0000 0000
00000050: 0000 0000 0000 0000 0000 0000 0000 0000
00000060: 0000 0000 0000 0000 0000 0000 0000 0000
00000070: 0000 0000 0000 0000 0000 0000 0000 0000
00000080: 0000 0000 0000 0000 0000 0000 0000 0000
00000090: 0000 0000 0000 0000 0000 0000 0000 0000
000000a0: 0000 0000 0000 0000 0000 0000 0000 0000
000000b0: 0000 0000 0000 0000 0000 0000 0000 0000
000000c0: 0000 0000 0000 0000 0000 0000 0000 0000
000000d0: 0000 0000 0000 0000 0000 0000 0000 0000
000000e0: 0000 0000 0000 0000 0000 0000 0000 0000
000000f0: 0000 0000 0000 0000 0000 0000 0000 0000

q_network.weight f4 [1, 64]
-0.199565 -0.13243549 -0.09723513 0.18621156 -0.25363845 0.2523017 0.27582967 0.22858906
0.035640508 0.12954077 -0.08732936 -0.23171426 0.09510189 -0.17980786 0.13919622 0.012235761
0.11745435 0.031268775 -0.24842742 0.24928606 -0.27096605 -0.22738105 0.30054373 -0.09420507
-0.061885655 0.15420276 -0.1466567 0.21327984 -0.19207078 -0.12569241 -0.016595274 -0.18657061
-0.098350435 -0.15907776 0.21410394 0.19192186 -0.10825388 0.041072547 0.28388387 -0.19533649
-0.29006106 0.12763014 -0.23077519 -0.22937965 0.057085246 -0.1628197 0.028552294 0.24332374
0.047468543 -0.22762746 0.061380625 0.0092372 0.20883328 0.16824919 -0.16739903 -0.13050261
0.19956505 0.19257322 -0.025358617 -0.23695526 -0.14165027 -0.00997901 -0.073401585 0.09046331
00000000: c45a 4cbe 2b9d 07be 3623 c7bd 3eae 3e3e
00000010: e6dc 81be b02d 813e 8c39 8d3e 4013 6a3e
00000020: c8fb 113d 56a6 043e bcd9 b2bd 8146 6dbe
00000030: c8c4 c23d 8d1f 38be 7489 0e3e 8078 483c
00000040: e88b f03d b013 003d c263 7ebe d844 7f3e
00000050: 10bc 8abe 94d6 68be dee0 993e 96ee c0bd
00000060: d07b 7dbd 54e7 1d3e 2d2d 16be 0866 5a3e
00000070: 34ae 44be 83b5 00be d0f2 87bc 5e0c 3fbe
00000080: f46b c9bd 48e5 22be 103e 5b3e 2a87 443e
00000090: 36b4 ddbd b03b 283d 3a59 913e 4a06 48be
000000a0: e282 94be 7ab1 023e 5550 6cbe 80e2 6abe
000000b0: 38d2 693d 35ba 26be 80e6 e93c dc29 793e
000000c0: 606e 423d 2c17 69be 406a 7b3d a057 173c
000000d0: 64d8 553e 8449 2c3e a76a 2bbe 7aa2 05be
000000e0: c85a 4c3e ea31 453e e0bc cfbc 66a4 72be
000000f0: c50c 11be 007f 23bc 9253 96bd d444 b93d
