training_results/dqn_detectives_1753803461.pth (torch, 200451 bytes, 10 tensors)

feature_network.0.weight f4 [64, 239]
-0.12278445 -0.017869748 0.12480262 0.11052847 0.13357854 0.12757891 0.08567874 0.10670297
0.06911214 0.03061822 0.08231363 0.078443795 -0.13816723 0.08677076 0.06710814 0.114726126
-0.034527294 0.0046188086 0.08739494 0.09407677 -0.10035311 0.1277006 0.101151705 -0.011081651
0.13826054 0.0110286325 0.01498498 -0.024196364 0.04561235 -0.07727214 -0.11451401 -0.09566265
-0.009063154 0.13175285 0.0272661 0.117823035 -0.120949775 -0.020920947 -0.116990425 0.058170125
-0.08122656 0.021840915 0.04933825 0.03622055 -0.07090261 -0.070648886 0.10270378 0.004668221
0.122960955 -0.1322337 -0.054276533 -0.0027275085 0.050744176 -0.12211777 0.031155348 0.085822925
-0.070556626 -0.09400056 -0.06363112 0.12354094 0.052469805 -0.00043700635 0.0115611255 -0.0027880669
-0.035424426 -0.041748226 0.0070860386 0.13005906 0.097621426 0.05633834 0.088149935 -0.03172458
0.012553632 0.063948706 -0.11251465 0.04534796 0.013430893 0.06821956 0.030268937 0.09303333
0.08999966 0.03838502 -0.099748686 0.10339242 -0.010937631 0.11698726 -0.07151609 0.026791498
0.080700055 0.06267135 -0.054681286 0.06336461 -0.011005878 0.1317003 0.066127285 -0.005990416
-0.09170561 -0.02295474 0.04302229 -0.10635379 -0.09436396 0.07989128 -0.06977269 0.12360811
-0.12200099 -0.013223216 -0.12782207 0.038549617 0.08615664 0.007234901 0.0116236955 -0.012140319
-0.13372323 0.10019371 0.13348508 0.0018173903 -0.020431384 0.06372899 0.046943247 0.06634125
-0.060649164 0.13468695 0.097049475 -0.03506463 0.053538308 0.10771896 -0.029579267 0.111921996
0.12077731 0.08862029 0.089555666 -0.13713427 -0.13900018 0.058694318 -0.032766744 0.07921696
-0.04347416 -0.025156371 0.078121305 0.06591031 0.08242051 -0.08051389 0.124031365 0.12157884
0.08054073 0.08309893 -0.07544099 0.008425802 0.07675934 -0.08000138 0.08210467 -0.13939066
-0.111631714 -0.061249845 0.018738061 -0.0034487993 -0.022588827 0.14016709 0.012522712 -0.112238735
-0.12302922 -0.030171447 0.13181418 0.048411116 -0.109750286 -0.013241038 -0.076681234 0.12705609
-0.07205442 -0.03171435 -0.04577575 0.004854277 0.057868242 -0.05389653 0.05560808 -0.10354866
0.001654774 0.052878052 -0.005273968 -0.087971374 -0.06136316 0.119561076 -0.08575222 0.1166423
-0.097449586 -0.108026214 -0.01154913 -0.015339598 -0.028329894 -0.13178536 0.118133485 -0.13823438
0.0040401965 0.09762722 -0.056404136 0.11185208 -0.101058334 -0.014764845 0.036810324 0.07802759
-0.028408214 -0.13878205 0.07393247 0.1032632 0.0045211315 -0.13998435 0.019745976 -0.08568412
-0.101263106 -0.0056550056 -0.12208965 -0.0852357 0.024225503 0.022286594 0.070870325 -6.42091e-05
-0.123298526 -0.06119144 0.051007107 -0.010769799 0.047897488 -0.028414704 0.086089596 -0.1014346
-0.008265957 0.08467169 0.0004954338 0.10119976 0.0346044 -0.070762485 -0.11753343 -0.05657088
0.14050975 -0.07512981 0.0057893097 -0.101981565 0.13323733 -0.04618959 0.10396375 -0.06780266
0.12799042 -0.055114247 -0.07633201 -0.0619438 -0.10236137 0.014504865 0.090122804 -0.11810395
0.045513213 0.07390158 -0.06912046 0.10216768 0.0656417 0.011166617 0.076826185 0.026867554
00000000: 6a76 fbbd 9463 92bc 8498 ff3d c05c e23d
00000010: d0c8 083e 0ca4 023e 5678 af3d 1687 da3d
00000020: aa8a 8d3d 10d3 fa3c 0c94 a83d 24a7 a03d
00000030: b67b 0dbe deb4 b13d fe6f 893d 88f5 ea3d
00000040: 7e6c 0dbd 6059 973b 1efc b23d 52ab c03d
00000050: ee85 cdbd f2c3 023e a028 cf3d d08f 35bc
00000060: 2c94 0d3e 70b1 343c 9083 753c 7437 c6bc
00000070: 04d4 3a3d db40 9ebd 5286 eabd c8ea c3bd
00000080: a07d 14bc 38ea 063e 285d df3c 344d f13d
00000090: 84b4 f7bd 6862 abbc ad98 efbd cc43 6e3d
000000a0: 1c5a a6bd b8eb b23c e816 4a3d 005c 143d
000000b0: 6335 91bd 5db0 90bd 5c56 d23d e0f7 983b
000000c0: f4d2 fb3d 4568 07be 1251 5ebd 00c0 32bb
000000d0: 20d9 4f3d e218 fabd 8039 ff3c eec3 af3d
000000e0: fe7f 90bd 5e83 c0bd 0851 82bd 0803 fd3d
000000f0: 94ea 563d 001e e5b9 e06a 3d3c 00b8 36bb
00000100: 3419 11bd 3000 2bbd 0032 e83b 342e 053e
00000110: beed c73d 08c3 663d f487 b43d a2f1 01bd
00000120: c0ad 4d3c 8af7 823d 156e e6bd c8be 393d
00000130: 400d 5c3c b2b6 8b3d 90f6 f73c 4288 be3d
00000140: be51 b83d 9c39 1d3d 0a49 ccbd 68bf d33d
00000150: c033 33bc 0497 ef3d 0777 92bd d879 db3c
00000160: 1246 a53d d659 803d 7cf9 5fbd 4ec5 813d
00000170: 0052 34bc 72dc 063e be6d 873d 404b c4bb
00000180: 27d0 bbbd 940b bcbc 2438 303d 04d0 d9bd
00000190: e441 c1bd 0a9e a33d fce4 8ebd 4026 fd3d
000001a0: a8db f9bd 30a6 58bc cae3 02be 34e6 1d3d
000001b0: e472 b03d c012 ed3b 5071 3e3c 30e8 46bc
000001c0: beee 08be 5c32 cd3d 50b0 083e 8035 ee3a
000001d0: b85f a7bc 5884 823d 9047 403d ecdd 873d
000001e0: 426b 78bd 60eb 093e e0c1 c63d ee9f 0fbd
000001f0: fc4a 5b3d c29b dc3d 3850 f2bc 5c37 e53d
00000200: 185a f73d 8e7e b53d f668 b73d ed6c 0cbe
00000210: 1056 0ebe 7469 703d 6c36 06bd 803c a23d
00000220: f611 32bd bc14 cebc 10fe 9f3d fcfb 863d
00000230: 16cc a83d 77e4 a4bd 2804 fe3d 54fe f83d
00000240: 8af2 a43d c62f aa3d ce80 9abd 600c 0a3c
00000250: 0034 9d3d c3d7 a3bd 7e26 a83d 6dbc 0ebe
00000260: 2b9f e4bd 1ee1 7abd 9080 993c 4005 62bb
00000270: 340c b9bc f687 0f3e 102c 4d3c 6cdd e5bd
00000280: bef6 fbbd 1c2a f7bc 4cfa 063e bc4a 463d
00000290: c2c4 e0bd f0f0 58bc 0d0b 9dbd fe1a 023e
000002a0: 4591 93bd e8e6 01bd 5a7f 3bbd a010 9f3b
000002b0: 4007 6d3d 9cc2 5cbd 4cc5 633d 5211 d4bd
000002c0: 00e5 d83a a896 583d 40d1 acbb 562a b4bd
000002d0: f057 7bbd 70dc f43d dc9e afbd 28e2 ee3d
000002e0: a693 c7bd d93c ddbd 9038 3dbc f052 7bbc
000002f0: 1814 e8bc bef2 06be f8ef f13d 508d 0dbe
00000300: a063 843b c8f0 c73d 0608 67bd b412 e53d
00000310: acf7 cebd 40e8 71bc 6cc6 163d eecc 9f3d
00000320: 58b8 e8bc e21c 0ebe e869 973d a87b d33d
00000330: 0026 943b 0f58 0fbe 50c2 a13c 287b afbd
00000340: 0863 cfbd a04d b9bb 230a fabd 0e90 aebd
00000350: 9074 c63c 6092 b63c 7624 913d 00a8 86b8
00000360: f083 fcbd e0a3 7abd d4ec 503d d073 30bc
00000370: 2830 443d f4c5 e8bc be4f b03d f2bc cfbd
00000380: f06d 07bc 5a68 ad3d 00e0 013a d241 cf3d
00000390: 58bd 0d3d eceb 90bd 5eb5 f0bd deb6 67bd
000003a0: cae1 0f3e a8dd 99bd 40b4 bd3b b6db d0bd
000003b0: 5e6f 083e 4c31 3dbd f2ea d43d 1fdc 8abd
000003c0: ec0f 033e 7abf 61bd f553 9cbd c8b8 7dbd
000003d0: d7a2 d1bd d0a5 6d3c 4e92 b83d 7ce0 f1bd
000003e0: 106c 3a3d b659 973d 078f 8dbd 4a3d d13d
000003f0: 286f 863d 30f4 363c 0c57 9d3d 5819 dc3c

feature_network.0.bias f4 [64]
0.0 0.0 0.0 0.0 0.0 0.0 0.0 0.0
0.0 0.0 0.0 0.0 0.0 0.0 0.0 0.0
0.0 0.0 0.0 0.0 0.0 0.0 0.0 0.0
0.0 0.0 0.0 0.0 0.0 0.0 0.0 0.0
0.0 0.0 0.0 0.0 0.0 0.0 0.0 0.0
0.0 0.0 0.0 0.0 0.0 0.0 0.0 0.0
0.0 0.0 0.0 0.0 0.0 0.0 0.0 0.0
0.0 0.0 0.0 0.0 0.0 0.0 0.0 0.0
00000000: 0000 0000 0000 0000 0000 0000 0000 0000
00000010: 0000 0000 0000 0000 0000 0000 0000 0000
00000020: 0000 0000 0000 0000 0000 0000 0000 0000
00000030: 0000 0000 0000 0000 0000 0000 0000 0000
00000040: 0000 0000 0000 0000 0000 0000 0000 0000
00000050: 0000 0000 0000 0000 0000 0000 0000 0000
00000060: 0000 0000 0000 0000 0000 0000 0000 0000
00000070: 0000 0000 0000 0000 0000 0000 0000 0000
00000080: 0000 0000 0000 0000 0000 0000 0000 0000
00000090: 0000 0000 0000 0000 0000 0000 0000 0000
000000a0: 0000 0000 0000 0000 0000 0000 0000 0000
000000b0: 0000 0000 0000 0000 0000 0000 0000 0000
000000c0: 0000 0000 0000 0000 0000 0000 0000 0000
000000d0: 0000 0000 0000 0000 0000 0000 0000 0000
000000e0: 0000 0000 0000 0000 0000 0000 0000 0000
000000f0: 0000 0000 0000 0000 0000 0000 0000 0000

feature_network.3.weight f4 [32, 64]
0.1147252 -0.02175036 -0.23586616 0.06289855 -0.08735883 -0.18398273 -0.17414379 0.12747926
-0.08521232 -0.107139796 0.12969366 -0.12789628 -0.099322945 0.18872863 0.15216917 -0.07680917
-0.0976342 -0.062209964 0.01678875 0.09425861 -0.011400133 -0.13609812 0.14844534 -0.020994335
-0.068172276 -0.09107125 0.2281253 -0.07090628 0.06084007 -0.14520878 0.029123187 0.077872574
-0.14809024 0.18760964 0.08031577 0.20375028 0.13736483 0.045729965 0.19756588 -0.10822195
0.22766107 -0.22941983 -0.23397091 -0.16859698 -0.07987398 -0.19248259 -0.16507915 -0.21201453
-0.24412218 -0.14953336 0.014223099 -0.15504533 0.00959146 0.10685891 0.19970822 -0.045879066
0.09796047 -0.21643168 -0.17096725 -0.20012611 -0.031630605 -0.1785053 0.06721279 -0.24450013
-0.13456973 0.13857639 -0.13724822 -0.18772054 -0.12962016 0.24824858 -0.06888476 -0.009744912
-0.04974842 0.028336465 0.19354898 0.16816825 0.03500986 0.030433387 -0.10809907 0.13396761
-0.14439973 0.13141057 -0.18080503 0.21150312 0.03405541 -0.00451079 0.10953778 -0.17752382
0.11027059 0.058288664 -0.019062012 0.24977568 0.0989244 -0.20761237 0.085115194 -0.17648798
0.21861425 0.024121046 0.14201656 -0.17916459 0.20759943 0.01974821 -0.20680678 0.0648841
-0.03933409 0.034825742 0.083703965 -0.069154084 0.19117424 0.10857645 -0.122015 0.24398994
-0.10019556 0.05170113 -0.17034233 0.105721116 -0.24925682 -0.23058078 0.05178386 -0.2233252
-0.010344356 0.0812251 -0.109381646 -0.15452337 -0.15846759 0.090073824 -0.02904123 -0.116420865
0.055281907 0.2295366 -0.19564882 -0.18919179 -0.17087033 -0.09026173 -0.11977705 0.18844607
-0.1987125 -0.0013180077 0.21200928 0.240076 -0.008038491 0.10047749 -0.017789483 -0.19930473
0.24715701 -0.16221586 -0.19993639 -0.10894856 0.054891944 -0.034282744 0.18472728 -0.24546573
-0.022366822 0.07209399 -0.21100044 -0.19644746 -0.028191477 -0.027699918 0.1696583 0.17816463
0.08375874 -0.11220649 -0.18153438 0.2112104 -0.103057116 0.060093015 0.15708551 0.0550389
0.20750135 0.2459507 -0.054405928 -0.09039351 -0.18162 0.027837485 0.081712484 0.22666398
0.0054031014 0.029460639 -0.16086733 -0.15274012 0.091988385 -0.17281368 -0.0965811 0.011882782
-0.23771915 0.14195159 0.17822212 -0.11873424 0.19560236 -0.22492522 0.03881851 -0.2458635
-0.24386546 -0.012583345 -0.047967464 0.14363018 0.06738275 -0.15485421 -0.013568431 -0.024784595
0.23989367 0.1788744 -0.17685181 -0.07691863 0.052254736 0.09885386 -0.21475366 0.15882635
-0.08116576 -0.0067633092 0.23613748 -0.0069021583 0.069108814 0.03213659 -0.056922823 -0.09967068
0.16361636 0.19331843 -0.045976043 -0.20572227 0.14907071 0.16615841 -0.24783394 0.2097674
-0.014218837 -0.14483851 0.22094798 0.14348134 0.20653549 -0.17989793 -0.07642391 -0.1577093
0.18792242 -0.22656089 0.0689573 -0.1940138 0.11564049 0.15702718 0.05235806 0.07958683
0.22474256 -0.16329095 0.123880506 -0.1674507 -0.020032585 -0.16618073 -0.24250141 0.16558495
0.10218966 -0.11960381 -0.026662648 -0.0365465 0.07857829 -0.0608716 -0.16359267 -0.036218375
00000000: 0cf5 ea3d d02d b2bc e686 71be f4d0 803d
00000010: 30e9 b2bd f865 3cbe c052 32be ec89 023e
00000020: cc83 aebd 1c6c dbbd 6ace 043e 3ef7 02be
00000030: d469 cbbd 1442 413e 3cd2 1b3e 204e 9dbd
00000040: 70f4 c7bd e0cf 7ebd 9088 893c a80a c13d
00000050: a0c7 3abc 4e5d 0bbe 0e02 183e 50fc abbc
00000060: e89d 8bbd 9083 babd ae99 693e 5037 91bd
00000070: 7033 793d 9cb1 14be c093 ee3c a87b 9f3d
00000080: f8a4 17be be1c 403e 987c a43d eaa3 503e
00000090: 5ea9 0c3e 584f 3b3d b64e 4a3e 78a3 ddbd
000000a0: fc1f 693e 08ed 6abe 1296 6fbe b0a4 2cbe
000000b0: f894 a3bd 281a 45be 820a 29be 561a 59be
000000c0: 2afb 79be 461f 19be 0008 693c 34c4 1ebe
000000d0: 8025 1d3c d8d8 da3d 5080 4c3e b0eb 3bbd
000000e0: 809f c83d 44a0 5dbe 0a12 2fbe dced 4cbe
000000f0: 188f 01bd 18ca 36be dca6 893d 3e5e 7abe
00000100: a6cc 09be f8e6 0d3e cc8a 0cbe d039 40be
00000110: 26bb 04be e034 7e3e 7413 8dbd 20a9 1fbc
00000120: 00c5 4bbd e021 e83c b431 463e 4c34 2c3e
00000130: 8066 0f3d 704f f93c 0c63 ddbd ce2e 093e
00000140: 86dd 13be 7e90 063e f424 39be 4694 583e
00000150: b07d 0b3d 40cf 93bb 5855 e03d cec8 35be
00000160: 8cd5 e13d 18c0 6e3d f027 9cbc 32c5 7f3e
00000170: e098 ca3d 5698 54be e050 ae3d 44b9 34be
00000180: 6adc 5f3e 8099 c53c ca6c 113e ec76 37be
00000190: f294 543e 00c7 a13c 28c5 53be f4e1 843d
000001a0: c81c 21bd 70a5 0e3d fc6c ab3d a8a0 8dbd
000001b0: 2ec3 433e 545d de3d 00e3 f9bd 80d8 793e
000001c0: 5433 cdbd 90c4 533d 386e 2ebe 5084 d83d
000001d0: 2e3d 7fbe 5e1d 6cbe 501b 543d 5caf 64be
000001e0: 607b 29bc 5859 a63d 7c03 e0bd 603b 1ebe
000001f0: 5445 22be a078 b83d e0e7 edbc 106e eebd
00000200: 486f 623d a40b 6b3e 2a58 48be 7ebb 41be
00000210: a2f8 2ebe 24db b8bd ac4d f5bd 02f8 403e
00000220: 4a7b 4bbe 00c1 acba f618 593e 7cd6 753e
00000230: e0b3 03bc 24c7 cd3d 40bb 91bc 8a16 4cbe
00000240: ba16 7d3e ea1b 26be 20bc 4cbe 6c20 dfbd
00000250: 60d6 603d 106c 0cbd 2629 3d3e 5e5b 7bbe
00000260: a03a b7bc 04a6 933d 8010 58be 8629 49be
00000270: d0f1 e6bc f0ea e2bc e8ba 2d3e ca70 363e
00000280: b489 ab3d 84cc e5bd 26e4 39be 8a47 583e
00000290: 9c0f d3bd 1824 763d 06db 203e 7870 613d
000002a0: 3c7b 543e 80da 7b3e c0d8 5ebd 3c20 b9bd
000002b0: 98fa 39be 700b e43c e058 a73d 9a1a 683e
000002c0: 800c b13b 7057 f13c 68ba 24be e867 1cbe
000002d0: 6864 bc3d 12f6 30be 50cc c5bd 00b0 423c
000002e0: a66c 73be c25b 113e dc7f 363e f02a f3bd
000002f0: fc4b 483e cc52 66be 2800 1f3d a4c3 7bbe
00000300: deb7 79be 602a 4ebc 8879 44bd ca13 133e
00000310: f8ff 893d 1a92 1ebe 204e 5ebc 1009 cbbc
00000320: b0a6 753e da2a 373e a418 35be 8487 9dbd
00000330: 1009 563d e473 ca3d 62e8 5bbe 60a3 223e
00000340: 3c3a a6bd c09e ddbb 06ce 713e 802b e2bb
00000350: ec88 8d3d a8a1 033d e827 69bd 2420 ccbd
00000360: 0c8b 273e 44f5 453e 6051 3cbd dca8 52be
00000370: fea5 183e 6e25 2a3e 2ec8 7dbe 44cd 563e
00000380: 20f6 68bc 8c50 14be 3040 623e c6ec 123e
00000390: 0a7e 533e 2a37 38be 2484 9cbd 8c7e 21be
000003a0: bc6e 403e 94ff 67be 7c39 8d3d 8eab 46be
000003b0: ecd4 ec3d bccb 203e 6875 563d 6cfe a23d
000003c0: ea22 663e be35 27be 10b5 fd3d 3278 2bbe
000003d0: 601b a4bc 482b 2abe 4a52 78be 1a8f 293e
000003e0: d048 d13d d8f2 f4bd a06b dabc c8b1 15bd
000003f0: a8ed a03d 8054 79bd d684 27be b859 14bd

feature_network.3.bias f4 [32]
0.0 0.0 0.0 0.0 0.0 0.0 0.0 0.0
0.0 0.0 0.0 0.0 0.0 0.0 0.0 0.0
0.0 0.0 0.0 0.0 0.0 0.0 0.0 0.0
0.0 0.0 0.0 0.0 0.0 0.0 0.0 0.0
00000000: 0000 0000 0000 0000 0000 0000 0000 0000
00000010: 0000 0000 0000 0000 0000 0000 0000 0000
00000020: 0000 0000 0000 0000 0000 0000 0000 0000
00000030: 0000 0000 0000 0000 0000 0000 0000 0000
00000040: 0000 0000 0000 0000 0000 0000 0000 0000
00000050: 0000 0000 0000 0000 0000 0000 0000 0000
00000060: 0000 0000 0000 0000 0000 0000 0000 0000
00000070: 0000 0000 0000 0000 0000 0000 0000 0000

q_network.0.weight f4 [1, 32]
-0.37331364 0.2704937 0.15073985 -0.11956912 0.09936106 -0.33818325 0.22857398 0.40316528
-0.13155264 0.115594685 -0.27573237 -0.2893817 0.06285912 -0.28250992 -0.13806078 0.36186427
0.22450984 -0.07539418 0.40931767 0.1922651 -0.2707611 -0.039322823 -0.37161446 -0.23809291
-0.41302288 -0.07298875 0.17441612 -0.23582855 -0.0079855025 -0.21592994 -0.39638543 -0.25417605
00000000: f722 bfbe 267e 8a3e 8c5b 1a3e a8e0 f4bd
00000010: d07d cb3d 5b26 adbe 4c0f 6a3e ae6b ce3e
00000020: bcb5 06be e8bc ec3d cb2c 8dbe d729 94be
00000030: 48bc 803d 24a5 90be ce5f 0dbe 4646 b93e
00000040: e8e5 653e 4468 9abd 1692 d13e 24e1 443e
00000050: 33a1 8abe f810 21bd 4044 bebe a1ce 73be
00000060: bc77 d3be 207b 95bd 249a 323e 0a7d 71be
00000070: a0d5 02bc bd1c 5dbe 08f3 cabe 5d23 82be

feature_network.0.weight f4 [64, 239]
-0.12278445 -0.017869748 0.12480262 0.11052847 0.13357854 0.12757891 0.08567874 0.10670297
0.06911214 0.03061822 0.08231363 0.078443795 -0.13816723 0.08677076 0.06710814 0.114726126
-0.034527294 0.0046188086 0.08739494 0.09407677 -0.10035311 0.1277006 0.101151705 -0.011081651
0.13826054 0.0110286325 0.01498498 -0.024196364 0.04561235 -0.07727214 -0.11451401 -0.09566265
-0.009063154 0.13175285 0.0272661 0.117823035 -0.120949775 -0.020920947 -0.116990425 0.058170125
-0.08122656 0.021840915 0.04933825 0.03622055 -0.07090261 -0.070648886 0.10270378 0.004668221
0.122960955 -0.1322337 -0.054276533 -0.0027275085 0.050744176 -0.12211777 0.031155348 0.085822925
-0.070556626 -0.09400056 -0.06363112 0.12354094 0.052469805 -0.00043700635 0.0115611255 -0.0027880669
-0.035424426 -0.041748226 0.0070860386 0.13005906 0.097621426 0.05633834 0.088149935 -0.03172458
0.012553632 0.063948706 -0.11251465 0.04534796 0.013430893 0.06821956 0.030268937 0.09303333
0.08999966 0.03838502 -0.099748686 0.10339242 -0.010937631 0.11698726 -0.07151609 0.026791498
0.080700055 0.06267135 -0.054681286 0.06336461 -0.011005878 0.1317003 0.066127285 -0.005990416
-0.09170561 -0.02295474 0.04302229 -0.10635379 -0.09436396 0.07989128 -0.06977269 0.12360811
-0.12200099 -0.013223216 -0.12782207 0.038549617 0.08615664 0.007234901 0.0116236955 -0.012140319
-0.13372323 0.10019371 0.13348508 0.0018173903 -0.020431384 0.06372899 0.046943247 0.06634125
-0.060649164 0.13468695 0.097049475 -0.03506463 0.053538308 0.10771896 -0.029579267 0.111921996
0.12077731 0.08862029 0.089555666 -0.13713427 -0.13900018 0.058694318 -0.032766744 0.07921696
-0.04347416 -0.025156371 0.078121305 0.06591031 0.08242051 -0.08051389 0.124031365 0.12157884
0.08054073 0.08309893 -0.07544099 0.008425802 0.07675934 -0.08000138 0.08210467 -0.13939066
-0.111631714 -0.061249845 0.018738061 -0.0034487993 -0.022588827 0.14016709 0.012522712 -0.112238735
-0.12302922 -0.030171447 0.13181418 0.048411116 -0.109750286 -0.013241038 -0.076681234 0.12705609
-0.07205442 -0.03171435 -0.04577575 0.004854277 0.057868242 -0.05389653 0.05560808 -0.10354866
0.001654774 0.052878052 -0.005273968 -0.087971374 -0.06136316 0.119561076 -0.08575222 0.1166423
-0.097449586 -0.108026214 -0.01154913 -0.015339598 -0.028329894 -0.13178536 0.118133485 -0.13823438
0.0040401965 0.09762722 -0.056404136 0.11185208 -0.101058334 -0.014764845 0.036810324 0.07802759
-0.028408214 -0.13878205 0.07393247 0.1032632 0.0045211315 -0.13998435 0.019745976 -0.08568412
-0.101263106 -0.0056550056 -0.12208965 -0.0852357 0.024225503 0.022286594 0.070870325 -6.42091e-05
-0.123298526 -0.06119144 0.051007107 -0.010769799 0.047897488 -0.028414704 0.086089596 -0.1014346
-0.008265957 0.08467169 0.0004954338 0.10119976 0.0346044 -0.070762485 -0.11753343 -0.05657088
0.14050975 -0.07512981 0.0057893097 -0.101981565 0.13323733 -0.04618959 0.10396375 -0.06780266
0.12799042 -0.055114247 -0.07633201 -0.0619438 -0.10236137 0.014504865 0.090122804 -0.11810395
0.045513213 0.07390158 -0.06912046 0.10216768 0.0656417 0.011166617 0.076826185 0.026867554
00000000: 6a76 fbbd 9463 92bc 8498 ff3d c05c e23d
00000010: d0c8 083e 0ca4 023e 5678 af3d 1687 da3d
00000020: aa8a 8d3d 10d3 fa3c 0c94 a83d 24a7 a03d
00000030: b67b 0dbe deb4 b13d fe6f 893d 88f5 ea3d
00000040: 7e6c 0dbd 6059 973b 1efc b23d 52ab c03d
00000050: ee85 cdbd f2c3 023e a028 cf3d d08f 35bc
00000060: 2c94 0d3e 70b1 343c 9083 753c 7437 c6bc
00000070: 04d4 3a3d db40 9ebd 5286 eabd c8ea c3bd
00000080: a07d 14bc 38ea 063e 285d df3c 344d f13d
00000090: 84b4 f7bd 6862 abbc ad98 efbd cc43 6e3d
000000a0: 1c5a a6bd b8eb b23c e816 4a3d 005c 143d
000000b0: 6335 91bd 5db0 90bd 5c56 d23d e0f7 983b
000000c0: f4d2 fb3d 4568 07be 1251 5ebd 00c0 32bb
000000d0: 20d9 4f3d e218 fabd 8039 ff3c eec3 af3d
000000e0: fe7f 90bd 5e83 c0bd 0851 82bd 0803 fd3d
000000f0: 94ea 563d 001e e5b9 e06a 3d3c 00b8 36bb
00000100: 3419 11bd 3000 2bbd 0032 e83b 342e 053e
00000110: beed c73d 08c3 663d f487 b43d a2f1 01bd
00000120: c0ad 4d3c 8af7 823d 156e e6bd c8be 393d
00000130: 400d 5c3c b2b6 8b3d 90f6 f73c 4288 be3d
00000140: be51 b83d 9c39 1d3d 0a49 ccbd 68bf d33d
00000150: c033 33bc 0497 ef3d 0777 92bd d879 db3c
00000160: 1246 a53d d659 803d 7cf9 5fbd 4ec5 813d
00000170: 0052 34bc 72dc 063e be6d 873d 404b c4bb
00000180: 27d0 bbbd 940b bcbc 2438 303d 04d0 d9bd
00000190: e441 c1bd 0a9e a33d fce4 8ebd 4026 fd3d
000001a0: a8db f9bd 30a6 58bc cae3 02be 34e6 1d3d
000001b0: e472 b03d c012 ed3b 5071 3e3c 30e8 46bc
000001c0: beee 08be 5c32 cd3d 50b0 083e 8035 ee3a
000001d0: b85f a7bc 5884 823d 9047 403d ecdd 873d
000001e0: 426b 78bd 60eb 093e e0c1 c63d ee9f 0fbd
000001f0: fc4a 5b3d c29b dc3d 3850 f2bc 5c37 e53d
00000200: 185a f73d 8e7e b53d f668 b73d ed6c 0cbe
00000210: 1056 0ebe 7469 703d 6c36 06bd 803c a23d
00000220: f611 32bd bc14 cebc 10fe 9f3d fcfb 863d
00000230: 16cc a83d 77e4 a4bd 2804 fe3d 54fe f83d
00000240: 8af2 a43d c62f aa3d ce80 9abd 600c 0a3c
00000250: 0034 9d3d c3d7 a3bd 7e26 a83d 6dbc 0ebe
00000260: 2b9f e4bd 1ee1 7abd 9080 993c 4005 62bb
00000270: 340c b9bc f687 0f3e 102c 4d3c 6cdd e5bd
00000280: bef6 fbbd 1c2a f7bc 4cfa 063e bc4a 463d
00000290: c2c4 e0bd f0f0 58bc 0d0b 9dbd fe1a 023e
000002a0: 4591 93bd e8e6 01bd 5a7f 3bbd a010 9f3b
000002b0: 4007 6d3d 9cc2 5cbd 4cc5 633d 5211 d4bd
000002c0: 00e5 d83a a896 583d 40d1 acbb 562a b4bd
000002d0: f057 7bbd 70dc f43d dc9e afbd 28e2 ee3d
000002e0: a693 c7bd d93c ddbd 9038 3dbc f052 7bbc
000002f0: 1814 e8bc bef2 06be f8ef f13d 508d 0dbe
00000300: a063 843b c8f0 c73d 0608 67bd b412 e53d
00000310: acf7 cebd 40e8 71bc 6cc6 163d eecc 9f3d
00000320: 58b8 e8bc e21c 0ebe e869 973d a87b d33d
00000330: 0026 943b 0f58 0fbe 50c2 a13c 287b afbd
00000340: 0863 cfbd a04d b9bb 230a fabd 0e90 aebd
00000350: 9074 c63c 6092 b63c 7624 913d 00a8 86b8
00000360: f083 fcbd e0a3 7abd d4ec 503d d073 30bc
00000370: 2830 443d f4c5 e8bc be4f b03d f2bc cfbd
00000380: f06d 07bc 5a68 ad3d 00e0 013a d241 cf3d
00000390: 58bd 0d3d eceb 90bd 5eb5 f0bd deb6 67bd
000003a0: cae1 0f3e a8dd 99bd 40b4 bd3b b6db d0bd
000003b0: 5e6f 083e 4c31 3dbd f2ea d43d 1fdc 8abd
000003c0: ec0f 033e 7abf 61bd f553 9cbd c8b8 7dbd
000003d0: d7a2 d1bd d0a5 6d3c 4e92 b83d 7ce0 f1bd
000003e0: 106c 3a3d b659 973d 078f 8dbd 4a3d d13d
000003f0: 286f 863d 30f4 363c 0c57 9d3d 5819 dc3c

feature_network.0.bias f4 [64]
0.0 0.0 0.0 0.0 0.0 0.0 0.0 0.0
0.0 0.0 0.0 0.0 0.0 0.0 0.0 0.0
0.0 0.0 0.0 0.0 0.0 0.0 0.0 0.0
0.0 0.0 0.0 0.0 0.0 0.0 0.0 0.0
0.0 0.0 0.0 0.0 0.0 0.0 0.0 0.0
0.0 0.0 0.0 0.0 0.0 0.0 0.0 0.0
0.0 0.0 0.0 0.0 0.0 0.0 0.0 0.0
0.0 0.0 0.0 0.0 0.0 0.0 0.0 0.0
00000000: 0000 0000 0000 0000 0000 0000 0000 0000
00000010: 0000 0000 0000 0000 0000 0000 0000 0000
00000020: 0000 0000 0000 0000 0000 0000 0000 0000
00000030: 0000 0000 0000 0000 0000 0000 0000 0000
00000040: 0000 0000 0000 0000 0000 0000 0000 0000
00000050: 0000 0000 0000 0000 0000 0000 0000 0000
00000060: 0000 0000 0000 0000 0000 0000 0000 0000
00000070: 0000 0000 0000 0000 0000 0000 0000 0000
00000080: 0000 0000 0000 0000 0000 0000 0000 0000
00000090: 0000 0000 0000 0000 0000 0000 0000 0000
000000a0: 0000 0000 0000 0000 0000 0000 0000 0000
000000b0: 0000 0000 0000 0000 0000 0000 0000 0000
000000c0: 0000 0000 0000 0000 0000 0000 0000 0000
000000d0: 0000 0000 0000 0000 0000 0000 0000 0000
000000e0: 0000 0000 0000 0000 0000 0000 0000 0000
000000f0: 0000 0000 0000 0000 0000 0000 0000 0000

feature_network.3.weight f4 [32, 64]
0.1147252 -0.02175036 -0.23586616 0.06289855 -0.08735883 -0.18398273 -0.17414379 0.12747926
-0.08521232 -0.107139796 0.12969366 -0.12789628 -0.099322945 0.18872863 0.15216917 -0.07680917
-0.0976342 -0.062209964 0.01678875 0.09425861 -0.011400133 -0.13609812 0.14844534 -0.020994335
-0.068172276 -0.09107125 0.2281253 -0.07090628 0.06084007 -0.14520878 0.029123187 0.077872574
-0.14809024 0.18760964 0.08031577 0.20375028 0.13736483 0.045729965 0.19756588 -0.10822195
0.22766107 -0.22941983 -0.23397091 -0.16859698 -0.07987398 -0.19248259 -0.16507915 -0.21201453
-0.24412218 -0.14953336 0.014223099 -0.15504533 0.00959146 0.10685891 0.19970822 -0.045879066
0.09796047 -0.21643168 -0.17096725 -0.20012611 -0.031630605 -0.1785053 0.06721279 -0.24450013
-0.13456973 0.13857639 -0.13724822 -0.18772054 -0.12962016 0.24824858 -0.06888476 -0.009744912
-0.04974842 0.028336465 0.19354898 0.16816825 0.03500986 0.030433387 -0.10809907 0.13396761
-0.14439973 0.13141057 -0.18080503 0.21150312 0.03405541 -0.00451079 0.10953778 -0.17752382
0.11027059 0.058288664 -0.019062012 0.24977568 0.0989244 -0.20761237 0.085115194 -0.17648798
0.21861425 0.024121046 0.14201656 -0.17916459 0.20759943 0.01974821 -0.20680678 0.0648841
-0.03933409 0.034825742 0.083703965 -0.069154084 0.19117424 0.10857645 -0.122015 0.24398994
-0.10019556 0.05170113 -0.17034233 0.105721116 -0.24925682 -0.23058078 0.05178386 -0.2233252
-0.010344356 0.0812251 -0.109381646 -0.15452337 -0.15846759 0.090073824 -0.02904123 -0.116420865
0.055281907 0.2295366 -0.19564882 -0.18919179 -0.17087033 -0.09026173 -0.11977705 0.18844607
-0.1987125 -0.0013180077 0.21200928 0.240076 -0.008038491 0.10047749 -0.017789483 -0.19930473
0.24715701 -0.16221586 -0.19993639 -0.10894856 0.054891944 -0.034282744 0.18472728 -0.24546573
-0.022366822 0.07209399 -0.21100044 -0.19644746 -0.028191477 -0.027699918 0.1696583 0.17816463
0.08375874 -0.11220649 -0.18153438 0.2112104 -0.103057116 0.060093015 0.15708551 0.0550389
0.20750135 0.2459507 -0.054405928 -0.09039351 -0.18162 0.027837485 0.081712484 0.22666398
0.0054031014 0.029460639 -0.16086733 -0.15274012 0.091988385 -0.17281368 -0.0965811 0.011882782
-0.23771915 0.14195159 0.17822212 -0.11873424 0.19560236 -0.22492522 0.03881851 -0.2458635
-0.24386546 -0.012583345 -0.047967464 0.14363018 0.06738275 -0.15485421 -0.013568431 -0.024784595
0.23989367 0.1788744 -0.17685181 -0.07691863 0.052254736 0.09885386 -0.21475366 0.15882635
-0.08116576 -0.0067633092 0.23613748 -0.0069021583 0.069108814 0.03213659 -0.056922823 -0.09967068
0.16361636 0.19331843 -0.045976043 -0.20572227 0.14907071 0.16615841 -0.24783394 0.2097674
-0.014218837 -0.14483851 0.22094798 0.14348134 0.20653549 -0.17989793 -0.07642391 -0.1577093
0.18792242 -0.22656089 0.0689573 -0.1940138 0.11564049 0.15702718 0.05235806 0.07958683
0.22474256 -0.16329095 0.123880506 -0.1674507 -0.020032585 -0.16618073 -0.24250141 0.16558495
0.10218966 -0.11960381 -0.026662648 -0.0365465 0.07857829 -0.0608716 -0.16359267 -0.036218375
00000000: 0cf5 ea3d d02d b2bc e686 71be f4d0 803d
00000010: 30e9 b2bd f865 3cbe c052 32be ec89 023e
00000020: cc83 aebd 1c6c dbbd 6ace 043e 3ef7 02be
00000030: d469 cbbd 1442 413e 3cd2 1b3e 204e 9dbd
00000040: 70f4 c7bd e0cf 7ebd 9088 893c a80a c13d
00000050: a0c7 3abc 4e5d 0bbe 0e02 183e 50fc abbc
00000060: e89d 8bbd 9083 babd ae99 693e 5037 91bd
00000070: 7033 793d 9cb1 14be c093 ee3c a87b 9f3d
00000080: f8a4 17be be1c 403e 987c a43d eaa3 503e
00000090: 5ea9 0c3e 584f 3b3d b64e 4a3e 78a3 ddbd
000000a0: fc1f 693e 08ed 6abe 1296 6fbe b0a4 2cbe
000000b0: f894 a3bd 281a 45be 820a 29be 561a 59be
000000c0: 2afb 79be 461f 19be 0008 693c 34c4 1ebe
000000d0: 8025 1d3c d8d8 da3d 5080 4c3e b0eb 3bbd
000000e0: 809f c83d 44a0 5dbe 0a12 2fbe dced 4cbe
000000f0: 188f 01bd 18ca 36be dca6 893d 3e5e 7abe
00000100: a6cc 09be f8e6 0d3e cc8a 0cbe d039 40be
00000110: 26bb 04be e034 7e3e 7413 8dbd 20a9 1fbc
00000120: 00c5 4bbd e021 e83c b431 463e 4c34 2c3e
00000130: 8066 0f3d 704f f93c 0c63 ddbd ce2e 093e
00000140: 86dd 13be 7e90 063e f424 39be 4694 583e
00000150: b07d 0b3d 40cf 93bb 5855 e03d cec8 35be
00000160: 8cd5 e13d 18c0 6e3d f027 9cbc 32c5 7f3e
00000170: e098 ca3d 5698 54be e050 ae3d 44b9 34be
00000180: 6adc 5f3e 8099 c53c ca6c 113e ec76 37be
00000190: f294 543e 00c7 a13c 28c5 53be f4e1 843d
000001a0: c81c 21bd 70a5 0e3d fc6c ab3d a8a0 8dbd
000001b0: 2ec3 433e 545d de3d 00e3 f9bd 80d8 793e
000001c0: 5433 cdbd 90c4 533d 386e 2ebe 5084 d83d
000001d0: 2e3d 7fbe 5e1d 6cbe 501b 543d 5caf 64be
000001e0: 607b 29bc 5859 a63d 7c03 e0bd 603b 1ebe
000001f0: 5445 22be a078 b83d e0e7 edbc 106e eebd
00000200: 486f 623d a40b 6b3e 2a58 48be 7ebb 41be
00000210: a2f8 2ebe 24db b8bd ac4d f5bd 02f8 403e
00000220: 4a7b 4bbe 00c1 acba f618 593e 7cd6 753e
00000230: e0b3 03bc 24c7 cd3d 40bb 91bc 8a16 4cbe
00000240: ba16 7d3e ea1b 26be 20bc 4cbe 6c20 dfbd
00000250: 60d6 603d 106c 0cbd 2629 3d3e 5e5b 7bbe
00000260: a03a b7bc 04a6 933d 8010 58be 8629 49be
00000270: d0f1 e6bc f0ea e2bc e8ba 2d3e ca70 363e
00000280: b489 ab3d 84cc e5bd 26e4 39be 8a47 583e
00000290: 9c0f d3bd 1824 763d 06db 203e 7870 613d
000002a0: 3c7b 543e 80da 7b3e c0d8 5ebd 3c20 b9bd
000002b0: 98fa 39be 700b e43c e058 a73d 9a1a 683e
000002c0: 800c b13b 7057 f13c 68ba 24be e867 1cbe
000002d0: 6864 bc3d 12f6 30be 50cc c5bd 00b0 423c
000002e0: a66c 73be c25b 113e dc7f 363e f02a f3bd
000002f0: fc4b 483e cc52 66be 2800 1f3d a4c3 7bbe
00000300: deb7 79be 602a 4ebc 8879 44bd ca13 133e
00000310: f8ff 893d 1a92 1ebe 204e 5ebc 1009 cbbc
00000320: b0a6 753e da2a 373e a418 35be 8487 9dbd
00000330: 1009 563d e473 ca3d 62e8 5bbe 60a3 223e
00000340: 3c3a a6bd c09e ddbb 06ce 713e 802b e2bb
00000350: ec88 8d3d a8a1 033d e827 69bd 2420 ccbd
00000360: 0c8b 273e 44f5 453e 6051 3cbd dca8 52be
00000370: fea5 183e 6e25 2a3e 2ec8 7dbe 44cd 563e
00000380: 20f6 68bc 8c50 14be 3040 623e c6ec 123e
00000390: 0a7e 533e 2a37 38be 2484 9cbd 8c7e 21be
000003a0: bc6e 403e 94ff 67be 7c39 8d3d 8eab 46be
000003b0: ecd4 ec3d bccb 203e 6875 563d 6cfe a23d
000003c0: ea22 663e be35 27be 10b5 fd3d 3278 2bbe
000003d0: 601b a4bc 482b 2abe 4a52 78be 1a8f 293e
000003e0: d048 d13d d8f2 f4bd a06b dabc c8b1 15bd
000003f0: a8ed a03d 8054 79bd d684 27be b859 14bd

feature_network.3.bias f4 [32]
0.0 0.0 0.0 0.0 0.0 0.0 0.0 0.0
0.0 0.0 0.0 0.0 0.0 0.0 0.0 0.0
0.0 0.0 0.0 0.0 0.0 0.0 0.0 0.0
0.0 0.0 0.0 0.0 0.0 0.0 0.0 0.0
00000000: 0000 0000 0000 0000 0000 0000 0000 0000
00000010: 0000 0000 0000 0000 0000 0000 0000 0000
00000020: 0000 0000 0000 0000 0000 0000 0000 0000
00000030: 0000 0000 0000 0000 0000 0000 0000 0000
00000040: 0000 0000 0000 0000 0000 0000 0000 0000
00000050: 0000 0000 0000 0000 0000 0000 0000 0000
00000060: 0000 0000 0000 0000 0000 0000 0000 0000
00000070: 0000 0000 0000 0000 0000 0000 0000 0000

q_network.0.weight f4 [1, 32]
-0.37331364 0.2704937 0.15073985 -0.11956912 0.09936106 -0.33818325 0.22857398 0.40316528
-0.13155264 0.115594685 -0.27573237 -0.2893817 0.06285912 -0.28250992 -0.13806078 0.36186427
0.22450984 -0.07539418 0.40931767 0.1922651 -0.2707611 -0.039322823 -0.37161446 -0.23809291
-0.41302288 -0.07298875 0.17441612 -0.23582855 -0.0079855025 -0.21592994 -0.39638543 -0.25417605
00000000: f722 bfbe 267e 8a3e 8c5b 1a3e a8e0 f4bd
00000010: d07d cb3d 5b26 adbe 4c0f 6a3e ae6b ce3e
00000020: bcb5 06be e8bc ec3d cb2c 8dbe d729 94be
00000030: 48bc 803d 24a5 90be ce5f 0dbe 4646 b93e
00000040: e8e5 653e 4468 9abd 1692 d13e 24e1 443e
00000050: 33a1 8abe f810 21bd 4044 bebe a1ce 73be
00000060: bc77 d3be 207b 95bd 249a 323e 0a7d 71be
00000070: a0d5 02bc bd1c 5dbe 08f3 cabe 5d23 82be
