training_results/dqn_mr_x_1753787185.pth (torch, 470227 bytes, 28 tensors)

feature_network.0.weight f4 [64, 239]
0	0xbdd6fb7c	-0.104971856
1	0x3d6e53d0	0.0581854
2	0xbd3ccd8c	-0.046094462
3	0xbdbb3cda	-0.09142466
4	0xbe46044c	-0.19337577
5	0x3e479cc2	0.19493392
6	0xbd77f3ee	-0.060535364
7	0xbc1403e0	-0.009034127
8	0xbdd48686	-0.10377221
9	0x3cd136b0	0.025538772
10	0xbd801ea3	-0.062558435
11	0x3d2edae4	0.04268922
12	0x3dcaf520	0.09910035
13	0x3d956e6c	0.07296452
14	0x3e426d54	0.18987018
15	0xbb3a0c00	-0.00283885
16	0xbdfd5b65	-0.12370948
17	0x3ea087b5	0.31353536
18	0xbe00b4b0	-0.12568927
19	0xbdb62372	-0.088934794
20	0xbdfac394	-0.12244335
21	0xbda8597c	-0.08220193
22	0x3c837c78	0.016050562
23	0xbe6c2e1c	-0.23064464
24	0x3d956458	0.0729453
25	0xbdb67086	-0.08908181
26	0xbdc3cf1c	-0.09560987
27	0xbe00a397	-0.12562405
28	0x3de2c7b4	0.110732466
29	0x3cde18e8	0.027111486
30	0x3e696c0a	0.2279512
31	0x3dc979d2	0.098376885
32	0x3c9e9f30	0.019363016
33	0xbc8989d0	-0.016789347
34	0x3e0e6a84	0.1390782
35	0x3eadf40c	0.33975255
36	0xbdd552e4	-0.10416201
37	0xbd4eecd6	-0.050518833
38	0x3d9d5358	0.07681912
39	0xbeab4215	-0.33448854
40	0x3de3ed9c	0.11129305
41	0x3e0aefe4	0.13568074
42	0xbeb994bb	-0.36246285
43	0xbc9e8c80	-0.019354105
44	0x3e877ea4	0.26463807
45	0xbd874640	-0.06605196
46	0xbaf15000	-0.0018410683
47	0xbc9fc4e4	-0.019503064
48	0x3b989440	0.0046563447
49	0xbd81ffe2	-0.06347634
50	0x3d711fbc	0.058868155
51	0xbe0190ac	-0.12652844
52	0x3cb86000	0.022506714
53	0xbc28f6e0	-0.010312766
54	0x3cd6c1e8	0.026215509
55	0xbdf54622	-0.119762674
56	0xbec7dd3d	-0.3903598
57	0x3dd4abb6	0.10384314
58	0x3e8bd27e	0.2730903
59	0x3dda0f70	0.10647476
60	0xbd3b9dae	-0.045804672
61	0xbc7d4f10	-0.0154607445
62	0xbd6276a0	-0.05528891
63	0xbdf8dc7c	-0.12151429
64	0xbe03af3b	-0.12859814
65	0x3ddc15bc	0.10746333
66	0x3ddc39a4	0.107531816
67	0xbd60b6b2	-0.05486173
68	0x3da5bde2	0.08092858
69	0x3dd2fd6e	0.10302244
70	0xbd1da966	-0.03849163
71	0x3d21e0f8	0.039521188
72	0xbd54e12a	-0.051972546
73	0x3c289520	0.01028946
74	0x3e5304fe	0.20607373
75	0x3e8598c2	0.26093107
76	0x3d3232d0	0.04350549
77	0x3c178f40	0.009250462
78	0x3d914608	0.070934355
79	0xbb3168c0	-0.0027070493
80	0x3e0ccb86	0.13749513
81	0x3edadeb2	0.42748028
82	0xbdb912ae	-0.09036766
83	0x3e7ac1b9	0.24487962
84	0x3de5cc78	0.1122064
85	0xbd2c9d0e	-0.042141967
86	0x3dc34024	0.09533718
87	0x3e10c3fd	0.14137264
88	0xbcefa980	-0.029255629
89	0x3ccab9f0	0.024746865
90	0x3ba33a00	0.0049812794
91	0xbd8a8dd6	-0.06765334
92	0x3ebdd97e	0.37079996
93	0x3e08cffe	0.13360593
94	0x3e962617	0.29325935
95	0x3e9a5651	0.3014398
96	0xbddf76e9	-0.10911352
97	0xbd26ce28	-0.04072395
98	0xbd90407e	-0.07043551
99	0xbd8b92c0	-0.068151
100	0xba9d0b00	-0.0011981428
101	0xbe0c67d9	-0.1371149
102	0xbeb2f3a5	-0.3495151
103	0x3d87d4f6	0.06632416
104	0x3d31b298	0.04338321
105	0x3e02fd78	0.12792003
106	0xbd67a0ee	-0.05654996
107	0xbd47cc84	-0.048779026
108	0x3e08e290	0.13367677
109	0x3e1543af	0.145766
110	0x3d1e4714	0.038642004
111	0x3d043028	0.032272488
112	0x3dc54278	0.096318185
113	0x3d41f688	0.04735425
114	0xbc06c080	-0.0082246065
115	0x3dcd10e8	0.1001299
116	0x3aee4300	0.0018177927
117	0xbd883d0e	-0.0665227
118	0x3e3b6287	0.18299304
119	0x3db3bde4	0.08776453
120	0x3dafb130	0.08578718
121	0xbbf98200	-0.007614374
122	0xbd9379be	-0.07200955
123	0xbdfedfcc	-0.124450296
124	0x3d9ff464	0.07810286
125	0x3dd18688	0.10230738
126	0x3dddd262	0.10831143
127	0xbd921c90	-0.07134354
128	0xbd616b54	-0.055033997
129	0xbe0345b2	-0.12819555
130	0x3e4a62a6	0.19764194
131	0x3cbeb810	0.023281127
132	0xbc868950	-0.016422898
133	0x3dea64a8	0.1144498
134	0xba1bf500	-0.00059492886
135	0xbd9f5567	-0.07779961
136	0xbe43c31b	-0.19117396
137	0xbe90037d	-0.2812766
138	0x3da7dd9e	0.08196567
139	0x3d0e727c	0.03477715
140	0x3e08d7e0	0.133636
141	0x3e3f0f59	0.18658198
142	0xbe615256	-0.22004065
143	0x3ec58bf5	0.3858334
144	0x3d3d9f38	0.04629442
145	0x3e0f1e52	0.1397641
146	0xbd6d3d76	-0.05791994
147	0x39a1ee00	0.00030885637
148	0x3da256aa	0.07926686
149	0x3d808664	0.06275633
150	0x3da9931a	0.082800105
151	0xbd3ce01e	-0.046112172
152	0x3e145c5b	0.14488356
153	0x3e99774f	0.29973838
154	0x3d9d1b10	0.076711774
155	0x3d8f1478	0.06986326
156	0x3d8c2618	0.06843203
157	0x3ca58b68	0.020208076
158	0xbd87b717	-0.066267185
159	0x3d16f0a4	0.036850587
160	0xbd473732	-0.048636623
161	0x3e095e86	0.13414964
162	0x3e703de4	0.2346111
163	0xbd1130e0	-0.035447
164	0x3e02296e	0.12711117
165	0xbdff2e6b	-0.124600254
166	0xbc439380	-0.011937022
167	0xbc516460	-0.012780279
168	0x3d876480	0.06610966
169	0xbdfa5f90	-0.12225258
170	0xbd7cbdee	-0.06170457
171	0xbd202fd8	-0.039108127
172	0x3dfd1254	0.123570114
173	0x3d5a15a4	0.053243294
174	0x3d0e8184	0.034791484
175	0x3d940c9a	0.07228966
176	0xbde81c9f	-0.11333584
177	0xbe0a77d7	-0.13522278
178	0xbc4eee20	-0.012630016
179	0xbdaec900	-0.085344315
180	0xbdd8d488	-0.10587412
181	0x3cfc7bd0	0.030820757
182	0x3dacbc04	0.08434299
183	0xbdab3528	-0.08359748
184	0xbd5ccde6	-0.053907298
185	0x3e567a6a	0.20945135
186	0x3d36da7c	0.044641957
187	0x3d904d0a	0.07045944
188	0x3d8e5f62	0.069517866
189	0x3dbd414e	0.092409715
190	0x3dc7fc6e	0.09764944
191	0x3ddf9c10	0.109184384
192	0xbd6d7628	-0.05797401
193	0x3dfda79c	0.123854846
194	0xbdc14cd5	-0.09438483
195	0xbd6dbe78	-0.058042973
196	0x3dda610a	0.1066304
197	0x3dec8b94	0.1155006
198	0xbd8edebb	-0.06976076
199	0x3dbb8180	0.091555595
200	0x3d258144	0.04040648
201	0xbe58d7de	-0.21176097
202	0xbe2d518c	-0.16925639
203	0xbe7f2989	-0.24918188
204	0xbe9a479c	-0.3013276
205	0xbe91c4b0	-0.28470373
206	0xbe866e66	-0.26256102
207	0xbe848ff6	-0.25891083
208	0xbe064240	-0.1311121
209	0xbe602de1	-0.21892501
210	0xbec7677b	-0.38946137
211	0xbecb841b	-0.39749226
212	0xbee8eb5f	-0.45492074
213	0xbe9d2cf4	-0.3069836
214	0xbed02871	-0.40655854
215	0xbea03b57	-0.31295273
216	0xbeb0b0fa	-0.34510022
217	0xbede47e5	-0.43414226
218	0xbe524dcc	-0.2053749
219	0xbeb5377e	-0.353939
220	0xbf04b390	-0.5183649
221	0xbef32189	-0.47486523
222	0xbe7e996f	-0.24863218
223	0xbee3d705	-0.44499984
224	0xbe90869a	-0.28227693
225	0xbe8a37ab	-0.26995596
226	0xbedeac6d	-0.43490925
227	0x3d082cf4	0.033245996
228	0xbd20f6c0	-0.03929782
229	0xbeb1633c	-0.34646022
230	0x3d9e9c46	0.077446505
231	0xbdcc97c2	-0.09989883
232	0xbedededa	-0.43529397
233	0x3d45861c	0.0482236
234	0xbe249c63	-0.16075282
235	0xbee15035	-0.44006506
236	0xbe8f1a1e	-0.27949613
237	0xbee97f70	-0.4560504
238	0xbee1eb08	-0.44124627
239	0xbeb0a793	-0.3450285
240	0xbda589a2	-0.08082892
241	0xbe8a25cd	-0.26981965
242	0x3de1e320	0.11029649
243	0xbe01b4a0	-0.12666559
244	0xbd9d4981	-0.076800354
245	0x3de37868	0.1110695
246	0x3cb43e10	0.02200225
247	0x3d1d7fec	0.038452074
248	0x3dc2c0e2	0.09509446
249	0x3c83b9f0	0.016079873
250	0xbdabf4d3	-0.08396306
251	0x3d6faed8	0.058516353
252	0xbd645470	-0.05574459
253	0xbce9babc	-0.028531425
254	0xbdd80a95	-0.10548893
255	0xbdf28ffb	-0.11843868

feature_network.0.bias f4 [64]
0	0xbeabb324	-0.3353511
1	0xbe99bc7f	-0.30026624
2	0xbe99bd9b	-0.3002747
3	0xbe32e9bd	-0.17471977
4	0xbc89039a	-0.01672535
5	0xbed6eca7	-0.41977426
6	0xbf0a3795	-0.5399106
7	0xbed918f4	-0.4240185
8	0x00000000	0.0
9	0xbe99f27e	-0.3006782
10	0xbe59bc4d	-0.21263237
11	0xbf386b21	-0.72038466
12	0xbe95676d	-0.2918047
13	0xbe7e4f73	-0.24834995
14	0xbe99bd69	-0.3002732
15	0xbe97c729	-0.29644135
16	0xbe84f98b	-0.25971636
17	0xbe99bc89	-0.30026653
18	0xbea8a27c	-0.32936466
19	0x3d5bc170	0.053651273
20	0xbe62563d	-0.2210321
21	0xbe99bd42	-0.30027205
22	0xbe94392b	-0.28949866
23	0xbdce5d55	-0.100763954
24	0xbd1b51b1	-0.037919704
25	0xbe526680	-0.20546913
26	0xbe7da213	-0.24768858
27	0xbebea838	-0.37237716
28	0xbe858103	-0.2607499
29	0x00000000	0.0
30	0xbe975808	-0.2955935
31	0xbe70113d	-0.23444076
32	0xbe840ddd	-0.25791827
33	0xbea26d15	-0.31723848
34	0xbec11b5f	-0.37716195
35	0xbe99bd77	-0.30027363
36	0xbe99bcf5	-0.30026975
37	0xbe85c632	-0.26127774
38	0xbe71e0ee	-0.2362096
39	0xbebaa0e9	-0.3645089
40	0xbe7aee80	-0.24505043
41	0xbe889c76	-0.2668187
42	0xbe99bb1e	-0.30025572
43	0xbe3301c8	-0.17481148
44	0xbe4cbaac	-0.19993085
45	0xbe34596e	-0.1761224
46	0x3c46ffc5	0.012145941
47	0xbea3fa27	-0.3202679
48	0xbed7fb90	-0.42184114
49	0xbe99bbb6	-0.30026025
50	0xbe368479	-0.17823972
51	0xbe99bcd5	-0.3002688
52	0xbe58a371	-0.21156098
53	0xbe9592f1	-0.2921367
54	0xbeb8a60a	-0.36064178
55	0xbe569a2d	-0.20957251
56	0xbeb24b97	-0.34823295
57	0xbea43959	-0.32075003
58	0xbf17cf82	-0.59301007
59	0xbe99b877	-0.30023548
60	0x00000000	0.0
61	0xbe99bd5b	-0.3002728
62	0xbe717e34	-0.23583299
63	0xbed91766	-0.42400664

feature_network.3.weight f4 [64, 64]
0	0xbe7a8025	-0.24462946
1	0xbe7617ee	-0.24032566
2	0xbe8d43f6	-0.27590913
3	0x3eaf6742	0.34258467
4	0x3e7d25d5	0.24721463
5	0xbe6c68df	-0.2308688
6	0xbd5cbd21	-0.053891305
7	0x3e29d13a	0.1658372
8	0x3e0f37f3	0.13986187
9	0xbdb2bfa0	-0.08727956
10	0x3daebbbf	0.085319035
11	0xbe0bf932	-0.13669279
12	0xbeda0a9b	-0.42586216
13	0xbec8a60d	-0.39189187
14	0x3e9b76a2	0.30363947
15	0xbef83528	-0.48478055
16	0x3ebcf677	0.36906788
17	0xbdf03568	-0.117289364
18	0x3f16416f	0.58693594
19	0xbda3a64a	-0.079907015
20	0xbe96ba10	-0.2943883
21	0x3e0ac956	0.13553366
22	0xbea3ae4f	-0.31968924
23	0xbd3d4567	-0.046208765
24	0x3e9dfd36	0.30857247
25	0xbe3d43b8	-0.18482864
26	0xbe1bc3bf	-0.1521139
27	0xbeacd2e9	-0.33754662
28	0xbf2b37f9	-0.6688228
29	0x3da3bcbe	0.07994984
30	0x3e1fa4cd	0.1559021
31	0xbf0c2555	-0.54744464
32	0xbeb938d9	-0.36176184
33	0xbf0e46a7	-0.55576557
34	0xbe8e60c7	-0.2780821
35	0x3e2db332	0.16962889
36	0x3ed7947b	0.4210547
37	0xbe82d5f8	-0.2555387
38	0xbe966e59	-0.29381064
39	0xbeaca5e3	-0.33720312
40	0xbe9f868e	-0.31157345
41	0xbea08c2b	-0.3135694
42	0xbf02317d	-0.50856763
43	0xbe13c4e1	-0.14430572
44	0xbea8b074	-0.32947123
45	0xbdc96850	-0.09834349
46	0xbcd6c875	-0.026218632
47	0x3e41a921	0.18912174
48	0x3ef7e763	0.48418722
49	0xbea5a1c3	-0.32349977
50	0x3e054b52	0.13017014
51	0x3e4914fd	0.19636913
52	0xbf21f684	-0.6326678
53	0xbe1414a1	-0.14460994
54	0xbe803857	-0.25042984
55	0xbe3fc9f9	-0.1872939
56	0xbebb2be9	-0.36556938
57	0xbed160e5	-0.40894237
58	0xbe259f0b	-0.16173951
59	0xbc9851f8	-0.018593773
60	0xbe1442bf	-0.14478587
61	0x3e92c028	0.2866223
62	0xbe97355f	-0.29532906
63	0x3e143b8b	0.14475839
64	0x3dc86264	0.097843915
65	0xbd9d7334	-0.07687989
66	0x3e934621	0.28764442
67	0xbe8b95de	-0.27262777
68	0xbe17d1e8	-0.14826167
69	0xbdf418f4	-0.11918822
70	0x3e52322d	0.20526953
71	0x3effdb8f	0.49972197
72	0x3e3a6905	0.18204124
73	0x3e5426ff	0.20718001
74	0x3e7e8e2e	0.24858925
75	0xbdb8721f	-0.09006142
76	0x3e4580cc	0.19287413
77	0x3e0a30fe	0.13495252
78	0xbdf298c4	-0.11845544
79	0xbe132976	-0.14371285
80	0xbef8269e	-0.48466963
81	0x3cf88f10	0.030341655
82	0x3dbce5a9	0.09223492
83	0xbf486351	-0.78276545
84	0x3ea7ed1c	0.32798088
85	0x3e52abf7	0.20573412
86	0x3e9add6d	0.3024706
87	0xbde9bfd5	-0.11413542
88	0xbe5fb234	-0.21845323
89	0xbea5276f	-0.32256648
90	0x3eb9c584	0.36283505
91	0xbe87156f	-0.2638354
92	0x3e36b509	0.17842497
93	0xbe460016	-0.1933597
94	0x3ea68567	0.32523653
95	0x3dd933b6	0.10605566
96	0x3efb3cee	0.49069923
97	0x3e4633a9	0.19355644
98	0x3cbbb043	0.022911197
99	0x3ee2358f	0.44181487
100	0xbe2dc38e	-0.1696913
101	0x3dd4e7da	0.10395785
102	0x3ef7e884	0.48419583
103	0x3c905da3	0.017622774
104	0xbecb2383	-0.3967553
105	0x3eccecab	0.40024313
106	0x3d739764	0.05947055
107	0xbcca327c	-0.024682276
108	0x3ec0ce88	0.3765757
109	0xbe7f9cd7	-0.24962173
110	0xbe8dd0a7	-0.27698252
111	0x3ea41d35	0.32053533
112	0x3d9eca8d	0.07753477
113	0xbc9a3da8	-0.018828228
114	0xbed6c6b9	-0.41948488
115	0x3e7d1b6d	0.24717493
116	0x3ef251f6	0.47328156
117	0xbd4648d4	-0.048409298
118	0x3ba5e861	0.005063102
119	0xbbe13a38	-0.0068733953
120	0xbea32b0e	-0.31868786
121	0x3e8f883c	0.28033626
122	0x3e0da2d1	0.13831641
123	0xbe33b208	-0.17548382
124	0x3e25880b	0.16165178
125	0xbe40a4b4	-0.1881283
126	0x3e6d1976	0.23154244
127	0x3e8900c0	0.26758385
128	0xbe5d4a69	-0.21610416
129	0x3e962bd2	0.29330307
130	0x3eeb7708	0.4598925
131	0xbef76f74	-0.4832722
132	0xbf1d06ce	-0.6133851
133	0xbeae1826	-0.340028
134	0xbea9f615	-0.33195558
135	0x3ec2248c	0.37918508
136	0xbe1f58e0	-0.15561247
137	0xbb2cb52f	-0.002635311
138	0x3d220bbe	0.03956198
139	0xbdefee56	-0.11715381
140	0xbed33de6	-0.41258162
141	0xbe9e69d9	-0.3094013
142	0x3f004c3f	0.5011634
143	0xbeb704a6	-0.35745734
144	0xbe592fdd	-0.21209665
145	0x3ecb3d63	0.39695272
146	0xbef5a086	-0.47974032
147	0x3c89a7d0	0.016803652
148	0xbe10987d	-0.1412067
149	0x3ecab8c6	0.39594096
150	0xbe50ce0d	-0.20391102
151	0xbe0a33c6	-0.13496312
152	0xbf1684b6	-0.5879625
153	0xbe296bfe	-0.16545102
154	0xbe915d85	-0.28391662
155	0xbe90f346	-0.28310603
156	0xbe8dbb72	-0.27682072
157	0x3dc75a1e	0.09733985
158	0x3e090709	0.1338159
159	0xbd5d1fd3	-0.053985428
160	0xbd30a854	-0.04312928
161	0xbe25cd22	-0.16191533
162	0xbcb7fa28	-0.022458151
163	0x3e82c562	0.25541216
164	0x3e082ad2	0.13297585
165	0xbd446488	-0.047947437
166	0xbed5cb4c	-0.41756666
167	0xbec79764	-0.3898269
168	0xbc2c9040	-0.010532439
169	0xbeb50aa0	-0.3535967
170	0xbebc60d6	-0.3679263
171	0xbe89684d	-0.26837388
172	0xbeccb853	-0.39984378
173	0xbeebc17d	-0.46046057
174	0xbd3d00bf	-0.04614329
175	0xbddd2628	-0.10798293
176	0x3eb2a1e1	0.3488913
177	0x3e29ca47	0.16581069
178	0xbcdf60a0	-0.027267754
179	0x3e139637	0.14412771
180	0xbdd2972b	-0.10282739
181	0xbe9b7ab5	-0.30367056
182	0x3acb0bd6	0.0015491198
183	0xbd74b766	-0.059745215
184	0xbf20e6a9	-0.6285196
185	0xbe1bfa06	-0.15232095
186	0x3d71d124	0.059037343
187	0x3dd1c0ea	0.102418736
188	0x3e2c636d	0.16834803
189	0xbec9b618	-0.3939674
190	0xbede9c46	-0.43478602
191	0xbe8e8bf2	-0.27841145
192	0x3ea50ac0	0.32234764
193	0x3db64b9e	0.089011416
194	0x3e191f5c	0.14953369
195	0xbe1ae235	-0.15125354
196	0xbdca4581	-0.09876538
197	0xbe8401a2	-0.25782496
198	0xbdc43bf8	-0.09581751
199	0x3ec7805e	0.38965124
200	0xbd86b03e	-0.06576584
201	0x3d8fff39	0.07031102
202	0x3eb42f06	0.35192126
203	0xbe2225a7	-0.15834676
204	0x3ef76e85	0.48326507
205	0xbc3136b8	-0.010816269
206	0x3e858a55	0.260821
207	0x3e55abf5	0.20866378
208	0x3f02062a	0.50790656
209	0x3dfa60b6	0.122254774
210	0x3f1f677d	0.62267286
211	0xbd7f9b57	-0.062404003
212	0x3d52c123	0.05145372
213	0x3ebf1866	0.37323302
214	0x3ea961d1	0.3308244
215	0xbcd8fecc	-0.026488684
216	0xbe069418	-0.13142431
217	0xbe14b2d7	-0.14521347
218	0x3dae586b	0.08512958
219	0xbdd7632f	-0.10516965
220	0x3e01e818	0.12686193
221	0xbe2f4810	-0.17117333
222	0x3e9691ae	0.2940802
223	0x3d2e74d4	0.042591885
224	0x3e8582f1	0.26076463
225	0x3d8f6667	0.070019536
226	0x3dff3e82	0.12463094
227	0x3deeba3f	0.116566174
228	0x3ef71ae5	0.48262706
229	0xbeed27cc	-0.46319425
230	0x3d7a7e95	0.061155874
231	0x3e27ffb4	0.16406137
232	0xbe0fc296	-0.14039072
233	0x3e1743e0	0.14771986
234	0xbe5b6fcb	-0.21429364
235	0xbceddb7b	-0.02903532
236	0x3e8968cb	0.26837763
237	0x3d0f3ba1	0.034968976
238	0x3d0a62f8	0.03378579
239	0x3eeb2c2e	0.45932144
240	0x3e9f4aba	0.311117
241	0xbea3fd92	-0.32029396
242	0xbc78eb87	-0.015192873
243	0x3e7474c9	0.23872675
244	0x3f035548	0.51302004
245	0x3e30f1ad	0.17279692
246	0x3dbf1dec	0.09331879
247	0x3db482b7	0.088139944
248	0xbbabd699	-0.005244088
249	0x3eb5569d	0.35417643
250	0xbc2653a0	-0.010151774
251	0x3e0d1549	0.13777651
252	0x3e06d31d	0.13166471
253	0x3ee25958	0.4420879
254	0x3ee76f95	0.45202318
255	0x3e9fcb6d	0.3120989

feature_network.3.bias f4 [64]
0	0x3d21b308	0.039477378
1	0x3efcac81	0.4935036
2	0xbeac4564	-0.3364669
3	0xbdf740a6	-0.120728776
4	0xbde0f0e6	-0.10983448
5	0xbead6645	-0.33867088
6	0x3dd68825	0.10475186
7	0xbe8e4d01	-0.27793124
8	0xbe93ec49	-0.2889121
9	0xbe557a16	-0.20847353
10	0xbe9250d4	-0.28577292
11	0xbf070bfa	-0.5275265
12	0xbe43b429	-0.19111694
13	0xbe460f19	-0.19341697
14	0xbe0c91b2	-0.13727453
15	0xbed18b74	-0.40926707
16	0xbe8e753c	-0.27823818
17	0xbed0cd9d	-0.4078187
18	0xbeb86c76	-0.3602025
19	0xbe64ebdc	-0.22355598
20	0xbe94cf40	-0.2906437
21	0xbe83c9b2	-0.2573982
22	0xbe9f1fee	-0.31079048
23	0xbd8b61ab	-0.06805738
24	0xbeb59dc2	-0.35471922
25	0xbe5d35df	-0.21602581
26	0xbeb312e9	-0.34975365
27	0x3e8c5414	0.27407897
28	0xbe57a1e2	-0.21057847
29	0xbea5862b	-0.32328925
30	0xbf074566	-0.5284027
31	0xbe12ea1e	-0.14347121
32	0x3bac2431	0.005253338
33	0xbe48510c	-0.19562167
34	0xbd6c6f72	-0.05772347
35	0xbec28f3b	-0.379999
36	0xbea4e47f	-0.3220558
37	0x3da57878	0.08079618
38	0xbe93a48f	-0.28836486
39	0xbe73abbb	-0.23795979
40	0xbecf061e	-0.40434355
41	0xbeb862ff	-0.36013028
42	0xbed75127	-0.42054102
43	0xbef32c55	-0.4749476
44	0xbeca9b81	-0.39571765
45	0xbe14bfcb	-0.14526288
46	0xbeb59fbb	-0.35473427
47	0xbed60500	-0.4180069
48	0xbeaf608e	-0.34253353
49	0xbe8795a9	-0.2648137
50	0xbe99bd87	-0.3002741
51	0xbda7172a	-0.08158715
52	0xbedb4139	-0.42823198
53	0xbea1a16b	-0.31568465
54	0xbb91c3ea	-0.0044484036
55	0x3dcb8e6c	0.09939274
56	0xbf11ccb5	-0.56952983
57	0xbe2d688e	-0.16934416
58	0xbf1461b9	-0.5796161
59	0xbed344b3	-0.4126335
60	0xbe6faadf	-0.23405026
61	0xbecc28c0	-0.3987484
62	0xbdbad166	-0.09121971
63	0xbf012d63	-0.5045988

feature_network.6.weight f4 [64, 64]
0	0xbe95fc47	-0.29294035
1	0xbdee63e3	-0.11640146
2	0xbeabea40	-0.33577156
3	0xbdba1fb7	-0.090880804
4	0x3da1beee	0.07897745
5	0x3ed5ffe6	0.41796798
6	0xbe71a222	-0.23597005
7	0x3e9502f8	0.29103827
8	0xbe993ba3	-0.29928312
9	0xbeab921d	-0.33509913
10	0x3b3e30aa	0.0029020705
11	0x3e1a3ccf	0.15062259
12	0xbd39af9e	-0.045333497
13	0x3e8c2f0c	0.27379644
14	0x3e5c632f	0.2152221
15	0xbed600a1	-0.41797355
16	0xbd08c1d7	-0.033387985
17	0xbddb3014	-0.107025295
18	0xbedcd792	-0.43133217
19	0xbc383676	-0.011243453
20	0xbed0fece	-0.408194
21	0xbd7a6493	-0.06113107
22	0x3dd56050	0.10418761
23	0xbe9f3736	-0.3109681
24	0xbeb95dc8	-0.36204362
25	0xbec84400	-0.3911438
26	0xbe02ed8f	-0.12785934
27	0xbe43ce39	-0.19121636
28	0xbe48eedb	-0.19622366
29	0xbef27c2c	-0.4736036
30	0xbedd90e4	-0.43274605
31	0x3e937d7d	0.28806677
32	0xbe0b5c3d	-0.13609405
33	0xbd6dcd35	-0.05805703
34	0xbeacb871	-0.33734468
35	0xbdc509e1	-0.09621025
36	0x3de527fa	0.111892655
37	0x3e11858e	0.14211103
38	0xbeeea7e8	-0.46612477
39	0x3db86ca1	0.09005094
40	0xbec10a1c	-0.37703025
41	0x3e5c7c38	0.2153176
42	0xbe85b338	-0.26113296
43	0x3d36f6fd	0.04466914
44	0x3e875318	0.26430583
45	0x3eeb3a32	0.45942837
46	0x3e63df68	0.22253191
47	0xbed033b5	-0.4066445
48	0x3e98e6c6	0.29863566
49	0x3d106449	0.03525189
50	0xbe98e496	-0.29861897
51	0xbe6d36ec	-0.23165482
52	0x3eb7b53f	0.35880467
53	0xbe50aa15	-0.20377381
54	0xbe181b7e	-0.14854237
55	0x3e107d3c	0.14110273
56	0xbe5b5ffe	-0.21423337
57	0xbe6fd1c9	-0.2341987
58	0x3de4fd18	0.11181086
59	0xbef005b8	-0.46879363
60	0xbddcc49c	-0.10779688
61	0xbc22248a	-0.009896407
62	0xbcf22b7b	-0.029561749
63	0xbed8e041	-0.42358592
64	0xbeaadfc8	-0.33373857
65	0xbe1d9065	-0.15387113
66	0x3dcf2140	0.10113764
67	0xbf00e8ae	-0.5035504
68	0xbdbe9ebb	-0.09307619
69	0x3eecdfc2	0.46264464
70	0xbf0b90ca	-0.54517806
71	0xbeb9e3b9	-0.3630655
72	0xbe57103e	-0.2100229
73	0xbcc3b108	-0.023888126
74	0x3d1c1d7e	0.038114063
75	0xbe99bc52	-0.3002649
76	0x3d933b44	0.071890384
77	0xbe3a9f0c	-0.18224734
78	0xbe029696	-0.12752756
79	0x3d26586c	0.04061167
80	0xbe54df95	-0.20788415
81	0xbe52d5ad	-0.20589323
82	0x3e29654d	0.1654255
83	0xbd8d0e22	-0.06887461
84	0xbea26dd3	-0.31724414
85	0xbeb6d0f6	-0.357063
86	0x3ea7e0d5	0.3278872
87	0xbe51e4ba	-0.20497409
88	0xbbd0c504	-0.0063711423
89	0x3eb52abc	0.35384166
90	0x3deeb92a	0.11656411
91	0x3ca9b2ac	0.02071508
92	0xbe8a1d81	-0.26975635
93	0xbdbf279b	-0.09333726
94	0xbde631f7	-0.11239999
95	0xbeb21147	-0.34778807
96	0xbec41756	-0.38299054
97	0x3d4ef42a	0.05052582
98	0xbee0d87f	-0.43915173
99	0x3eef7eb1	0.46776345
100	0xbeba6b48	-0.36409974
101	0xbe09c87f	-0.1345539
102	0xbe23cbd0	-0.15995717
103	0x3d13b74c	0.036063477
104	0x3f00238c	0.5005424
105	0xbe8fb063	-0.2806426
106	0x3ef346eb	0.47515044
107	0x3ca8bbab	0.0205973
108	0x3e47ec51	0.19523741
109	0xbe33f480	-0.17573738
110	0x3ecc31a8	0.39881635
111	0x3e35b48d	0.17744656
112	0xbea89063	-0.32922658
113	0xbe1bd106	-0.15216455
114	0x3dc9d2de	0.09854673
115	0x3c6d389e	0.014478831
116	0xbe37a76d	-0.17934962
117	0x3ec4d94d	0.38447037
118	0xbeefebbb	-0.46859536
119	0x3e0bf841	0.1366892
120	0x3e774f7b	0.24151413
121	0xbd8a492c	-0.06752238
122	0xbf0db1bc	-0.55349326
123	0x3e62be38	0.22142875
124	0xbd413bf8	-0.04717633
125	0xbeaab3dd	-0.3334035
126	0xbdd88ae4	-0.10573366
127	0x3ee96627	0.4558575
128	0xbf03cd7c	-0.5148542
129	0xbd834173	-0.06408968
130	0xbe386a8f	-0.18009399
131	0xbe25a3d2	-0.16175774
132	0xbefcaacb	-0.49349055
133	0xbecb8bb4	-0.39755023
134	0xbea0c32e	-0.3139891
135	0xbe3b5a9c	-0.18296283
136	0xbea7a9e7	-0.32746813
137	0x3e0b2eb3	0.13592033
138	0xbe7033a7	-0.23457204
139	0xbe5fbc52	-0.21849182
140	0xbe4a7759	-0.1977209
141	0xbe995a42	-0.29951674
142	0xbe822516	-0.2541892
143	0xbdcf6ec5	-0.101285495
144	0xbea2f4f0	-0.31827497
145	0xbe6b1057	-0.22955452
146	0xbe91af90	-0.28454256
147	0xbdad1e60	-0.08453059
148	0xbec08733	-0.3760315
149	0xbeff949d	-0.4991807
150	0xbeb27499	-0.34854582
151	0xbe9d6b53	-0.30745944
152	0xbe342a18	-0.17594182
153	0xbdd2e7ef	-0.10298144
154	0xbe150ab1	-0.1455486
155	0xbecc0fd3	-0.39855823
156	0xbeee2ca2	-0.46518427
157	0xbe8d2c9b	-0.27573094
158	0xbec94667	-0.39311525
159	0xbe86c59a	-0.26322633
160	0x3c0b2442	0.008492531
161	0xbe3888c7	-0.18020926
162	0x3d31cf88	0.043410808
163	0xbecbceb0	-0.39806128
164	0x3e4d8b9c	0.20072788
165	0xbed97877	-0.4247472
166	0xbe97e5b8	-0.2966745
167	0xbed9a656	-0.42509717
168	0xbed3fde8	-0.41404653
169	0xbedaea13	-0.4275671
170	0xbe94044d	-0.2890953
171	0xbe75fb92	-0.24021748
172	0xbf03ebe3	-0.5153181
173	0x3f0209bd	0.5079611
174	0xbdd66655	-0.10468737
175	0xbdfdca2d	-0.123920776
176	0x3e8ea373	0.27859077
177	0xbe7290b2	-0.2368801
178	0xbe471fa0	-0.19445658
179	0xbe04ad7a	-0.12956801
180	0xbe12f602	-0.14351657
181	0xbe73fe43	-0.23827462
182	0x3e1373f1	0.14399697
183	0xbe2cdeb5	-0.16881831
184	0xbe0d2a82	-0.13785747
185	0xbef4763b	-0.47746453
186	0x3ee2a04b	0.4426292
187	0xbed4feee	-0.41600746
188	0xbf029dd3	-0.5102207
189	0xbe826b89	-0.25472668
190	0xbec68f91	-0.38781407
191	0xbef20207	-0.47267172
192	0xbf029185	-0.51003295
193	0xbd252918	-0.040322393
194	0xbe824e4c	-0.2545036
195	0xbe33fdb1	-0.17577244
196	0xbefce21d	-0.4939126
197	0xbe985b93	-0.29757366
198	0xbdf59cff	-0.11992835
199	0xbe2e9632	-0.17049482
200	0xbe660a47	-0.22464858
201	0x3def388e	0.11680709
202	0xbf01d732	-0.50718987
203	0xbe87a1bd	-0.26490584
204	0xbdbc3699	-0.09190101
205	0xbec891a1	-0.39173606
206	0xbdbc8e45	-0.09206823
207	0xbe77536f	-0.24152921
208	0xbe13ebbd	-0.14445396
209	0xbe1ad979	-0.15122022
210	0xbe0384d8	-0.12843645
211	0xbe9df93d	-0.30854216
212	0xbe9f1364	-0.3106948
213	0xbf0219d5	-0.50820667
214	0xbf000b0f	-0.50016874
215	0xbe2d665d	-0.1693358
216	0xbedcc7ee	-0.43121284
217	0xbe53d534	-0.206868
218	0xbec74519	-0.38919905
219	0xbeaa33a0	-0.33242512
220	0xbe11973c	-0.14217848
221	0xbe166ee3	-0.14690737
222	0xbec6b027	-0.3880627
223	0xbea119fd	-0.3146514
224	0xbd35c7ea	-0.044380106
225	0xbe963313	-0.29335842
226	0xbe88349e	-0.26602644
227	0xbeb91a91	-0.3615308
228	0xbdae0ba8	-0.08498317
229	0xbef126ba	-0.4709986
230	0xbedaefe9	-0.42761162
231	0xbe545ab7	-0.2073773
232	0xbe800a3d	-0.2500781
233	0xbeb544b3	-0.35403976
234	0xbe9abd83	-0.3022271
235	0xbe89eafd	-0.26937094
236	0xbe47430b	-0.19459169
237	0xbe87e3a5	-0.26540866
238	0xbeda9e43	-0.4269887
239	0xbe00a700	-0.12563705
240	0x3e503504	0.20332724
241	0xbe1e111c	-0.15436214
242	0xbecafdcd	-0.3964676
243	0xbea83869	-0.32855538
244	0xbedcd51e	-0.43131346
245	0xbdc23496	-0.09482686
246	0xbeb5ce2c	-0.3550886
247	0xbe1a9849	-0.15097155
248	0xbdac0b4c	-0.08400592
249	0xbef64a1d	-0.4810342
250	0x3e3372a4	0.175242
251	0xbe77672e	-0.24160454
252	0xbea31d25	-0.31858173
253	0xbca8a037	-0.020584209
254	0xbe9c0860	-0.3047514
255	0xbe6da43e	-0.23207185

feature_network.6.bias f4 [64]
0	0xbe734e00	-0.23760223
1	0xbd96a4c3	-0.073556446
2	0xbec1e301	-0.37868503
3	0xbea2615b	-0.317149
4	0xbed7eae7	-0.42171404
5	0xbe99ebe0	-0.3006277
6	0xbedf806d	-0.4365267
7	0xbea0ee0a	-0.3143161
8	0xbebc26f7	-0.36748478
9	0xbe7bb79a	-0.24581757
10	0xbe482c9a	-0.19548264
11	0xbc3775ef	-0.011197551
12	0xbeb29884	-0.34881985
13	0xbe0ca268	-0.13733828
14	0xbecd65c3	-0.401167
15	0xbdb7a9b2	-0.08967914
16	0xbf0c7b70	-0.5487585
17	0xbedda6cc	-0.43291318
18	0xbf0941fd	-0.53616315
19	0x3e2a325e	0.16620776
20	0xbecbf0c0	-0.39832115
21	0xbe426c36	-0.18986592
22	0xbe2bf128	-0.16791213
23	0xbde92a5c	-0.113850325
24	0x3d82bb3f	0.063833706
25	0xbf7eea79	-0.99576527
26	0xbed5fa92	-0.41792732
27	0xbe6cff1f	-0.23144196
28	0xbd83d00c	-0.06436166
29	0xbe99bd4e	-0.3002724
30	0xbe85beb6	-0.26122063
31	0xbef8962e	-0.48552078
32	0xbf19a803	-0.6002199
33	0xbe9510fd	-0.29114524
34	0xbf05e5db	-0.52303857
35	0xbea093c2	-0.3136273
36	0xbe239264	-0.15973812
37	0xbeeda049	-0.4641135
38	0xbeb8a473	-0.36062965
39	0xbebde864	-0.37091362
40	0xbec3797c	-0.38178623
41	0xbe4a8d2b	-0.19780414
42	0xbe8b66ef	-0.2722697
43	0xbe9e9c62	-0.30978686
44	0xbf05355f	-0.5203456
45	0xbea693a3	-0.32534513
46	0xbeb6077e	-0.3555259
47	0xbf1c0633	-0.6094696
48	0xbe9c8821	-0.30572608
49	0xbe8adfe4	-0.2712394
50	0xbf036e2c	-0.51339984
51	0xbea3e6f7	-0.3201215
52	0xbeaf5117	-0.34241554
53	0xbea2258f	-0.3166928
54	0xbedad5c6	-0.4274122
55	0xbe9e37fb	-0.30902085
56	0xbe95c2cf	-0.2925019
57	0xbe5ed627	-0.2176138
58	0xbe389dad	-0.18028899
59	0xbed56a39	-0.41682604
60	0xbe2993c6	-0.16560277
61	0xbe0f678f	-0.14004348
62	0xbee78ec2	-0.45226103
63	0xbe6b84ac	-0.22999829

q_network.weight f4 [1, 64]
0	0xbe45b000	-0.1930542
1	0xbd243ac5	-0.04009511
2	0x3caf2327	0.021379067
3	0xbe188dd7	-0.14897858
4	0xbe336551	-0.17519118
5	0xbdbbddbd	-0.091731526
6	0xbe4bf429	-0.19917358
7	0x3e706337	0.23475347
8	0xbde937ee	-0.11387621
9	0x3e3289ec	0.17435426
10	0x3e532f00	0.20623398
11	0xbcc17e3f	-0.02361977
12	0x3cfd370c	0.030910037
13	0x3e8621d8	0.26197696
14	0xbe9a1066	-0.30090636
15	0x3d26016a	0.040528692
16	0xbe8c2798	-0.27373958
17	0xbe371cf1	-0.17882134
18	0x3e0e0a9b	0.13871233
19	0xbcbadd28	-0.022810534
20	0xbdd2b6c2	-0.102887645
21	0xbceb1be9	-0.028699832
22	0xbb84603b	-0.004039792
23	0x3e38a9e0	0.18033552
24	0x3c942f37	0.01808892
25	0x3f09a233	0.5376312
26	0xbd7f8fd9	-0.062393043
27	0xbda66fd1	-0.08126796
28	0xbcfd9e82	-0.030959371
29	0x3e376c92	0.1791251
30	0xbe76e3fe	-0.2411041
31	0xbe63af94	-0.22234946
32	0xbe5bdbf6	-0.21470627
33	0xbe5cbf80	-0.21557426
34	0xbe953538	-0.29142165
35	0x3e64669e	0.2230477
36	0x3e7f6501	0.24940874
37	0xbe2c0abe	-0.16800973
38	0xbea4020d	-0.32032815
39	0xbe59d72a	-0.21273485
40	0xbd288385	-0.04114105
41	0x3e3aaba1	0.18229534
42	0x3e0ae441	0.13563634
43	0x3d7bee0f	0.061506327
44	0x3e3b277a	0.18276778
45	0x3e6c0676	0.2304934
46	0xbe942f2c	-0.2894224
47	0x3e9ec718	0.3101127
48	0x3dc7cafd	0.09755514
49	0x3bbc6233	0.005749011
50	0xbeaab23a	-0.333391
51	0xbca55a97	-0.020184798
52	0x3e036301	0.12830736
53	0xbe40d0da	-0.1882967
54	0xbe9712a1	-0.295064
55	0xbead23cb	-0.3381637
56	0xbcf8118a	-0.0302818
57	0xbc85e4e4	-0.016344495
58	0x3c8e7bbf	0.017392991
59	0x3e19785f	0.14987324
60	0xbdfd2687	-0.12360864
61	0xbd065b5e	-0.03280198
62	0x3ddbd3d0	0.107337594
63	0xbb8172d2	-0.003950455

feature_network.0.weight f4 [64, 239]
0	0xbdd6fb7c	-0.104971856
1	0x3d6e53d0	0.0581854
2	0xbd3ccd8c	-0.046094462
3	0xbdbb3cda	-0.09142466
4	0xbe46044c	-0.19337577
5	0x3e479cc2	0.19493392
6	0xbd77f3ee	-0.060535364
7	0xbc1403e0	-0.009034127
8	0xbdd48686	-0.10377221
9	0x3cd136b0	0.025538772
10	0xbd801ea3	-0.062558435
11	0x3d2edae4	0.04268922
12	0x3dcaf520	0.09910035
13	0x3d956e6c	0.07296452
14	0x3e426d54	0.18987018
15	0xbb3a0c00	-0.00283885
16	0xbdfd5b65	-0.12370948
17	0x3ea087b5	0.31353536
18	0xbe00b4b0	-0.12568927
19	0xbdb62372	-0.088934794
20	0xbdfac394	-0.12244335
21	0xbda8597c	-0.08220193
22	0x3c837c78	0.016050562
23	0xbe6c2e1c	-0.23064464
24	0x3d956458	0.0729453
25	0xbdb67086	-0.08908181
26	0xbdc3cf1c	-0.09560987
27	0xbe00a397	-0.12562405
28	0x3de2c7b4	0.110732466
29	0x3cde18e8	0.027111486
30	0x3e696c0a	0.2279512
31	0x3dc979d2	0.098376885
32	0x3c9e9f30	0.019363016
33	0xbc8989d0	-0.016789347
34	0x3e0e6a84	0.1390782
35	0x3eadf40c	0.33975255
36	0xbdd552e4	-0.10416201
37	0xbd4eecd6	-0.050518833
38	0x3d9d5358	0.07681912
39	0xbeab4215	-0.33448854
40	0x3de3ed9c	0.11129305
41	0x3e0aefe4	0.13568074
42	0xbeb994bb	-0.36246285
43	0xbc9e8c80	-0.019354105
44	0x3e877ea4	0.26463807
45	0xbd874640	-0.06605196
46	0xbaf15000	-0.0018410683
47	0xbc9fc4e4	-0.019503064
48	0x3b989440	0.0046563447
49	0xbd81ffe2	-0.06347634
50	0x3d711fbc	0.058868155
51	0xbe0190ac	-0.12652844
52	0x3cb86000	0.022506714
53	0xbc28f6e0	-0.010312766
54	0x3cd6c1e8	0.026215509
55	0xbdf54622	-0.119762674
56	0xbec7dd3d	-0.3903598
57	0x3dd4abb6	0.10384314
58	0x3e8bd27e	0.2730903
59	0x3dda0f70	0.10647476
60	0xbd3b9dae	-0.045804672
61	0xbc7d4f10	-0.0154607445
62	0xbd6276a0	-0.05528891
63	0xbdf8dc7c	-0.12151429
64	0xbe03af3b	-0.12859814
65	0x3ddc15bc	0.10746333
66	0x3ddc39a4	0.107531816
67	0xbd60b6b2	-0.05486173
68	0x3da5bde2	0.08092858
69	0x3dd2fd6e	0.10302244
70	0xbd1da966	-0.03849163
71	0x3d21e0f8	0.039521188
72	0xbd54e12a	-0.051972546
73	0x3c289520	0.01028946
74	0x3e5304fe	0.20607373
75	0x3e8598c2	0.26093107
76	0x3d3232d0	0.04350549
77	0x3c178f40	0.009250462
78	0x3d914608	0.070934355
79	0xbb3168c0	-0.0027070493
80	0x3e0ccb86	0.13749513
81	0x3edadeb2	0.42748028
82	0xbdb912ae	-0.09036766
83	0x3e7ac1b9	0.24487962
84	0x3de5cc78	0.1122064
85	0xbd2c9d0e	-0.042141967
86	0x3dc34024	0.09533718
87	0x3e10c3fd	0.14137264
88	0xbcefa980	-0.029255629
89	0x3ccab9f0	0.024746865
90	0x3ba33a00	0.0049812794
91	0xbd8a8dd6	-0.06765334
92	0x3ebdd97e	0.37079996
93	0x3e08cffe	0.13360593
94	0x3e962617	0.29325935
95	0x3e9a5651	0.3014398
96	0xbddf76e9	-0.10911352
97	0xbd26ce28	-0.04072395
98	0xbd90407e	-0.07043551
99	0xbd8b92c0	-0.068151
100	0xba9d0b00	-0.0011981428
101	0xbe0c67d9	-0.1371149
102	0xbeb2f3a5	-0.3495151
103	0x3d87d4f6	0.06632416
104	0x3d31b298	0.04338321
105	0x3e02fd78	0.12792003
106	0xbd67a0ee	-0.05654996
107	0xbd47cc84	-0.048779026
108	0x3e08e290	0.13367677
109	0x3e1543af	0.145766
110	0x3d1e4714	0.038642004
111	0x3d043028	0.032272488
112	0x3dc54278	0.096318185
113	0x3d41f688	0.04735425
114	0xbc06c080	-0.0082246065
115	0x3dcd10e8	0.1001299
116	0x3aee4300	0.0018177927
117	0xbd883d0e	-0.0665227
118	0x3e3b6287	0.18299304
119	0x3db3bde4	0.08776453
120	0x3dafb130	0.08578718
121	0xbbf98200	-0.007614374
122	0xbd9379be	-0.07200955
123	0xbdfedfcc	-0.124450296
124	0x3d9ff464	0.07810286
125	0x3dd18688	0.10230738
126	0x3dddd262	0.10831143
127	0xbd921c90	-0.07134354
128	0xbd616b54	-0.055033997
129	0xbe0345b2	-0.12819555
130	0x3e4a62a6	0.19764194
131	0x3cbeb810	0.023281127
132	0xbc868950	-0.016422898
133	0x3dea64a8	0.1144498
134	0xba1bf500	-0.00059492886
135	0xbd9f5567	-0.07779961
136	0xbe43c31b	-0.19117396
137	0xbe90037d	-0.2812766
138	0x3da7dd9e	0.08196567
139	0x3d0e727c	0.03477715
140	0x3e08d7e0	0.133636
141	0x3e3f0f59	0.18658198
142	0xbe615256	-0.22004065
143	0x3ec58bf5	0.3858334
144	0x3d3d9f38	0.04629442
145	0x3e0f1e52	0.1397641
146	0xbd6d3d76	-0.05791994
147	0x39a1ee00	0.00030885637
148	0x3da256aa	0.07926686
149	0x3d808664	0.06275633
150	0x3da9931a	0.082800105
151	0xbd3ce01e	-0.046112172
152	0x3e145c5b	0.14488356
153	0x3e99774f	0.29973838
154	0x3d9d1b10	0.076711774
155	0x3d8f1478	0.06986326
156	0x3d8c2618	0.06843203
157	0x3ca58b68	0.020208076
158	0xbd87b717	-0.066267185
159	0x3d16f0a4	0.036850587
160	0xbd473732	-0.048636623
161	0x3e095e86	0.13414964
162	0x3e703de4	0.2346111
163	0xbd1130e0	-0.035447
164	0x3e02296e	0.12711117
165	0xbdff2e6b	-0.124600254
166	0xbc439380	-0.011937022
167	0xbc516460	-0.012780279
168	0x3d876480	0.06610966
169	0xbdfa5f90	-0.12225258
170	0xbd7cbdee	-0.06170457
171	0xbd202fd8	-0.039108127
172	0x3dfd1254	0.123570114
173	0x3d5a15a4	0.053243294
174	0x3d0e8184	0.034791484
175	0x3d940c9a	0.07228966
176	0xbde81c9f	-0.11333584
177	0xbe0a77d7	-0.13522278
178	0xbc4eee20	-0.012630016
179	0xbdaec900	-0.085344315
180	0xbdd8d488	-0.10587412
181	0x3cfc7bd0	0.030820757
182	0x3dacbc04	0.08434299
183	0xbdab3528	-0.08359748
184	0xbd5ccde6	-0.053907298
185	0x3e567a6a	0.20945135
186	0x3d36da7c	0.044641957
187	0x3d904d0a	0.07045944
188	0x3d8e5f62	0.069517866
189	0x3dbd414e	0.092409715
190	0x3dc7fc6e	0.09764944
191	0x3ddf9c10	0.109184384
192	0xbd6d7628	-0.05797401
193	0x3dfda79c	0.123854846
194	0xbdc14cd5	-0.09438483
195	0xbd6dbe78	-0.058042973
196	0x3dda610a	0.1066304
197	0x3dec8b94	0.1155006
198	0xbd8edebb	-0.06976076
199	0x3dbb8180	0.091555595
200	0x3d258144	0.04040648
201	0xbe58d7de	-0.21176097
202	0xbe2d518c	-0.16925639
203	0xbe7f2989	-0.24918188
204	0xbe9a479c	-0.3013276
205	0xbe91c4b0	-0.28470373
206	0xbe866e66	-0.26256102
207	0xbe848ff6	-0.25891083
208	0xbe064240	-0.1311121
209	0xbe602de1	-0.21892501
210	0xbec7677b	-0.38946137
211	0xbecb841b	-0.39749226
212	0xbee8eb5f	-0.45492074
213	0xbe9d2cf4	-0.3069836
214	0xbed02871	-0.40655854
215	0xbea03b57	-0.31295273
216	0xbeb0b0fa	-0.34510022
217	0xbede47e5	-0.43414226
218	0xbe524dcc	-0.2053749
219	0xbeb5377e	-0.353939
220	0xbf04b390	-0.5183649
221	0xbef32189	-0.47486523
222	0xbe7e996f	-0.24863218
223	0xbee3d705	-0.44499984
224	0xbe90869a	-0.28227693
225	0xbe8a37ab	-0.26995596
226	0xbedeac6d	-0.43490925
227	0x3d082cf4	0.033245996
228	0xbd20f6c0	-0.03929782
229	0xbeb1633c	-0.34646022
230	0x3d9e9c46	0.077446505
231	0xbdcc97c2	-0.09989883
232	0xbedededa	-0.43529397
233	0x3d45861c	0.0482236
234	0xbe249c63	-0.16075282
235	0xbee15035	-0.44006506
236	0xbe8f1a1e	-0.27949613
237	0xbee97f70	-0.4560504
238	0xbee1eb08	-0.44124627
239	0xbeb0a793	-0.3450285
240	0xbda589a2	-0.08082892
241	0xbe8a25cd	-0.26981965
242	0x3de1e320	0.11029649
243	0xbe01b4a0	-0.12666559
244	0xbd9d4981	-0.076800354
245	0x3de37868	0.1110695
246	0x3cb43e10	0.02200225
247	0x3d1d7fec	0.038452074
248	0x3dc2c0e2	0.09509446
249	0x3c83b9f0	0.016079873
250	0xbdabf4d3	-0.08396306
251	0x3d6faed8	0.058516353
252	0xbd645470	-0.05574459
253	0xbce9babc	-0.028531425
254	0xbdd80a95	-0.10548893
255	0xbdf28ffb	-0.11843868

feature_network.0.bias f4 [64]
0	0xbeabb324	-0.3353511
1	0xbe99bc7f	-0.30026624
2	0xbe99bd9b	-0.3002747
3	0xbe32e9bd	-0.17471977
4	0xbc78faaa	-0.015196482
5	0xbed6eca7	-0.41977426
6	0xbf0a3795	-0.5399106
7	0xbed918f4	-0.4240185
8	0x00000000	0.0
9	0xbe99f27e	-0.3006782
10	0xbe59bc4d	-0.21263237
11	0xbf386b21	-0.72038466
12	0xbe95676d	-0.2918047
13	0xbe7e4f73	-0.24834995
14	0xbe99bd69	-0.3002732
15	0xbe97c729	-0.29644135
16	0xbe84f98b	-0.25971636
17	0xbe99bc89	-0.30026653
18	0xbea8a27c	-0.32936466
19	0x3d5c9ae7	0.053858664
20	0xbe62563d	-0.2210321
21	0xbe99bd42	-0.30027205
22	0xbe94392b	-0.28949866
23	0xbdce5d55	-0.100763954
24	0xbd152fd1	-0.036422554
25	0xbe526680	-0.20546913
26	0xbe7da213	-0.24768858
27	0xbebea838	-0.37237716
28	0xbe858103	-0.2607499
29	0x00000000	0.0
30	0xbe975808	-0.2955935
31	0xbe70113d	-0.23444076
32	0xbe840ddd	-0.25791827
33	0xbea26d15	-0.31723848
34	0xbec11b5f	-0.37716195
35	0xbe99bd77	-0.30027363
36	0xbe99bcf5	-0.30026975
37	0xbe85c632	-0.26127774
38	0xbe71e0ee	-0.2362096
39	0xbebaa0e9	-0.3645089
40	0xbe7aee80	-0.24505043
41	0xbe889c76	-0.2668187
42	0xbe99bb1e	-0.30025572
43	0xbe3301c8	-0.17481148
44	0xbe4cbaac	-0.19993085
45	0xbe34596e	-0.1761224
46	0x3c55fe6d	0.013061148
47	0xbea3fa27	-0.3202679
48	0xbed7fb90	-0.42184114
49	0xbe99bbb6	-0.30026025
50	0xbe368479	-0.17823972
51	0xbe99bcd5	-0.3002688
52	0xbe58a371	-0.21156098
53	0xbe9592f1	-0.2921367
54	0xbeb8a60a	-0.36064178
55	0xbe569a2d	-0.20957251
56	0xbeb24b97	-0.34823295
57	0xbea43959	-0.32075003
58	0xbf17cf82	-0.59301007
59	0xbe99b877	-0.30023548
60	0x00000000	0.0
61	0xbe99bd5b	-0.3002728
62	0xbe717e34	-0.23583299
63	0xbed91766	-0.42400664

feature_network.3.weight f4 [64, 64]
0	0xbe7a8025	-0.24462946
1	0xbe7617ee	-0.24032566
2	0xbe8d43f6	-0.27590913
3	0x3eaf6742	0.34258467
4	0x3e7bbd62	0.24583963
5	0xbe6c68df	-0.2308688
6	0xbd5cbd21	-0.053891305
7	0x3e29d13a	0.1658372
8	0x3e0f37f3	0.13986187
9	0xbdb2bfa0	-0.08727956
10	0x3daebbbf	0.085319035
11	0xbe0bf932	-0.13669279
12	0xbeda0a9b	-0.42586216
13	0xbec8a60d	-0.39189187
14	0x3e9b76a2	0.30363947
15	0xbef83528	-0.48478055
16	0x3ebcf677	0.36906788
17	0xbdf03568	-0.117289364
18	0x3f16416f	0.58693594
19	0xbda40037	-0.080078535
20	0xbe96ba10	-0.2943883
21	0x3e0ac956	0.13553366
22	0xbea3ae4f	-0.31968924
23	0xbd3d4567	-0.046208765
24	0x3e9e807c	0.309574
25	0xbe3d43b8	-0.18482864
26	0xbe1bc3bf	-0.1521139
27	0xbeacd2e9	-0.33754662
28	0xbf2b37f9	-0.6688228
29	0x3da3bcbe	0.07994984
30	0x3e1fa4cd	0.1559021
31	0xbf0c2555	-0.54744464
32	0xbeb938d9	-0.36176184
33	0xbf0e46a7	-0.55576557
34	0xbe8e60c7	-0.2780821
35	0x3e2db332	0.16962889
36	0x3ed7947b	0.4210547
37	0xbe82d5f8	-0.2555387
38	0xbe966e59	-0.29381064
39	0xbeaca5e3	-0.33720312
40	0xbe9f868e	-0.31157345
41	0xbea08c2b	-0.3135694
42	0xbf02317d	-0.50856763
43	0xbe13c4e1	-0.14430572
44	0xbea8b074	-0.32947123
45	0xbdc96850	-0.09834349
46	0xbcfc7cd1	-0.030821236
47	0x3e41a921	0.18912174
48	0x3ef7e763	0.48418722
49	0xbea5a1c3	-0.32349977
50	0x3e054b52	0.13017014
51	0x3e4914fd	0.19636913
52	0xbf21f684	-0.6326678
53	0xbe1414a1	-0.14460994
54	0xbe803857	-0.25042984
55	0xbe3fc9f9	-0.1872939
56	0xbebb2be9	-0.36556938
57	0xbed160e5	-0.40894237
58	0xbe259f0b	-0.16173951
59	0xbc9851f8	-0.018593773
60	0xbe1442bf	-0.14478587
61	0x3e92c028	0.2866223
62	0xbe97355f	-0.29532906
63	0x3e143b8b	0.14475839
64	0x3dc86264	0.097843915
65	0xbd9d7334	-0.07687989
66	0x3e934621	0.28764442
67	0xbe8b95de	-0.27262777
68	0xbe12b822	-0.14328054
69	0xbdf418f4	-0.11918822
70	0x3e52322d	0.20526953
71	0x3effdb8f	0.49972197
72	0x3e3a6905	0.18204124
73	0x3e5426ff	0.20718001
74	0x3e7e8e2e	0.24858925
75	0xbdb8721f	-0.09006142
76	0x3e4580cc	0.19287413
77	0x3e0a30fe	0.13495252
78	0xbdf298c4	-0.11845544
79	0xbe132976	-0.14371285
80	0xbef8269e	-0.48466963
81	0x3cf88f10	0.030341655
82	0x3dbce5a9	0.09223492
83	0xbf480724	-0.78135896
84	0x3ea7ed1c	0.32798088
85	0x3e52abf7	0.20573412
86	0x3e9add6d	0.3024706
87	0xbde9bfd5	-0.11413542
88	0xbe634478	-0.22194088
89	0xbea5276f	-0.32256648
90	0x3eb9c584	0.36283505
91	0xbe87156f	-0.2638354
92	0x3e36b509	0.17842497
93	0xbe460016	-0.1933597
94	0x3ea68567	0.32523653
95	0x3dd933b6	0.10605566
96	0x3efb3cee	0.49069923
97	0x3e4633a9	0.19355644
98	0x3cbbb043	0.022911197
99	0x3ee2358f	0.44181487
100	0xbe2dc38e	-0.1696913
101	0x3dd4e7da	0.10395785
102	0x3ef7e884	0.48419583
103	0x3c905da3	0.017622774
104	0xbecb2383	-0.3967553
105	0x3eccecab	0.40024313
106	0x3d739764	0.05947055
107	0xbcca327c	-0.024682276
108	0x3ec0ce88	0.3765757
109	0xbe7f9cd7	-0.24962173
110	0xbe8fd126	-0.28089255
111	0x3ea41d35	0.32053533
112	0x3d9eca8d	0.07753477
113	0xbc9a3da8	-0.018828228
114	0xbed6c6b9	-0.41948488
115	0x3e7d1b6d	0.24717493
116	0x3ef251f6	0.47328156
117	0xbd4648d4	-0.048409298
118	0x3ba5e861	0.005063102
119	0xbbe13a38	-0.0068733953
120	0xbea32b0e	-0.31868786
121	0x3e8f883c	0.28033626
122	0x3e0da2d1	0.13831641
123	0xbe33b208	-0.17548382
124	0x3e25880b	0.16165178
125	0xbe40a4b4	-0.1881283
126	0x3e6d1976	0.23154244
127	0x3e8900c0	0.26758385
128	0xbe5d4a69	-0.21610416
129	0x3e962bd2	0.29330307
130	0x3eeb7708	0.4598925
131	0xbef76f74	-0.4832722
132	0xbf1d06ce	-0.6133851
133	0xbeae1826	-0.340028
134	0xbea9f615	-0.33195558
135	0x3ec2248c	0.37918508
136	0xbe1f58e0	-0.15561247
137	0xbb2cb52f	-0.002635311
138	0x3d220bbe	0.03956198
139	0xbdefee56	-0.11715381
140	0xbed33de6	-0.41258162
141	0xbe9e69d9	-0.3094013
142	0x3f004c3f	0.5011634
143	0xbeb704a6	-0.35745734
144	0xbe592fdd	-0.21209665
145	0x3ecb3d63	0.39695272
146	0xbef5a086	-0.47974032
147	0x3c89a7d0	0.016803652
148	0xbe10987d	-0.1412067
149	0x3ecab8c6	0.39594096
150	0xbe50ce0d	-0.20391102
151	0xbe0a33c6	-0.13496312
152	0xbf1684b6	-0.5879625
153	0xbe296bfe	-0.16545102
154	0xbe915d85	-0.28391662
155	0xbe90f346	-0.28310603
156	0xbe8dbb72	-0.27682072
157	0x3dc75a1e	0.09733985
158	0x3e090709	0.1338159
159	0xbd5d1fd3	-0.053985428
160	0xbd30a854	-0.04312928
161	0xbe25cd22	-0.16191533
162	0xbcb7fa28	-0.022458151
163	0x3e82c562	0.25541216
164	0x3e082ad2	0.13297585
165	0xbd446488	-0.047947437
166	0xbed5cb4c	-0.41756666
167	0xbec79764	-0.3898269
168	0xbc2c9040	-0.010532439
169	0xbeb50aa0	-0.3535967
170	0xbebc60d6	-0.3679263
171	0xbe89684d	-0.26837388
172	0xbeccb853	-0.39984378
173	0xbeebc17d	-0.46046057
174	0xbd3d00bf	-0.04614329
175	0xbddd2628	-0.10798293
176	0x3eb2a1e1	0.3488913
177	0x3e29ca47	0.16581069
178	0xbcdf60a0	-0.027267754
179	0x3e139637	0.14412771
180	0xbdd2972b	-0.10282739
181	0xbe9b7ab5	-0.30367056
182	0x3acb0bd6	0.0015491198
183	0xbd74b766	-0.059745215
184	0xbf20e6a9	-0.6285196
185	0xbe1bfa06	-0.15232095
186	0x3d71d124	0.059037343
187	0x3dd1c0ea	0.102418736
188	0x3e2c636d	0.16834803
189	0xbec9b618	-0.3939674
190	0xbede9c46	-0.43478602
191	0xbe8e8bf2	-0.27841145
192	0x3ea50ac0	0.32234764
193	0x3db64b9e	0.089011416
194	0x3e191f5c	0.14953369
195	0xbe1ae235	-0.15125354
196	0xbdca4581	-0.09876538
197	0xbe8401a2	-0.25782496
198	0xbdc43bf8	-0.09581751
199	0x3ec7805e	0.38965124
200	0xbd86b03e	-0.06576584
201	0x3d8fff39	0.07031102
202	0x3eb42f06	0.35192126
203	0xbe2225a7	-0.15834676
204	0x3ef76e85	0.48326507
205	0xbc3136b8	-0.010816269
206	0x3e858a55	0.260821
207	0x3e55abf5	0.20866378
208	0x3f02062a	0.50790656
209	0x3dfa60b6	0.122254774
210	0x3f1f677d	0.62267286
211	0xbd7f9b57	-0.062404003
212	0x3d52c123	0.05145372
213	0x3ebf1866	0.37323302
214	0x3ea961d1	0.3308244
215	0xbcd8fecc	-0.026488684
216	0xbe069418	-0.13142431
217	0xbe14b2d7	-0.14521347
218	0x3dae586b	0.08512958
219	0xbdd7632f	-0.10516965
220	0x3e01e818	0.12686193
221	0xbe2f4810	-0.17117333
222	0x3e9691ae	0.2940802
223	0x3d2e74d4	0.042591885
224	0x3e8582f1	0.26076463
225	0x3d8f6667	0.070019536
226	0x3dff3e82	0.12463094
227	0x3deeba3f	0.116566174
228	0x3ef71ae5	0.48262706
229	0xbeed27cc	-0.46319425
230	0x3d7a7e95	0.061155874
231	0x3e27ffb4	0.16406137
232	0xbe0fc296	-0.14039072
233	0x3e1743e0	0.14771986
234	0xbe5b6fcb	-0.21429364
235	0xbceddb7b	-0.02903532
236	0x3e8968cb	0.26837763
237	0x3d0f3ba1	0.034968976
238	0x3d0a62f8	0.03378579
239	0x3eeb2c2e	0.45932144
240	0x3e9f4aba	0.311117
241	0xbea3fd92	-0.32029396
242	0xbc78eb87	-0.015192873
243	0x3e7474c9	0.23872675
244	0x3f035548	0.51302004
245	0x3e30f1ad	0.17279692
246	0x3dbf1dec	0.09331879
247	0x3db482b7	0.088139944
248	0xbbabd699	-0.005244088
249	0x3eb5569d	0.35417643
250	0xbc2653a0	-0.010151774
251	0x3e0d1549	0.13777651
252	0x3e06d31d	0.13166471
253	0x3ee25958	0.4420879
254	0x3ee76f95	0.45202318
255	0x3e9fcb6d	0.3120989

feature_network.3.bias f4 [64]
0	0x3d1e57ce	0.038657956
1	0x3efe5df9	0.4968107
2	0xbeac4564	-0.3364669
3	0xbdf740a6	-0.120728776
4	0xbde0f0e6	-0.10983448
5	0xbead6645	-0.33867088
6	0x3dd7afe3	0.105315946
7	0xbe8e4d01	-0.27793124
8	0xbe93ec49	-0.2889121
9	0xbe557a16	-0.20847353
10	0xbe9250d4	-0.28577292
11	0xbf070bfa	-0.5275265
12	0xbe43b429	-0.19111694
13	0xbe460f19	-0.19341697
14	0xbe0c91b2	-0.13727453
15	0xbed18b74	-0.40926707
16	0xbe8e753c	-0.27823818
17	0xbed0cd9d	-0.4078187
18	0xbeb86c76	-0.3602025
19	0xbe64ebdc	-0.22355598
20	0xbe94cf40	-0.2906437
21	0xbe83c9b2	-0.2573982
22	0xbe9f1fee	-0.31079048
23	0xbd8b61ab	-0.06805738
24	0xbeb59dc2	-0.35471922
25	0xbe5d35df	-0.21602581
26	0xbeb312e9	-0.34975365
27	0x3e8e7cac	0.27829492
28	0xbe57a1e2	-0.21057847
29	0xbea5862b	-0.32328925
30	0xbf074566	-0.5284027
31	0xbe12ea1e	-0.14347121
32	0x3b8f29e1	0.004369006
33	0xbe48510c	-0.19562167
34	0xbd67c8c9	-0.056587968
35	0xbec28f3b	-0.379999
36	0xbea4e47f	-0.3220558
37	0x3da6c8ca	0.08143766
38	0xbe93a48f	-0.28836486
39	0xbe73abbb	-0.23795979
40	0xbecf9663	-0.40544423
41	0xbeb862ff	-0.36013028
42	0xbed76c58	-0.42074847
43	0xbef32c55	-0.4749476
44	0xbeca9b81	-0.39571765
45	0xbe14bfcb	-0.14526288
46	0xbeb59fbb	-0.35473427
47	0xbed60500	-0.4180069
48	0xbeaf608e	-0.34253353
49	0xbe8795a9	-0.2648137
50	0xbe99bd87	-0.3002741
51	0xbd9bef1f	-0.07613968
52	0xbedb4139	-0.42823198
53	0xbea1a16b	-0.31568465
54	0xbb983175	-0.0046445676
55	0x3dd03eb3	0.10168209
56	0xbf11ccb5	-0.56952983
57	0xbe2cbdc5	-0.16869266
58	0xbf1461b9	-0.5796161
59	0xbed344b3	-0.4126335
60	0xbe6faadf	-0.23405026
61	0xbecc28c0	-0.3987484
62	0xbdbad166	-0.09121971
63	0xbf012d63	-0.5045988
