training_results/dqn_detectives_1753804745.pth (torch, 366609 bytes, 20 tensors)

feature_network.0.weight f4 [64, 239]
000000 d8 9c 02 bd 7f af 8a bd 5c 3b b3 bc 5a 2f 08 3e
       -0.03188786 -0.067717545 -0.02187889 0.13299313
000010 62 42 1b bd 9c e0 fb 3d 84 85 0b be c0 ca ef 3c
       -0.037905104 0.122987 -0.13625151 0.029271483
000020 a0 93 03 3e 38 43 8e bd 20 35 58 3c 9c 17 f1 bc
       0.12849283 -0.06946415 0.01319626 -0.029430203
000030 c2 09 0e be c7 ab 91 bd 97 42 88 bd e4 ce b8 3d
       -0.1387091 -0.07112842 -0.06653326 0.09023836
000040 a2 3b 9a 3d ee 3f b4 3d 60 6f 39 bc bc 2d 3c 3d
       0.07530905 0.08801256 -0.011318058 0.045942053
000050 15 dd d4 bd 70 8b 9c bd 38 f4 ce 3d 00 6c 6a bc
       -0.103937306 -0.07643783 0.10105175 -0.014307976
000060 44 ba b1 bd b5 58 f5 bd 50 a5 34 bc fa 0d 82 bd
       -0.086781055 -0.1197981 -0.011025742 -0.06350322
000070 41 76 ed bd 1e 64 ee bd e8 1f 5e ba 10 f1 05 3d
       -0.11594821 -0.116401896 -0.00084733823 0.0327006
000080 ba 98 8f bd ac b7 3a bd 6a e7 67 bd b0 f5 1c 3c
       -0.07011552 -0.04558532 -0.056617178 0.009580061
000090 ce e0 9b 3d 61 51 d5 bd 22 8b 06 3e 44 dc 45 bd
       0.076112375 -0.104159124 0.13139012 -0.048305765
0000a0 ac 6f aa 3d e0 ff ef bb 10 da e6 3c 30 a3 f9 3d
       0.08322081 -0.007324204 0.028180152 0.12189329
0000b0 51 ba e8 bd a6 97 db 3d 00 55 f0 3d 00 8d cf 3c
       -0.11363662 0.10722284 0.117349625 0.025335789
0000c0 a0 30 3b bc b0 0e 62 3d 40 60 02 3b 98 64 e6 bd
       -0.011425167 0.05518979 0.0019893795 -0.112496555
0000d0 4a fd 1b bd 02 76 05 3e e5 07 f0 bd 80 40 4f 3d
       -0.038083352 0.13033298 -0.11720256 0.05059862
0000e0 c8 7f 3c bd 24 fd 75 bd ec 71 d4 bd f2 55 8a 3d
       -0.0460203 -0.060055867 -0.103732914 0.06754674
0000f0 96 38 a6 bd ec af 0c 3e 5e af 6a bd 30 71 0c be
       -0.08116262 0.13738984 -0.05729615 -0.13715053
000100 50 fe b8 3d 70 59 c7 bc de 4f 03 be 4e 39 59 bd
       0.09032881 -0.02433464 -0.12823436 -0.053033166
000110 88 dc b2 3d 50 6b 61 bc af 2f 8e bd fc 85 cf 3d
       0.08733469 -0.013758495 -0.06942689 0.10132977
000120 20 54 7a 3c 6e a8 0f 3e a8 b2 94 bd 14 74 e8 3d
       0.015278846 0.14029095 -0.072606385 0.11350265
000130 3c 67 66 bd 30 d3 ee 3d 50 35 60 bc 1a d3 9b 3d
       -0.056250796 0.116613746 -0.013684586 0.07608624
000140 62 9d af bd 9a 83 d8 3d 48 23 17 bd 3c 4e 03 bd
       -0.0857494 0.10571976 -0.03689888 -0.032057032
000150 00 25 20 3b 86 31 cd bd f0 62 a9 3d 08 e1 74 3d
       0.0024436116 -0.100192115 0.08270824 0.05978492
000160 c8 e5 89 bc 36 38 0f 3e 7b f8 f8 bd 50 45 09 bc
       -0.016833201 0.13986287 -0.12156769 -0.008378342
000170 a7 09 89 bd dc ff fd bd b0 a6 e0 3d 9e 57 17 bd
       -0.06691294 -0.12402317 0.10969293 -0.036948793
000180 30 20 63 3c 2e f1 29 bd 35 07 0c be 60 c5 3b bc
       0.013862655 -0.041489772 -0.13674624 -0.011460632
000190 f8 f9 73 3d c0 56 18 bb 74 ac 64 3d 1a 43 42 bd
       0.05956456 -0.0023245066 0.055828527 -0.047427274
0001a0 30 12 e8 3d c0 58 2a bc 71 a0 84 bd 18 7d d2 3c
       0.11331594 -0.010397136 -0.06475914 0.025694415
0001b0 e0 c0 58 3c c4 ed 0f bd a8 24 0a be 7a b5 81 bd
       0.013229579 -0.03513886 -0.13490546 -0.06333442
0001c0 6c ef b8 3d d8 26 dd 3d f0 f2 23 bc bc ee 42 3d
       0.09030041 0.107984245 -0.010006651 0.047590956
0001d0 68 0b fe 3d 20 29 83 3d 4a 1b 1a bd dc 50 44 bd
       0.12404519 0.06404328 -0.03762368 -0.047928676
0001e0 34 54 00 3e d8 62 e2 3c 80 93 89 3d a4 77 3b 3d
       0.12532121 0.027635023 0.067175865 0.045768395
0001f0 9d ff 9b bd 00 e0 a8 37 e0 af de bb 1c 89 b8 bd
       -0.07617114 2.0131469e-05 -0.0067958683 -0.090105265
000200 ec a0 aa 3d 26 4f fa bd 94 cb 2d 3d 1c 2b 9b 3d
       0.08331475 -0.122221276 0.042430475 0.07576582
000210 46 56 74 bd a8 3d 9d bc 03 4f 06 be f2 ba a0 3d
       -0.05965259 -0.019194439 -0.13116078 0.07848157
000220 32 39 09 bd 30 4a 93 bd f2 8a 08 be 50 cc 3c 3c
       -0.03350181 -0.071918845 -0.13334253 0.011523321
000230 b2 27 46 bd 10 d3 fd bc 66 7b d5 3d ea 2d 04 3e
       -0.0483777 -0.030984432 0.10423927 0.1290814
000240 90 8d b4 3c a4 98 c7 3d e8 d3 d2 bc 9c 87 a7 bd
       0.022040159 0.09745911 -0.02573581 -0.08180162
000250 c6 90 fd bd 8e 98 54 bd c0 be 49 bd d2 db 17 bd
       -0.12381129 -0.0519033 -0.04925418 -0.03707487
000260 4c c9 5a 3d 46 90 2e bd 87 fb 0b be e0 4a d0 bb
       0.053414628 -0.04261806 -0.13670169 -0.006356582
000270 9c 7e f6 3d b2 a8 0b 3e 80 a2 ed bb 2b c2 e1 bd
       0.120358676 0.13638571 -0.0072520375 -0.11023363
000280 76 66 b9 3d d0 76 5c 3d aa ef ec bd 4a a3 0a bd
       0.09052746 0.053824246 -0.1156915 -0.03384713
000290 e5 29 db bd 6a d6 96 3d f8 ed 34 3d 40 d9 57 bc
       -0.1070135 0.07365115 0.044172257 -0.013174355
0002a0 a8 1f 73 bd f0 ff ab bc ba 08 d2 bd d4 75 17 3d
       -0.05935636 -0.020996064 -0.10255571 0.036977604
0002b0 5e 98 75 bd 20 0a fa bd 80 7b 8f bd 1c 54 dc 3d
       -0.05995976 -0.122089624 -0.07005978 0.1075823
0002c0 08 4b 73 bd 10 9b d5 3d 84 aa 87 3d b9 bb 84 bd
       -0.059397727 0.104299664 0.0662432 -0.06481118
0002d0 9c 2c 60 3d 37 ae d2 bd 08 c4 de bd a5 b7 a6 bd
       0.054730043 -0.10287135 -0.10877234 -0.08140496
0002e0 68 41 57 3d 5f 4a f5 bd f0 f9 7b 3d 8c 79 00 3e
       0.05255261 -0.11977076 0.061517656 0.12546366
0002f0 c4 b2 ba bd c0 14 01 3c e0 29 bd bd cf e9 9a bd
       -0.09116128 0.007878482 -0.09236503 -0.07564127
000300 1c 8c 80 bd 16 68 94 3d 60 d5 e3 3c c8 ab 9d 3c
       -0.06276724 0.07246415 0.027811706 0.01924695
000310 20 4d 77 3c 00 8d b3 bb 5c 12 c0 bd aa f6 c6 bd
       0.015094072 -0.005479455 -0.09378502 -0.09715016
000320 6c 39 5d 3d a4 d8 64 3d 9d 4c e8 bd 7b 5d e5 bd
       0.05400984 0.055870667 -0.11342738 -0.111994706
000330 06 29 64 3d 01 6e b6 bd 06 6b 3a bd 99 f7 ed bd
       0.055703185 -0.089077 -0.04551222 -0.11619491
000340 8e ad 0e be c3 33 6a 3d 94 d3 78 bd 21 69 42 3d
       -0.13933393 0.05717827 -0.06074865 0.04746354
000350 3b 64 0b be 08 a8 5d bd 93 df 2d bd ba d2 2f 3d
       -0.13612454 -0.054115325 -0.042449545 0.042925574
000360 2b d7 f3 3d aa cc dd 3d 03 59 07 bd dc f0 a2 3d
       0.119062744 0.10830052 -0.033043873 0.079560965
000370 7d c0 fe bd 43 d4 92 ba 1b 74 fa bd 8e 7b 99 bd
       -0.12439058 -0.0011202175 -0.122291766 -0.07494269
000380 1f 8f 9c bd 26 46 3a bc 5e 4a 99 bd b1 04 f3 bd
       -0.07644486 -0.011369264 -0.074848875 -0.11866129
000390 f0 ab 22 bc fa 15 18 3d cc f4 a3 3d cb 63 e6 bd
       -0.009928688 0.037130333 0.08005676 -0.11249503
0003a0 b5 77 af 3a 30 45 f9 3d 69 72 fe bd 99 d8 d3 bd
       0.0013387116 0.121713996 -0.12424166 -0.10344047
0003b0 6e 8a 84 3d 47 a0 31 bd f5 9d ec bc ee e4 d4 bd
       0.06471716 -0.043365743 -0.028883914 -0.103952274
0003c0 68 8b 53 bd 55 9e ea 3d f3 a2 a5 bd 5e 25 7d bc
       -0.05164662 0.11455981 -0.08087721 -0.015450804
0003d0 44 92 9b 3c 5b f0 1a 3d e1 7b b2 bb 0b 05 ae bd
       0.018990643 0.037826877 -0.0054468964 -0.084970556
0003e0 c1 5b dc 3c 36 e8 12 3e 80 aa 0c 3e 2a e7 d8 3d
       0.02689922 0.14346394 0.13736916 0.10590966
0003f0 64 11 a9 bd 21 74 13 3d 5e 8f 05 3e 5f da 2d 3d
       -0.0825527 0.03599942 0.13042971 0.042444583

feature_network.0.bias f4 [64]
000000 f2 37 88 bc 0c 31 ac bc ff 88 26 bc 5e eb e4 ba
       -0.01662824 -0.021019481 -0.010164498 -0.0017465164
000010 f9 5b 02 bc 50 d4 36 bc 00 00 00 00 a0 81 cd 38
       -0.007956498 -0.011159018 0.0 9.799306e-05
000020 25 9c 1a 3a 5a 03 ce bc d6 cd 0b bb d9 bf 0c 3c
       0.0005897901 -0.025148083 -0.0021332405 0.008590662
000030 39 4c 16 bc 2f ca 64 bb 57 1e 37 bc 35 2f af 3b
       -0.009173446 -0.003491055 -0.011176667 0.0053462037
000040 3f 08 54 3c 35 4b 3e 3c 66 a8 06 bb 4e b0 4b bc
       0.012941419 0.01161461 -0.002054715 -0.012432171
000050 d0 84 0b 3b 2d 19 4e 3b 35 1b 00 3c 4d e4 01 3a
       0.002128888 0.0031448111 0.007818987 0.0004954979
000060 34 4d fe ba a9 b5 6c bc b8 d2 4a bc 62 b3 55 3c
       -0.001940167 -0.014447608 -0.012379341 0.0130432565
000070 0d ea 79 bb 05 06 af bc 56 4d 3a 3c 64 d4 25 bc
       -0.003813389 -0.021365175 0.011370977 -0.010121439
000080 a3 92 fd bb ac 9a a9 3b 57 2d 82 3c 12 38 61 bb
       -0.0077384277 0.005175909 0.01589076 -0.0034365696
000090 84 4c 39 bc 74 e0 5c bc 67 1b 33 bc 90 72 be bb
       -0.011309747 -0.013481248 -0.010931826 -0.0058119968
0000a0 85 89 20 3b 3a 3b bd 3b c7 61 26 bc d5 42 40 bb
       0.002449603 0.0057748826 -0.010155148 -0.002933671
0000b0 20 56 24 3c 07 00 3e bb f9 ef 57 bc db ae 6e bc
       0.010030299 -0.0028991716 -0.0131797725 -0.014568056
0000c0 18 f5 87 bc 00 39 2d bc 5a 72 ec bb 8d 99 83 3b
       -0.016596362 -0.010572672 -0.00721578 0.0040161074
0000d0 7c 40 4a 38 4a f8 85 3c 85 8c bb 3b 3b 2f 5f bb
       4.822061e-05 0.016353745 0.0057235383 -0.003405525
0000e0 16 72 9b 39 fa 6d 33 bc de 4a 3a bc 38 a3 06 bc
       0.00029648904 -0.010951513 -0.011370389 -0.008217625
0000f0 2c e1 0d bc f2 69 61 bc 49 5c 9c bb 40 55 21 3c
       -0.008659642 -0.0137581695 -0.0047717434 0.009846985

feature_network.3.weight f4 [32, 64]
000000 6e 31 72 3e 3a f3 52 3e 80 7e 34 3b bf 52 19 be
       0.23651668 0.20600596 0.002754122 -0.14972971
000010 a0 5a ce bd d7 fd 05 bd d2 3f 00 be d0 b1 82 bd
       -0.10075879 -0.032712784 -0.12524346 -0.06381571
000020 51 d0 09 be 6d 7b 54 3d fa b7 29 3e f8 4d 66 be
       -0.13458373 0.05187552 0.16574088 -0.2249068
000030 90 91 6f 3e 2e bd 07 be b0 8a 62 3d 14 93 36 be
       0.23395371 -0.1325576 0.055308044 -0.17829543
000040 91 c2 ac bd f9 0a f7 bd ae 1a fd 3d d2 3e 43 be
       -0.08435548 -0.1206264 0.12358604 -0.19066933
000050 04 0c 99 bd 4e 85 1e be 5c 52 66 bc 57 ad 88 bc
       -0.07472995 -0.15480539 -0.014057722 -0.016684217
000060 dd 0a 50 be 14 b0 52 3e 44 82 af bd f6 28 6e be
       -0.20316644 0.20574981 -0.08569768 -0.23257813
000070 22 7d 67 3e 0d 75 3f be 44 99 5d be 82 82 58 3e
       0.22606328 -0.18696995 -0.21640497 0.21143535
000080 04 4d 62 bc bd 64 db bd c6 cc ba bc c5 37 9a bd
       -0.013812307 -0.10712574 -0.022802722 -0.075301684
000090 5f 68 f5 bd 67 cc 73 bd c0 0a 93 3d 84 21 5c 3e
       -0.11982798 -0.059521105 0.07179785 0.2149716
0000a0 75 37 db bc dd 50 7a bd ef 8f 34 3e 28 e8 c6 3d
       -0.026759842 -0.061112273 0.17633031 0.09712249
0000b0 8c 9e 41 be 6e c0 68 3d e2 9c 07 be d0 90 d4 bc
       -0.18908137 0.05682414 -0.1324344 -0.025947958
0000c0 72 54 05 be 80 11 90 bd de eb 32 be fa 4a 22 3d
       -0.13020495 -0.07034588 -0.17472789 0.039622284
0000d0 70 11 55 3e fd cc 79 bd 16 86 38 3e 21 35 8a 3d
       0.20807433 -0.060986508 0.180199 0.06748415
0000e0 cf a3 96 bd fc 9f b4 bd e2 8d 61 3e b4 00 d9 bd
       -0.07355463 -0.08819577 0.2202678 -0.10595837
0000f0 ad 2d 04 3e b5 d6 cb 3d ec 81 d1 3d 19 65 6e 3e
       0.12908049 0.099530615 0.10229859 0.23280753
000100 80 77 07 be 75 4f 10 bd c9 cd e3 3a 6a 03 51 3e
       -0.1322918 -0.035232026 0.0017380054 0.20411459
000110 83 dd 1d 3e 6f 61 93 3d c0 f8 70 bc ce e8 1e 3e
       0.15416531 0.07196318 -0.014707744 0.15518495
000120 99 51 90 bd 87 fe 52 3e 8b ba 2f be 94 15 d8 3d
       -0.070468135 0.20604907 -0.17161004 0.10550991
000130 40 b8 73 be cf 24 8c bc 54 30 a2 bd f9 2f d5 3d
       -0.23800755 -0.017107395 -0.07919374 0.10409541
000140 11 17 66 be 2a af 5c 3e 96 78 08 be 5e e6 3e bd
       -0.22469737 0.21551195 -0.1332725 -0.046606414
000150 29 b9 fe 3d 8f 12 2f 3e e2 80 e2 3c b6 3f 14 be
       0.1243766 0.17096923 0.027649347 -0.14477429
000160 fe 10 17 3e 92 8e 0e 3e e6 ad 66 be d2 1f 4a be
       0.14752576 0.13921574 -0.22527274 -0.19738701
000170 86 6d 9e bd 79 44 a7 3d c8 99 cb 3d 95 7d 0f be
       -0.07735734 0.08167357 0.09941441 -0.1401275
000180 5a 65 c2 bc 1d e1 84 be da 3a c4 bc 95 99 14 3d
       -0.023729969 -0.25952998 -0.023953844 0.03627928
000190 79 28 32 3e 96 3f 70 bc be 6a 12 3c 13 97 5d 3e
       0.17398252 -0.014663598 0.008936582 0.21639661
0001a0 78 62 58 bd 63 45 31 3c 17 79 d8 bd b9 c7 5f 3e
       -0.052828282 0.010819766 -0.10569971 0.21853532
0001b0 51 ea a6 bd a0 af 35 bd 08 e6 00 3e 4a 65 6c 3b
       -0.08150161 -0.044356942 0.1258775 0.0036071115
0001c0 cb 48 b9 bc ae a8 08 3e e4 b7 89 bd 1f 1c 48 3d
       -0.022617718 0.13345596 -0.067245275 0.048854943
0001d0 d8 a8 1c 3e 1c 2b 4a be 89 36 9f 3d 50 86 97 bd
       0.15298784 -0.19743007 0.07774074 -0.07398665
0001e0 70 2b 78 bd 98 e2 66 3e ff 26 8a bd e2 e3 02 be
       -0.0605883 0.22547376 -0.06745719 -0.12782243
0001f0 ff 77 cc 3d 93 9a e7 3c 4c 85 f8 3d 86 e7 d3 bd
       0.09983825 0.028271949 0.12134799 -0.10346894
000200 00 a2 e7 3a 85 5d 34 3e 08 ca 1d 3e 58 1c 4b be
       0.0017672181 0.176138 0.154091 -0.19835031
000210 d4 51 c7 bd ec 97 03 be 20 15 2d 3e ae d9 e5 bd
       -0.09732404 -0.12850922 0.1690259 -0.1122316
000220 c9 9c 3f 3d 54 6f a6 3d 9d 92 50 bc ab 4b 12 be
       0.04678038 0.08126703 -0.012730268 -0.14286678
000230 7b e0 d6 3d 13 84 13 be 7e c3 3b 3d 1e 6c 6c be
       0.10492035 -0.14405851 0.045840733 -0.23088118
000240 2a 5d 03 be f4 7d ce 3d a2 7a 39 be 82 b6 fe 3d
       -0.12828508 0.100826174 -0.18113187 0.12437154
000250 95 d4 39 bd 59 7c 2f 3d 69 79 88 be f2 64 66 3d
       -0.04536875 0.042843197 -0.2665513 0.056248613
000260 5d a6 f9 bd 32 c9 69 3e 6e 43 83 be ab ed 9e 3d
       -0.121899344 0.22830656 -0.25637382 0.07760175
000270 5a bc 7c 3e ce 4c 1f bd a7 34 a0 bd 09 c7 77 be
       0.24681225 -0.038891606 -0.07822543 -0.2419702
000280 c3 5c 7f 3c e7 18 18 3e b0 a0 2d 3e 7e be c5 bd
       0.015586081 0.1485325 0.16955829 -0.09655474
000290 f2 c5 83 be fd e5 1b 3d 88 91 9f 3d 0f 51 ad 3d
       -0.25736958 0.03806113 0.0779143 0.08462726
0002a0 49 41 7d ba 0a ba a2 bd 05 eb d1 3c 64 71 fb bd
       -0.00096609123 -0.079456404 0.025624761 -0.12277487
0002b0 74 ab 2d be 90 00 d5 3d b1 1e 2e 3e 24 2e 3b 3e
       -0.16959935 0.10400498 0.17003895 0.1827932
0002c0 5b 5a 22 be 54 f0 82 be e6 78 48 bc 2b c0 1a 3e
       -0.1585478 -0.2557398 -0.012235856 0.15112369
0002d0 90 87 8a 3c 80 93 23 be c3 a7 a3 bd 92 2b fe 3c
       0.016910344 -0.15974236 -0.079909824 0.031026635
0002e0 86 12 45 3e f0 9d 2f 3e 85 10 f1 3d 5a c3 63 3e
       0.19245347 0.17150092 0.11770729 0.2224249
0002f0 83 03 45 be 62 2e 31 be bc 7e 4f be d7 89 09 bd
       -0.19239621 -0.1730285 -0.20263189 -0.03357872
000300 44 ee 67 be 04 05 05 3e 46 47 1d be 76 5b 50 3e
       -0.22649485 0.12990195 -0.1535922 0.2034739
000310 4a de 6a 3e 10 08 e6 3d 20 fd 54 be 18 f2 0a bd
       0.22936359 0.112320065 -0.20799685 -0.033922285
000320 a4 c7 ac bd f0 3e d6 3d 60 7b c8 3d b8 11 23 be
       -0.08436516 0.10461223 0.09789157 -0.15924728
000330 78 a8 34 bd 18 ea 23 bd e0 ef 9d bc 74 20 ea bd
       -0.044105977 -0.04001817 -0.01927942 -0.11431971
000340 cc 7b d3 bd 80 d4 df bd a8 1b 3b 3e 50 d2 e2 3d
       -0.10326347 -0.10929203 0.18272269 0.1107527
000350 88 13 3e be 64 b2 fb bd 98 c3 f2 bd c4 2c c4 bd
       -0.18562138 -0.12289885 -0.11853713 -0.09578851
000360 54 cc 27 3e 68 51 47 be 06 ff 4f be 78 63 44 3d
       0.16386539 -0.19464648 -0.20312127 0.047946423
000370 4c 27 f6 3d 40 d0 95 bd ee 15 46 be 00 14 ab 3b
       0.12019214 -0.07315111 -0.19344303 0.00522089
000380 7a 05 72 be 94 27 a2 bd 40 62 5a bd 44 a7 a5 3d
       -0.23634902 -0.07917705 -0.053316355 0.08088544
000390 08 be 32 bd 38 29 cb 3d b0 25 b9 bc 20 48 96 bd
       -0.04363826 0.09919971 -0.022600979 -0.073379755
0003a0 4c 2d 87 3d 0a 15 2e be 06 6c 51 3e c2 0a 25 be
       0.066004366 -0.17000213 0.20451364 -0.16117385
0003b0 0a 96 3c be 10 47 cd 3d c8 08 69 be e6 f2 20 be
       -0.1841661 0.1002332 -0.22757256 -0.15717658
0003c0 0a 93 7d be 52 26 62 be 00 dc d0 39 64 b7 c0 3d
       -0.24763122 -0.2208493 0.00039836764 0.09409979
0003d0 7c 11 01 3e 98 f4 0b 3d d0 28 90 bd 9e db 48 be
       0.12604326 0.03416881 -0.07039034 -0.19615027
0003e0 28 ed 6e 3d 00 78 fa bb 6e de 7f 3e 54 ca 00 3e
       0.05833164 -0.0076436996 0.24987194 0.12577182
0003f0 e6 a1 03 3e a0 69 59 3e 22 3b 01 be b0 08 f6 bd
       0.12854728 0.21231699 -0.12620214 -0.12013376

feature_network.3.bias f4 [32]
000000 93 23 26 bc 71 2e f5 bb 5b 7b b6 bc 00 00 00 00
       -0.0101403175 -0.007482343 -0.022275617 0.0
000010 72 72 74 bc 95 56 55 bc bd 92 79 3c a9 58 54 3b
       -0.014919864 -0.013021131 0.015232739 0.0032401478
000020 d9 ea 59 3c 79 55 c0 3c 28 a5 58 3c a7 18 6b bc
       0.013300621 0.023478257 0.01322297 -0.014349139
000030 b1 95 4d bc 63 14 50 3c 54 d3 af bc fa 25 55 3c
       -0.012547896 0.012700173 -0.021463074 0.013009543
000040 c4 d9 a3 bc 9b c4 a0 bb 3b c5 1c bc ad 4f 5a 3c
       -0.0200013 -0.0049062497 -0.009568508 0.01332466
000050 bc f7 1a 3c 95 9e 4c 3c c0 80 1d 3c fc 0a 82 bb
       0.009458479 0.012488981 0.009613216 -0.0039685946
000060 ec 09 81 bc 6e 2a a4 bc 9a a2 9f bb 46 53 54 bc
       -0.015751801 -0.020039763 -0.0048716785 -0.012959307
000070 63 86 6e 3c 5a c6 f6 bb 00 00 00 00 ea a3 5f 3c
       0.0145584075 -0.0075309696 0.0 0.01364992

q_network.0.weight f4 [1, 32]
000000 d4 e9 c9 be 02 c6 ab 3d ec 71 ad be b7 7f 48 be
       -0.3943621 0.08387376 -0.33875978 -0.1957997
000010 7d 75 7b be c1 6b 6b be f9 bd 29 3e 9f d7 93 3e
       -0.24556537 -0.22990324 0.16576375 0.28875443
000020 c9 67 cb 3e aa c8 78 3d 66 10 23 3e 5d 22 38 be
       0.3972762 0.060738243 0.15924224 -0.17981859
000030 90 cf 63 be 81 32 13 3e 89 61 dd bb 07 0f 32 3e
       -0.22247148 0.14374734 -0.006756012 0.17388545
000040 93 47 37 bb 53 22 c1 be 39 ef 91 be 3a 33 22 3e
       -0.0027966246 -0.377215 -0.28502825 0.15839854
000050 72 5c 89 3d 5e 22 7e 3e a8 97 52 3e 56 df 03 3e
       0.06707086 0.24817798 0.20565665 0.12878165
000060 06 f3 c3 be 14 b5 c4 3e 36 38 0d 3e 1e 8c 74 be
       -0.3827135 0.38419402 0.13790974 -0.23881575
000070 2a a4 70 3e a6 e1 85 be 30 31 0d be 8a de cf 3e
       0.23500124 -0.2614872 -0.13788295 0.4059947

feature_network.0.weight f4 [64, 239]
000000 d8 9c 02 bd 7f af 8a bd 5c 3b b3 bc 5a 2f 08 3e
       -0.03188786 -0.067717545 -0.02187889 0.13299313
000010 62 42 1b bd 9c e0 fb 3d 84 85 0b be c0 ca ef 3c
       -0.037905104 0.122987 -0.13625151 0.029271483
000020 a0 93 03 3e 38 43 8e bd 20 35 58 3c 9c 17 f1 bc
       0.12849283 -0.06946415 0.01319626 -0.029430203
000030 c2 09 0e be c7 ab 91 bd 97 42 88 bd e4 ce b8 3d
       -0.1387091 -0.07112842 -0.06653326 0.09023836
000040 a2 3b 9a 3d ee 3f b4 3d 60 6f 39 bc bc 2d 3c 3d
       0.07530905 0.08801256 -0.011318058 0.045942053
000050 15 dd d4 bd 70 8b 9c bd 38 f4 ce 3d 00 6c 6a bc
       -0.103937306 -0.07643783 0.10105175 -0.014307976
000060 44 ba b1 bd b5 58 f5 bd 50 a5 34 bc fa 0d 82 bd
       -0.086781055 -0.1197981 -0.011025742 -0.06350322
000070 41 76 ed bd 1e 64 ee bd e8 1f 5e ba 10 f1 05 3d
       -0.11594821 -0.116401896 -0.00084733823 0.0327006
000080 ba 98 8f bd ac b7 3a bd 6a e7 67 bd b0 f5 1c 3c
       -0.07011552 -0.04558532 -0.056617178 0.009580061
000090 ce e0 9b 3d 61 51 d5 bd 22 8b 06 3e 44 dc 45 bd
       0.076112375 -0.104159124 0.13139012 -0.048305765
0000a0 ac 6f aa 3d e0 ff ef bb 10 da e6 3c 30 a3 f9 3d
       0.08322081 -0.007324204 0.028180152 0.12189329
0000b0 51 ba e8 bd a6 97 db 3d 00 55 f0 3d 00 8d cf 3c
       -0.11363662 0.10722284 0.117349625 0.025335789
0000c0 a0 30 3b bc b0 0e 62 3d 40 60 02 3b 98 64 e6 bd
       -0.011425167 0.05518979 0.0019893795 -0.112496555
0000d0 4a fd 1b bd 02 76 05 3e e5 07 f0 bd 80 40 4f 3d
       -0.038083352 0.13033298 -0.11720256 0.05059862
0000e0 c8 7f 3c bd 24 fd 75 bd ec 71 d4 bd f2 55 8a 3d
       -0.0460203 -0.060055867 -0.103732914 0.06754674
0000f0 96 38 a6 bd ec af 0c 3e 5e af 6a bd 30 71 0c be
       -0.08116262 0.13738984 -0.05729615 -0.13715053
000100 50 fe b8 3d 70 59 c7 bc de 4f 03 be 4e 39 59 bd
       0.09032881 -0.02433464 -0.12823436 -0.053033166
000110 88 dc b2 3d 50 6b 61 bc af 2f 8e bd fc 85 cf 3d
       0.08733469 -0.013758495 -0.06942689 0.10132977
000120 20 54 7a 3c 6e a8 0f 3e a8 b2 94 bd 14 74 e8 3d
       0.015278846 0.14029095 -0.072606385 0.11350265
000130 3c 67 66 bd 30 d3 ee 3d 50 35 60 bc 1a d3 9b 3d
       -0.056250796 0.116613746 -0.013684586 0.07608624
000140 62 9d af bd 9a 83 d8 3d 48 23 17 bd 3c 4e 03 bd
       -0.0857494 0.10571976 -0.03689888 -0.032057032
000150 00 25 20 3b 86 31 cd bd f0 62 a9 3d 08 e1 74 3d
       0.0024436116 -0.100192115 0.08270824 0.05978492
000160 c8 e5 89 bc 36 38 0f 3e 7b f8 f8 bd 50 45 09 bc
       -0.016833201 0.13986287 -0.12156769 -0.008378342
000170 a7 09 89 bd dc ff fd bd b0 a6 e0 3d 9e 57 17 bd
       -0.06691294 -0.12402317 0.10969293 -0.036948793
000180 30 20 63 3c 2e f1 29 bd 35 07 0c be 60 c5 3b bc
       0.013862655 -0.041489772 -0.13674624 -0.011460632
000190 f8 f9 73 3d c0 56 18 bb 74 ac 64 3d 1a 43 42 bd
       0.05956456 -0.0023245066 0.055828527 -0.047427274
0001a0 30 12 e8 3d c0 58 2a bc 71 a0 84 bd 18 7d d2 3c
       0.11331594 -0.010397136 -0.06475914 0.025694415
0001b0 e0 c0 58 3c c4 ed 0f bd a8 24 0a be 7a b5 81 bd
       0.013229579 -0.03513886 -0.13490546 -0.06333442
0001c0 6c ef b8 3d d8 26 dd 3d f0 f2 23 bc bc ee 42 3d
       0.09030041 0.107984245 -0.010006651 0.047590956
0001d0 68 0b fe 3d 20 29 83 3d 4a 1b 1a bd dc 50 44 bd
       0.12404519 0.06404328 -0.03762368 -0.047928676
0001e0 34 54 00 3e d8 62 e2 3c 80 93 89 3d a4 77 3b 3d
       0.12532121 0.027635023 0.067175865 0.045768395
0001f0 9d ff 9b bd 00 e0 a8 37 e0 af de bb 1c 89 b8 bd
       -0.07617114 2.0131469e-05 -0.0067958683 -0.090105265
000200 ec a0 aa 3d 26 4f fa bd 94 cb 2d 3d 1c 2b 9b 3d
       0.08331475 -0.122221276 0.042430475 0.07576582
000210 46 56 74 bd a8 3d 9d bc 03 4f 06 be f2 ba a0 3d
       -0.05965259 -0.019194439 -0.13116078 0.07848157
000220 32 39 09 bd 30 4a 93 bd f2 8a 08 be 50 cc 3c 3c
       -0.03350181 -0.071918845 -0.13334253 0.011523321
000230 b2 27 46 bd 10 d3 fd bc 66 7b d5 3d ea 2d 04 3e
       -0.0483777 -0.030984432 0.10423927 0.1290814
000240 90 8d b4 3c a4 98 c7 3d e8 d3 d2 bc 9c 87 a7 bd
       0.022040159 0.09745911 -0.02573581 -0.08180162
000250 c6 90 fd bd 8e 98 54 bd c0 be 49 bd d2 db 17 bd
       -0.12381129 -0.0519033 -0.04925418 -0.03707487
000260 4c c9 5a 3d 46 90 2e bd 87 fb 0b be e0 4a d0 bb
       0.053414628 -0.04261806 -0.13670169 -0.006356582
000270 9c 7e f6 3d b2 a8 0b 3e 80 a2 ed bb 2b c2 e1 bd
       0.120358676 0.13638571 -0.0072520375 -0.11023363
000280 76 66 b9 3d d0 76 5c 3d aa ef ec bd 4a a3 0a bd
       0.09052746 0.053824246 -0.1156915 -0.03384713
000290 e5 29 db bd 6a d6 96 3d f8 ed 34 3d 40 d9 57 bc
       -0.1070135 0.07365115 0.044172257 -0.013174355
0002a0 a8 1f 73 bd f0 ff ab bc ba 08 d2 bd d4 75 17 3d
       -0.05935636 -0.020996064 -0.10255571 0.036977604
0002b0 5e 98 75 bd 20 0a fa bd 80 7b 8f bd 1c 54 dc 3d
       -0.05995976 -0.122089624 -0.07005978 0.1075823
0002c0 08 4b 73 bd 10 9b d5 3d 84 aa 87 3d b9 bb 84 bd
       -0.059397727 0.104299664 0.0662432 -0.06481118
0002d0 9c 2c 60 3d 37 ae d2 bd 08 c4 de bd a5 b7 a6 bd
       0.054730043 -0.10287135 -0.10877234 -0.08140496
0002e0 68 41 57 3d 5f 4a f5 bd f0 f9 7b 3d 8c 79 00 3e
       0.05255261 -0.11977076 0.061517656 0.12546366
0002f0 c4 b2 ba bd c0 14 01 3c e0 29 bd bd cf e9 9a bd
       -0.09116128 0.007878482 -0.09236503 -0.07564127
000300 1c 8c 80 bd 16 68 94 3d 60 d5 e3 3c c8 ab 9d 3c
       -0.06276724 0.07246415 0.027811706 0.01924695
000310 20 4d 77 3c 00 8d b3 bb 5c 12 c0 bd aa f6 c6 bd
       0.015094072 -0.005479455 -0.09378502 -0.09715016
000320 6c 39 5d 3d a4 d8 64 3d 9d 4c e8 bd 7b 5d e5 bd
       0.05400984 0.055870667 -0.11342738 -0.111994706
000330 06 29 64 3d 01 6e b6 bd 06 6b 3a bd 99 f7 ed bd
       0.055703185 -0.089077 -0.04551222 -0.11619491
000340 8e ad 0e be c3 33 6a 3d 94 d3 78 bd 21 69 42 3d
       -0.13933393 0.05717827 -0.06074865 0.04746354
000350 3b 64 0b be 08 a8 5d bd 93 df 2d bd ba d2 2f 3d
       -0.13612454 -0.054115325 -0.042449545 0.042925574
000360 2b d7 f3 3d aa cc dd 3d 03 59 07 bd dc f0 a2 3d
       0.119062744 0.10830052 -0.033043873 0.079560965
000370 7d c0 fe bd 43 d4 92 ba 1b 74 fa bd 8e 7b 99 bd
       -0.12439058 -0.0011202175 -0.122291766 -0.07494269
000380 1f 8f 9c bd 26 46 3a bc 5e 4a 99 bd b1 04 f3 bd
       -0.07644486 -0.011369264 -0.074848875 -0.11866129
000390 f0 ab 22 bc fa 15 18 3d cc f4 a3 3d cb 63 e6 bd
       -0.009928688 0.037130333 0.08005676 -0.11249503
0003a0 b5 77 af 3a 30 45 f9 3d 69 72 fe bd 99 d8 d3 bd
       0.0013387116 0.121713996 -0.12424166 -0.10344047
0003b0 6e 8a 84 3d 47 a0 31 bd f5 9d ec bc 5a 28 d3 bd
       0.06471716 -0.043365743 -0.028883914 -0.10310431
0003c0 68 8b 53 bd 48 8c e8 3d 07 3b ae bd 23 5d 88 bc
       -0.05164662 0.113548815 -0.08507352 -0.016645974
0003d0 9b 20 9b 3c a9 8b 1f 3d 1f fb ea bb 5a f2 ae bd
       0.018936446 0.03895155 -0.0071710492 -0.08542319
0003e0 41 d2 d1 3c b3 e7 12 3e 48 a2 0e 3e a4 ed d8 3d
       0.025612952 0.14346199 0.13929093 0.10592201
0003f0 d7 cd ab bd 1d 9a 14 3d c6 9e 05 3e e7 e6 27 3d
       -0.0838887 0.036279786 0.13048849 0.04099169

feature_network.0.bias f4 [64]
000000 f2 37 88 bc 41 f5 9f bc 0a 91 1c bc 7f 06 d2 ba
       -0.01662824 -0.019526126 -0.009556064 -0.0016023665
000010 6e e4 07 bc 8e b6 40 bc 00 00 00 00 cb ac c6 39
       -0.008294208 -0.011762274 0.0 0.00037894244
000020 9b 05 fd 39 e1 35 c6 bc a1 e7 32 bb 6b cd 05 3c
       0.00048260097 -0.024195613 -0.0027298706 0.008166651
000030 6d 46 16 bc f4 58 86 bb d9 c3 31 bc 54 aa a0 3b
       -0.009172064 -0.0040999595 -0.010849916 0.004903117
000040 77 94 44 3c b4 4e 1f 3c 35 93 97 bb 32 3a 5a bc
       0.011998287 0.009723354 -0.0046257027 -0.013319539
000050 49 35 c4 3a 96 55 be 3b a3 0c e8 3b b4 ae 9b 39
       0.0014969493 0.0058085425 0.0070815845 0.00029694068
000060 38 71 65 3a a9 b5 6c bc 0a 66 51 bc 33 13 5e 3c
       0.00087525276 -0.014447608 -0.012780676 0.013554382
000070 11 94 e3 ba c7 de 96 bc 4b b7 06 3c c5 d2 21 bc
       -0.0017362853 -0.018416775 0.008222411 -0.0098769115
000080 5d 12 c8 bb d3 20 cb 3b 98 03 6c 3c 95 c1 8e bb
       -0.0061057047 0.0061989813 0.014405154 -0.004356573
000090 8b 91 4d bc 6e 34 40 bc 5e 17 33 bc d2 fd 06 bc
       -0.012546907 -0.01173125 -0.010930864 -0.008239226
0000a0 69 9e 35 3b f9 ed fe 3b 59 21 13 bc ba a8 b6 ba
       0.0027712828 0.0077798334 -0.008980119 -0.0013935782
0000b0 7f d8 12 3c d0 06 0f bb 0e b9 65 bc db ae 6e bc
       0.0089627495 -0.002182413 -0.014021171 -0.014568056
0000c0 e3 a6 66 bc c1 f7 35 bc 4c 6e d2 bb 9f 71 3e 3b
       -0.014077875 -0.011106432 -0.00642184 0.0029059423
0000d0 c9 4c db bb b8 58 74 3c ba 73 b7 3b 09 1f 89 bb
       -0.006692503 0.01491373 0.0055985125 -0.004184608
0000e0 48 75 00 3b fa 6d 33 bc 4d 1e 37 bc 38 a3 06 bc
       0.0019601155 -0.010951513 -0.011176658 -0.008217625
0000f0 34 32 48 bc 4e 20 61 bc 2d c3 95 bb 2f 80 0d 3c
       -0.012219001 -0.013740612 -0.004570386 0.008636518

feature_network.3.weight f4 [32, 64]
000000 6e 31 72 3e 3a f3 52 3e 80 7e 34 3b bf 52 19 be
       0.23651668 0.20600596 0.002754122 -0.14972971
000010 a0 5a ce bd d7 fd 05 bd d2 3f 00 be d0 b1 82 bd
       -0.10075879 -0.032712784 -0.12524346 -0.06381571
000020 51 d0 09 be 6d 7b 54 3d fa b7 29 3e f8 4d 66 be
       -0.13458373 0.05187552 0.16574088 -0.2249068
000030 90 91 6f 3e 2e bd 07 be b0 8a 62 3d 14 93 36 be
       0.23395371 -0.1325576 0.055308044 -0.17829543
000040 91 c2 ac bd f9 0a f7 bd ae 1a fd 3d d2 3e 43 be
       -0.08435548 -0.1206264 0.12358604 -0.19066933
000050 04 0c 99 bd 4e 85 1e be 5c 52 66 bc 57 ad 88 bc
       -0.07472995 -0.15480539 -0.014057722 -0.016684217
000060 dd 0a 50 be 14 b0 52 3e 44 82 af bd f6 28 6e be
       -0.20316644 0.20574981 -0.08569768 -0.23257813
000070 22 7d 67 3e 0d 75 3f be 44 99 5d be 82 82 58 3e
       0.22606328 -0.18696995 -0.21640497 0.21143535
000080 04 4d 62 bc bd 64 db bd c6 cc ba bc c5 37 9a bd
       -0.013812307 -0.10712574 -0.022802722 -0.075301684
000090 5f 68 f5 bd 67 cc 73 bd c0 0a 93 3d 84 21 5c 3e
       -0.11982798 -0.059521105 0.07179785 0.2149716
0000a0 75 37 db bc dd 50 7a bd ef 8f 34 3e 28 e8 c6 3d
       -0.026759842 -0.061112273 0.17633031 0.09712249
0000b0 8c 9e 41 be 6e c0 68 3d e2 9c 07 be d0 90 d4 bc
       -0.18908137 0.05682414 -0.1324344 -0.025947958
0000c0 72 54 05 be 80 11 90 bd de eb 32 be fa 4a 22 3d
       -0.13020495 -0.07034588 -0.17472789 0.039622284
0000d0 70 11 55 3e fd cc 79 bd 16 86 38 3e 21 35 8a 3d
       0.20807433 -0.060986508 0.180199 0.06748415
0000e0 cf a3 96 bd fc 9f b4 bd e2 8d 61 3e b4 00 d9 bd
       -0.07355463 -0.08819577 0.2202678 -0.10595837
0000f0 ad 2d 04 3e b5 d6 cb 3d ec 81 d1 3d 19 65 6e 3e
       0.12908049 0.099530615 0.10229859 0.23280753
000100 80 77 07 be b1 fc 0a bd e9 7a 53 3a 6a 03 51 3e
       -0.1322918 -0.03393239 0.0008067326 0.20411459
000110 83 fc 1b 3e dc a6 88 3d c0 f8 70 bc 21 da 15 3e
       0.15233044 0.06672451 -0.014707744 0.14633991
000120 1d 53 91 bd 09 ef 4f 3e 5a e5 2c be c2 ee d5 3d
       -0.07095931 0.20306028 -0.16884366 0.1044593
000130 40 b8 73 be 70 7f c3 bc 54 30 a2 bd 24 1b d8 3d
       -0.23800755 -0.023864478 -0.07919374 0.10552052
000140 b9 16 66 be 99 9b 58 3e 52 4c 0f be 16 50 52 bd
       -0.22469606 0.21153106 -0.13993958 -0.051345907
000150 62 c6 f6 3d 8f 12 2f 3e 0d 51 cd 3c 8b 7e 13 be
       0.12049557 0.17096923 0.025063062 -0.14403741
000160 17 10 15 3e 92 8e 0e 3e e6 ad 66 be a3 76 4d be
       0.14556919 0.13921574 -0.22527274 -0.20064788
000170 86 6d 9e bd c3 59 9e 3d e5 58 c5 3d 08 c0 0e be
       -0.07735734 0.077319644 0.09636096 -0.13940442
000180 7f c9 02 bd dc bd 86 be 1b 43 f1 bc 6b 6e f9 3c
       -0.031930443 -0.26316726 -0.029450944 0.03044816
000190 40 f0 2c 3e 96 3f 70 bc be 6a 12 3c 13 97 5d 3e
       0.16888523 -0.014663598 0.008936582 0.21639661
0001a0 78 62 58 bd f5 87 5a 3c 65 fa e0 bd eb d5 60 3e
       -0.052828282 0.013338079 -0.10985259 0.21956603
0001b0 d8 7e af bd 55 14 38 bd e9 7c fe 3d 4a 65 6c 3b
       -0.085691154 -0.044941265 0.124261685 0.0036071115
0001c0 cb 48 b9 bc 7f 35 0b 3e e4 b7 89 bd e9 c9 42 3d
       -0.022617718 0.13594626 -0.067245275 0.047555838
0001d0 d8 a8 1c 3e 77 cc 4c be 09 77 94 3d fc a8 9d bd
       0.15298784 -0.19999872 0.07249267 -0.07698247
0001e0 70 2b 78 bd 98 e2 66 3e 35 6a 95 bd e2 e3 02 be
       -0.0605883 0.22547376 -0.07295648 -0.12782243
0001f0 77 16 bc 3d 91 dd e6 3c 4c 85 f8 3d d7 ae db bd
       0.09183972 0.028181823 0.12134799 -0.107267074
000200 00 a2 e7 3a 85 5d 34 3e 08 ca 1d 3e 77 ab 4e be
       0.0017672181 0.176138 0.154091 -0.20182596
000210 67 14 c7 bd ec 97 03 be 20 15 2d 3e ae d9 e5 bd
       -0.09720688 -0.12850922 0.1690259 -0.1122316
000220 62 34 4a 3d 61 10 a8 3d b2 e4 58 bc 5f 8b 11 be
       0.049366362 0.08206249 -0.013238119 -0.14213322
000230 7b e0 d6 3d 95 05 13 be 7e c3 3b 3d ce 37 69 be
       0.10492035 -0.14357598 0.045840733 -0.22775194
000240 bd 0b 03 be 1b b0 d5 3d ab ba 36 be 1d 92 ff 3d
       -0.12797447 0.1043398 -0.17844646 0.12479041
000250 d6 d2 26 bd da 66 31 3d 47 a7 87 be 5c 6d 72 3d
       -0.040728413 0.043310978 -0.2649481 0.059186324
000260 5d a6 f9 bd 32 c9 69 3e 6e 43 83 be 72 23 a7 3d
       -0.121899344 0.22830656 -0.25637382 0.081610575
000270 b1 96 7d 3e ce 4c 1f bd b1 d0 9d bd 2a dd 77 be
       0.24764515 -0.038891606 -0.0770582 -0.24205461
000280 d9 e4 96 3c 0f b8 1a 3e d1 5b 32 3e 8c 27 c5 bd
       0.01841967 0.15109275 0.17417838 -0.096266836
000290 10 fe 82 be f6 8e 1c 3d 88 91 9f 3d 0f 51 ad 3d
       -0.2558446 0.038222276 0.0779143 0.08462726
0002a0 cb c8 80 bb 59 e9 9e bd dd bd e9 3c 64 71 fb bd
       -0.0039301864 -0.07759351 0.028532917 -0.12277487
0002b0 ac db 29 be a6 74 e3 3d 73 0d 2e 3e 24 2e 3b 3e
       -0.16587704 0.11106233 0.16997318 0.1827932
0002c0 5b 5a 22 be 68 f6 81 be e6 78 48 bc 13 74 1d 3e
       -0.1585478 -0.25383306 -0.012235856 0.1537631
0002d0 90 87 8a 3c 50 34 20 be ea 16 9d bd 6b 0a 0a 3d
       0.016910344 -0.15644956 -0.07670386 0.03370134
0002e0 86 12 45 3e f0 9d 2f 3e 85 10 f1 3d 5a c3 63 3e
       0.19245347 0.17150092 0.11770729 0.2224249
0002f0 5d eb 43 be ed 7b 2f be bc 7e 4f be 86 91 f9 bc
       -0.19132753 -0.17137118 -0.20263189 -0.030464899
000300 44 ee 67 be 04 05 05 3e 46 47 1d be 76 5b 50 3e
       -0.22649485 0.12990195 -0.1535922 0.2034739
000310 4a de 6a 3e 10 08 e6 3d 20 fd 54 be 18 f2 0a bd
       0.22936359 0.112320065 -0.20799685 -0.033922285
000320 a4 c7 ac bd f0 3e d6 3d 60 7b c8 3d b8 11 23 be
       -0.08436516 0.10461223 0.09789157 -0.15924728
000330 78 a8 34 bd 18 ea 23 bd e0 ef 9d bc 74 20 ea bd
       -0.044105977 -0.04001817 -0.01927942 -0.11431971
000340 cc 7b d3 bd 80 d4 df bd a8 1b 3b 3e 50 d2 e2 3d
       -0.10326347 -0.10929203 0.18272269 0.1107527
000350 88 13 3e be 64 b2 fb bd 98 c3 f2 bd c4 2c c4 bd
       -0.18562138 -0.12289885 -0.11853713 -0.09578851
000360 54 cc 27 3e 68 51 47 be 06 ff 4f be 78 63 44 3d
       0.16386539 -0.19464648 -0.20312127 0.047946423
000370 4c 27 f6 3d 40 d0 95 bd ee 15 46 be 00 14 ab 3b
       0.12019214 -0.07315111 -0.19344303 0.00522089
000380 7a 05 72 be 94 27 a2 bd 40 62 5a bd 44 a7 a5 3d
       -0.23634902 -0.07917705 -0.053316355 0.08088544
000390 08 be 32 bd 38 29 cb 3d b0 25 b9 bc 20 48 96 bd
       -0.04363826 0.09919971 -0.022600979 -0.073379755
0003a0 4c 2d 87 3d 0a 15 2e be 06 6c 51 3e c2 0a 25 be
       0.066004366 -0.17000213 0.20451364 -0.16117385
0003b0 0a 96 3c be 10 47 cd 3d c8 08 69 be e6 f2 20 be
       -0.1841661 0.1002332 -0.22757256 -0.15717658
0003c0 0a 93 7d be 52 26 62 be 00 dc d0 39 64 b7 c0 3d
       -0.24763122 -0.2208493 0.00039836764 0.09409979
0003d0 7c 11 01 3e 98 f4 0b 3d d0 28 90 bd 9e db 48 be
       0.12604326 0.03416881 -0.07039034 -0.19615027
0003e0 28 ed 6e 3d 00 78 fa bb 6e de 7f 3e 54 ca 00 3e
       0.05833164 -0.0076436996 0.24987194 0.12577182
0003f0 e6 a1 03 3e a0 69 59 3e 22 3b 01 be b0 08 f6 bd
       0.12854728 0.21231699 -0.12620214 -0.12013376

feature_network.3.bias f4 [32]
000000 93 23 26 bc 65 12 30 bc 8f e4 9a bc 00 00 00 00
       -0.0101403175 -0.010746573 -0.018907813 0.0
000010 9f d2 7a bc 59 6f 61 bc 13 9d 67 3c 64 28 49 3b
       -0.015309005 -0.0137594575 0.0141365705 0.003069424
000020 cc c9 46 3c ee 95 b1 3c bb 58 46 3c 2a a6 5f bc
       0.012133073 0.021677937 0.012106116 -0.013650456
000030 be 9e 39 bc 6a c7 3d 3c 54 d3 af bc f8 3a 42 3c
       -0.011329351 0.011583189 -0.021463074 0.01185488
000040 04 73 9b bc 9b c4 a0 bb d1 96 0e bc 87 3c 48 3c
       -0.018975742 -0.0049062497 -0.00870295 0.012221462
000050 f7 25 2c 3c 8d c7 39 3c 8b af 07 3c ad 19 92 bb
       0.010507098 0.0113390805 0.008281599 -0.004458627
000060 ec 09 81 bc 84 9c a0 bc d5 b5 5a bb 80 1e 46 bc
       -0.015751801 -0.019605882 -0.003337254 -0.012092233
000070 9d 37 68 3c 7b af fa bb 00 00 00 00 c2 71 4c 3c
       0.0141734155 -0.0076503134 0.0 0.012478294

q_network.0.weight f4 [1, 32]
000000 d4 e9 c9 be 15 c6 a9 3d 1e 2d ae be b7 7f 48 be
       -0.3943621 0.08289734 -0.34018797 -0.1957997
000010 3b b3 7b be 96 52 6b be aa 47 2b 3e d3 c6 93 3e
       -0.2458009 -0.22980723 0.16726556 0.28862628
000020 69 c8 cb 3e 3f 5a 73 3d 37 2c 24 3e 1d bd 37 be
       0.39801338 0.059412237 0.16032492 -0.17943235
000030 6f d0 63 be 35 b9 13 3e 89 61 dd bb 94 19 32 3e
       -0.2224748 0.1442612 -0.006756012 0.1739257
000040 f6 2c bf bb 53 22 c1 be 5f 2b 92 be 4f 5a 21 3e
       -0.005834217 -0.377215 -0.28548715 0.15757106
000050 ae dc 8a 3d d9 48 7e 3e 5b 75 59 3e de 37 07 3e
       0.067803726 0.24832477 0.21236174 0.13204905
000060 06 f3 c3 be 2b be c4 3e 16 b7 0f 3e 68 8f 75 be
       -0.3827135 0.38426337 0.14034685 -0.23980486
000070 15 8a 75 3e 96 f0 89 be 30 31 0d be 7a 0a d0 3e
       0.23978455 -0.26941365 -0.13788295 0.40632993

exp_avg f4 [64, 239]
000000 db 00 00 00 00 00 00 00 00 00 00 00 00 00 00 00
       3.07e-43 0.0 0.0 0.0
000010 00 00 00 00 00 00 00 00 00 00 00 00 00 00 00 00
       0.0 0.0 0.0 0.0
000020 00 00 00 00 00 00 00 00 00 00 00 00 00 00 00 00
       0.0 0.0 0.0 0.0
000030 00 00 00 00 00 00 00 00 00 00 00 00 00 00 00 00
       0.0 0.0 0.0 0.0
000040 00 00 00 00 00 00 00 00 00 00 00 00 00 00 00 00
       0.0 0.0 0.0 0.0
000050 00 00 00 00 00 00 00 00 00 00 00 00 00 00 00 00
       0.0 0.0 0.0 0.0
000060 00 00 00 00 00 00 00 00 00 00 00 00 04 00 00 80
       0.0 0.0 0.0 -6e-45
000070 00 00 00 00 d6 06 00 80 04 00 00 80 00 00 00 00
       0.0 -2.452e-42 -6e-45 0.0
000080 00 00 00 00 00 00 00 00 00 00 00 00 00 00 00 00
       0.0 0.0 0.0 0.0
000090 00 00 00 00 00 00 00 00 00 00 00 00 00 00 00 00
       0.0 0.0 0.0 0.0
0000a0 00 00 00 00 00 00 00 00 00 00 00 00 00 00 00 00
       0.0 0.0 0.0 0.0
0000b0 00 00 00 00 00 00 00 00 00 00 00 00 d6 06 00 80
       0.0 0.0 0.0 -2.452e-42
0000c0 00 00 00 00 00 00 00 00 00 00 00 00 00 00 00 00
       0.0 0.0 0.0 0.0
0000d0 00 00 00 00 00 00 00 00 04 00 00 80 00 00 00 00
       0.0 0.0 -6e-45 0.0
0000e0 00 00 00 00 00 00 00 00 00 00 00 00 00 00 00 00
       0.0 0.0 0.0 0.0
0000f0 00 00 00 00 00 00 00 00 00 00 00 00 00 00 00 00
       0.0 0.0 0.0 0.0
000100 00 00 00 00 00 00 00 00 00 00 00 00 00 00 00 00
       0.0 0.0 0.0 0.0
000110 00 00 00 00 00 00 00 00 00 00 00 00 d6 06 00 00
       0.0 0.0 0.0 2.452e-42
000120 00 00 00 00 00 00 00 00 00 00 00 00 00 00 00 00
       0.0 0.0 0.0 0.0
000130 00 00 00 00 00 00 00 00 00 00 00 00 00 00 00 00
       0.0 0.0 0.0 0.0
000140 00 00 00 00 00 00 00 00 00 00 00 00 00 00 00 00
       0.0 0.0 0.0 0.0
000150 00 00 00 00 00 00 00 00 00 00 00 00 00 00 00 00
       0.0 0.0 0.0 0.0
000160 00 00 00 00 00 00 00 00 00 00 00 00 00 00 00 00
       0.0 0.0 0.0 0.0
000170 04 00 00 80 00 00 00 00 00 00 00 00 00 00 00 00
       -6e-45 0.0 0.0 0.0
000180 00 00 00 00 00 00 00 00 00 00 00 00 00 00 00 00
       0.0 0.0 0.0 0.0
000190 00 00 00 00 00 00 00 00 00 00 00 00 00 00 00 00
       0.0 0.0 0.0 0.0
0001a0 00 00 00 00 00 00 00 00 00 00 00 00 00 00 00 00
       0.0 0.0 0.0 0.0
0001b0 00 00 00 00 00 00 00 00 00 00 00 00 00 00 00 00
       0.0 0.0 0.0 0.0
0001c0 00 00 00 00 00 00 00 00 00 00 00 00 00 00 00 00
       0.0 0.0 0.0 0.0
0001d0 00 00 00 00 00 00 00 00 04 00 00 80 00 00 00 00
       0.0 0.0 -6e-45 0.0
0001e0 00 00 00 00 00 00 00 00 00 00 00 00 00 00 00 00
       0.0 0.0 0.0 0.0
0001f0 00 00 00 00 00 00 00 00 00 00 00 00 00 00 00 00
       0.0 0.0 0.0 0.0
000200 00 00 00 00 00 00 00 00 00 00 00 00 00 00 00 00
       0.0 0.0 0.0 0.0
000210 00 00 00 00 00 00 00 00 00 00 00 00 00 00 00 00
       0.0 0.0 0.0 0.0
000220 00 00 00 00 00 00 00 00 00 00 00 00 00 00 00 00
       0.0 0.0 0.0 0.0
000230 00 00 00 00 00 00 00 00 00 00 00 00 00 00 00 00
       0.0 0.0 0.0 0.0
000240 00 00 00 00 00 00 00 00 00 00 00 00 00 00 00 00
       0.0 0.0 0.0 0.0
000250 00 00 00 00 00 00 00 00 00 00 00 00 00 00 00 00
       0.0 0.0 0.0 0.0
000260 00 00 00 00 00 00 00 00 00 00 00 00 00 00 00 00
       0.0 0.0 0.0 0.0
000270 00 00 00 00 00 00 00 00 00 00 00 00 00 00 00 00
       0.0 0.0 0.0 0.0
000280 00 00 00 00 00 00 00 00 d6 06 00 80 00 00 00 00
       0.0 0.0 -2.452e-42 0.0
000290 00 00 00 00 00 00 00 00 00 00 00 00 00 00 00 00
       0.0 0.0 0.0 0.0
0002a0 00 00 00 00 00 00 00 00 00 00 00 00 00 00 00 00
       0.0 0.0 0.0 0.0
0002b0 00 00 00 00 00 00 00 00 00 00 00 00 00 00 00 00
       0.0 0.0 0.0 0.0
0002c0 00 00 00 00 00 00 00 00 00 00 00 00 00 00 00 00
       0.0 0.0 0.0 0.0
0002d0 00 00 00 00 00 00 00 00 00 00 00 00 00 00 00 00
       0.0 0.0 0.0 0.0
0002e0 00 00 00 00 d6 06 00 80 00 00 00 00 00 00 00 00
       0.0 -2.452e-42 0.0 0.0
0002f0 d6 06 00 80 00 00 00 00 00 00 00 00 00 00 00 00
       -2.452e-42 0.0 0.0 0.0
000300 00 00 00 00 00 00 00 00 00 00 00 00 00 00 00 00
       0.0 0.0 0.0 0.0
000310 00 00 00 00 00 00 00 00 00 00 00 00 00 00 00 00
       0.0 0.0 0.0 0.0
000320 00 00 00 00 07 01 00 00 5f 01 00 00 5f 01 00 00
       0.0 3.69e-43 4.92e-43 4.92e-43
000330 b5 01 00 00 5f 01 00 00 40 0a 00 00 d6 06 00 00
       6.12e-43 4.92e-43 3.677e-42 2.452e-42
000340 1f 09 00 00 78 05 00 00 6b 03 00 00 27 06 00 00
       3.272e-42 1.962e-42 1.226e-42 2.207e-42
000350 d6 06 00 00 d6 06 00 00 27 06 00 00 d6 06 00 00
       2.452e-42 2.452e-42 2.207e-42 2.452e-42
000360 d6 06 00 00 27 06 00 00 d6 06 00 00 d6 06 00 00
       2.452e-42 2.207e-42 2.452e-42 2.452e-42
000370 27 06 00 00 d6 06 00 00 d6 06 00 00 d6 06 00 00
       2.207e-42 2.452e-42 2.452e-42 2.452e-42
000380 d6 06 00 00 21 05 00 00 18 04 00 00 00 00 00 00
       2.452e-42 1.84e-42 1.469e-42 0.0
000390 00 00 00 00 d6 06 00 00 00 00 00 00 00 00 00 00
       0.0 2.452e-42 0.0 0.0
0003a0 0c 02 00 00 00 00 00 00 23 00 00 00 6b 03 00 00
       7.34e-43 0.0 4.9e-44 1.226e-42
0003b0 5f 01 00 00 52 06 00 00 bb 02 00 00 48 b5 ca 37
       4.92e-43 2.267e-42 9.8e-43 2.4164692e-05
0003c0 00 00 00 00 ea c5 cc 35 91 22 8b b7 42 d8 cd b5
       0.0 1.5256785e-06 -1.6586187e-05 -1.533663e-06
0003d0 a3 f4 90 b5 e0 46 4e 33 fd 4c 67 b7 af 5e 82 b6
       -1.0800035e-06 4.8027573e-08 -1.3786598e-05 -3.8853245e-06
0003e0 a2 ae fb b4 d0 55 67 ab 31 67 74 34 65 ef 9c 2c
       -4.6879455e-07 -8.2186775e-13 2.2761812e-07 4.460365e-12
0003f0 2f 0f 4b b4 c5 d6 9d 36 dd 57 5e b4 dc 25 36 b5
       -1.8911372e-07 4.703967e-06 -2.0707326e-07 -6.7855376e-07

exp_avg_sq f4 [64, 239]
000000 80 c4 04 2d 00 00 00 00 00 00 00 00 00 00 00 00
       7.546963e-12 0.0 0.0 0.0
000010 00 00 00 00 00 00 00 00 00 00 00 00 00 00 00 00
       0.0 0.0 0.0 0.0
000020 00 00 00 00 00 00 00 00 00 00 00 00 00 00 00 00
       0.0 0.0 0.0 0.0
000030 00 00 00 00 00 00 00 00 00 00 00 00 00 00 00 00
       0.0 0.0 0.0 0.0
000040 00 00 00 00 00 00 00 00 00 00 00 00 00 00 00 00
       0.0 0.0 0.0 0.0
000050 00 00 00 00 00 00 00 00 00 00 00 00 00 00 00 00
       0.0 0.0 0.0 0.0
000060 00 00 00 00 00 00 00 00 00 00 00 00 79 55 c0 2f
       0.0 0.0 0.0 3.4985329e-10
000070 00 00 00 00 20 2a f4 2f 79 55 c0 2f 00 00 00 00
       0.0 4.4413273e-10 3.4985329e-10 0.0
000080 00 00 00 00 00 00 00 00 00 00 00 00 00 00 00 00
       0.0 0.0 0.0 0.0
000090 00 00 00 00 00 00 00 00 00 00 00 00 00 00 00 00
       0.0 0.0 0.0 0.0
0000a0 00 00 00 00 00 00 00 00 00 00 00 00 00 00 00 00
       0.0 0.0 0.0 0.0
0000b0 00 00 00 00 00 00 00 00 00 00 00 00 20 2a f4 2f
       0.0 0.0 0.0 4.4413273e-10
0000c0 00 00 00 00 00 00 00 00 00 00 00 00 00 00 00 00
       0.0 0.0 0.0 0.0
0000d0 00 00 00 00 00 00 00 00 79 55 c0 2f 00 00 00 00
       0.0 0.0 3.4985329e-10 0.0
0000e0 00 00 00 00 00 00 00 00 00 00 00 00 00 00 00 00
       0.0 0.0 0.0 0.0
0000f0 00 00 00 00 00 00 00 00 00 00 00 00 00 00 00 00
       0.0 0.0 0.0 0.0
000100 00 00 00 00 00 00 00 00 00 00 00 00 00 00 00 00
       0.0 0.0 0.0 0.0
000110 00 00 00 00 00 00 00 00 00 00 00 00 20 2a f4 2f
       0.0 0.0 0.0 4.4413273e-10
000120 00 00 00 00 00 00 00 00 00 00 00 00 00 00 00 00
       0.0 0.0 0.0 0.0
000130 00 00 00 00 00 00 00 00 00 00 00 00 00 00 00 00
       0.0 0.0 0.0 0.0
000140 00 00 00 00 00 00 00 00 00 00 00 00 00 00 00 00
       0.0 0.0 0.0 0.0
000150 00 00 00 00 00 00 00 00 00 00 00 00 00 00 00 00
       0.0 0.0 0.0 0.0
000160 00 00 00 00 00 00 00 00 00 00 00 00 00 00 00 00
       0.0 0.0 0.0 0.0
000170 79 55 c0 2f 00 00 00 00 00 00 00 00 00 00 00 00
       3.4985329e-10 0.0 0.0 0.0
000180 00 00 00 00 00 00 00 00 00 00 00 00 00 00 00 00
       0.0 0.0 0.0 0.0
000190 00 00 00 00 00 00 00 00 00 00 00 00 00 00 00 00
       0.0 0.0 0.0 0.0
0001a0 00 00 00 00 00 00 00 00 00 00 00 00 00 00 00 00
       0.0 0.0 0.0 0.0
0001b0 00 00 00 00 00 00 00 00 00 00 00 00 00 00 00 00
       0.0 0.0 0.0 0.0
0001c0 00 00 00 00 00 00 00 00 00 00 00 00 00 00 00 00
       0.0 0.0 0.0 0.0
0001d0 00 00 00 00 00 00 00 00 79 55 c0 2f 00 00 00 00
       0.0 0.0 3.4985329e-10 0.0
0001e0 00 00 00 00 00 00 00 00 00 00 00 00 00 00 00 00
       0.0 0.0 0.0 0.0
0001f0 00 00 00 00 00 00 00 00 00 00 00 00 00 00 00 00
       0.0 0.0 0.0 0.0
000200 00 00 00 00 00 00 00 00 00 00 00 00 00 00 00 00
       0.0 0.0 0.0 0.0
000210 00 00 00 00 00 00 00 00 00 00 00 00 00 00 00 00
       0.0 0.0 0.0 0.0
000220 00 00 00 00 00 00 00 00 00 00 00 00 00 00 00 00
       0.0 0.0 0.0 0.0
000230 00 00 00 00 00 00 00 00 00 00 00 00 00 00 00 00
       0.0 0.0 0.0 0.0
000240 00 00 00 00 00 00 00 00 00 00 00 00 00 00 00 00
       0.0 0.0 0.0 0.0
000250 00 00 00 00 00 00 00 00 00 00 00 00 00 00 00 00
       0.0 0.0 0.0 0.0
000260 00 00 00 00 00 00 00 00 00 00 00 00 00 00 00 00
       0.0 0.0 0.0 0.0
000270 00 00 00 00 00 00 00 00 00 00 00 00 00 00 00 00
       0.0 0.0 0.0 0.0
000280 00 00 00 00 00 00 00 00 20 2a f4 2f 00 00 00 00
       0.0 0.0 4.4413273e-10 0.0
000290 00 00 00 00 00 00 00 00 00 00 00 00 00 00 00 00
       0.0 0.0 0.0 0.0
0002a0 00 00 00 00 00 00 00 00 00 00 00 00 00 00 00 00
       0.0 0.0 0.0 0.0
0002b0 00 00 00 00 00 00 00 00 00 00 00 00 00 00 00 00
       0.0 0.0 0.0 0.0
0002c0 00 00 00 00 00 00 00 00 00 00 00 00 00 00 00 00
       0.0 0.0 0.0 0.0
0002d0 00 00 00 00 00 00 00 00 00 00 00 00 00 00 00 00
       0.0 0.0 0.0 0.0
0002e0 00 00 00 00 20 2a f4 2f 00 00 00 00 00 00 00 00
       0.0 4.4413273e-10 0.0 0.0
0002f0 20 2a f4 2f 00 00 00 00 00 00 00 00 00 00 00 00
       4.4413273e-10 0.0 0.0 0.0
000300 00 00 00 00 00 00 00 00 00 00 00 00 00 00 00 00
       0.0 0.0 0.0 0.0
000310 00 00 00 00 00 00 00 00 00 00 00 00 00 00 00 00
       0.0 0.0 0.0 0.0
000320 00 00 00 00 d7 1d 0c 2e b1 4c 2e 2e b1 4c 2e 2e
       0.0 3.1858818e-11 3.9631135e-11 3.9631135e-11
000330 e3 3f 5a 2e b1 4c 2e 2e 0f 6d b9 30 c6 d2 24 30
       4.9624204e-11 3.9631135e-11 1.3491518e-09 5.996238e-10
000340 ee 99 9c 30 b1 4c 2e 30 0a 60 fd 2f c3 0d 43 30
       1.1394243e-09 6.3409816e-10 4.6088672e-10 7.0960143e-10
000350 e3 3f 5a 30 e3 3f 5a 30 c3 0d 43 30 e3 3f 5a 30
       7.9398726e-10 7.9398726e-10 7.0960143e-10 7.9398726e-10
000360 e3 3f 5a 30 c3 0d 43 30 e3 3f 5a 30 e3 3f 5a 30
       7.9398726e-10 7.0960143e-10 7.9398726e-10 7.9398726e-10
000370 c3 0d 43 30 e3 3f 5a 30 e3 3f 5a 30 e3 3f 5a 30
       7.0960143e-10 7.9398726e-10 7.9398726e-10 7.9398726e-10
000380 e3 3f 5a 30 a3 d6 24 30 ba 23 9d 2f 00 00 00 00
       7.9398726e-10 5.996787e-10 2.858352e-10 0.0
000390 00 00 00 00 e3 3f 5a 30 00 00 00 00 00 00 00 00
       0.0 7.9398726e-10 0.0 0.0
0003a0 ba 23 9d 2e 00 00 00 00 24 05 48 2a e3 3f 5a 2f
       7.14588e-11 0.0 1.7765352e-13 1.9849682e-10
0003b0 f3 43 9c 2d 10 ff d8 2f 04 ae 0b 2f 1d ba a1 34
       1.7765322e-11 3.9471404e-10 1.2703799e-10 3.0124002e-07
0003c0 00 00 00 00 a4 46 d0 32 5e 07 b7 32 ad 71 30 33
       0.0 2.424651e-08 2.1307354e-08 4.108158e-08
0003d0 e3 bf 12 32 8c 1f 4f 32 2b 99 e6 32 1f e9 3c 33
       8.5419485e-09 1.2056159e-08 2.6845177e-08 4.3984183e-08
0003e0 91 43 a3 31 4d 55 10 32 03 03 13 32 3b 33 e2 31
       4.7516058e-09 8.401298e-09 8.557211e-09 6.58329e-09
0003f0 af a1 dd 31 19 70 92 33 00 60 9b 32 ac 73 cc 32
       6.450328e-09 6.819045e-08 1.808803e-08 2.3801327e-08

exp_avg f4 [64]
000000 d6 06 00 00 c0 9f 66 38 ca 79 91 37 0a e7 8f 38
       2.452e-42 5.4985052e-05 1.734206e-05 6.861806e-05
000010 1b d4 43 b8 9a 3c bc 36 00 00 00 00 94 fa 07 39
       -4.668916e-05 5.6098916e-06 0.0 0.00012967951
000020 3a 5d 89 b8 ae cb 65 37 d2 ff 29 b8 68 4a 80 38
       -6.550034e-05 1.36968865e-05 -4.053099e-05 6.117375e-05
000030 c0 ce 0f 2c bb 91 b8 38 a9 00 b0 32 74 72 aa 38
       2.0436292e-12 8.800948e-05 2.0489397e-08 8.12755e-05
000040 78 f9 10 39 13 00 be 37 86 7e 3a 38 96 de 92 37
       0.00013825845 2.26498e-05 4.446369e-05 1.7508206e-05
000050 57 f2 ae 37 02 c2 b5 b8 8e 70 95 b8 04 28 64 b7
       2.0855265e-05 -8.666889e-05 -7.1258386e-05 -1.3599176e-05
000060 ec 2f b0 38 9f e8 00 00 fb 88 5c b6 ed 4d 1b 39
       8.40126e-05 8.3449e-41 -3.2862288e-06 0.00014810982
000070 72 bf 8b b7 27 81 0b 39 ab 63 b8 b8 05 fc 08 39
       -1.665924e-05 0.00013304186 -8.792368e-05 0.00013063855
000080 25 ce 1e 38 ad 1d d7 b7 51 a6 a0 b8 8c b9 02 b8
       3.7862123e-05 -2.5643816e-05 -7.6603734e-05 -3.116722e-05
000090 98 81 38 39 21 60 18 38 d5 c2 67 2b 69 22 0f b8
       0.00017595885 3.632915e-05 8.233807e-13 -3.4125904e-05
0000a0 f4 9b 99 b6 41 59 de b7 4f f3 8e 38 53 80 8f b7
       -4.5779107e-06 -2.6506024e-05 6.8164074e-05 -1.7106684e-05
0000b0 7f 25 c5 b8 07 06 85 37 0e 2b f7 b7 04 00 00 00
       -9.400676e-05 1.5857642e-05 -2.9464743e-05 6e-45
0000c0 9a 19 f2 b3 b1 bd 02 36 03 25 59 37 7a 76 06 b9
       -1.127366e-07 1.9481924e-06 1.2942825e-05 -0.00012823372
0000d0 b1 a0 18 b8 f3 69 e8 38 39 4e a6 b8 7c d9 2d 39
       -3.638928e-05 0.00011082357 -7.930067e-05 0.00016579585
0000e0 0f 78 8e 38 04 00 00 00 67 70 93 36 04 00 00 00
       6.79345e-05 6e-45 4.3940267e-06 6e-45
0000f0 c9 20 10 39 64 f3 fd 36 60 e5 eb 35 c6 ba 11 39
       0.00013745124 7.568322e-06 1.7575621e-06 0.00013897856

exp_avg_sq f4 [64]
000000 e3 3f 5a 30 a5 f4 c3 35 62 7b 87 34 1b e3 d4 35
       7.9398726e-10 1.4599833e-06 2.5235482e-07 1.5861327e-06
000010 e6 03 2d 36 27 6b b2 35 00 00 00 00 5f aa ce 35
       2.5781278e-06 1.3293219e-06 0.0 1.539778e-06
000020 fe 53 c0 35 f8 aa 23 35 9b ee 2c 34 df c3 b2 36
       1.432956e-06 6.0971024e-07 1.6105552e-07 5.327616e-06
000030 d5 f5 ed 33 81 27 1b 36 fa c9 1f 32 70 26 3e 36
       1.1080889e-07 2.3119794e-06 9.300942e-09 2.833458e-06
000040 8a 06 c7 35 ee ea f8 35 10 93 71 37 8f 32 dd 34
       1.4828559e-06 1.8545813e-06 1.439896e-05 4.1201244e-07
000050 dd 06 71 36 cf e4 52 34 2b 3f 52 36 a0 73 ed 34
       3.5915793e-06 1.9641014e-07 3.1329207e-06 4.4228818e-07
000060 d3 f7 0d 35 73 11 12 2e 35 2f 30 33 c9 1c ab 36
       5.2887225e-07 3.3212055e-11 4.1021128e-08 5.099548e-06
000070 23 b3 42 34 c7 58 39 35 2a 7b d0 35 49 ab 9a 35
       1.8132828e-07 6.904706e-07 1.5533053e-06 1.1523745e-06
000080 89 0d 3f 36 ac 12 57 35 4a 95 4b 37 7b b2 1f 36
       2.8469096e-06 8.012091e-07 1.2134502e-05 2.3796736e-06
000090 33 0d 8c 36 4e 9a 1a 36 9e 32 1e 33 8f 3b 21 34
       4.1738617e-06 2.3037605e-06 3.6833278e-08 1.5015961e-07
0000a0 05 e4 57 34 d0 c2 95 34 05 0a e2 34 c9 a7 b9 34
       2.0106388e-07 2.7895157e-07 4.210307e-07 3.4581015e-07
0000b0 39 b8 24 38 9a a6 58 34 52 1d 0e 35 e0 61 17 31
       3.9272218e-05 2.0177177e-07 5.294179e-07 2.2029027e-09
0000c0 60 85 c7 33 24 69 e5 34 e5 e5 33 33 b6 04 d8 35
       9.2909204e-08 4.2731074e-07 4.1885773e-08 1.6094625e-06
0000d0 81 ae 5f 32 a8 f0 c3 37 a9 45 a5 36 92 fa 57 35
       1.3019986e-08 2.3357876e-05 4.9254927e-06 8.045837e-07
0000e0 31 d3 97 34 87 b4 38 2c 61 1c 80 35 a6 9f 10 30
       2.8279604e-07 2.6248185e-12 9.545003e-07 5.261377e-10
0000f0 77 36 c2 35 bf e3 aa 36 fa dc 2d 34 33 30 ab 37
       1.4469978e-06 5.092908e-06 1.6192271e-07 2.0407233e-05
